…
  layer {
    name: "mnist"
    type: "Data"
    top: "data"
    top: "label"
    include {
      phase: TRAIN
    }
    transform_param {
      scale: 0.00390625
    }
    data_param {
      source: "data/mnist_train_lmdb"
      batch_size: 100
      backend: LMDB
    }
  }
  layer {
    name: "mnist"
    type: "Data"
    top: "data"
    top: "label"
    include {
      phase: TEST
    }
    transform_param {
      scale: 0.00390625
    }
    data_param {
      source: "data/mnist_test_lmdb"
      batch_size: 100
      backend: LMDB
    }
  }
  layer {
    name: "ip1"
    type: "InnerProduct"
    bottom: "data"
    top: "ip1"
    inner_product_param {
      num_output: 1000
      weight_filler {
        type: "gaussian"
        mean: 0
        std: 0.01
      }
    }
    bias_param {
      filler {
        value: 0
      }
    }
    fixed_precision: true
    precision {
      enter: 2
      fraccio: 14
      rounding: "withProb"
      prob: 0.5
    }
  }
  layer {
    name: "relu1"
    type: "ReLU"
    bottom: "ip1"
    top: "ip1"
    fixed_precision: true
    precision {
      enter: 2
      fraccio: 14
      rounding: "withProb"
      prob: 0.5
    }
  }
  layer {
    name: "ip2"
    type: "InnerProduct"
    bottom: "ip1"
    top: "ip2"
    inner_product_param {
      num_output: 1000
      weight_filler {
        type: "gaussian"
        mean: 0
        std: 0.01
      }
    }
    bias_param {
      filler {
        value: 0
      }
    }
    fixed_precision: true
    precision {
      enter: 2
      fraccio: 14
      rounding: "withProb"
      prob: 0.5
    }
  }
  layer {
    name: "relu2"
    type: "ReLU"
    bottom: "ip2"
    top: "ip2"
    bias_param {
      filler {
        value: 0
      }
    }
    fixed_precision: true
    precision {
      enter: 2
      fraccio: 14
      rounding: "withProb"
      prob: 0.5
    }
  }
  layer {
    name: "ip3"
    type: "InnerProduct"
    bottom: "ip2"
    top: "ip3"
    inner_product_param {
      num_output: 10
      weight_filler {
        type: "gaussian"
        mean: 0
        std: 0.01
      }
    }
    bias_param {
      filler {
        value: 0
      }
    }
    fixed_precision: true
    precision {
      enter: 2
      fraccio: 14
      rounding: "withProb"
      prob: 0.5
    }
  }
  layer {
    name: "accuracy"
    type: "Accuracy"
    bottom: "ip3"
    bottom: "label"
    top: "accuracy"
  }
  layer {
    name: "loss"
    type: "SoftmaxWithLoss"
    bottom: "ip3"
    bottom: "label"
    top: "loss"
    fixed_precision: true
    precision {
      enter: 2
      fraccio: 14
      rounding: "withProb"
      prob: 0.5
    }
  }
}
train_state {
  level: 0
  stage: ""
}
fixed_precision: true
precision {
  enter: 2
  fraccio: 14
  rounding: "withProb"
  prob: 0.5
}
I0502 17:21:59.983270 22097 solver.cpp:82] Creating training net specified in net_param.
I0502 17:21:59.983389 22097 net.cpp:294] The NetState phase (0) differed from the phase (1) specified by a rule in layer mnist
I0502 17:21:59.983567 22097 net.cpp:51] Initializing net from parameters: 
name: "LeNet"
state {
  phase: TRAIN
  level: 0
  stage: ""
}
layer {
  name: "mnist"
  type: "Data"
  top: "data"
  top: "label"
  include {
    phase: TRAIN
  }
  transform_param {
    scale: 0.00390625
  }
  data_param {
    source: "data/mnist_train_lmdb"
    batch_size: 100
    backend: LMDB
  }
}
layer {
  name: "ip1"
  type: "InnerProduct"
  bottom: "data"
  top: "ip1"
  inner_product_param {
    num_output: 1000
    weight_filler {
      type: "gaussian"
      mean: 0
      std: 0.01
    }
  }
  bias_param {
    filler {
      value: 0
    }
  }
  fixed_precision: true
  precision {
    enter: 2
    fraccio: 14
    rounding: "withProb"
    prob: 0.5
  }
}
layer {
  name: "relu1"
  type: "ReLU"
  bottom: "ip1"
  top: "ip1"
  fixed_precision: true
  precision {
    enter: 2
    fraccio: 14
    rounding: "withProb"
    prob: 0.5
  }
}
layer {
  name: "ip2"
  type: "InnerProduct"
  bottom: "ip1"
  top: "ip2"
  inner_product_param {
    num_output: 1000
    weight_filler {
      type: "gaussian"
      mean: 0
      std: 0.01
    }
  }
  bias_param {
    filler {
      value: 0
    }
  }
  fixed_precision: true
  precision {
    enter: 2
    fraccio: 14
    rounding: "withProb"
    prob: 0.5
  }
}
layer {
  name: "relu2"
  type: "ReLU"
  bottom: "ip2"
  top: "ip2"
  bias_param {
    filler {
      value: 0
    }
  }
  fixed_precision: true
  precision {
    enter: 2
    fraccio: 14
    rounding: "withProb"
    prob: 0.5
  }
}
layer {
  name: "ip3"
  type: "InnerProduct"
  bottom: "ip2"
  top: "ip3"
  inner_product_param {
    num_output: 10
    weight_filler {
      type: "gaussian"
      mean: 0
      std: 0.01
    }
  }
  bias_param {
    filler {
      value: 0
    }
  }
  fixed_precision: true
  precision {
    enter: 2
    fraccio: 14
    rounding: "withProb"
    prob: 0.5
  }
}
layer {
  name: "accuracy"
  type: "Accuracy"
  bottom: "ip3"
  bottom: "label"
  top: "accuracy"
}
layer {
  name: "loss"
  type: "SoftmaxWithLoss"
  bottom: "ip3"
  bottom: "label"
  top: "loss"
  fixed_precision: true
  precision {
    enter: 2
    fraccio: 14
    rounding: "withProb"
    prob: 0.5
  }
}
I0502 17:21:59.984083 22097 layer_factory.hpp:77] Creating layer mnist
I0502 17:21:59.984980 22097 db_lmdb.cpp:35] Opened lmdb data/mnist_train_lmdb
I0502 17:21:59.986058 22097 net.cpp:84] Creating Layer mnist
I0502 17:21:59.986112 22097 net.cpp:380] mnist -> data
I0502 17:21:59.986201 22097 net.cpp:380] mnist -> label
I0502 17:21:59.986351 22097 data_layer.cpp:45] output data size: 100,1,28,28
I0502 17:21:59.988112 22097 net.cpp:122] Setting up mnist
I0502 17:21:59.988173 22097 net.cpp:129] Top shape: 100 1 28 28 (78400)
I0502 17:21:59.988199 22097 net.cpp:129] Top shape: 100 (100)
I0502 17:21:59.988211 22097 net.cpp:137] Memory required for data: 628000
I0502 17:21:59.988229 22097 layer_factory.hpp:77] Creating layer label_mnist_1_split
I0502 17:21:59.988260 22097 net.cpp:84] Creating Layer label_mnist_1_split
I0502 17:21:59.988277 22097 net.cpp:406] label_mnist_1_split <- label
I0502 17:21:59.988298 22097 net.cpp:380] label_mnist_1_split -> label_mnist_1_split_0
I0502 17:21:59.988317 22097 net.cpp:380] label_mnist_1_split -> label_mnist_1_split_1
I0502 17:21:59.988335 22097 net.cpp:122] Setting up label_mnist_1_split
I0502 17:21:59.988350 22097 net.cpp:129] Top shape: 100 (100)
I0502 17:21:59.988363 22097 net.cpp:129] Top shape: 100 (100)
I0502 17:21:59.988373 22097 net.cpp:137] Memory required for data: 629600
I0502 17:21:59.988384 22097 layer_factory.hpp:77] Creating layer ip1
I0502 17:21:59.988416 22097 net.cpp:84] Creating Layer ip1
I0502 17:21:59.988432 22097 net.cpp:406] ip1 <- data
I0502 17:21:59.988447 22097 net.cpp:380] ip1 -> ip1
I0502 17:22:00.039854 22097 net.cpp:122] Setting up ip1
I0502 17:22:00.039916 22097 net.cpp:129] Top shape: 100 1000 (100000)
I0502 17:22:00.039928 22097 net.cpp:137] Memory required for data: 1429600
I0502 17:22:00.039973 22097 layer_factory.hpp:77] Creating layer relu1
I0502 17:22:00.040026 22097 net.cpp:84] Creating Layer relu1
I0502 17:22:00.040043 22097 net.cpp:406] relu1 <- ip1
I0502 17:22:00.040060 22097 net.cpp:367] relu1 -> ip1 (in-place)
I0502 17:22:00.040081 22097 net.cpp:122] Setting up relu1
I0502 17:22:00.040096 22097 net.cpp:129] Top shape: 100 1000 (100000)
I0502 17:22:00.040105 22097 net.cpp:137] Memory required for data: 2229600
I0502 17:22:00.040115 22097 layer_factory.hpp:77] Creating layer ip2
I0502 17:22:00.040136 22097 net.cpp:84] Creating Layer ip2
I0502 17:22:00.040148 22097 net.cpp:406] ip2 <- ip1
I0502 17:22:00.040163 22097 net.cpp:380] ip2 -> ip2
I0502 17:22:00.101742 22097 net.cpp:122] Setting up ip2
I0502 17:22:00.101820 22097 net.cpp:129] Top shape: 100 1000 (100000)
I0502 17:22:00.101831 22097 net.cpp:137] Memory required for data: 3029600
I0502 17:22:00.101856 22097 layer_factory.hpp:77] Creating layer relu2
I0502 17:22:00.101882 22097 net.cpp:84] Creating Layer relu2
I0502 17:22:00.101936 22097 net.cpp:406] relu2 <- ip2
I0502 17:22:00.101954 22097 net.cpp:367] relu2 -> ip2 (in-place)
I0502 17:22:00.101976 22097 net.cpp:122] Setting up relu2
I0502 17:22:00.101990 22097 net.cpp:129] Top shape: 100 1000 (100000)
I0502 17:22:00.102000 22097 net.cpp:137] Memory required for data: 3829600
I0502 17:22:00.102010 22097 layer_factory.hpp:77] Creating layer ip3
I0502 17:22:00.102027 22097 net.cpp:84] Creating Layer ip3
I0502 17:22:00.102039 22097 net.cpp:406] ip3 <- ip2
I0502 17:22:00.102054 22097 net.cpp:380] ip3 -> ip3
I0502 17:22:00.102728 22097 net.cpp:122] Setting up ip3
I0502 17:22:00.102751 22097 net.cpp:129] Top shape: 100 10 (1000)
I0502 17:22:00.102762 22097 net.cpp:137] Memory required for data: 3837600
I0502 17:22:00.102780 22097 layer_factory.hpp:77] Creating layer ip3_ip3_0_split
I0502 17:22:00.102797 22097 net.cpp:84] Creating Layer ip3_ip3_0_split
I0502 17:22:00.102807 22097 net.cpp:406] ip3_ip3_0_split <- ip3
I0502 17:22:00.102821 22097 net.cpp:380] ip3_ip3_0_split -> ip3_ip3_0_split_0
I0502 17:22:00.102838 22097 net.cpp:380] ip3_ip3_0_split -> ip3_ip3_0_split_1
I0502 17:22:00.102856 22097 net.cpp:122] Setting up ip3_ip3_0_split
I0502 17:22:00.102870 22097 net.cpp:129] Top shape: 100 10 (1000)
I0502 17:22:00.102882 22097 net.cpp:129] Top shape: 100 10 (1000)
I0502 17:22:00.102892 22097 net.cpp:137] Memory required for data: 3853600
I0502 17:22:00.102903 22097 layer_factory.hpp:77] Creating layer accuracy
I0502 17:22:00.102963 22097 net.cpp:84] Creating Layer accuracy
I0502 17:22:00.102979 22097 net.cpp:406] accuracy <- ip3_ip3_0_split_0
I0502 17:22:00.102993 22097 net.cpp:406] accuracy <- label_mnist_1_split_0
I0502 17:22:00.103005 22097 net.cpp:380] accuracy -> accuracy
…
