…
  layer {
    name: "mnist"
    type: "Data"
    top: "data"
    top: "label"
    include {
      phase: TRAIN
    }
    transform_param {
      scale: 0.00390625
    }
    data_param {
      source: "data/mnist_train_lmdb"
      batch_size: 100
      backend: LMDB
    }
  }
  layer {
    name: "mnist"
    type: "Data"
    top: "data"
    top: "label"
    include {
      phase: TEST
    }
    transform_param {
      scale: 0.00390625
    }
    data_param {
      source: "data/mnist_test_lmdb"
      batch_size: 100
      backend: LMDB
    }
  }
  layer {
    name: "ip1"
    type: "InnerProduct"
    bottom: "data"
    top: "ip1"
    inner_product_param {
      num_output: 1000
      weight_filler {
        type: "gaussian"
        mean: 0
        std: 0.01
      }
    }
    bias_param {
      filler {
        value: 0
      }
    }
    fixed_precision: true
    precision {
      enter: 2
      fraccio: 14
      rounding: "withProb"
      prob: 0.5
    }
  }
  layer {
    name: "relu1"
    type: "ReLU"
    bottom: "ip1"
    top: "ip1"
    fixed_precision: true
    precision {
      enter: 2
      fraccio: 14
      rounding: "withProb"
      prob: 0.5
    }
  }
  layer {
    name: "ip2"
    type: "InnerProduct"
    bottom: "ip1"
    top: "ip2"
    inner_product_param {
      num_output: 1000
      weight_filler {
        type: "gaussian"
        mean: 0
        std: 0.01
      }
    }
    bias_param {
      filler {
        value: 0
      }
    }
    fixed_precision: true
    precision {
      enter: 2
      fraccio: 14
      rounding: "withProb"
      prob: 0.5
    }
  }
  layer {
    name: "relu2"
    type: "ReLU"
    bottom: "ip2"
    top: "ip2"
    bias_param {
      filler {
        value: 0
      }
    }
    fixed_precision: true
    precision {
      enter: 2
      fraccio: 14
      rounding: "withProb"
      prob: 0.5
    }
  }
  layer {
    name: "ip3"
    type: "InnerProduct"
    bottom: "ip2"
    top: "ip3"
    inner_product_param {
      num_output: 10
      weight_filler {
        type: "gaussian"
        mean: 0
        std: 0.01
      }
    }
    bias_param {
      filler {
        value: 0
      }
    }
    fixed_precision: true
    precision {
      enter: 2
      fraccio: 14
      rounding: "withProb"
      prob: 0.5
    }
  }
  layer {
    name: "accuracy"
    type: "Accuracy"
    bottom: "ip3"
    bottom: "label"
    top: "accuracy"
  }
  layer {
    name: "loss"
    type: "SoftmaxWithLoss"
    bottom: "ip3"
    bottom: "label"
    top: "loss"
    fixed_precision: true
    precision {
      enter: 2
      fraccio: 14
      rounding: "withProb"
      prob: 0.5
    }
  }
}
train_state {
  level: 0
  stage: ""
}
fixed_precision: true
precision {
  enter: 2
  fraccio: 14
  rounding: "withProb"
  prob: 0.5
}
I0502 17:22:19.026823 22158 solver.cpp:82] Creating training net specified in net_param.
I0502 17:22:19.026890 22158 net.cpp:294] The NetState phase (0) differed from the phase (1) specified by a rule in layer mnist
I0502 17:22:19.027029 22158 net.cpp:51] Initializing net from parameters: 
name: "LeNet"
state {
  phase: TRAIN
  level: 0
  stage: ""
}
layer {
  name: "mnist"
  type: "Data"
  top: "data"
  top: "label"
  include {
    phase: TRAIN
  }
  transform_param {
    scale: 0.00390625
  }
  data_param {
    source: "data/mnist_train_lmdb"
    batch_size: 100
    backend: LMDB
  }
}
layer {
  name: "ip1"
  type: "InnerProduct"
  bottom: "data"
  top: "ip1"
  inner_product_param {
    num_output: 1000
    weight_filler {
      type: "gaussian"
      mean: 0
      std: 0.01
    }
  }
  bias_param {
    filler {
      value: 0
    }
  }
  fixed_precision: true
  precision {
    enter: 2
    fraccio: 14
    rounding: "withProb"
    prob: 0.5
  }
}
layer {
  name: "relu1"
  type: "ReLU"
  bottom: "ip1"
  top: "ip1"
  fixed_precision: true
  precision {
    enter: 2
    fraccio: 14
    rounding: "withProb"
    prob: 0.5
  }
}
layer {
  name: "ip2"
  type: "InnerProduct"
  bottom: "ip1"
  top: "ip2"
  inner_product_param {
    num_output: 1000
    weight_filler {
      type: "gaussian"
      mean: 0
      std: 0.01
    }
  }
  bias_param {
    filler {
      value: 0
    }
  }
  fixed_precision: true
  precision {
    enter: 2
    fraccio: 14
    rounding: "withProb"
    prob: 0.5
  }
}
layer {
  name: "relu2"
  type: "ReLU"
  bottom: "ip2"
  top: "ip2"
  bias_param {
    filler {
      value: 0
    }
  }
  fixed_precision: true
  precision {
    enter: 2
    fraccio: 14
    rounding: "withProb"
    prob: 0.5
  }
}
layer {
  name: "ip3"
  type: "InnerProduct"
  bottom: "ip2"
  top: "ip3"
  inner_product_param {
    num_output: 10
    weight_filler {
      type: "gaussian"
      mean: 0
      std: 0.01
    }
  }
  bias_param {
    filler {
      value: 0
    }
  }
  fixed_precision: true
  precision {
    enter: 2
    fraccio: 14
    rounding: "withProb"
    prob: 0.5
  }
}
layer {
  name: "accuracy"
  type: "Accuracy"
  bottom: "ip3"
  bottom: "label"
  top: "accuracy"
}
layer {
  name: "loss"
  type: "SoftmaxWithLoss"
  bottom: "ip3"
  bottom: "label"
  top: "loss"
  fixed_precision: true
  precision {
    enter: 2
    fraccio: 14
    rounding: "withProb"
    prob: 0.5
  }
}
I0502 17:22:19.027621 22158 layer_factory.hpp:77] Creating layer mnist
I0502 17:22:19.027830 22158 db_lmdb.cpp:35] Opened lmdb data/mnist_train_lmdb
I0502 17:22:19.029003 22158 net.cpp:84] Creating Layer mnist
I0502 17:22:19.029042 22158 net.cpp:380] mnist -> data
I0502 17:22:19.029093 22158 net.cpp:380] mnist -> label
I0502 17:22:19.029160 22158 data_layer.cpp:45] output data size: 100,1,28,28
I0502 17:22:19.030872 22158 net.cpp:122] Setting up mnist
I0502 17:22:19.030915 22158 net.cpp:129] Top shape: 100 1 28 28 (78400)
I0502 17:22:19.030931 22158 net.cpp:129] Top shape: 100 (100)
I0502 17:22:19.030942 22158 net.cpp:137] Memory required for data: 628000
I0502 17:22:19.030961 22158 layer_factory.hpp:77] Creating layer label_mnist_1_split
I0502 17:22:19.030982 22158 net.cpp:84] Creating Layer label_mnist_1_split
I0502 17:22:19.030995 22158 net.cpp:406] label_mnist_1_split <- label
I0502 17:22:19.031018 22158 net.cpp:380] label_mnist_1_split -> label_mnist_1_split_0
I0502 17:22:19.031036 22158 net.cpp:380] label_mnist_1_split -> label_mnist_1_split_1
I0502 17:22:19.031055 22158 net.cpp:122] Setting up label_mnist_1_split
I0502 17:22:19.031070 22158 net.cpp:129] Top shape: 100 (100)
I0502 17:22:19.031083 22158 net.cpp:129] Top shape: 100 (100)
I0502 17:22:19.031093 22158 net.cpp:137] Memory required for data: 629600
I0502 17:22:19.031105 22158 layer_factory.hpp:77] Creating layer ip1
I0502 17:22:19.031126 22158 net.cpp:84] Creating Layer ip1
I0502 17:22:19.031138 22158 net.cpp:406] ip1 <- data
I0502 17:22:19.031154 22158 net.cpp:380] ip1 -> ip1
I0502 17:22:19.082633 22158 net.cpp:122] Setting up ip1
I0502 17:22:19.082715 22158 net.cpp:129] Top shape: 100 1000 (100000)
I0502 17:22:19.082727 22158 net.cpp:137] Memory required for data: 1429600
I0502 17:22:19.082758 22158 layer_factory.hpp:77] Creating layer relu1
I0502 17:22:19.082788 22158 net.cpp:84] Creating Layer relu1
I0502 17:22:19.082803 22158 net.cpp:406] relu1 <- ip1
I0502 17:22:19.082819 22158 net.cpp:367] relu1 -> ip1 (in-place)
I0502 17:22:19.082840 22158 net.cpp:122] Setting up relu1
I0502 17:22:19.082854 22158 net.cpp:129] Top shape: 100 1000 (100000)
I0502 17:22:19.082864 22158 net.cpp:137] Memory required for data: 2229600
I0502 17:22:19.082875 22158 layer_factory.hpp:77] Creating layer ip2
I0502 17:22:19.082895 22158 net.cpp:84] Creating Layer ip2
I0502 17:22:19.082906 22158 net.cpp:406] ip2 <- ip1
I0502 17:22:19.082921 22158 net.cpp:380] ip2 -> ip2
I0502 17:22:19.145020 22158 net.cpp:122] Setting up ip2
I0502 17:22:19.145102 22158 net.cpp:129] Top shape: 100 1000 (100000)
I0502 17:22:19.145112 22158 net.cpp:137] Memory required for data: 3029600
I0502 17:22:19.145135 22158 layer_factory.hpp:77] Creating layer relu2
I0502 17:22:19.145161 22158 net.cpp:84] Creating Layer relu2
I0502 17:22:19.145223 22158 net.cpp:406] relu2 <- ip2
I0502 17:22:19.145243 22158 net.cpp:367] relu2 -> ip2 (in-place)
I0502 17:22:19.145265 22158 net.cpp:122] Setting up relu2
I0502 17:22:19.145279 22158 net.cpp:129] Top shape: 100 1000 (100000)
I0502 17:22:19.145289 22158 net.cpp:137] Memory required for data: 3829600
I0502 17:22:19.145300 22158 layer_factory.hpp:77] Creating layer ip3
I0502 17:22:19.145318 22158 net.cpp:84] Creating Layer ip3
I0502 17:22:19.145328 22158 net.cpp:406] ip3 <- ip2
I0502 17:22:19.145344 22158 net.cpp:380] ip3 -> ip3
I0502 17:22:19.146010 22158 net.cpp:122] Setting up ip3
I0502 17:22:19.146034 22158 net.cpp:129] Top shape: 100 10 (1000)
I0502 17:22:19.146044 22158 net.cpp:137] Memory required for data: 3837600
I0502 17:22:19.146062 22158 layer_factory.hpp:77] Creating layer ip3_ip3_0_split
I0502 17:22:19.146080 22158 net.cpp:84] Creating Layer ip3_ip3_0_split
I0502 17:22:19.146090 22158 net.cpp:406] ip3_ip3_0_split <- ip3
I0502 17:22:19.146105 22158 net.cpp:380] ip3_ip3_0_split -> ip3_ip3_0_split_0
I0502 17:22:19.146121 22158 net.cpp:380] ip3_ip3_0_split -> ip3_ip3_0_split_1
I0502 17:22:19.146138 22158 net.cpp:122] Setting up ip3_ip3_0_split
I0502 17:22:19.146152 22158 net.cpp:129] Top shape: 100 10 (1000)
I0502 17:22:19.146165 22158 net.cpp:129] Top shape: 100 10 (1000)
I0502 17:22:19.146176 22158 net.cpp:137] Memory required for data: 3853600
I0502 17:22:19.146186 22158 layer_factory.hpp:77] Creating layer accuracy
I0502 17:22:19.146217 22158 net.cpp:84] Creating Layer accuracy
I0502 17:22:19.146232 22158 net.cpp:406] accuracy <- ip3_ip3_0_split_0
I0502 17:22:19.146245 22158 net.cpp:406] accuracy <- label_mnist_1_split_0
I0502 17:22:19.146258 22158 net.cpp:380] accuracy -> accuracy
…
