…
  layer {
    name: "mnist"
    type: "Data"
    top: "data"
    top: "label"
    include {
      phase: TRAIN
    }
    transform_param {
      scale: 0.00390625
    }
    data_param {
      source: "data/mnist_train_lmdb"
      batch_size: 100
      backend: LMDB
    }
  }
  layer {
    name: "mnist"
    type: "Data"
    top: "data"
    top: "label"
    include {
      phase: TEST
    }
    transform_param {
      scale: 0.00390625
    }
    data_param {
      source: "data/mnist_test_lmdb"
      batch_size: 100
      backend: LMDB
    }
  }
  layer {
    name: "ip1"
    type: "InnerProduct"
    bottom: "data"
    top: "ip1"
    inner_product_param {
      num_output: 1000
      weight_filler {
        type: "gaussian"
        mean: 0
        std: 0.01
      }
    }
    bias_param {
      filler {
        value: 0
      }
    }
    fixed_precision: true
    precision {
      enter: 2
      fraccio: 14
      rounding: "withProb"
      prob: 0.5
    }
  }
  layer {
    name: "relu1"
    type: "ReLU"
    bottom: "ip1"
    top: "ip1"
    fixed_precision: true
    precision {
      enter: 2
      fraccio: 14
      rounding: "withProb"
      prob: 0.5
    }
  }
  layer {
    name: "ip2"
    type: "InnerProduct"
    bottom: "ip1"
    top: "ip2"
    inner_product_param {
      num_output: 1000
      weight_filler {
        type: "gaussian"
        mean: 0
        std: 0.01
      }
    }
    bias_param {
      filler {
        value: 0
      }
    }
    fixed_precision: true
    precision {
      enter: 2
      fraccio: 14
      rounding: "withProb"
      prob: 0.5
    }
  }
  layer {
    name: "relu2"
    type: "ReLU"
    bottom: "ip2"
    top: "ip2"
    bias_param {
      filler {
        value: 0
      }
    }
    fixed_precision: true
    precision {
      enter: 2
      fraccio: 14
      rounding: "withProb"
      prob: 0.5
    }
  }
  layer {
    name: "ip3"
    type: "InnerProduct"
    bottom: "ip2"
    top: "ip3"
    inner_product_param {
      num_output: 10
      weight_filler {
        type: "gaussian"
        mean: 0
        std: 0.01
      }
    }
    bias_param {
      filler {
        value: 0
      }
    }
    fixed_precision: true
    precision {
      enter: 2
      fraccio: 14
      rounding: "withProb"
      prob: 0.5
    }
  }
  layer {
    name: "accuracy"
    type: "Accuracy"
    bottom: "ip3"
    bottom: "label"
    top: "accuracy"
  }
  layer {
    name: "loss"
    type: "SoftmaxWithLoss"
    bottom: "ip3"
    bottom: "label"
    top: "loss"
    fixed_precision: true
    precision {
      enter: 2
      fraccio: 14
      rounding: "withProb"
      prob: 0.5
    }
  }
}
train_state {
  level: 0
  stage: ""
}
fixed_precision: true
precision {
  enter: 2
  fraccio: 14
  rounding: "withProb"
  prob: 0.5
}
I0502 17:22:27.365859 22245 solver.cpp:82] Creating training net specified in net_param.
I0502 17:22:27.365924 22245 net.cpp:294] The NetState phase (0) differed from the phase (1) specified by a rule in layer mnist
I0502 17:22:27.366065 22245 net.cpp:51] Initializing net from parameters: 
name: "LeNet"
state {
  phase: TRAIN
  level: 0
  stage: ""
}
layer {
  name: "mnist"
  type: "Data"
  top: "data"
  top: "label"
  include {
    phase: TRAIN
  }
  transform_param {
    scale: 0.00390625
  }
  data_param {
    source: "data/mnist_train_lmdb"
    batch_size: 100
    backend: LMDB
  }
}
layer {
  name: "ip1"
  type: "InnerProduct"
  bottom: "data"
  top: "ip1"
  inner_product_param {
    num_output: 1000
    weight_filler {
      type: "gaussian"
      mean: 0
      std: 0.01
    }
  }
  bias_param {
    filler {
      value: 0
    }
  }
  fixed_precision: true
  precision {
    enter: 2
    fraccio: 14
    rounding: "withProb"
    prob: 0.5
  }
}
layer {
  name: "relu1"
  type: "ReLU"
  bottom: "ip1"
  top: "ip1"
  fixed_precision: true
  precision {
    enter: 2
    fraccio: 14
    rounding: "withProb"
    prob: 0.5
  }
}
layer {
  name: "ip2"
  type: "InnerProduct"
  bottom: "ip1"
  top: "ip2"
  inner_product_param {
    num_output: 1000
    weight_filler {
      type: "gaussian"
      mean: 0
      std: 0.01
    }
  }
  bias_param {
    filler {
      value: 0
    }
  }
  fixed_precision: true
  precision {
    enter: 2
    fraccio: 14
    rounding: "withProb"
    prob: 0.5
  }
}
layer {
  name: "relu2"
  type: "ReLU"
  bottom: "ip2"
  top: "ip2"
  bias_param {
    filler {
      value: 0
    }
  }
  fixed_precision: true
  precision {
    enter: 2
    fraccio: 14
    rounding: "withProb"
    prob: 0.5
  }
}
layer {
  name: "ip3"
  type: "InnerProduct"
  bottom: "ip2"
  top: "ip3"
  inner_product_param {
    num_output: 10
    weight_filler {
      type: "gaussian"
      mean: 0
      std: 0.01
    }
  }
  bias_param {
    filler {
      value: 0
    }
  }
  fixed_precision: true
  precision {
    enter: 2
    fraccio: 14
    rounding: "withProb"
    prob: 0.5
  }
}
layer {
  name: "accuracy"
  type: "Accuracy"
  bottom: "ip3"
  bottom: "label"
  top: "accuracy"
}
layer {
  name: "loss"
  type: "SoftmaxWithLoss"
  bottom: "ip3"
  bottom: "label"
  top: "loss"
  fixed_precision: true
  precision {
    enter: 2
    fraccio: 14
    rounding: "withProb"
    prob: 0.5
  }
}
I0502 17:22:27.367252 22245 layer_factory.hpp:77] Creating layer mnist
I0502 17:22:27.367466 22245 db_lmdb.cpp:35] Opened lmdb data/mnist_train_lmdb
I0502 17:22:27.369606 22245 net.cpp:84] Creating Layer mnist
I0502 17:22:27.369654 22245 net.cpp:380] mnist -> data
I0502 17:22:27.369711 22245 net.cpp:380] mnist -> label
I0502 17:22:27.369784 22245 data_layer.cpp:45] output data size: 100,1,28,28
I0502 17:22:27.371752 22245 net.cpp:122] Setting up mnist
I0502 17:22:27.371839 22245 net.cpp:129] Top shape: 100 1 28 28 (78400)
I0502 17:22:27.371857 22245 net.cpp:129] Top shape: 100 (100)
I0502 17:22:27.371870 22245 net.cpp:137] Memory required for data: 628000
I0502 17:22:27.371891 22245 layer_factory.hpp:77] Creating layer label_mnist_1_split
I0502 17:22:27.371920 22245 net.cpp:84] Creating Layer label_mnist_1_split
I0502 17:22:27.371937 22245 net.cpp:406] label_mnist_1_split <- label
I0502 17:22:27.371963 22245 net.cpp:380] label_mnist_1_split -> label_mnist_1_split_0
I0502 17:22:27.371986 22245 net.cpp:380] label_mnist_1_split -> label_mnist_1_split_1
I0502 17:22:27.372009 22245 net.cpp:122] Setting up label_mnist_1_split
I0502 17:22:27.372025 22245 net.cpp:129] Top shape: 100 (100)
I0502 17:22:27.372036 22245 net.cpp:129] Top shape: 100 (100)
I0502 17:22:27.372046 22245 net.cpp:137] Memory required for data: 629600
I0502 17:22:27.372057 22245 layer_factory.hpp:77] Creating layer ip1
I0502 17:22:27.372083 22245 net.cpp:84] Creating Layer ip1
I0502 17:22:27.372097 22245 net.cpp:406] ip1 <- data
I0502 17:22:27.372112 22245 net.cpp:380] ip1 -> ip1
I0502 17:22:27.424044 22245 net.cpp:122] Setting up ip1
I0502 17:22:27.424124 22245 net.cpp:129] Top shape: 100 1000 (100000)
I0502 17:22:27.424135 22245 net.cpp:137] Memory required for data: 1429600
I0502 17:22:27.424167 22245 layer_factory.hpp:77] Creating layer relu1
I0502 17:22:27.424196 22245 net.cpp:84] Creating Layer relu1
I0502 17:22:27.424211 22245 net.cpp:406] relu1 <- ip1
I0502 17:22:27.424232 22245 net.cpp:367] relu1 -> ip1 (in-place)
I0502 17:22:27.424255 22245 net.cpp:122] Setting up relu1
I0502 17:22:27.424269 22245 net.cpp:129] Top shape: 100 1000 (100000)
I0502 17:22:27.424279 22245 net.cpp:137] Memory required for data: 2229600
I0502 17:22:27.424290 22245 layer_factory.hpp:77] Creating layer ip2
I0502 17:22:27.424310 22245 net.cpp:84] Creating Layer ip2
I0502 17:22:27.424322 22245 net.cpp:406] ip2 <- ip1
I0502 17:22:27.424337 22245 net.cpp:380] ip2 -> ip2
I0502 17:22:27.486124 22245 net.cpp:122] Setting up ip2
I0502 17:22:27.486202 22245 net.cpp:129] Top shape: 100 1000 (100000)
I0502 17:22:27.486213 22245 net.cpp:137] Memory required for data: 3029600
I0502 17:22:27.486243 22245 layer_factory.hpp:77] Creating layer relu2
I0502 17:22:27.486270 22245 net.cpp:84] Creating Layer relu2
I0502 17:22:27.486327 22245 net.cpp:406] relu2 <- ip2
I0502 17:22:27.486346 22245 net.cpp:367] relu2 -> ip2 (in-place)
I0502 17:22:27.486368 22245 net.cpp:122] Setting up relu2
I0502 17:22:27.486382 22245 net.cpp:129] Top shape: 100 1000 (100000)
I0502 17:22:27.486392 22245 net.cpp:137] Memory required for data: 3829600
I0502 17:22:27.486402 22245 layer_factory.hpp:77] Creating layer ip3
I0502 17:22:27.486419 22245 net.cpp:84] Creating Layer ip3
I0502 17:22:27.486430 22245 net.cpp:406] ip3 <- ip2
I0502 17:22:27.486444 22245 net.cpp:380] ip3 -> ip3
I0502 17:22:27.487103 22245 net.cpp:122] Setting up ip3
I0502 17:22:27.487125 22245 net.cpp:129] Top shape: 100 10 (1000)
I0502 17:22:27.487136 22245 net.cpp:137] Memory required for data: 3837600
I0502 17:22:27.487154 22245 layer_factory.hpp:77] Creating layer ip3_ip3_0_split
I0502 17:22:27.487170 22245 net.cpp:84] Creating Layer ip3_ip3_0_split
I0502 17:22:27.487182 22245 net.cpp:406] ip3_ip3_0_split <- ip3
I0502 17:22:27.487195 22245 net.cpp:380] ip3_ip3_0_split -> ip3_ip3_0_split_0
I0502 17:22:27.487212 22245 net.cpp:380] ip3_ip3_0_split -> ip3_ip3_0_split_1
I0502 17:22:27.487236 22245 net.cpp:122] Setting up ip3_ip3_0_split
I0502 17:22:27.487251 22245 net.cpp:129] Top shape: 100 10 (1000)
I0502 17:22:27.487264 22245 net.cpp:129] Top shape: 100 10 (1000)
I0502 17:22:27.487274 22245 net.cpp:137] Memory required for data: 3853600
I0502 17:22:27.487285 22245 layer_factory.hpp:77] Creating layer accuracy
I0502 17:22:27.487311 22245 net.cpp:84] Creating Layer accuracy
I0502 17:22:27.487324 22245 net.cpp:406] accuracy <- ip3_ip3_0_split_0
I0502 17:22:27.487337 22245 net.cpp:406] accuracy <- label_mnist_1_split_0
I0502 17:22:27.487350 22245 net.cpp:380] accuracy -> accuracy
…
