…
  layer {
    name: "mnist"
    type: "Data"
    top: "data"
    top: "label"
    include {
      phase: TRAIN
    }
    transform_param {
      scale: 0.00390625
    }
    data_param {
      source: "data/mnist_train_lmdb"
      batch_size: 100
      backend: LMDB
    }
  }
  layer {
    name: "mnist"
    type: "Data"
    top: "data"
    top: "label"
    include {
      phase: TEST
    }
    transform_param {
      scale: 0.00390625
    }
    data_param {
      source: "data/mnist_test_lmdb"
      batch_size: 100
      backend: LMDB
    }
  }
  layer {
    name: "ip1"
    type: "InnerProduct"
    bottom: "data"
    top: "ip1"
    inner_product_param {
      num_output: 1000
      weight_filler {
        type: "gaussian"
        mean: 0
        std: 0.01
      }
    }
    bias_param {
      filler {
        value: 0
      }
    }
    fixed_precision: true
    precision {
      enter: 0
      fraccio: 10
      rounding: "stochastic"
    }
  }
  layer {
    name: "relu1"
    type: "ReLU"
    bottom: "ip1"
    top: "ip1"
    fixed_precision: true
    precision {
      enter: 0
      fraccio: 10
      rounding: "stochastic"
    }
  }
  layer {
    name: "ip2"
    type: "InnerProduct"
    bottom: "ip1"
    top: "ip2"
    inner_product_param {
      num_output: 1000
      weight_filler {
        type: "gaussian"
        mean: 0
        std: 0.01
      }
    }
    bias_param {
      filler {
        value: 0
      }
    }
    fixed_precision: true
    precision {
      enter: 0
      fraccio: 10
      rounding: "stochastic"
    }
  }
  layer {
    name: "relu2"
    type: "ReLU"
    bottom: "ip2"
    top: "ip2"
    bias_param {
      filler {
        value: 0
      }
    }
    fixed_precision: true
    precision {
      enter: 0
      fraccio: 10
      rounding: "stochastic"
    }
  }
  layer {
    name: "ip3"
    type: "InnerProduct"
    bottom: "ip2"
    top: "ip3"
    inner_product_param {
      num_output: 10
      weight_filler {
        type: "gaussian"
        mean: 0
        std: 0.01
      }
    }
    bias_param {
      filler {
        value: 0
      }
    }
    fixed_precision: true
    precision {
      enter: 0
      fraccio: 10
      rounding: "stochastic"
    }
  }
  layer {
    name: "accuracy"
    type: "Accuracy"
    bottom: "ip3"
    bottom: "label"
    top: "accuracy"
  }
  layer {
    name: "loss"
    type: "SoftmaxWithLoss"
    bottom: "ip3"
    bottom: "label"
    top: "loss"
    fixed_precision: true
    precision {
      enter: 0
      fraccio: 10
      rounding: "stochastic"
    }
  }
}
train_state {
  level: 0
  stage: ""
}
fixed_precision: true
precision {
  enter: 1
  fraccio: 10
  rounding: "stochastic"
}
I0404 09:06:45.683871  5995 solver.cpp:82] Creating training net specified in net_param.
I0404 09:06:45.683928  5995 net.cpp:294] The NetState phase (0) differed from the phase (1) specified by a rule in layer mnist
I0404 09:06:45.684090  5995 net.cpp:51] Initializing net from parameters: 
name: "LeNet"
state {
  phase: TRAIN
  level: 0
  stage: ""
}
layer {
  name: "mnist"
  type: "Data"
  top: "data"
  top: "label"
  include {
    phase: TRAIN
  }
  transform_param {
    scale: 0.00390625
  }
  data_param {
    source: "data/mnist_train_lmdb"
    batch_size: 100
    backend: LMDB
  }
}
layer {
  name: "ip1"
  type: "InnerProduct"
  bottom: "data"
  top: "ip1"
  inner_product_param {
    num_output: 1000
    weight_filler {
      type: "gaussian"
      mean: 0
      std: 0.01
    }
  }
  bias_param {
    filler {
      value: 0
    }
  }
  fixed_precision: true
  precision {
    enter: 0
    fraccio: 10
    rounding: "stochastic"
  }
}
layer {
  name: "relu1"
  type: "ReLU"
  bottom: "ip1"
  top: "ip1"
  fixed_precision: true
  precision {
    enter: 0
    fraccio: 10
    rounding: "stochastic"
  }
}
layer {
  name: "ip2"
  type: "InnerProduct"
  bottom: "ip1"
  top: "ip2"
  inner_product_param {
    num_output: 1000
    weight_filler {
      type: "gaussian"
      mean: 0
      std: 0.01
    }
  }
  bias_param {
    filler {
      value: 0
    }
  }
  fixed_precision: true
  precision {
    enter: 0
    fraccio: 10
    rounding: "stochastic"
  }
}
layer {
  name: "relu2"
  type: "ReLU"
  bottom: "ip2"
  top: "ip2"
  bias_param {
    filler {
      value: 0
    }
  }
  fixed_precision: true
  precision {
    enter: 0
    fraccio: 10
    rounding: "stochastic"
  }
}
layer {
  name: "ip3"
  type: "InnerProduct"
  bottom: "ip2"
  top: "ip3"
  inner_product_param {
    num_output: 10
    weight_filler {
      type: "gaussian"
      mean: 0
      std: 0.01
    }
  }
  bias_param {
    filler {
      value: 0
    }
  }
  fixed_precision: true
  precision {
    enter: 0
    fraccio: 10
    rounding: "stochastic"
  }
}
layer {
  name: "accuracy"
  type: "Accuracy"
  bottom: "ip3"
  bottom: "label"
  top: "accuracy"
}
layer {
  name: "loss"
  type: "SoftmaxWithLoss"
  bottom: "ip3"
  bottom: "label"
  top: "loss"
  fixed_precision: true
  precision {
    enter: 0
    fraccio: 10
    rounding: "stochastic"
  }
}
I0404 09:06:45.684211  5995 layer_factory.hpp:77] Creating layer mnist
I0404 09:06:45.684325  5995 db_lmdb.cpp:35] Opened lmdb data/mnist_train_lmdb
I0404 09:06:45.684355  5995 net.cpp:84] Creating Layer mnist
I0404 09:06:45.684366  5995 net.cpp:380] mnist -> data
I0404 09:06:45.684393  5995 net.cpp:380] mnist -> label
I0404 09:06:45.684428  5995 data_layer.cpp:45] output data size: 100,1,28,28
I0404 09:06:45.686120  5995 net.cpp:122] Setting up mnist
I0404 09:06:45.686144  5995 net.cpp:129] Top shape: 100 1 28 28 (78400)
I0404 09:06:45.686154  5995 net.cpp:129] Top shape: 100 (100)
I0404 09:06:45.686161  5995 net.cpp:137] Memory required for data: 628000
I0404 09:06:45.686172  5995 layer_factory.hpp:77] Creating layer label_mnist_1_split
I0404 09:06:45.686188  5995 net.cpp:84] Creating Layer label_mnist_1_split
I0404 09:06:45.686197  5995 net.cpp:406] label_mnist_1_split <- label
I0404 09:06:45.686210  5995 net.cpp:380] label_mnist_1_split -> label_mnist_1_split_0
I0404 09:06:45.686223  5995 net.cpp:380] label_mnist_1_split -> label_mnist_1_split_1
I0404 09:06:45.686235  5995 net.cpp:122] Setting up label_mnist_1_split
I0404 09:06:45.686245  5995 net.cpp:129] Top shape: 100 (100)
I0404 09:06:45.686254  5995 net.cpp:129] Top shape: 100 (100)
I0404 09:06:45.686260  5995 net.cpp:137] Memory required for data: 629600
I0404 09:06:45.686267  5995 layer_factory.hpp:77] Creating layer ip1
I0404 09:06:45.686282  5995 net.cpp:84] Creating Layer ip1
I0404 09:06:45.686290  5995 net.cpp:406] ip1 <- data
I0404 09:06:45.686300  5995 net.cpp:380] ip1 -> ip1
I0404 09:06:45.797256  5995 net.cpp:122] Setting up ip1
I0404 09:06:45.797298  5995 net.cpp:129] Top shape: 100 1000 (100000)
I0404 09:06:45.797309  5995 net.cpp:137] Memory required for data: 1429600
I0404 09:06:45.797338  5995 layer_factory.hpp:77] Creating layer relu1
I0404 09:06:45.797358  5995 net.cpp:84] Creating Layer relu1
I0404 09:06:45.797369  5995 net.cpp:406] relu1 <- ip1
I0404 09:06:45.797381  5995 net.cpp:367] relu1 -> ip1 (in-place)
I0404 09:06:45.797405  5995 net.cpp:122] Setting up relu1
I0404 09:06:45.797415  5995 net.cpp:129] Top shape: 100 1000 (100000)
I0404 09:06:45.797422  5995 net.cpp:137] Memory required for data: 2229600
I0404 09:06:45.797430  5995 layer_factory.hpp:77] Creating layer ip2
I0404 09:06:45.797447  5995 net.cpp:84] Creating Layer ip2
I0404 09:06:45.797456  5995 net.cpp:406] ip2 <- ip1
I0404 09:06:45.797466  5995 net.cpp:380] ip2 -> ip2
I0404 09:06:45.900821  5995 net.cpp:122] Setting up ip2
I0404 09:06:45.900857  5995 net.cpp:129] Top shape: 100 1000 (100000)
I0404 09:06:45.900867  5995 net.cpp:137] Memory required for data: 3029600
I0404 09:06:45.900885  5995 layer_factory.hpp:77] Creating layer relu2
I0404 09:06:45.900902  5995 net.cpp:84] Creating Layer relu2
I0404 09:06:45.900913  5995 net.cpp:406] relu2 <- ip2
I0404 09:06:45.900924  5995 net.cpp:367] relu2 -> ip2 (in-place)
I0404 09:06:45.900948  5995 net.cpp:122] Setting up relu2
I0404 09:06:45.900965  5995 net.cpp:129] Top shape: 100 1000 (100000)
I0404 09:06:45.900974  5995 net.cpp:137] Memory required for data: 3829600
I0404 09:06:45.900982  5995 layer_factory.hpp:77] Creating layer ip3
I0404 09:06:45.900995  5995 net.cpp:84] Creating Layer ip3
I0404 09:06:45.901016  5995 net.cpp:406] ip3 <- ip2
I0404 09:06:45.901041  5995 net.cpp:380] ip3 -> ip3
I0404 09:06:45.902113  5995 net.cpp:122] Setting up ip3
I0404 09:06:45.902127  5995 net.cpp:129] Top shape: 100 10 (1000)
I0404 09:06:45.902133  5995 net.cpp:137] Memory required for data: 3837600
I0404 09:06:45.902148  5995 layer_factory.hpp:77] Creating layer ip3_ip3_0_split
I0404 09:06:45.902158  5995 net.cpp:84] Creating Layer ip3_ip3_0_split
I0404 09:06:45.902166  5995 net.cpp:406] ip3_ip3_0_split <- ip3
I0404 09:06:45.902176  5995 net.cpp:380] ip3_ip3_0_split -> ip3_ip3_0_split_0
I0404 09:06:45.902204  5995 net.cpp:380] ip3_ip3_0_split -> ip3_ip3_0_split_1
I0404 09:06:45.902220  5995 net.cpp:122] Setting up ip3_ip3_0_split
I0404 09:06:45.902230  5995 net.cpp:129] Top shape: 100 10 (1000)
I0404 09:06:45.902240  5995 net.cpp:129] Top shape: 100 10 (1000)
I0404 09:06:45.902247  5995 net.cpp:137] Memory required for data: 3853600
I0404 09:06:45.902256  5995 layer_factory.hpp:77] Creating layer accuracy
I0404 09:06:45.902268  5995 net.cpp:84] Creating Layer accuracy
I0404 09:06:45.902276  5995 net.cpp:406] accuracy <- ip3_ip3_0_split_0
I0404 09:06:45.902283  5995 net.cpp:406] accuracy <- label_mnist_1_split_0
I0404 09:06:45.902297  5995 net.cpp:380] accuracy -> accuracy
…
