…
  layer {
    name: "mnist"
    type: "Data"
    top: "data"
    top: "label"
    include {
      phase: TRAIN
    }
    transform_param {
      scale: 0.00390625
    }
    data_param {
      source: "data/mnist_train_lmdb"
      batch_size: 100
      backend: LMDB
    }
  }
  layer {
    name: "mnist"
    type: "Data"
    top: "data"
    top: "label"
    include {
      phase: TEST
    }
    transform_param {
      scale: 0.00390625
    }
    data_param {
      source: "data/mnist_test_lmdb"
      batch_size: 100
      backend: LMDB
    }
  }
  layer {
    name: "ip1"
    type: "InnerProduct"
    bottom: "data"
    top: "ip1"
    inner_product_param {
      num_output: 1000
      weight_filler {
        type: "gaussian"
        mean: 0
        std: 0.01
      }
    }
    bias_param {
      filler {
        value: 0
      }
    }
    fixed_precision: true
    precision {
      enter: 0
      fraccio: 10
      rounding: "stochastic"
    }
  }
  layer {
    name: "relu1"
    type: "ReLU"
    bottom: "ip1"
    top: "ip1"
    fixed_precision: true
    precision {
      enter: 0
      fraccio: 10
      rounding: "stochastic"
    }
  }
  layer {
    name: "ip2"
    type: "InnerProduct"
    bottom: "ip1"
    top: "ip2"
    inner_product_param {
      num_output: 1000
      weight_filler {
        type: "gaussian"
        mean: 0
        std: 0.01
      }
    }
    bias_param {
      filler {
        value: 0
      }
    }
    fixed_precision: true
    precision {
      enter: 0
      fraccio: 10
      rounding: "stochastic"
    }
  }
  layer {
    name: "relu2"
    type: "ReLU"
    bottom: "ip2"
    top: "ip2"
    bias_param {
      filler {
        value: 0
      }
    }
    fixed_precision: true
    precision {
      enter: 0
      fraccio: 10
      rounding: "stochastic"
    }
  }
  layer {
    name: "ip3"
    type: "InnerProduct"
    bottom: "ip2"
    top: "ip3"
    inner_product_param {
      num_output: 10
      weight_filler {
        type: "gaussian"
        mean: 0
        std: 0.01
      }
    }
    bias_param {
      filler {
        value: 0
      }
    }
    fixed_precision: true
    precision {
      enter: 0
      fraccio: 10
      rounding: "stochastic"
    }
  }
  layer {
    name: "accuracy"
    type: "Accuracy"
    bottom: "ip3"
    bottom: "label"
    top: "accuracy"
  }
  layer {
    name: "loss"
    type: "SoftmaxWithLoss"
    bottom: "ip3"
    bottom: "label"
    top: "loss"
    fixed_precision: true
    precision {
      enter: 0
      fraccio: 10
      rounding: "stochastic"
    }
  }
}
train_state {
  level: 0
  stage: ""
}
fixed_precision: true
precision {
  enter: 1
  fraccio: 10
  rounding: "stochastic"
}
I0404 09:57:40.593963  8896 solver.cpp:82] Creating training net specified in net_param.
I0404 09:57:40.594023  8896 net.cpp:294] The NetState phase (0) differed from the phase (1) specified by a rule in layer mnist
I0404 09:57:40.594192  8896 net.cpp:51] Initializing net from parameters: 
name: "LeNet"
state {
  phase: TRAIN
  level: 0
  stage: ""
}
layer {
  name: "mnist"
  type: "Data"
  top: "data"
  top: "label"
  include {
    phase: TRAIN
  }
  transform_param {
    scale: 0.00390625
  }
  data_param {
    source: "data/mnist_train_lmdb"
    batch_size: 100
    backend: LMDB
  }
}
layer {
  name: "ip1"
  type: "InnerProduct"
  bottom: "data"
  top: "ip1"
  inner_product_param {
    num_output: 1000
    weight_filler {
      type: "gaussian"
      mean: 0
      std: 0.01
    }
  }
  bias_param {
    filler {
      value: 0
    }
  }
  fixed_precision: true
  precision {
    enter: 0
    fraccio: 10
    rounding: "stochastic"
  }
}
layer {
  name: "relu1"
  type: "ReLU"
  bottom: "ip1"
  top: "ip1"
  fixed_precision: true
  precision {
    enter: 0
    fraccio: 10
    rounding: "stochastic"
  }
}
layer {
  name: "ip2"
  type: "InnerProduct"
  bottom: "ip1"
  top: "ip2"
  inner_product_param {
    num_output: 1000
    weight_filler {
      type: "gaussian"
      mean: 0
      std: 0.01
    }
  }
  bias_param {
    filler {
      value: 0
    }
  }
  fixed_precision: true
  precision {
    enter: 0
    fraccio: 10
    rounding: "stochastic"
  }
}
layer {
  name: "relu2"
  type: "ReLU"
  bottom: "ip2"
  top: "ip2"
  bias_param {
    filler {
      value: 0
    }
  }
  fixed_precision: true
  precision {
    enter: 0
    fraccio: 10
    rounding: "stochastic"
  }
}
layer {
  name: "ip3"
  type: "InnerProduct"
  bottom: "ip2"
  top: "ip3"
  inner_product_param {
    num_output: 10
    weight_filler {
      type: "gaussian"
      mean: 0
      std: 0.01
    }
  }
  bias_param {
    filler {
      value: 0
    }
  }
  fixed_precision: true
  precision {
    enter: 0
    fraccio: 10
    rounding: "stochastic"
  }
}
layer {
  name: "accuracy"
  type: "Accuracy"
  bottom: "ip3"
  bottom: "label"
  top: "accuracy"
}
layer {
  name: "loss"
  type: "SoftmaxWithLoss"
  bottom: "ip3"
  bottom: "label"
  top: "loss"
  fixed_precision: true
  precision {
    enter: 0
    fraccio: 10
    rounding: "stochastic"
  }
}
I0404 09:57:40.594317  8896 layer_factory.hpp:77] Creating layer mnist
I0404 09:57:40.594440  8896 db_lmdb.cpp:35] Opened lmdb data/mnist_train_lmdb
I0404 09:57:40.594470  8896 net.cpp:84] Creating Layer mnist
I0404 09:57:40.594482  8896 net.cpp:380] mnist -> data
I0404 09:57:40.594511  8896 net.cpp:380] mnist -> label
I0404 09:57:40.594548  8896 data_layer.cpp:45] output data size: 100,1,28,28
I0404 09:57:40.596262  8896 net.cpp:122] Setting up mnist
I0404 09:57:40.596285  8896 net.cpp:129] Top shape: 100 1 28 28 (78400)
I0404 09:57:40.596295  8896 net.cpp:129] Top shape: 100 (100)
I0404 09:57:40.596302  8896 net.cpp:137] Memory required for data: 628000
I0404 09:57:40.596313  8896 layer_factory.hpp:77] Creating layer label_mnist_1_split
I0404 09:57:40.596328  8896 net.cpp:84] Creating Layer label_mnist_1_split
I0404 09:57:40.596338  8896 net.cpp:406] label_mnist_1_split <- label
I0404 09:57:40.596350  8896 net.cpp:380] label_mnist_1_split -> label_mnist_1_split_0
I0404 09:57:40.596364  8896 net.cpp:380] label_mnist_1_split -> label_mnist_1_split_1
I0404 09:57:40.596379  8896 net.cpp:122] Setting up label_mnist_1_split
I0404 09:57:40.596388  8896 net.cpp:129] Top shape: 100 (100)
I0404 09:57:40.596397  8896 net.cpp:129] Top shape: 100 (100)
I0404 09:57:40.596403  8896 net.cpp:137] Memory required for data: 629600
I0404 09:57:40.596410  8896 layer_factory.hpp:77] Creating layer ip1
I0404 09:57:40.596421  8896 net.cpp:84] Creating Layer ip1
I0404 09:57:40.596428  8896 net.cpp:406] ip1 <- data
I0404 09:57:40.596437  8896 net.cpp:380] ip1 -> ip1
I0404 09:57:40.709072  8896 net.cpp:122] Setting up ip1
I0404 09:57:40.709112  8896 net.cpp:129] Top shape: 100 1000 (100000)
I0404 09:57:40.709123  8896 net.cpp:137] Memory required for data: 1429600
I0404 09:57:40.709149  8896 layer_factory.hpp:77] Creating layer relu1
I0404 09:57:40.709170  8896 net.cpp:84] Creating Layer relu1
I0404 09:57:40.709182  8896 net.cpp:406] relu1 <- ip1
I0404 09:57:40.709192  8896 net.cpp:367] relu1 -> ip1 (in-place)
I0404 09:57:40.709215  8896 net.cpp:122] Setting up relu1
I0404 09:57:40.709224  8896 net.cpp:129] Top shape: 100 1000 (100000)
I0404 09:57:40.709231  8896 net.cpp:137] Memory required for data: 2229600
I0404 09:57:40.709239  8896 layer_factory.hpp:77] Creating layer ip2
I0404 09:57:40.709254  8896 net.cpp:84] Creating Layer ip2
I0404 09:57:40.709261  8896 net.cpp:406] ip2 <- ip1
I0404 09:57:40.709272  8896 net.cpp:380] ip2 -> ip2
I0404 09:57:40.811288  8896 net.cpp:122] Setting up ip2
I0404 09:57:40.811324  8896 net.cpp:129] Top shape: 100 1000 (100000)
I0404 09:57:40.811331  8896 net.cpp:137] Memory required for data: 3029600
I0404 09:57:40.811348  8896 layer_factory.hpp:77] Creating layer relu2
I0404 09:57:40.811364  8896 net.cpp:84] Creating Layer relu2
I0404 09:57:40.811373  8896 net.cpp:406] relu2 <- ip2
I0404 09:57:40.811384  8896 net.cpp:367] relu2 -> ip2 (in-place)
I0404 09:57:40.811409  8896 net.cpp:122] Setting up relu2
I0404 09:57:40.811430  8896 net.cpp:129] Top shape: 100 1000 (100000)
I0404 09:57:40.811437  8896 net.cpp:137] Memory required for data: 3829600
I0404 09:57:40.811444  8896 layer_factory.hpp:77] Creating layer ip3
I0404 09:57:40.811455  8896 net.cpp:84] Creating Layer ip3
I0404 09:57:40.811465  8896 net.cpp:406] ip3 <- ip2
I0404 09:57:40.811475  8896 net.cpp:380] ip3 -> ip3
I0404 09:57:40.812489  8896 net.cpp:122] Setting up ip3
I0404 09:57:40.812501  8896 net.cpp:129] Top shape: 100 10 (1000)
I0404 09:57:40.812507  8896 net.cpp:137] Memory required for data: 3837600
I0404 09:57:40.812521  8896 layer_factory.hpp:77] Creating layer ip3_ip3_0_split
I0404 09:57:40.812532  8896 net.cpp:84] Creating Layer ip3_ip3_0_split
I0404 09:57:40.812539  8896 net.cpp:406] ip3_ip3_0_split <- ip3
I0404 09:57:40.812549  8896 net.cpp:380] ip3_ip3_0_split -> ip3_ip3_0_split_0
I0404 09:57:40.812562  8896 net.cpp:380] ip3_ip3_0_split -> ip3_ip3_0_split_1
I0404 09:57:40.812577  8896 net.cpp:122] Setting up ip3_ip3_0_split
I0404 09:57:40.812587  8896 net.cpp:129] Top shape: 100 10 (1000)
I0404 09:57:40.812595  8896 net.cpp:129] Top shape: 100 10 (1000)
I0404 09:57:40.812602  8896 net.cpp:137] Memory required for data: 3853600
I0404 09:57:40.812609  8896 layer_factory.hpp:77] Creating layer accuracy
I0404 09:57:40.812621  8896 net.cpp:84] Creating Layer accuracy
I0404 09:57:40.812628  8896 net.cpp:406] accuracy <- ip3_ip3_0_split_0
I0404 09:57:40.812638  8896 net.cpp:406] accuracy <- label_mnist_1_split_0
I0404 09:57:40.812651  8896 net.cpp:380] accuracy -> accuracy
…
