…
  layer {
    name: "mnist"
    type: "Data"
    top: "data"
    top: "label"
    include {
      phase: TRAIN
    }
    transform_param {
      scale: 0.00390625
    }
    data_param {
      source: "data/mnist_train_lmdb"
      batch_size: 100
      backend: LMDB
    }
  }
  layer {
    name: "mnist"
    type: "Data"
    top: "data"
    top: "label"
    include {
      phase: TEST
    }
    transform_param {
      scale: 0.00390625
    }
    data_param {
      source: "data/mnist_test_lmdb"
      batch_size: 100
      backend: LMDB
    }
  }
  layer {
    name: "ip1"
    type: "InnerProduct"
    bottom: "data"
    top: "ip1"
    inner_product_param {
      num_output: 1000
      weight_filler {
        type: "gaussian"
        mean: 0
        std: 0.01
      }
    }
    bias_param {
      filler {
        value: 0
      }
    }
    fixed_precision: true
    precision {
      enter: 0
      fraccio: 10
      rounding: "stochastic"
    }
  }
  layer {
    name: "relu1"
    type: "ReLU"
    bottom: "ip1"
    top: "ip1"
    fixed_precision: true
    precision {
      enter: 0
      fraccio: 10
      rounding: "stochastic"
    }
  }
  layer {
    name: "ip2"
    type: "InnerProduct"
    bottom: "ip1"
    top: "ip2"
    inner_product_param {
      num_output: 1000
      weight_filler {
        type: "gaussian"
        mean: 0
        std: 0.01
      }
    }
    bias_param {
      filler {
        value: 0
      }
    }
    fixed_precision: true
    precision {
      enter: 0
      fraccio: 10
      rounding: "stochastic"
    }
  }
  layer {
    name: "relu2"
    type: "ReLU"
    bottom: "ip2"
    top: "ip2"
    bias_param {
      filler {
        value: 0
      }
    }
    fixed_precision: true
    precision {
      enter: 0
      fraccio: 10
      rounding: "stochastic"
    }
  }
  layer {
    name: "ip3"
    type: "InnerProduct"
    bottom: "ip2"
    top: "ip3"
    inner_product_param {
      num_output: 10
      weight_filler {
        type: "gaussian"
        mean: 0
        std: 0.01
      }
    }
    bias_param {
      filler {
        value: 0
      }
    }
    fixed_precision: true
    precision {
      enter: 0
      fraccio: 10
      rounding: "stochastic"
    }
  }
  layer {
    name: "accuracy"
    type: "Accuracy"
    bottom: "ip3"
    bottom: "label"
    top: "accuracy"
  }
  layer {
    name: "loss"
    type: "SoftmaxWithLoss"
    bottom: "ip3"
    bottom: "label"
    top: "loss"
    fixed_precision: true
    precision {
      enter: 0
      fraccio: 10
      rounding: "stochastic"
    }
  }
}
train_state {
  level: 0
  stage: ""
}
fixed_precision: true
precision {
  enter: 1
  fraccio: 10
  rounding: "stochastic"
}
I0404 08:17:00.022683  3184 solver.cpp:82] Creating training net specified in net_param.
I0404 08:17:00.022747  3184 net.cpp:294] The NetState phase (0) differed from the phase (1) specified by a rule in layer mnist
I0404 08:17:00.022922  3184 net.cpp:51] Initializing net from parameters: 
name: "LeNet"
state {
  phase: TRAIN
  level: 0
  stage: ""
}
layer {
  name: "mnist"
  type: "Data"
  top: "data"
  top: "label"
  include {
    phase: TRAIN
  }
  transform_param {
    scale: 0.00390625
  }
  data_param {
    source: "data/mnist_train_lmdb"
    batch_size: 100
    backend: LMDB
  }
}
layer {
  name: "ip1"
  type: "InnerProduct"
  bottom: "data"
  top: "ip1"
  inner_product_param {
    num_output: 1000
    weight_filler {
      type: "gaussian"
      mean: 0
      std: 0.01
    }
  }
  bias_param {
    filler {
      value: 0
    }
  }
  fixed_precision: true
  precision {
    enter: 0
    fraccio: 10
    rounding: "stochastic"
  }
}
layer {
  name: "relu1"
  type: "ReLU"
  bottom: "ip1"
  top: "ip1"
  fixed_precision: true
  precision {
    enter: 0
    fraccio: 10
    rounding: "stochastic"
  }
}
layer {
  name: "ip2"
  type: "InnerProduct"
  bottom: "ip1"
  top: "ip2"
  inner_product_param {
    num_output: 1000
    weight_filler {
      type: "gaussian"
      mean: 0
      std: 0.01
    }
  }
  bias_param {
    filler {
      value: 0
    }
  }
  fixed_precision: true
  precision {
    enter: 0
    fraccio: 10
    rounding: "stochastic"
  }
}
layer {
  name: "relu2"
  type: "ReLU"
  bottom: "ip2"
  top: "ip2"
  bias_param {
    filler {
      value: 0
    }
  }
  fixed_precision: true
  precision {
    enter: 0
    fraccio: 10
    rounding: "stochastic"
  }
}
layer {
  name: "ip3"
  type: "InnerProduct"
  bottom: "ip2"
  top: "ip3"
  inner_product_param {
    num_output: 10
    weight_filler {
      type: "gaussian"
      mean: 0
      std: 0.01
    }
  }
  bias_param {
    filler {
      value: 0
    }
  }
  fixed_precision: true
  precision {
    enter: 0
    fraccio: 10
    rounding: "stochastic"
  }
}
layer {
  name: "accuracy"
  type: "Accuracy"
  bottom: "ip3"
  bottom: "label"
  top: "accuracy"
}
layer {
  name: "loss"
  type: "SoftmaxWithLoss"
  bottom: "ip3"
  bottom: "label"
  top: "loss"
  fixed_precision: true
  precision {
    enter: 0
    fraccio: 10
    rounding: "stochastic"
  }
}
I0404 08:17:00.023052  3184 layer_factory.hpp:77] Creating layer mnist
I0404 08:17:00.023175  3184 db_lmdb.cpp:35] Opened lmdb data/mnist_train_lmdb
I0404 08:17:00.023208  3184 net.cpp:84] Creating Layer mnist
I0404 08:17:00.023223  3184 net.cpp:380] mnist -> data
I0404 08:17:00.023255  3184 net.cpp:380] mnist -> label
I0404 08:17:00.023298  3184 data_layer.cpp:45] output data size: 100,1,28,28
I0404 08:17:00.025070  3184 net.cpp:122] Setting up mnist
I0404 08:17:00.025099  3184 net.cpp:129] Top shape: 100 1 28 28 (78400)
I0404 08:17:00.025110  3184 net.cpp:129] Top shape: 100 (100)
I0404 08:17:00.025120  3184 net.cpp:137] Memory required for data: 628000
I0404 08:17:00.025135  3184 layer_factory.hpp:77] Creating layer label_mnist_1_split
I0404 08:17:00.025153  3184 net.cpp:84] Creating Layer label_mnist_1_split
I0404 08:17:00.025166  3184 net.cpp:406] label_mnist_1_split <- label
I0404 08:17:00.025182  3184 net.cpp:380] label_mnist_1_split -> label_mnist_1_split_0
I0404 08:17:00.025197  3184 net.cpp:380] label_mnist_1_split -> label_mnist_1_split_1
I0404 08:17:00.025214  3184 net.cpp:122] Setting up label_mnist_1_split
I0404 08:17:00.025226  3184 net.cpp:129] Top shape: 100 (100)
I0404 08:17:00.025236  3184 net.cpp:129] Top shape: 100 (100)
I0404 08:17:00.025245  3184 net.cpp:137] Memory required for data: 629600
I0404 08:17:00.025254  3184 layer_factory.hpp:77] Creating layer ip1
I0404 08:17:00.025270  3184 net.cpp:84] Creating Layer ip1
I0404 08:17:00.025277  3184 net.cpp:406] ip1 <- data
I0404 08:17:00.025288  3184 net.cpp:380] ip1 -> ip1
I0404 08:17:00.136900  3184 net.cpp:122] Setting up ip1
I0404 08:17:00.136939  3184 net.cpp:129] Top shape: 100 1000 (100000)
I0404 08:17:00.136946  3184 net.cpp:137] Memory required for data: 1429600
I0404 08:17:00.136970  3184 layer_factory.hpp:77] Creating layer relu1
I0404 08:17:00.136987  3184 net.cpp:84] Creating Layer relu1
I0404 08:17:00.136998  3184 net.cpp:406] relu1 <- ip1
I0404 08:17:00.137011  3184 net.cpp:367] relu1 -> ip1 (in-place)
I0404 08:17:00.137037  3184 net.cpp:122] Setting up relu1
I0404 08:17:00.137048  3184 net.cpp:129] Top shape: 100 1000 (100000)
I0404 08:17:00.137055  3184 net.cpp:137] Memory required for data: 2229600
I0404 08:17:00.137063  3184 layer_factory.hpp:77] Creating layer ip2
I0404 08:17:00.137079  3184 net.cpp:84] Creating Layer ip2
I0404 08:17:00.137087  3184 net.cpp:406] ip2 <- ip1
I0404 08:17:00.137099  3184 net.cpp:380] ip2 -> ip2
I0404 08:17:00.238478  3184 net.cpp:122] Setting up ip2
I0404 08:17:00.238517  3184 net.cpp:129] Top shape: 100 1000 (100000)
I0404 08:17:00.238524  3184 net.cpp:137] Memory required for data: 3029600
I0404 08:17:00.238543  3184 layer_factory.hpp:77] Creating layer relu2
I0404 08:17:00.238561  3184 net.cpp:84] Creating Layer relu2
I0404 08:17:00.238569  3184 net.cpp:406] relu2 <- ip2
I0404 08:17:00.238581  3184 net.cpp:367] relu2 -> ip2 (in-place)
I0404 08:17:00.238607  3184 net.cpp:122] Setting up relu2
I0404 08:17:00.238629  3184 net.cpp:129] Top shape: 100 1000 (100000)
I0404 08:17:00.238637  3184 net.cpp:137] Memory required for data: 3829600
I0404 08:17:00.238644  3184 layer_factory.hpp:77] Creating layer ip3
I0404 08:17:00.238658  3184 net.cpp:84] Creating Layer ip3
I0404 08:17:00.238668  3184 net.cpp:406] ip3 <- ip2
I0404 08:17:00.238679  3184 net.cpp:380] ip3 -> ip3
I0404 08:17:00.239754  3184 net.cpp:122] Setting up ip3
I0404 08:17:00.239768  3184 net.cpp:129] Top shape: 100 10 (1000)
I0404 08:17:00.239776  3184 net.cpp:137] Memory required for data: 3837600
I0404 08:17:00.239790  3184 layer_factory.hpp:77] Creating layer ip3_ip3_0_split
I0404 08:17:00.239801  3184 net.cpp:84] Creating Layer ip3_ip3_0_split
I0404 08:17:00.239809  3184 net.cpp:406] ip3_ip3_0_split <- ip3
I0404 08:17:00.239821  3184 net.cpp:380] ip3_ip3_0_split -> ip3_ip3_0_split_0
I0404 08:17:00.239833  3184 net.cpp:380] ip3_ip3_0_split -> ip3_ip3_0_split_1
I0404 08:17:00.239850  3184 net.cpp:122] Setting up ip3_ip3_0_split
I0404 08:17:00.239861  3184 net.cpp:129] Top shape: 100 10 (1000)
I0404 08:17:00.239869  3184 net.cpp:129] Top shape: 100 10 (1000)
I0404 08:17:00.239877  3184 net.cpp:137] Memory required for data: 3853600
I0404 08:17:00.239886  3184 layer_factory.hpp:77] Creating layer accuracy
I0404 08:17:00.239898  3184 net.cpp:84] Creating Layer accuracy
I0404 08:17:00.239907  3184 net.cpp:406] accuracy <- ip3_ip3_0_split_0
I0404 08:17:00.239915  3184 net.cpp:406] accuracy <- label_mnist_1_split_0
I0404 08:17:00.239928  3184 net.cpp:380] accuracy -> accuracy
…
