…
  layer {
    name: "mnist"
    type: "Data"
    top: "data"
    top: "label"
    include {
      phase: TRAIN
    }
    transform_param {
      scale: 0.00390625
    }
    data_param {
      source: "data/mnist_train_lmdb"
      batch_size: 100
      backend: LMDB
    }
  }
  layer {
    name: "mnist"
    type: "Data"
    top: "data"
    top: "label"
    include {
      phase: TEST
    }
    transform_param {
      scale: 0.00390625
    }
    data_param {
      source: "data/mnist_test_lmdb"
      batch_size: 100
      backend: LMDB
    }
  }
  layer {
    name: "ip1"
    type: "InnerProduct"
    bottom: "data"
    top: "ip1"
    inner_product_param {
      num_output: 1000
      weight_filler {
        type: "gaussian"
        mean: 0
        std: 0.01
      }
    }
    bias_param {
      filler {
        value: 0
      }
    }
    fixed_precision: true
    precision {
      enter: 0
      fraccio: 10
      rounding: "stochastic"
    }
  }
  layer {
    name: "relu1"
    type: "ReLU"
    bottom: "ip1"
    top: "ip1"
    fixed_precision: true
    precision {
      enter: 0
      fraccio: 10
      rounding: "stochastic"
    }
  }
  layer {
    name: "ip2"
    type: "InnerProduct"
    bottom: "ip1"
    top: "ip2"
    inner_product_param {
      num_output: 1000
      weight_filler {
        type: "gaussian"
        mean: 0
        std: 0.01
      }
    }
    bias_param {
      filler {
        value: 0
      }
    }
    fixed_precision: true
    precision {
      enter: 0
      fraccio: 10
      rounding: "stochastic"
    }
  }
  layer {
    name: "relu2"
    type: "ReLU"
    bottom: "ip2"
    top: "ip2"
    bias_param {
      filler {
        value: 0
      }
    }
    fixed_precision: true
    precision {
      enter: 0
      fraccio: 10
      rounding: "stochastic"
    }
  }
  layer {
    name: "ip3"
    type: "InnerProduct"
    bottom: "ip2"
    top: "ip3"
    inner_product_param {
      num_output: 10
      weight_filler {
        type: "gaussian"
        mean: 0
        std: 0.01
      }
    }
    bias_param {
      filler {
        value: 0
      }
    }
    fixed_precision: true
    precision {
      enter: 0
      fraccio: 10
      rounding: "stochastic"
    }
  }
  layer {
    name: "accuracy"
    type: "Accuracy"
    bottom: "ip3"
    bottom: "label"
    top: "accuracy"
  }
  layer {
    name: "loss"
    type: "SoftmaxWithLoss"
    bottom: "ip3"
    bottom: "label"
    top: "loss"
    fixed_precision: true
    precision {
      enter: 0
      fraccio: 10
      rounding: "stochastic"
    }
  }
}
train_state {
  level: 0
  stage: ""
}
fixed_precision: true
precision {
  enter: 1
  fraccio: 10
  rounding: "stochastic"
}
I0404 07:25:28.493371 32461 solver.cpp:82] Creating training net specified in net_param.
I0404 07:25:28.493430 32461 net.cpp:294] The NetState phase (0) differed from the phase (1) specified by a rule in layer mnist
I0404 07:25:28.493598 32461 net.cpp:51] Initializing net from parameters: 
name: "LeNet"
state {
  phase: TRAIN
  level: 0
  stage: ""
}
layer {
  name: "mnist"
  type: "Data"
  top: "data"
  top: "label"
  include {
    phase: TRAIN
  }
  transform_param {
    scale: 0.00390625
  }
  data_param {
    source: "data/mnist_train_lmdb"
    batch_size: 100
    backend: LMDB
  }
}
layer {
  name: "ip1"
  type: "InnerProduct"
  bottom: "data"
  top: "ip1"
  inner_product_param {
    num_output: 1000
    weight_filler {
      type: "gaussian"
      mean: 0
      std: 0.01
    }
  }
  bias_param {
    filler {
      value: 0
    }
  }
  fixed_precision: true
  precision {
    enter: 0
    fraccio: 10
    rounding: "stochastic"
  }
}
layer {
  name: "relu1"
  type: "ReLU"
  bottom: "ip1"
  top: "ip1"
  fixed_precision: true
  precision {
    enter: 0
    fraccio: 10
    rounding: "stochastic"
  }
}
layer {
  name: "ip2"
  type: "InnerProduct"
  bottom: "ip1"
  top: "ip2"
  inner_product_param {
    num_output: 1000
    weight_filler {
      type: "gaussian"
      mean: 0
      std: 0.01
    }
  }
  bias_param {
    filler {
      value: 0
    }
  }
  fixed_precision: true
  precision {
    enter: 0
    fraccio: 10
    rounding: "stochastic"
  }
}
layer {
  name: "relu2"
  type: "ReLU"
  bottom: "ip2"
  top: "ip2"
  bias_param {
    filler {
      value: 0
    }
  }
  fixed_precision: true
  precision {
    enter: 0
    fraccio: 10
    rounding: "stochastic"
  }
}
layer {
  name: "ip3"
  type: "InnerProduct"
  bottom: "ip2"
  top: "ip3"
  inner_product_param {
    num_output: 10
    weight_filler {
      type: "gaussian"
      mean: 0
      std: 0.01
    }
  }
  bias_param {
    filler {
      value: 0
    }
  }
  fixed_precision: true
  precision {
    enter: 0
    fraccio: 10
    rounding: "stochastic"
  }
}
layer {
  name: "accuracy"
  type: "Accuracy"
  bottom: "ip3"
  bottom: "label"
  top: "accuracy"
}
layer {
  name: "loss"
  type: "SoftmaxWithLoss"
  bottom: "ip3"
  bottom: "label"
  top: "loss"
  fixed_precision: true
  precision {
    enter: 0
    fraccio: 10
    rounding: "stochastic"
  }
}
I0404 07:25:28.493724 32461 layer_factory.hpp:77] Creating layer mnist
I0404 07:25:28.493844 32461 db_lmdb.cpp:35] Opened lmdb data/mnist_train_lmdb
I0404 07:25:28.493873 32461 net.cpp:84] Creating Layer mnist
I0404 07:25:28.493886 32461 net.cpp:380] mnist -> data
I0404 07:25:28.493914 32461 net.cpp:380] mnist -> label
I0404 07:25:28.493952 32461 data_layer.cpp:45] output data size: 100,1,28,28
I0404 07:25:28.495693 32461 net.cpp:122] Setting up mnist
I0404 07:25:28.495719 32461 net.cpp:129] Top shape: 100 1 28 28 (78400)
I0404 07:25:28.495730 32461 net.cpp:129] Top shape: 100 (100)
I0404 07:25:28.495738 32461 net.cpp:137] Memory required for data: 628000
I0404 07:25:28.495748 32461 layer_factory.hpp:77] Creating layer label_mnist_1_split
I0404 07:25:28.495766 32461 net.cpp:84] Creating Layer label_mnist_1_split
I0404 07:25:28.495777 32461 net.cpp:406] label_mnist_1_split <- label
I0404 07:25:28.495792 32461 net.cpp:380] label_mnist_1_split -> label_mnist_1_split_0
I0404 07:25:28.495805 32461 net.cpp:380] label_mnist_1_split -> label_mnist_1_split_1
I0404 07:25:28.495820 32461 net.cpp:122] Setting up label_mnist_1_split
I0404 07:25:28.495828 32461 net.cpp:129] Top shape: 100 (100)
I0404 07:25:28.495837 32461 net.cpp:129] Top shape: 100 (100)
I0404 07:25:28.495844 32461 net.cpp:137] Memory required for data: 629600
I0404 07:25:28.495851 32461 layer_factory.hpp:77] Creating layer ip1
I0404 07:25:28.495868 32461 net.cpp:84] Creating Layer ip1
I0404 07:25:28.495875 32461 net.cpp:406] ip1 <- data
I0404 07:25:28.495885 32461 net.cpp:380] ip1 -> ip1
I0404 07:25:28.607707 32461 net.cpp:122] Setting up ip1
I0404 07:25:28.607743 32461 net.cpp:129] Top shape: 100 1000 (100000)
I0404 07:25:28.607753 32461 net.cpp:137] Memory required for data: 1429600
I0404 07:25:28.607774 32461 layer_factory.hpp:77] Creating layer relu1
I0404 07:25:28.607795 32461 net.cpp:84] Creating Layer relu1
I0404 07:25:28.607805 32461 net.cpp:406] relu1 <- ip1
I0404 07:25:28.607818 32461 net.cpp:367] relu1 -> ip1 (in-place)
I0404 07:25:28.607842 32461 net.cpp:122] Setting up relu1
I0404 07:25:28.607854 32461 net.cpp:129] Top shape: 100 1000 (100000)
I0404 07:25:28.607861 32461 net.cpp:137] Memory required for data: 2229600
I0404 07:25:28.607869 32461 layer_factory.hpp:77] Creating layer ip2
I0404 07:25:28.607884 32461 net.cpp:84] Creating Layer ip2
I0404 07:25:28.607892 32461 net.cpp:406] ip2 <- ip1
I0404 07:25:28.607904 32461 net.cpp:380] ip2 -> ip2
I0404 07:25:28.710947 32461 net.cpp:122] Setting up ip2
I0404 07:25:28.710983 32461 net.cpp:129] Top shape: 100 1000 (100000)
I0404 07:25:28.710988 32461 net.cpp:137] Memory required for data: 3029600
I0404 07:25:28.711002 32461 layer_factory.hpp:77] Creating layer relu2
I0404 07:25:28.711015 32461 net.cpp:84] Creating Layer relu2
I0404 07:25:28.711020 32461 net.cpp:406] relu2 <- ip2
I0404 07:25:28.711031 32461 net.cpp:367] relu2 -> ip2 (in-place)
I0404 07:25:28.711050 32461 net.cpp:122] Setting up relu2
I0404 07:25:28.711066 32461 net.cpp:129] Top shape: 100 1000 (100000)
I0404 07:25:28.711069 32461 net.cpp:137] Memory required for data: 3829600
I0404 07:25:28.711073 32461 layer_factory.hpp:77] Creating layer ip3
I0404 07:25:28.711081 32461 net.cpp:84] Creating Layer ip3
I0404 07:25:28.711089 32461 net.cpp:406] ip3 <- ip2
I0404 07:25:28.711102 32461 net.cpp:380] ip3 -> ip3
I0404 07:25:28.712164 32461 net.cpp:122] Setting up ip3
I0404 07:25:28.712177 32461 net.cpp:129] Top shape: 100 10 (1000)
I0404 07:25:28.712182 32461 net.cpp:137] Memory required for data: 3837600
I0404 07:25:28.712190 32461 layer_factory.hpp:77] Creating layer ip3_ip3_0_split
I0404 07:25:28.712198 32461 net.cpp:84] Creating Layer ip3_ip3_0_split
I0404 07:25:28.712204 32461 net.cpp:406] ip3_ip3_0_split <- ip3
I0404 07:25:28.712210 32461 net.cpp:380] ip3_ip3_0_split -> ip3_ip3_0_split_0
I0404 07:25:28.712218 32461 net.cpp:380] ip3_ip3_0_split -> ip3_ip3_0_split_1
I0404 07:25:28.712229 32461 net.cpp:122] Setting up ip3_ip3_0_split
I0404 07:25:28.712234 32461 net.cpp:129] Top shape: 100 10 (1000)
I0404 07:25:28.712239 32461 net.cpp:129] Top shape: 100 10 (1000)
I0404 07:25:28.712244 32461 net.cpp:137] Memory required for data: 3853600
I0404 07:25:28.712247 32461 layer_factory.hpp:77] Creating layer accuracy
I0404 07:25:28.712255 32461 net.cpp:84] Creating Layer accuracy
I0404 07:25:28.712260 32461 net.cpp:406] accuracy <- ip3_ip3_0_split_0
I0404 07:25:28.712265 32461 net.cpp:406] accuracy <- label_mnist_1_split_0
I0404 07:25:28.712273 32461 net.cpp:380] accuracy -> accuracy
…
