…
  layer {
    name: "mnist"
    type: "Data"
    top: "data"
    top: "label"
    include {
      phase: TRAIN
    }
    transform_param {
      scale: 0.00390625
    }
    data_param {
      source: "data/mnist_train_lmdb"
      batch_size: 100
      backend: LMDB
    }
  }
  layer {
    name: "mnist"
    type: "Data"
    top: "data"
    top: "label"
    include {
      phase: TEST
    }
    transform_param {
      scale: 0.00390625
    }
    data_param {
      source: "data/mnist_test_lmdb"
      batch_size: 100
      backend: LMDB
    }
  }
  layer {
    name: "ip1"
    type: "InnerProduct"
    bottom: "data"
    top: "ip1"
    inner_product_param {
      num_output: 1000
      weight_filler {
        type: "gaussian"
        mean: 0
        std: 0.01
      }
    }
    bias_param {
      filler {
        value: 0
      }
    }
    fixed_precision: true
    precision {
      enter: 0
      fraccio: 10
      rounding: "stochastic"
    }
  }
  layer {
    name: "relu1"
    type: "ReLU"
    bottom: "ip1"
    top: "ip1"
    fixed_precision: true
    precision {
      enter: 0
      fraccio: 10
      rounding: "stochastic"
    }
  }
  layer {
    name: "ip2"
    type: "InnerProduct"
    bottom: "ip1"
    top: "ip2"
    inner_product_param {
      num_output: 1000
      weight_filler {
        type: "gaussian"
        mean: 0
        std: 0.01
      }
    }
    bias_param {
      filler {
        value: 0
      }
    }
    fixed_precision: true
    precision {
      enter: 0
      fraccio: 10
      rounding: "stochastic"
    }
  }
  layer {
    name: "relu2"
    type: "ReLU"
    bottom: "ip2"
    top: "ip2"
    bias_param {
      filler {
        value: 0
      }
    }
    fixed_precision: true
    precision {
      enter: 0
      fraccio: 10
      rounding: "stochastic"
    }
  }
  layer {
    name: "ip3"
    type: "InnerProduct"
    bottom: "ip2"
    top: "ip3"
    inner_product_param {
      num_output: 10
      weight_filler {
        type: "gaussian"
        mean: 0
        std: 0.01
      }
    }
    bias_param {
      filler {
        value: 0
      }
    }
    fixed_precision: true
    precision {
      enter: 0
      fraccio: 10
      rounding: "stochastic"
    }
  }
  layer {
    name: "accuracy"
    type: "Accuracy"
    bottom: "ip3"
    bottom: "label"
    top: "accuracy"
  }
  layer {
    name: "loss"
    type: "SoftmaxWithLoss"
    bottom: "ip3"
    bottom: "label"
    top: "loss"
    fixed_precision: true
    precision {
      enter: 0
      fraccio: 10
      rounding: "stochastic"
    }
  }
}
train_state {
  level: 0
  stage: ""
}
fixed_precision: true
precision {
  enter: 1
  fraccio: 10
  rounding: "stochastic"
}
I0404 10:48:41.702226 11848 solver.cpp:82] Creating training net specified in net_param.
I0404 10:48:41.702286 11848 net.cpp:294] The NetState phase (0) differed from the phase (1) specified by a rule in layer mnist
I0404 10:48:41.702453 11848 net.cpp:51] Initializing net from parameters: 
name: "LeNet"
state {
  phase: TRAIN
  level: 0
  stage: ""
}
layer {
  name: "mnist"
  type: "Data"
  top: "data"
  top: "label"
  include {
    phase: TRAIN
  }
  transform_param {
    scale: 0.00390625
  }
  data_param {
    source: "data/mnist_train_lmdb"
    batch_size: 100
    backend: LMDB
  }
}
layer {
  name: "ip1"
  type: "InnerProduct"
  bottom: "data"
  top: "ip1"
  inner_product_param {
    num_output: 1000
    weight_filler {
      type: "gaussian"
      mean: 0
      std: 0.01
    }
  }
  bias_param {
    filler {
      value: 0
    }
  }
  fixed_precision: true
  precision {
    enter: 0
    fraccio: 10
    rounding: "stochastic"
  }
}
layer {
  name: "relu1"
  type: "ReLU"
  bottom: "ip1"
  top: "ip1"
  fixed_precision: true
  precision {
    enter: 0
    fraccio: 10
    rounding: "stochastic"
  }
}
layer {
  name: "ip2"
  type: "InnerProduct"
  bottom: "ip1"
  top: "ip2"
  inner_product_param {
    num_output: 1000
    weight_filler {
      type: "gaussian"
      mean: 0
      std: 0.01
    }
  }
  bias_param {
    filler {
      value: 0
    }
  }
  fixed_precision: true
  precision {
    enter: 0
    fraccio: 10
    rounding: "stochastic"
  }
}
layer {
  name: "relu2"
  type: "ReLU"
  bottom: "ip2"
  top: "ip2"
  bias_param {
    filler {
      value: 0
    }
  }
  fixed_precision: true
  precision {
    enter: 0
    fraccio: 10
    rounding: "stochastic"
  }
}
layer {
  name: "ip3"
  type: "InnerProduct"
  bottom: "ip2"
  top: "ip3"
  inner_product_param {
    num_output: 10
    weight_filler {
      type: "gaussian"
      mean: 0
      std: 0.01
    }
  }
  bias_param {
    filler {
      value: 0
    }
  }
  fixed_precision: true
  precision {
    enter: 0
    fraccio: 10
    rounding: "stochastic"
  }
}
layer {
  name: "accuracy"
  type: "Accuracy"
  bottom: "ip3"
  bottom: "label"
  top: "accuracy"
}
layer {
  name: "loss"
  type: "SoftmaxWithLoss"
  bottom: "ip3"
  bottom: "label"
  top: "loss"
  fixed_precision: true
  precision {
    enter: 0
    fraccio: 10
    rounding: "stochastic"
  }
}
I0404 10:48:41.702579 11848 layer_factory.hpp:77] Creating layer mnist
I0404 10:48:41.702695 11848 db_lmdb.cpp:35] Opened lmdb data/mnist_train_lmdb
I0404 10:48:41.702724 11848 net.cpp:84] Creating Layer mnist
I0404 10:48:41.702736 11848 net.cpp:380] mnist -> data
I0404 10:48:41.702764 11848 net.cpp:380] mnist -> label
I0404 10:48:41.702801 11848 data_layer.cpp:45] output data size: 100,1,28,28
I0404 10:48:41.704552 11848 net.cpp:122] Setting up mnist
I0404 10:48:41.704576 11848 net.cpp:129] Top shape: 100 1 28 28 (78400)
I0404 10:48:41.704586 11848 net.cpp:129] Top shape: 100 (100)
I0404 10:48:41.704594 11848 net.cpp:137] Memory required for data: 628000
I0404 10:48:41.704604 11848 layer_factory.hpp:77] Creating layer label_mnist_1_split
I0404 10:48:41.704622 11848 net.cpp:84] Creating Layer label_mnist_1_split
I0404 10:48:41.704630 11848 net.cpp:406] label_mnist_1_split <- label
I0404 10:48:41.704643 11848 net.cpp:380] label_mnist_1_split -> label_mnist_1_split_0
I0404 10:48:41.704656 11848 net.cpp:380] label_mnist_1_split -> label_mnist_1_split_1
I0404 10:48:41.704669 11848 net.cpp:122] Setting up label_mnist_1_split
I0404 10:48:41.704679 11848 net.cpp:129] Top shape: 100 (100)
I0404 10:48:41.704687 11848 net.cpp:129] Top shape: 100 (100)
I0404 10:48:41.704694 11848 net.cpp:137] Memory required for data: 629600
I0404 10:48:41.704701 11848 layer_factory.hpp:77] Creating layer ip1
I0404 10:48:41.704717 11848 net.cpp:84] Creating Layer ip1
I0404 10:48:41.704725 11848 net.cpp:406] ip1 <- data
I0404 10:48:41.704735 11848 net.cpp:380] ip1 -> ip1
I0404 10:48:41.816687 11848 net.cpp:122] Setting up ip1
I0404 10:48:41.816727 11848 net.cpp:129] Top shape: 100 1000 (100000)
I0404 10:48:41.816740 11848 net.cpp:137] Memory required for data: 1429600
I0404 10:48:41.816767 11848 layer_factory.hpp:77] Creating layer relu1
I0404 10:48:41.816788 11848 net.cpp:84] Creating Layer relu1
I0404 10:48:41.816800 11848 net.cpp:406] relu1 <- ip1
I0404 10:48:41.816814 11848 net.cpp:367] relu1 -> ip1 (in-place)
I0404 10:48:41.816838 11848 net.cpp:122] Setting up relu1
I0404 10:48:41.816848 11848 net.cpp:129] Top shape: 100 1000 (100000)
I0404 10:48:41.816855 11848 net.cpp:137] Memory required for data: 2229600
I0404 10:48:41.816864 11848 layer_factory.hpp:77] Creating layer ip2
I0404 10:48:41.816880 11848 net.cpp:84] Creating Layer ip2
I0404 10:48:41.816889 11848 net.cpp:406] ip2 <- ip1
I0404 10:48:41.816900 11848 net.cpp:380] ip2 -> ip2
I0404 10:48:41.917490 11848 net.cpp:122] Setting up ip2
I0404 10:48:41.917526 11848 net.cpp:129] Top shape: 100 1000 (100000)
I0404 10:48:41.917536 11848 net.cpp:137] Memory required for data: 3029600
I0404 10:48:41.917557 11848 layer_factory.hpp:77] Creating layer relu2
I0404 10:48:41.917577 11848 net.cpp:84] Creating Layer relu2
I0404 10:48:41.917587 11848 net.cpp:406] relu2 <- ip2
I0404 10:48:41.917598 11848 net.cpp:367] relu2 -> ip2 (in-place)
I0404 10:48:41.917624 11848 net.cpp:122] Setting up relu2
I0404 10:48:41.917644 11848 net.cpp:129] Top shape: 100 1000 (100000)
I0404 10:48:41.917652 11848 net.cpp:137] Memory required for data: 3829600
I0404 10:48:41.917659 11848 layer_factory.hpp:77] Creating layer ip3
I0404 10:48:41.917672 11848 net.cpp:84] Creating Layer ip3
I0404 10:48:41.917681 11848 net.cpp:406] ip3 <- ip2
I0404 10:48:41.917690 11848 net.cpp:380] ip3 -> ip3
I0404 10:48:41.918709 11848 net.cpp:122] Setting up ip3
I0404 10:48:41.918720 11848 net.cpp:129] Top shape: 100 10 (1000)
I0404 10:48:41.918727 11848 net.cpp:137] Memory required for data: 3837600
I0404 10:48:41.918741 11848 layer_factory.hpp:77] Creating layer ip3_ip3_0_split
I0404 10:48:41.918752 11848 net.cpp:84] Creating Layer ip3_ip3_0_split
I0404 10:48:41.918759 11848 net.cpp:406] ip3_ip3_0_split <- ip3
I0404 10:48:41.918768 11848 net.cpp:380] ip3_ip3_0_split -> ip3_ip3_0_split_0
I0404 10:48:41.918781 11848 net.cpp:380] ip3_ip3_0_split -> ip3_ip3_0_split_1
I0404 10:48:41.918797 11848 net.cpp:122] Setting up ip3_ip3_0_split
I0404 10:48:41.918807 11848 net.cpp:129] Top shape: 100 10 (1000)
I0404 10:48:41.918814 11848 net.cpp:129] Top shape: 100 10 (1000)
I0404 10:48:41.918822 11848 net.cpp:137] Memory required for data: 3853600
I0404 10:48:41.918828 11848 layer_factory.hpp:77] Creating layer accuracy
I0404 10:48:41.918840 11848 net.cpp:84] Creating Layer accuracy
I0404 10:48:41.918846 11848 net.cpp:406] accuracy <- ip3_ip3_0_split_0
I0404 10:48:41.918855 11848 net.cpp:406] accuracy <- label_mnist_1_split_0
I0404 10:48:41.918867 11848 net.cpp:380] accuracy -> accuracy
…
