…
  layer {
    name: "mnist"
    type: "Data"
    top: "data"
    top: "label"
    include {
      phase: TRAIN
    }
    transform_param {
      scale: 0.00390625
    }
    data_param {
      source: "data/mnist_train_lmdb"
      batch_size: 100
      backend: LMDB
    }
  }
  layer {
    name: "mnist"
    type: "Data"
    top: "data"
    top: "label"
    include {
      phase: TEST
    }
    transform_param {
      scale: 0.00390625
    }
    data_param {
      source: "data/mnist_test_lmdb"
      batch_size: 100
      backend: LMDB
    }
  }
  layer {
    name: "ip1"
    type: "InnerProduct"
    bottom: "data"
    top: "ip1"
    inner_product_param {
      num_output: 1000
      weight_filler {
        type: "gaussian"
        mean: 0
        std: 0.1
      }
    }
    bias_param {
      filler {
        value: 0
      }
    }
    floating_point: true
    fpoint {
      exp: 2
      mant: 5
      rounding: "stochastic"
    }
  }
  layer {
    name: "relu1"
    type: "ReLU"
    bottom: "ip1"
    top: "ip1"
    floating_point: true
    fpoint {
      exp: 2
      mant: 5
      rounding: "stochastic"
    }
  }
  layer {
    name: "ip2"
    type: "InnerProduct"
    bottom: "ip1"
    top: "ip2"
    inner_product_param {
      num_output: 1000
      weight_filler {
        type: "gaussian"
        mean: 0
        std: 0.1
      }
    }
    bias_param {
      filler {
        value: 0
      }
    }
    floating_point: true
    fpoint {
      exp: 2
      mant: 5
      rounding: "stochastic"
    }
  }
  layer {
    name: "relu2"
    type: "ReLU"
    bottom: "ip2"
    top: "ip2"
    bias_param {
      filler {
        value: 0
      }
    }
    floating_point: true
    fpoint {
      exp: 2
      mant: 5
      rounding: "stochastic"
    }
  }
  layer {
    name: "ip3"
    type: "InnerProduct"
    bottom: "ip2"
    top: "ip3"
    inner_product_param {
      num_output: 10
      weight_filler {
        type: "gaussian"
        mean: 0
        std: 0.1
      }
    }
    bias_param {
      filler {
        value: 0
      }
    }
    floating_point: true
    fpoint {
      exp: 2
      mant: 5
      rounding: "stochastic"
    }
  }
  layer {
    name: "accuracy"
    type: "Accuracy"
    bottom: "ip3"
    bottom: "label"
    top: "accuracy"
  }
  layer {
    name: "loss"
    type: "SoftmaxWithLoss"
    bottom: "ip3"
    bottom: "label"
    top: "loss"
    floating_point: true
    fpoint {
      exp: 2
      mant: 5
      rounding: "stochastic"
    }
  }
}
train_state {
  level: 0
  stage: ""
}
floating_point: true
fpoint {
  exp: 2
  mant: 5
  rounding: "stochastic"
}
I0504 12:33:32.892343 30060 solver.cpp:82] Creating training net specified in net_param.
I0504 12:33:32.892468 30060 net.cpp:294] The NetState phase (0) differed from the phase (1) specified by a rule in layer mnist
I0504 12:33:32.892632 30060 net.cpp:51] Initializing net from parameters: 
name: "LeNet"
state {
  phase: TRAIN
  level: 0
  stage: ""
}
layer {
  name: "mnist"
  type: "Data"
  top: "data"
  top: "label"
  include {
    phase: TRAIN
  }
  transform_param {
    scale: 0.00390625
  }
  data_param {
    source: "data/mnist_train_lmdb"
    batch_size: 100
    backend: LMDB
  }
}
layer {
  name: "ip1"
  type: "InnerProduct"
  bottom: "data"
  top: "ip1"
  inner_product_param {
    num_output: 1000
    weight_filler {
      type: "gaussian"
      mean: 0
      std: 0.1
    }
  }
  bias_param {
    filler {
      value: 0
    }
  }
  floating_point: true
  fpoint {
    exp: 2
    mant: 5
    rounding: "stochastic"
  }
}
layer {
  name: "relu1"
  type: "ReLU"
  bottom: "ip1"
  top: "ip1"
  floating_point: true
  fpoint {
    exp: 2
    mant: 5
    rounding: "stochastic"
  }
}
layer {
  name: "ip2"
  type: "InnerProduct"
  bottom: "ip1"
  top: "ip2"
  inner_product_param {
    num_output: 1000
    weight_filler {
      type: "gaussian"
      mean: 0
      std: 0.1
    }
  }
  bias_param {
    filler {
      value: 0
    }
  }
  floating_point: true
  fpoint {
    exp: 2
    mant: 5
    rounding: "stochastic"
  }
}
layer {
  name: "relu2"
  type: "ReLU"
  bottom: "ip2"
  top: "ip2"
  bias_param {
    filler {
      value: 0
    }
  }
  floating_point: true
  fpoint {
    exp: 2
    mant: 5
    rounding: "stochastic"
  }
}
layer {
  name: "ip3"
  type: "InnerProduct"
  bottom: "ip2"
  top: "ip3"
  inner_product_param {
    num_output: 10
    weight_filler {
      type: "gaussian"
      mean: 0
      std: 0.1
    }
  }
  bias_param {
    filler {
      value: 0
    }
  }
  floating_point: true
  fpoint {
    exp: 2
    mant: 5
    rounding: "stochastic"
  }
}
layer {
  name: "accuracy"
  type: "Accuracy"
  bottom: "ip3"
  bottom: "label"
  top: "accuracy"
}
layer {
  name: "loss"
  type: "SoftmaxWithLoss"
  bottom: "ip3"
  bottom: "label"
  top: "loss"
  floating_point: true
  fpoint {
    exp: 2
    mant: 5
    rounding: "stochastic"
  }
}
I0504 12:33:32.893244 30060 layer_factory.hpp:77] Creating layer mnist
I0504 12:33:32.981573 30060 db_lmdb.cpp:35] Opened lmdb data/mnist_train_lmdb
I0504 12:33:32.981999 30060 net.cpp:84] Creating Layer mnist
I0504 12:33:32.982051 30060 net.cpp:380] mnist -> data
I0504 12:33:32.982136 30060 net.cpp:380] mnist -> label
I0504 12:33:32.982290 30060 data_layer.cpp:45] output data size: 100,1,28,28
I0504 12:33:32.984125 30060 net.cpp:122] Setting up mnist
I0504 12:33:32.984181 30060 net.cpp:129] Top shape: 100 1 28 28 (78400)
I0504 12:33:32.984200 30060 net.cpp:129] Top shape: 100 (100)
I0504 12:33:32.984210 30060 net.cpp:137] Memory required for data: 628000
I0504 12:33:32.984226 30060 layer_factory.hpp:77] Creating layer label_mnist_1_split
I0504 12:33:32.984257 30060 net.cpp:84] Creating Layer label_mnist_1_split
I0504 12:33:32.984273 30060 net.cpp:406] label_mnist_1_split <- label
I0504 12:33:32.984293 30060 net.cpp:380] label_mnist_1_split -> label_mnist_1_split_0
I0504 12:33:32.984311 30060 net.cpp:380] label_mnist_1_split -> label_mnist_1_split_1
I0504 12:33:32.984329 30060 net.cpp:122] Setting up label_mnist_1_split
I0504 12:33:32.984344 30060 net.cpp:129] Top shape: 100 (100)
I0504 12:33:32.984354 30060 net.cpp:129] Top shape: 100 (100)
I0504 12:33:32.984364 30060 net.cpp:137] Memory required for data: 629600
I0504 12:33:32.984375 30060 layer_factory.hpp:77] Creating layer ip1
I0504 12:33:32.984412 30060 net.cpp:84] Creating Layer ip1
I0504 12:33:32.984428 30060 net.cpp:406] ip1 <- data
I0504 12:33:32.984443 30060 net.cpp:380] ip1 -> ip1
I0504 12:33:33.008385 30060 net.cpp:122] Setting up ip1
I0504 12:33:33.008424 30060 net.cpp:129] Top shape: 100 1000 (100000)
I0504 12:33:33.008435 30060 net.cpp:137] Memory required for data: 1429600
I0504 12:33:33.008473 30060 layer_factory.hpp:77] Creating layer relu1
I0504 12:33:33.008517 30060 net.cpp:84] Creating Layer relu1
I0504 12:33:33.008533 30060 net.cpp:406] relu1 <- ip1
I0504 12:33:33.008548 30060 net.cpp:367] relu1 -> ip1 (in-place)
I0504 12:33:33.008566 30060 net.cpp:122] Setting up relu1
I0504 12:33:33.008579 30060 net.cpp:129] Top shape: 100 1000 (100000)
I0504 12:33:33.008589 30060 net.cpp:137] Memory required for data: 2229600
I0504 12:33:33.008599 30060 layer_factory.hpp:77] Creating layer ip2
I0504 12:33:33.008616 30060 net.cpp:84] Creating Layer ip2
I0504 12:33:33.008627 30060 net.cpp:406] ip2 <- ip1
I0504 12:33:33.008641 30060 net.cpp:380] ip2 -> ip2
I0504 12:33:33.033843 30060 net.cpp:122] Setting up ip2
I0504 12:33:33.033881 30060 net.cpp:129] Top shape: 100 1000 (100000)
I0504 12:33:33.033891 30060 net.cpp:137] Memory required for data: 3029600
I0504 12:33:33.033911 30060 layer_factory.hpp:77] Creating layer relu2
I0504 12:33:33.033929 30060 net.cpp:84] Creating Layer relu2
I0504 12:33:33.033941 30060 net.cpp:406] relu2 <- ip2
I0504 12:33:33.033956 30060 net.cpp:367] relu2 -> ip2 (in-place)
I0504 12:33:33.033972 30060 net.cpp:122] Setting up relu2
I0504 12:33:33.033985 30060 net.cpp:129] Top shape: 100 1000 (100000)
I0504 12:33:33.034037 30060 net.cpp:137] Memory required for data: 3829600
I0504 12:33:33.034049 30060 layer_factory.hpp:77] Creating layer ip3
I0504 12:33:33.034065 30060 net.cpp:84] Creating Layer ip3
I0504 12:33:33.034075 30060 net.cpp:406] ip3 <- ip2
I0504 12:33:33.034090 30060 net.cpp:380] ip3 -> ip3
I0504 12:33:33.034379 30060 net.cpp:122] Setting up ip3
I0504 12:33:33.034400 30060 net.cpp:129] Top shape: 100 10 (1000)
I0504 12:33:33.034410 30060 net.cpp:137] Memory required for data: 3837600
I0504 12:33:33.034427 30060 layer_factory.hpp:77] Creating layer ip3_ip3_0_split
I0504 12:33:33.034443 30060 net.cpp:84] Creating Layer ip3_ip3_0_split
I0504 12:33:33.034454 30060 net.cpp:406] ip3_ip3_0_split <- ip3
I0504 12:33:33.034467 30060 net.cpp:380] ip3_ip3_0_split -> ip3_ip3_0_split_0
I0504 12:33:33.034482 30060 net.cpp:380] ip3_ip3_0_split -> ip3_ip3_0_split_1
I0504 12:33:33.034499 30060 net.cpp:122] Setting up ip3_ip3_0_split
I0504 12:33:33.034512 30060 net.cpp:129] Top shape: 100 10 (1000)
I0504 12:33:33.034524 30060 net.cpp:129] Top shape: 100 10 (1000)
I0504 12:33:33.034534 30060 net.cpp:137] Memory required for data: 3853600
I0504 12:33:33.034544 30060 layer_factory.hpp:77] Creating layer accuracy
I0504 12:33:33.034581 30060 net.cpp:84] Creating Layer accuracy
I0504 12:33:33.034597 30060 net.cpp:406] accuracy <- ip3_ip3_0_split_0
I0504 12:33:33.034610 30060 net.cpp:406] accuracy <- label_mnist_1_split_0
I0504 12:33:33.034621 30060 net.cpp:380] accuracy -> accuracy
…
