…
  layer {
    name: "mnist"
    type: "Data"
    top: "data"
    top: "label"
    include {
      phase: TRAIN
    }
    transform_param {
      scale: 0.00390625
    }
    data_param {
      source: "data/mnist_train_lmdb"
      batch_size: 100
      backend: LMDB
    }
  }
  layer {
    name: "mnist"
    type: "Data"
    top: "data"
    top: "label"
    include {
      phase: TEST
    }
    transform_param {
      scale: 0.00390625
    }
    data_param {
      source: "data/mnist_test_lmdb"
      batch_size: 100
      backend: LMDB
    }
  }
  layer {
    name: "ip1"
    type: "InnerProduct"
    bottom: "data"
    top: "ip1"
    inner_product_param {
      num_output: 1000
      weight_filler {
        type: "gaussian"
        mean: 0
        std: 0.01
      }
    }
    bias_param {
      filler {
        value: 0
      }
    }
    fixed_precision: true
    precision {
      enter: 0
      fraccio: 9
      rounding: "stochastic"
    }
  }
  layer {
    name: "relu1"
    type: "ReLU"
    bottom: "ip1"
    top: "ip1"
    fixed_precision: true
    precision {
      enter: 0
      fraccio: 9
      rounding: "stochastic"
    }
  }
  layer {
    name: "ip2"
    type: "InnerProduct"
    bottom: "ip1"
    top: "ip2"
    inner_product_param {
      num_output: 1000
      weight_filler {
        type: "gaussian"
        mean: 0
        std: 0.01
      }
    }
    bias_param {
      filler {
        value: 0
      }
    }
    fixed_precision: true
    precision {
      enter: 0
      fraccio: 9
      rounding: "stochastic"
    }
  }
  layer {
    name: "relu2"
    type: "ReLU"
    bottom: "ip2"
    top: "ip2"
    bias_param {
      filler {
        value: 0
      }
    }
    fixed_precision: true
    precision {
      enter: 0
      fraccio: 9
      rounding: "stochastic"
    }
  }
  layer {
    name: "ip3"
    type: "InnerProduct"
    bottom: "ip2"
    top: "ip3"
    inner_product_param {
      num_output: 10
      weight_filler {
        type: "gaussian"
        mean: 0
        std: 0.01
      }
    }
    bias_param {
      filler {
        value: 0
      }
    }
    fixed_precision: true
    precision {
      enter: 0
      fraccio: 9
      rounding: "stochastic"
    }
  }
  layer {
    name: "accuracy"
    type: "Accuracy"
    bottom: "ip3"
    bottom: "label"
    top: "accuracy"
  }
  layer {
    name: "loss"
    type: "SoftmaxWithLoss"
    bottom: "ip3"
    bottom: "label"
    top: "loss"
    fixed_precision: true
    precision {
      enter: 0
      fraccio: 9
      rounding: "stochastic"
    }
  }
}
train_state {
  level: 0
  stage: ""
}
fixed_precision: true
precision {
  enter: 0
  fraccio: 9
  rounding: "stochastic"
}
I0404 16:34:36.528121  4516 solver.cpp:82] Creating training net specified in net_param.
I0404 16:34:36.528169  4516 net.cpp:294] The NetState phase (0) differed from the phase (1) specified by a rule in layer mnist
I0404 16:34:36.528308  4516 net.cpp:51] Initializing net from parameters: 
name: "LeNet"
state {
  phase: TRAIN
  level: 0
  stage: ""
}
layer {
  name: "mnist"
  type: "Data"
  top: "data"
  top: "label"
  include {
    phase: TRAIN
  }
  transform_param {
    scale: 0.00390625
  }
  data_param {
    source: "data/mnist_train_lmdb"
    batch_size: 100
    backend: LMDB
  }
}
layer {
  name: "ip1"
  type: "InnerProduct"
  bottom: "data"
  top: "ip1"
  inner_product_param {
    num_output: 1000
    weight_filler {
      type: "gaussian"
      mean: 0
      std: 0.01
    }
  }
  bias_param {
    filler {
      value: 0
    }
  }
  fixed_precision: true
  precision {
    enter: 0
    fraccio: 9
    rounding: "stochastic"
  }
}
layer {
  name: "relu1"
  type: "ReLU"
  bottom: "ip1"
  top: "ip1"
  fixed_precision: true
  precision {
    enter: 0
    fraccio: 9
    rounding: "stochastic"
  }
}
layer {
  name: "ip2"
  type: "InnerProduct"
  bottom: "ip1"
  top: "ip2"
  inner_product_param {
    num_output: 1000
    weight_filler {
      type: "gaussian"
      mean: 0
      std: 0.01
    }
  }
  bias_param {
    filler {
      value: 0
    }
  }
  fixed_precision: true
  precision {
    enter: 0
    fraccio: 9
    rounding: "stochastic"
  }
}
layer {
  name: "relu2"
  type: "ReLU"
  bottom: "ip2"
  top: "ip2"
  bias_param {
    filler {
      value: 0
    }
  }
  fixed_precision: true
  precision {
    enter: 0
    fraccio: 9
    rounding: "stochastic"
  }
}
layer {
  name: "ip3"
  type: "InnerProduct"
  bottom: "ip2"
  top: "ip3"
  inner_product_param {
    num_output: 10
    weight_filler {
      type: "gaussian"
      mean: 0
      std: 0.01
    }
  }
  bias_param {
    filler {
      value: 0
    }
  }
  fixed_precision: true
  precision {
    enter: 0
    fraccio: 9
    rounding: "stochastic"
  }
}
layer {
  name: "accuracy"
  type: "Accuracy"
  bottom: "ip3"
  bottom: "label"
  top: "accuracy"
}
layer {
  name: "loss"
  type: "SoftmaxWithLoss"
  bottom: "ip3"
  bottom: "label"
  top: "loss"
  fixed_precision: true
  precision {
    enter: 0
    fraccio: 9
    rounding: "stochastic"
  }
}
I0404 16:34:36.528411  4516 layer_factory.hpp:77] Creating layer mnist
I0404 16:34:36.528513  4516 db_lmdb.cpp:35] Opened lmdb data/mnist_train_lmdb
I0404 16:34:36.528537  4516 net.cpp:84] Creating Layer mnist
I0404 16:34:36.528548  4516 net.cpp:380] mnist -> data
I0404 16:34:36.528571  4516 net.cpp:380] mnist -> label
I0404 16:34:36.528602  4516 data_layer.cpp:45] output data size: 100,1,28,28
I0404 16:34:36.530086  4516 net.cpp:122] Setting up mnist
I0404 16:34:36.530112  4516 net.cpp:129] Top shape: 100 1 28 28 (78400)
I0404 16:34:36.530120  4516 net.cpp:129] Top shape: 100 (100)
I0404 16:34:36.530127  4516 net.cpp:137] Memory required for data: 628000
I0404 16:34:36.530136  4516 layer_factory.hpp:77] Creating layer label_mnist_1_split
I0404 16:34:36.530151  4516 net.cpp:84] Creating Layer label_mnist_1_split
I0404 16:34:36.530159  4516 net.cpp:406] label_mnist_1_split <- label
I0404 16:34:36.530172  4516 net.cpp:380] label_mnist_1_split -> label_mnist_1_split_0
I0404 16:34:36.530184  4516 net.cpp:380] label_mnist_1_split -> label_mnist_1_split_1
I0404 16:34:36.530194  4516 net.cpp:122] Setting up label_mnist_1_split
I0404 16:34:36.530203  4516 net.cpp:129] Top shape: 100 (100)
I0404 16:34:36.530210  4516 net.cpp:129] Top shape: 100 (100)
I0404 16:34:36.530216  4516 net.cpp:137] Memory required for data: 629600
I0404 16:34:36.530221  4516 layer_factory.hpp:77] Creating layer ip1
I0404 16:34:36.530236  4516 net.cpp:84] Creating Layer ip1
I0404 16:34:36.530241  4516 net.cpp:406] ip1 <- data
I0404 16:34:36.530251  4516 net.cpp:380] ip1 -> ip1
I0404 16:34:36.631842  4516 net.cpp:122] Setting up ip1
I0404 16:34:36.631887  4516 net.cpp:129] Top shape: 100 1000 (100000)
I0404 16:34:36.631892  4516 net.cpp:137] Memory required for data: 1429600
I0404 16:34:36.631908  4516 layer_factory.hpp:77] Creating layer relu1
I0404 16:34:36.631919  4516 net.cpp:84] Creating Layer relu1
I0404 16:34:36.631924  4516 net.cpp:406] relu1 <- ip1
I0404 16:34:36.631932  4516 net.cpp:367] relu1 -> ip1 (in-place)
I0404 16:34:36.631950  4516 net.cpp:122] Setting up relu1
I0404 16:34:36.631965  4516 net.cpp:129] Top shape: 100 1000 (100000)
I0404 16:34:36.631968  4516 net.cpp:137] Memory required for data: 2229600
I0404 16:34:36.631971  4516 layer_factory.hpp:77] Creating layer ip2
I0404 16:34:36.631990  4516 net.cpp:84] Creating Layer ip2
I0404 16:34:36.631994  4516 net.cpp:406] ip2 <- ip1
I0404 16:34:36.632000  4516 net.cpp:380] ip2 -> ip2
I0404 16:34:36.714601  4516 net.cpp:122] Setting up ip2
I0404 16:34:36.714640  4516 net.cpp:129] Top shape: 100 1000 (100000)
I0404 16:34:36.714645  4516 net.cpp:137] Memory required for data: 3029600
I0404 16:34:36.714658  4516 layer_factory.hpp:77] Creating layer relu2
I0404 16:34:36.714671  4516 net.cpp:84] Creating Layer relu2
I0404 16:34:36.714675  4516 net.cpp:406] relu2 <- ip2
I0404 16:34:36.714684  4516 net.cpp:367] relu2 -> ip2 (in-place)
I0404 16:34:36.714704  4516 net.cpp:122] Setting up relu2
I0404 16:34:36.714717  4516 net.cpp:129] Top shape: 100 1000 (100000)
I0404 16:34:36.714721  4516 net.cpp:137] Memory required for data: 3829600
I0404 16:34:36.714725  4516 layer_factory.hpp:77] Creating layer ip3
I0404 16:34:36.714731  4516 net.cpp:84] Creating Layer ip3
I0404 16:34:36.714735  4516 net.cpp:406] ip3 <- ip2
I0404 16:34:36.714740  4516 net.cpp:380] ip3 -> ip3
I0404 16:34:36.715613  4516 net.cpp:122] Setting up ip3
I0404 16:34:36.715621  4516 net.cpp:129] Top shape: 100 10 (1000)
I0404 16:34:36.715636  4516 net.cpp:137] Memory required for data: 3837600
I0404 16:34:36.715643  4516 layer_factory.hpp:77] Creating layer ip3_ip3_0_split
I0404 16:34:36.715648  4516 net.cpp:84] Creating Layer ip3_ip3_0_split
I0404 16:34:36.715652  4516 net.cpp:406] ip3_ip3_0_split <- ip3
I0404 16:34:36.715657  4516 net.cpp:380] ip3_ip3_0_split -> ip3_ip3_0_split_0
I0404 16:34:36.715665  4516 net.cpp:380] ip3_ip3_0_split -> ip3_ip3_0_split_1
I0404 16:34:36.715673  4516 net.cpp:122] Setting up ip3_ip3_0_split
I0404 16:34:36.715678  4516 net.cpp:129] Top shape: 100 10 (1000)
I0404 16:34:36.715683  4516 net.cpp:129] Top shape: 100 10 (1000)
I0404 16:34:36.715687  4516 net.cpp:137] Memory required for data: 3853600
I0404 16:34:36.715689  4516 layer_factory.hpp:77] Creating layer accuracy
I0404 16:34:36.715697  4516 net.cpp:84] Creating Layer accuracy
I0404 16:34:36.715700  4516 net.cpp:406] accuracy <- ip3_ip3_0_split_0
I0404 16:34:36.715705  4516 net.cpp:406] accuracy <- label_mnist_1_split_0
I0404 16:34:36.715711  4516 net.cpp:380] accuracy -> accuracy
…
