…
  layer {
    name: "mnist"
    type: "Data"
    top: "data"
    top: "label"
    include {
      phase: TRAIN
    }
    transform_param {
      scale: 0.00390625
    }
    data_param {
      source: "data/mnist_train_lmdb"
      batch_size: 100
      backend: LMDB
    }
  }
  layer {
    name: "mnist"
    type: "Data"
    top: "data"
    top: "label"
    include {
      phase: TEST
    }
    transform_param {
      scale: 0.00390625
    }
    data_param {
      source: "data/mnist_test_lmdb"
      batch_size: 100
      backend: LMDB
    }
  }
  layer {
    name: "ip1"
    type: "InnerProduct"
    bottom: "data"
    top: "ip1"
    inner_product_param {
      num_output: 1000
      weight_filler {
        type: "gaussian"
        mean: 0
        std: 0.01
      }
    }
    bias_param {
      filler {
        value: 0
      }
    }
    fixed_precision: true
    precision {
      enter: 0
      fraccio: 9
      rounding: "stochastic"
    }
  }
  layer {
    name: "relu1"
    type: "ReLU"
    bottom: "ip1"
    top: "ip1"
    fixed_precision: true
    precision {
      enter: 0
      fraccio: 9
      rounding: "stochastic"
    }
  }
  layer {
    name: "ip2"
    type: "InnerProduct"
    bottom: "ip1"
    top: "ip2"
    inner_product_param {
      num_output: 1000
      weight_filler {
        type: "gaussian"
        mean: 0
        std: 0.01
      }
    }
    bias_param {
      filler {
        value: 0
      }
    }
    fixed_precision: true
    precision {
      enter: 0
      fraccio: 9
      rounding: "stochastic"
    }
  }
  layer {
    name: "relu2"
    type: "ReLU"
    bottom: "ip2"
    top: "ip2"
    bias_param {
      filler {
        value: 0
      }
    }
    fixed_precision: true
    precision {
      enter: 0
      fraccio: 9
      rounding: "stochastic"
    }
  }
  layer {
    name: "ip3"
    type: "InnerProduct"
    bottom: "ip2"
    top: "ip3"
    inner_product_param {
      num_output: 10
      weight_filler {
        type: "gaussian"
        mean: 0
        std: 0.01
      }
    }
    bias_param {
      filler {
        value: 0
      }
    }
    fixed_precision: true
    precision {
      enter: 0
      fraccio: 9
      rounding: "stochastic"
    }
  }
  layer {
    name: "accuracy"
    type: "Accuracy"
    bottom: "ip3"
    bottom: "label"
    top: "accuracy"
  }
  layer {
    name: "loss"
    type: "SoftmaxWithLoss"
    bottom: "ip3"
    bottom: "label"
    top: "loss"
    fixed_precision: true
    precision {
      enter: 0
      fraccio: 9
      rounding: "stochastic"
    }
  }
}
train_state {
  level: 0
  stage: ""
}
fixed_precision: true
precision {
  enter: 0
  fraccio: 9
  rounding: "stochastic"
}
I0404 16:34:36.973961  4522 solver.cpp:82] Creating training net specified in net_param.
I0404 16:34:36.974017  4522 net.cpp:294] The NetState phase (0) differed from the phase (1) specified by a rule in layer mnist
I0404 16:34:36.974162  4522 net.cpp:51] Initializing net from parameters: 
name: "LeNet"
state {
  phase: TRAIN
  level: 0
  stage: ""
}
layer {
  name: "mnist"
  type: "Data"
  top: "data"
  top: "label"
  include {
    phase: TRAIN
  }
  transform_param {
    scale: 0.00390625
  }
  data_param {
    source: "data/mnist_train_lmdb"
    batch_size: 100
    backend: LMDB
  }
}
layer {
  name: "ip1"
  type: "InnerProduct"
  bottom: "data"
  top: "ip1"
  inner_product_param {
    num_output: 1000
    weight_filler {
      type: "gaussian"
      mean: 0
      std: 0.01
    }
  }
  bias_param {
    filler {
      value: 0
    }
  }
  fixed_precision: true
  precision {
    enter: 0
    fraccio: 9
    rounding: "stochastic"
  }
}
layer {
  name: "relu1"
  type: "ReLU"
  bottom: "ip1"
  top: "ip1"
  fixed_precision: true
  precision {
    enter: 0
    fraccio: 9
    rounding: "stochastic"
  }
}
layer {
  name: "ip2"
  type: "InnerProduct"
  bottom: "ip1"
  top: "ip2"
  inner_product_param {
    num_output: 1000
    weight_filler {
      type: "gaussian"
      mean: 0
      std: 0.01
    }
  }
  bias_param {
    filler {
      value: 0
    }
  }
  fixed_precision: true
  precision {
    enter: 0
    fraccio: 9
    rounding: "stochastic"
  }
}
layer {
  name: "relu2"
  type: "ReLU"
  bottom: "ip2"
  top: "ip2"
  bias_param {
    filler {
      value: 0
    }
  }
  fixed_precision: true
  precision {
    enter: 0
    fraccio: 9
    rounding: "stochastic"
  }
}
layer {
  name: "ip3"
  type: "InnerProduct"
  bottom: "ip2"
  top: "ip3"
  inner_product_param {
    num_output: 10
    weight_filler {
      type: "gaussian"
      mean: 0
      std: 0.01
    }
  }
  bias_param {
    filler {
      value: 0
    }
  }
  fixed_precision: true
  precision {
    enter: 0
    fraccio: 9
    rounding: "stochastic"
  }
}
layer {
  name: "accuracy"
  type: "Accuracy"
  bottom: "ip3"
  bottom: "label"
  top: "accuracy"
}
layer {
  name: "loss"
  type: "SoftmaxWithLoss"
  bottom: "ip3"
  bottom: "label"
  top: "loss"
  fixed_precision: true
  precision {
    enter: 0
    fraccio: 9
    rounding: "stochastic"
  }
}
I0404 16:34:36.974272  4522 layer_factory.hpp:77] Creating layer mnist
I0404 16:34:36.974382  4522 db_lmdb.cpp:35] Opened lmdb data/mnist_train_lmdb
I0404 16:34:36.974411  4522 net.cpp:84] Creating Layer mnist
I0404 16:34:36.974424  4522 net.cpp:380] mnist -> data
I0404 16:34:36.974452  4522 net.cpp:380] mnist -> label
I0404 16:34:36.974489  4522 data_layer.cpp:45] output data size: 100,1,28,28
I0404 16:34:36.975978  4522 net.cpp:122] Setting up mnist
I0404 16:34:36.976006  4522 net.cpp:129] Top shape: 100 1 28 28 (78400)
I0404 16:34:36.976014  4522 net.cpp:129] Top shape: 100 (100)
I0404 16:34:36.976022  4522 net.cpp:137] Memory required for data: 628000
I0404 16:34:36.976037  4522 layer_factory.hpp:77] Creating layer label_mnist_1_split
I0404 16:34:36.976056  4522 net.cpp:84] Creating Layer label_mnist_1_split
I0404 16:34:36.976066  4522 net.cpp:406] label_mnist_1_split <- label
I0404 16:34:36.976081  4522 net.cpp:380] label_mnist_1_split -> label_mnist_1_split_0
I0404 16:34:36.976094  4522 net.cpp:380] label_mnist_1_split -> label_mnist_1_split_1
I0404 16:34:36.976109  4522 net.cpp:122] Setting up label_mnist_1_split
I0404 16:34:36.976120  4522 net.cpp:129] Top shape: 100 (100)
I0404 16:34:36.976128  4522 net.cpp:129] Top shape: 100 (100)
I0404 16:34:36.976136  4522 net.cpp:137] Memory required for data: 629600
I0404 16:34:36.976142  4522 layer_factory.hpp:77] Creating layer ip1
I0404 16:34:36.976160  4522 net.cpp:84] Creating Layer ip1
I0404 16:34:36.976168  4522 net.cpp:406] ip1 <- data
I0404 16:34:36.976177  4522 net.cpp:380] ip1 -> ip1
I0404 16:34:37.079779  4522 net.cpp:122] Setting up ip1
I0404 16:34:37.079816  4522 net.cpp:129] Top shape: 100 1000 (100000)
I0404 16:34:37.079823  4522 net.cpp:137] Memory required for data: 1429600
I0404 16:34:37.079843  4522 layer_factory.hpp:77] Creating layer relu1
I0404 16:34:37.079859  4522 net.cpp:84] Creating Layer relu1
I0404 16:34:37.079869  4522 net.cpp:406] relu1 <- ip1
I0404 16:34:37.079879  4522 net.cpp:367] relu1 -> ip1 (in-place)
I0404 16:34:37.079898  4522 net.cpp:122] Setting up relu1
I0404 16:34:37.079907  4522 net.cpp:129] Top shape: 100 1000 (100000)
I0404 16:34:37.079913  4522 net.cpp:137] Memory required for data: 2229600
I0404 16:34:37.079919  4522 layer_factory.hpp:77] Creating layer ip2
I0404 16:34:37.079932  4522 net.cpp:84] Creating Layer ip2
I0404 16:34:37.079939  4522 net.cpp:406] ip2 <- ip1
I0404 16:34:37.079948  4522 net.cpp:380] ip2 -> ip2
I0404 16:34:37.163771  4522 net.cpp:122] Setting up ip2
I0404 16:34:37.163810  4522 net.cpp:129] Top shape: 100 1000 (100000)
I0404 16:34:37.163817  4522 net.cpp:137] Memory required for data: 3029600
I0404 16:34:37.163836  4522 layer_factory.hpp:77] Creating layer relu2
I0404 16:34:37.163852  4522 net.cpp:84] Creating Layer relu2
I0404 16:34:37.163861  4522 net.cpp:406] relu2 <- ip2
I0404 16:34:37.163873  4522 net.cpp:367] relu2 -> ip2 (in-place)
I0404 16:34:37.163898  4522 net.cpp:122] Setting up relu2
I0404 16:34:37.163918  4522 net.cpp:129] Top shape: 100 1000 (100000)
I0404 16:34:37.163925  4522 net.cpp:137] Memory required for data: 3829600
I0404 16:34:37.163933  4522 layer_factory.hpp:77] Creating layer ip3
I0404 16:34:37.163944  4522 net.cpp:84] Creating Layer ip3
I0404 16:34:37.163954  4522 net.cpp:406] ip3 <- ip2
I0404 16:34:37.163964  4522 net.cpp:380] ip3 -> ip3
I0404 16:34:37.164925  4522 net.cpp:122] Setting up ip3
I0404 16:34:37.164937  4522 net.cpp:129] Top shape: 100 10 (1000)
I0404 16:34:37.164943  4522 net.cpp:137] Memory required for data: 3837600
I0404 16:34:37.164957  4522 layer_factory.hpp:77] Creating layer ip3_ip3_0_split
I0404 16:34:37.164968  4522 net.cpp:84] Creating Layer ip3_ip3_0_split
I0404 16:34:37.164974  4522 net.cpp:406] ip3_ip3_0_split <- ip3
I0404 16:34:37.164983  4522 net.cpp:380] ip3_ip3_0_split -> ip3_ip3_0_split_0
I0404 16:34:37.164995  4522 net.cpp:380] ip3_ip3_0_split -> ip3_ip3_0_split_1
I0404 16:34:37.165009  4522 net.cpp:122] Setting up ip3_ip3_0_split
I0404 16:34:37.165017  4522 net.cpp:129] Top shape: 100 10 (1000)
I0404 16:34:37.165033  4522 net.cpp:129] Top shape: 100 10 (1000)
I0404 16:34:37.165042  4522 net.cpp:137] Memory required for data: 3853600
I0404 16:34:37.165050  4522 layer_factory.hpp:77] Creating layer accuracy
I0404 16:34:37.165061  4522 net.cpp:84] Creating Layer accuracy
I0404 16:34:37.165067  4522 net.cpp:406] accuracy <- ip3_ip3_0_split_0
I0404 16:34:37.165076  4522 net.cpp:406] accuracy <- label_mnist_1_split_0
I0404 16:34:37.165088  4522 net.cpp:380] accuracy -> accuracy
…
