…
  layer {
    name: "mnist"
    type: "Data"
    top: "data"
    top: "label"
    include {
      phase: TRAIN
    }
    transform_param {
      scale: 0.00390625
    }
    data_param {
      source: "data/mnist_train_lmdb"
      batch_size: 100
      backend: LMDB
    }
  }
  layer {
    name: "mnist"
    type: "Data"
    top: "data"
    top: "label"
    include {
      phase: TEST
    }
    transform_param {
      scale: 0.00390625
    }
    data_param {
      source: "data/mnist_test_lmdb"
      batch_size: 100
      backend: LMDB
    }
  }
  layer {
    name: "ip1"
    type: "InnerProduct"
    bottom: "data"
    top: "ip1"
    inner_product_param {
      num_output: 1000
      weight_filler {
        type: "gaussian"
        mean: 0
        std: 0.01
      }
    }
    bias_param {
      filler {
        value: 0
      }
    }
    fixed_precision: true
    precision {
      enter: 0
      fraccio: 9
      rounding: "stochastic"
    }
  }
  layer {
    name: "relu1"
    type: "ReLU"
    bottom: "ip1"
    top: "ip1"
    fixed_precision: true
    precision {
      enter: 0
      fraccio: 9
      rounding: "stochastic"
    }
  }
  layer {
    name: "ip2"
    type: "InnerProduct"
    bottom: "ip1"
    top: "ip2"
    inner_product_param {
      num_output: 1000
      weight_filler {
        type: "gaussian"
        mean: 0
        std: 0.01
      }
    }
    bias_param {
      filler {
        value: 0
      }
    }
    fixed_precision: true
    precision {
      enter: 0
      fraccio: 9
      rounding: "stochastic"
    }
  }
  layer {
    name: "relu2"
    type: "ReLU"
    bottom: "ip2"
    top: "ip2"
    bias_param {
      filler {
        value: 0
      }
    }
    fixed_precision: true
    precision {
      enter: 0
      fraccio: 9
      rounding: "stochastic"
    }
  }
  layer {
    name: "ip3"
    type: "InnerProduct"
    bottom: "ip2"
    top: "ip3"
    inner_product_param {
      num_output: 10
      weight_filler {
        type: "gaussian"
        mean: 0
        std: 0.01
      }
    }
    bias_param {
      filler {
        value: 0
      }
    }
    fixed_precision: true
    precision {
      enter: 0
      fraccio: 9
      rounding: "stochastic"
    }
  }
  layer {
    name: "accuracy"
    type: "Accuracy"
    bottom: "ip3"
    bottom: "label"
    top: "accuracy"
  }
  layer {
    name: "loss"
    type: "SoftmaxWithLoss"
    bottom: "ip3"
    bottom: "label"
    top: "loss"
    fixed_precision: true
    precision {
      enter: 0
      fraccio: 9
      rounding: "stochastic"
    }
  }
}
train_state {
  level: 0
  stage: ""
}
fixed_precision: true
precision {
  enter: 0
  fraccio: 9
  rounding: "stochastic"
}
I0404 16:34:37.407224  4531 solver.cpp:82] Creating training net specified in net_param.
I0404 16:34:37.407274  4531 net.cpp:294] The NetState phase (0) differed from the phase (1) specified by a rule in layer mnist
I0404 16:34:37.407416  4531 net.cpp:51] Initializing net from parameters: 
name: "LeNet"
state {
  phase: TRAIN
  level: 0
  stage: ""
}
layer {
  name: "mnist"
  type: "Data"
  top: "data"
  top: "label"
  include {
    phase: TRAIN
  }
  transform_param {
    scale: 0.00390625
  }
  data_param {
    source: "data/mnist_train_lmdb"
    batch_size: 100
    backend: LMDB
  }
}
layer {
  name: "ip1"
  type: "InnerProduct"
  bottom: "data"
  top: "ip1"
  inner_product_param {
    num_output: 1000
    weight_filler {
      type: "gaussian"
      mean: 0
      std: 0.01
    }
  }
  bias_param {
    filler {
      value: 0
    }
  }
  fixed_precision: true
  precision {
    enter: 0
    fraccio: 9
    rounding: "stochastic"
  }
}
layer {
  name: "relu1"
  type: "ReLU"
  bottom: "ip1"
  top: "ip1"
  fixed_precision: true
  precision {
    enter: 0
    fraccio: 9
    rounding: "stochastic"
  }
}
layer {
  name: "ip2"
  type: "InnerProduct"
  bottom: "ip1"
  top: "ip2"
  inner_product_param {
    num_output: 1000
    weight_filler {
      type: "gaussian"
      mean: 0
      std: 0.01
    }
  }
  bias_param {
    filler {
      value: 0
    }
  }
  fixed_precision: true
  precision {
    enter: 0
    fraccio: 9
    rounding: "stochastic"
  }
}
layer {
  name: "relu2"
  type: "ReLU"
  bottom: "ip2"
  top: "ip2"
  bias_param {
    filler {
      value: 0
    }
  }
  fixed_precision: true
  precision {
    enter: 0
    fraccio: 9
    rounding: "stochastic"
  }
}
layer {
  name: "ip3"
  type: "InnerProduct"
  bottom: "ip2"
  top: "ip3"
  inner_product_param {
    num_output: 10
    weight_filler {
      type: "gaussian"
      mean: 0
      std: 0.01
    }
  }
  bias_param {
    filler {
      value: 0
    }
  }
  fixed_precision: true
  precision {
    enter: 0
    fraccio: 9
    rounding: "stochastic"
  }
}
layer {
  name: "accuracy"
  type: "Accuracy"
  bottom: "ip3"
  bottom: "label"
  top: "accuracy"
}
layer {
  name: "loss"
  type: "SoftmaxWithLoss"
  bottom: "ip3"
  bottom: "label"
  top: "loss"
  fixed_precision: true
  precision {
    enter: 0
    fraccio: 9
    rounding: "stochastic"
  }
}
I0404 16:34:37.407526  4531 layer_factory.hpp:77] Creating layer mnist
I0404 16:34:37.407635  4531 db_lmdb.cpp:35] Opened lmdb data/mnist_train_lmdb
I0404 16:34:37.407663  4531 net.cpp:84] Creating Layer mnist
I0404 16:34:37.407675  4531 net.cpp:380] mnist -> data
I0404 16:34:37.407701  4531 net.cpp:380] mnist -> label
I0404 16:34:37.407737  4531 data_layer.cpp:45] output data size: 100,1,28,28
I0404 16:34:37.409238  4531 net.cpp:122] Setting up mnist
I0404 16:34:37.409260  4531 net.cpp:129] Top shape: 100 1 28 28 (78400)
I0404 16:34:37.409268  4531 net.cpp:129] Top shape: 100 (100)
I0404 16:34:37.409274  4531 net.cpp:137] Memory required for data: 628000
I0404 16:34:37.409284  4531 layer_factory.hpp:77] Creating layer label_mnist_1_split
I0404 16:34:37.409299  4531 net.cpp:84] Creating Layer label_mnist_1_split
I0404 16:34:37.409307  4531 net.cpp:406] label_mnist_1_split <- label
I0404 16:34:37.409319  4531 net.cpp:380] label_mnist_1_split -> label_mnist_1_split_0
I0404 16:34:37.409330  4531 net.cpp:380] label_mnist_1_split -> label_mnist_1_split_1
I0404 16:34:37.409342  4531 net.cpp:122] Setting up label_mnist_1_split
I0404 16:34:37.409349  4531 net.cpp:129] Top shape: 100 (100)
I0404 16:34:37.409356  4531 net.cpp:129] Top shape: 100 (100)
I0404 16:34:37.409363  4531 net.cpp:137] Memory required for data: 629600
I0404 16:34:37.409368  4531 layer_factory.hpp:77] Creating layer ip1
I0404 16:34:37.409379  4531 net.cpp:84] Creating Layer ip1
I0404 16:34:37.409384  4531 net.cpp:406] ip1 <- data
I0404 16:34:37.409394  4531 net.cpp:380] ip1 -> ip1
I0404 16:34:37.512308  4531 net.cpp:122] Setting up ip1
I0404 16:34:37.512347  4531 net.cpp:129] Top shape: 100 1000 (100000)
I0404 16:34:37.512354  4531 net.cpp:137] Memory required for data: 1429600
I0404 16:34:37.512372  4531 layer_factory.hpp:77] Creating layer relu1
I0404 16:34:37.512383  4531 net.cpp:84] Creating Layer relu1
I0404 16:34:37.512389  4531 net.cpp:406] relu1 <- ip1
I0404 16:34:37.512397  4531 net.cpp:367] relu1 -> ip1 (in-place)
I0404 16:34:37.512413  4531 net.cpp:122] Setting up relu1
I0404 16:34:37.512429  4531 net.cpp:129] Top shape: 100 1000 (100000)
I0404 16:34:37.512432  4531 net.cpp:137] Memory required for data: 2229600
I0404 16:34:37.512445  4531 layer_factory.hpp:77] Creating layer ip2
I0404 16:34:37.512455  4531 net.cpp:84] Creating Layer ip2
I0404 16:34:37.512459  4531 net.cpp:406] ip2 <- ip1
I0404 16:34:37.512466  4531 net.cpp:380] ip2 -> ip2
I0404 16:34:37.613828  4531 net.cpp:122] Setting up ip2
I0404 16:34:37.613874  4531 net.cpp:129] Top shape: 100 1000 (100000)
I0404 16:34:37.613883  4531 net.cpp:137] Memory required for data: 3029600
I0404 16:34:37.613903  4531 layer_factory.hpp:77] Creating layer relu2
I0404 16:34:37.613919  4531 net.cpp:84] Creating Layer relu2
I0404 16:34:37.613927  4531 net.cpp:406] relu2 <- ip2
I0404 16:34:37.613939  4531 net.cpp:367] relu2 -> ip2 (in-place)
I0404 16:34:37.613979  4531 net.cpp:122] Setting up relu2
I0404 16:34:37.613998  4531 net.cpp:129] Top shape: 100 1000 (100000)
I0404 16:34:37.614004  4531 net.cpp:137] Memory required for data: 3829600
I0404 16:34:37.614012  4531 layer_factory.hpp:77] Creating layer ip3
I0404 16:34:37.614023  4531 net.cpp:84] Creating Layer ip3
I0404 16:34:37.614030  4531 net.cpp:406] ip3 <- ip2
I0404 16:34:37.614039  4531 net.cpp:380] ip3 -> ip3
I0404 16:34:37.615430  4531 net.cpp:122] Setting up ip3
I0404 16:34:37.615443  4531 net.cpp:129] Top shape: 100 10 (1000)
I0404 16:34:37.615449  4531 net.cpp:137] Memory required for data: 3837600
I0404 16:34:37.615463  4531 layer_factory.hpp:77] Creating layer ip3_ip3_0_split
I0404 16:34:37.615473  4531 net.cpp:84] Creating Layer ip3_ip3_0_split
I0404 16:34:37.615479  4531 net.cpp:406] ip3_ip3_0_split <- ip3
I0404 16:34:37.615489  4531 net.cpp:380] ip3_ip3_0_split -> ip3_ip3_0_split_0
I0404 16:34:37.615499  4531 net.cpp:380] ip3_ip3_0_split -> ip3_ip3_0_split_1
I0404 16:34:37.615510  4531 net.cpp:122] Setting up ip3_ip3_0_split
I0404 16:34:37.615519  4531 net.cpp:129] Top shape: 100 10 (1000)
I0404 16:34:37.615526  4531 net.cpp:129] Top shape: 100 10 (1000)
I0404 16:34:37.615532  4531 net.cpp:137] Memory required for data: 3853600
I0404 16:34:37.615540  4531 layer_factory.hpp:77] Creating layer accuracy
I0404 16:34:37.615550  4531 net.cpp:84] Creating Layer accuracy
I0404 16:34:37.615557  4531 net.cpp:406] accuracy <- ip3_ip3_0_split_0
I0404 16:34:37.615564  4531 net.cpp:406] accuracy <- label_mnist_1_split_0
I0404 16:34:37.615574  4531 net.cpp:380] accuracy -> accuracy
…
