…
  layer {
    name: "mnist"
    type: "Data"
    top: "data"
    top: "label"
    include {
      phase: TRAIN
    }
    transform_param {
      scale: 0.00390625
    }
    data_param {
      source: "data/mnist_train_lmdb"
      batch_size: 100
      backend: LMDB
    }
  }
  layer {
    name: "mnist"
    type: "Data"
    top: "data"
    top: "label"
    include {
      phase: TEST
    }
    transform_param {
      scale: 0.00390625
    }
    data_param {
      source: "data/mnist_test_lmdb"
      batch_size: 100
      backend: LMDB
    }
  }
  layer {
    name: "ip1"
    type: "InnerProduct"
    bottom: "data"
    top: "ip1"
    inner_product_param {
      num_output: 1000
      weight_filler {
        type: "gaussian"
        mean: 0
        std: 0.01
      }
    }
    bias_param {
      filler {
        value: 0
      }
    }
    fixed_precision: true
    precision {
      enter: 2
      fraccio: 14
      rounding: "stochastic"
    }
  }
  layer {
    name: "relu1"
    type: "ReLU"
    bottom: "ip1"
    top: "ip1"
    fixed_precision: true
    precision {
      enter: 2
      fraccio: 14
      rounding: "stochastic"
    }
  }
  layer {
    name: "ip2"
    type: "InnerProduct"
    bottom: "ip1"
    top: "ip2"
    inner_product_param {
      num_output: 1000
      weight_filler {
        type: "gaussian"
        mean: 0
        std: 0.01
      }
    }
    bias_param {
      filler {
        value: 0
      }
    }
    fixed_precision: true
    precision {
      enter: 2
      fraccio: 14
      rounding: "stochastic"
    }
  }
  layer {
    name: "relu2"
    type: "ReLU"
    bottom: "ip2"
    top: "ip2"
    bias_param {
      filler {
        value: 0
      }
    }
    fixed_precision: true
    precision {
      enter: 2
      fraccio: 14
      rounding: "stochastic"
    }
  }
  layer {
    name: "ip3"
    type: "InnerProduct"
    bottom: "ip2"
    top: "ip3"
    inner_product_param {
      num_output: 10
      weight_filler {
        type: "gaussian"
        mean: 0
        std: 0.01
      }
    }
    bias_param {
      filler {
        value: 0
      }
    }
    fixed_precision: true
    precision {
      enter: 2
      fraccio: 14
      rounding: "stochastic"
    }
  }
  layer {
    name: "accuracy"
    type: "Accuracy"
    bottom: "ip3"
    bottom: "label"
    top: "accuracy"
  }
  layer {
    name: "loss"
    type: "SoftmaxWithLoss"
    bottom: "ip3"
    bottom: "label"
    top: "loss"
    fixed_precision: true
    precision {
      enter: 2
      fraccio: 14
      rounding: "stochastic"
    }
  }
}
train_state {
  level: 0
  stage: ""
}
fixed_precision: true
precision {
  enter: 2
  fraccio: 14
  rounding: "stochastic"
}
I0509 14:11:15.876440 21747 solver.cpp:82] Creating training net specified in net_param.
I0509 14:11:15.876564 21747 net.cpp:294] The NetState phase (0) differed from the phase (1) specified by a rule in layer mnist
I0509 14:11:15.876730 21747 net.cpp:51] Initializing net from parameters: 
name: "LeNet"
state {
  phase: TRAIN
  level: 0
  stage: ""
}
layer {
  name: "mnist"
  type: "Data"
  top: "data"
  top: "label"
  include {
    phase: TRAIN
  }
  transform_param {
    scale: 0.00390625
  }
  data_param {
    source: "data/mnist_train_lmdb"
    batch_size: 100
    backend: LMDB
  }
}
layer {
  name: "ip1"
  type: "InnerProduct"
  bottom: "data"
  top: "ip1"
  inner_product_param {
    num_output: 1000
    weight_filler {
      type: "gaussian"
      mean: 0
      std: 0.01
    }
  }
  bias_param {
    filler {
      value: 0
    }
  }
  fixed_precision: true
  precision {
    enter: 2
    fraccio: 14
    rounding: "stochastic"
  }
}
layer {
  name: "relu1"
  type: "ReLU"
  bottom: "ip1"
  top: "ip1"
  fixed_precision: true
  precision {
    enter: 2
    fraccio: 14
    rounding: "stochastic"
  }
}
layer {
  name: "ip2"
  type: "InnerProduct"
  bottom: "ip1"
  top: "ip2"
  inner_product_param {
    num_output: 1000
    weight_filler {
      type: "gaussian"
      mean: 0
      std: 0.01
    }
  }
  bias_param {
    filler {
      value: 0
    }
  }
  fixed_precision: true
  precision {
    enter: 2
    fraccio: 14
    rounding: "stochastic"
  }
}
layer {
  name: "relu2"
  type: "ReLU"
  bottom: "ip2"
  top: "ip2"
  bias_param {
    filler {
      value: 0
    }
  }
  fixed_precision: true
  precision {
    enter: 2
    fraccio: 14
    rounding: "stochastic"
  }
}
layer {
  name: "ip3"
  type: "InnerProduct"
  bottom: "ip2"
  top: "ip3"
  inner_product_param {
    num_output: 10
    weight_filler {
      type: "gaussian"
      mean: 0
      std: 0.01
    }
  }
  bias_param {
    filler {
      value: 0
    }
  }
  fixed_precision: true
  precision {
    enter: 2
    fraccio: 14
    rounding: "stochastic"
  }
}
layer {
  name: "accuracy"
  type: "Accuracy"
  bottom: "ip3"
  bottom: "label"
  top: "accuracy"
}
layer {
  name: "loss"
  type: "SoftmaxWithLoss"
  bottom: "ip3"
  bottom: "label"
  top: "loss"
  fixed_precision: true
  precision {
    enter: 2
    fraccio: 14
    rounding: "stochastic"
  }
}
I0509 14:11:15.878299 21747 layer_factory.hpp:77] Creating layer mnist
I0509 14:11:15.904379 21747 db_lmdb.cpp:35] Opened lmdb data/mnist_train_lmdb
I0509 14:11:15.904675 21747 net.cpp:84] Creating Layer mnist
I0509 14:11:15.904731 21747 net.cpp:380] mnist -> data
I0509 14:11:15.904814 21747 net.cpp:380] mnist -> label
I0509 14:11:15.904968 21747 data_layer.cpp:45] output data size: 100,1,28,28
I0509 14:11:15.906805 21747 net.cpp:122] Setting up mnist
I0509 14:11:15.906867 21747 net.cpp:129] Top shape: 100 1 28 28 (78400)
I0509 14:11:15.906888 21747 net.cpp:129] Top shape: 100 (100)
I0509 14:11:15.906898 21747 net.cpp:137] Memory required for data: 628000
I0509 14:11:15.906918 21747 layer_factory.hpp:77] Creating layer label_mnist_1_split
I0509 14:11:15.906950 21747 net.cpp:84] Creating Layer label_mnist_1_split
I0509 14:11:15.906966 21747 net.cpp:406] label_mnist_1_split <- label
I0509 14:11:15.906990 21747 net.cpp:380] label_mnist_1_split -> label_mnist_1_split_0
I0509 14:11:15.907008 21747 net.cpp:380] label_mnist_1_split -> label_mnist_1_split_1
I0509 14:11:15.907027 21747 net.cpp:122] Setting up label_mnist_1_split
I0509 14:11:15.907042 21747 net.cpp:129] Top shape: 100 (100)
I0509 14:11:15.907061 21747 net.cpp:129] Top shape: 100 (100)
I0509 14:11:15.907073 21747 net.cpp:137] Memory required for data: 629600
I0509 14:11:15.907083 21747 layer_factory.hpp:77] Creating layer ip1
I0509 14:11:15.907125 21747 net.cpp:84] Creating Layer ip1
I0509 14:11:15.907142 21747 net.cpp:406] ip1 <- data
I0509 14:11:15.907158 21747 net.cpp:380] ip1 -> ip1
I0509 14:11:15.958770 21747 net.cpp:122] Setting up ip1
I0509 14:11:15.958832 21747 net.cpp:129] Top shape: 100 1000 (100000)
I0509 14:11:15.958843 21747 net.cpp:137] Memory required for data: 1429600
I0509 14:11:15.958886 21747 layer_factory.hpp:77] Creating layer relu1
I0509 14:11:15.958935 21747 net.cpp:84] Creating Layer relu1
I0509 14:11:15.958952 21747 net.cpp:406] relu1 <- ip1
I0509 14:11:15.958969 21747 net.cpp:367] relu1 -> ip1 (in-place)
I0509 14:11:15.958991 21747 net.cpp:122] Setting up relu1
I0509 14:11:15.959004 21747 net.cpp:129] Top shape: 100 1000 (100000)
I0509 14:11:15.959014 21747 net.cpp:137] Memory required for data: 2229600
I0509 14:11:15.959025 21747 layer_factory.hpp:77] Creating layer ip2
I0509 14:11:15.959046 21747 net.cpp:84] Creating Layer ip2
I0509 14:11:15.959065 21747 net.cpp:406] ip2 <- ip1
I0509 14:11:15.959080 21747 net.cpp:380] ip2 -> ip2
I0509 14:11:16.021031 21747 net.cpp:122] Setting up ip2
I0509 14:11:16.021108 21747 net.cpp:129] Top shape: 100 1000 (100000)
I0509 14:11:16.021121 21747 net.cpp:137] Memory required for data: 3029600
I0509 14:11:16.021145 21747 layer_factory.hpp:77] Creating layer relu2
I0509 14:11:16.021172 21747 net.cpp:84] Creating Layer relu2
I0509 14:11:16.021184 21747 net.cpp:406] relu2 <- ip2
I0509 14:11:16.021200 21747 net.cpp:367] relu2 -> ip2 (in-place)
I0509 14:11:16.021222 21747 net.cpp:122] Setting up relu2
I0509 14:11:16.021284 21747 net.cpp:129] Top shape: 100 1000 (100000)
I0509 14:11:16.021296 21747 net.cpp:137] Memory required for data: 3829600
I0509 14:11:16.021307 21747 layer_factory.hpp:77] Creating layer ip3
I0509 14:11:16.021325 21747 net.cpp:84] Creating Layer ip3
I0509 14:11:16.021337 21747 net.cpp:406] ip3 <- ip2
I0509 14:11:16.021353 21747 net.cpp:380] ip3 -> ip3
I0509 14:11:16.022027 21747 net.cpp:122] Setting up ip3
I0509 14:11:16.022055 21747 net.cpp:129] Top shape: 100 10 (1000)
I0509 14:11:16.022068 21747 net.cpp:137] Memory required for data: 3837600
I0509 14:11:16.022085 21747 layer_factory.hpp:77] Creating layer ip3_ip3_0_split
I0509 14:11:16.022101 21747 net.cpp:84] Creating Layer ip3_ip3_0_split
I0509 14:11:16.022114 21747 net.cpp:406] ip3_ip3_0_split <- ip3
I0509 14:11:16.022126 21747 net.cpp:380] ip3_ip3_0_split -> ip3_ip3_0_split_0
I0509 14:11:16.022142 21747 net.cpp:380] ip3_ip3_0_split -> ip3_ip3_0_split_1
I0509 14:11:16.022161 21747 net.cpp:122] Setting up ip3_ip3_0_split
I0509 14:11:16.022176 21747 net.cpp:129] Top shape: 100 10 (1000)
I0509 14:11:16.022188 21747 net.cpp:129] Top shape: 100 10 (1000)
I0509 14:11:16.022198 21747 net.cpp:137] Memory required for data: 3853600
I0509 14:11:16.022210 21747 layer_factory.hpp:77] Creating layer accuracy
I0509 14:11:16.022264 21747 net.cpp:84] Creating Layer accuracy
I0509 14:11:16.022280 21747 net.cpp:406] accuracy <- ip3_ip3_0_split_0
I0509 14:11:16.022294 21747 net.cpp:406] accuracy <- label_mnist_1_split_0
I0509 14:11:16.022306 21747 net.cpp:380] accuracy -> accuracy
…
