…
  layer {
    name: "mnist"
    type: "Data"
    top: "data"
    top: "label"
    include {
      phase: TRAIN
    }
    transform_param {
      scale: 0.00390625
    }
    data_param {
      source: "data/mnist_train_lmdb"
      batch_size: 100
      backend: LMDB
    }
  }
  layer {
    name: "mnist"
    type: "Data"
    top: "data"
    top: "label"
    include {
      phase: TEST
    }
    transform_param {
      scale: 0.00390625
    }
    data_param {
      source: "data/mnist_test_lmdb"
      batch_size: 100
      backend: LMDB
    }
  }
  layer {
    name: "ip1"
    type: "InnerProduct"
    bottom: "data"
    top: "ip1"
    inner_product_param {
      num_output: 1000
      weight_filler {
        type: "gaussian"
        mean: 0
        std: 0.01
      }
    }
    bias_param {
      filler {
        value: 0
      }
    }
    fixed_precision: true
    precision {
      enter: 2
      fraccio: 14
      rounding: "stochastic"
    }
  }
  layer {
    name: "relu1"
    type: "ReLU"
    bottom: "ip1"
    top: "ip1"
    fixed_precision: true
    precision {
      enter: 2
      fraccio: 14
      rounding: "stochastic"
    }
  }
  layer {
    name: "ip2"
    type: "InnerProduct"
    bottom: "ip1"
    top: "ip2"
    inner_product_param {
      num_output: 1000
      weight_filler {
        type: "gaussian"
        mean: 0
        std: 0.01
      }
    }
    bias_param {
      filler {
        value: 0
      }
    }
    fixed_precision: true
    precision {
      enter: 2
      fraccio: 14
      rounding: "stochastic"
    }
  }
  layer {
    name: "relu2"
    type: "ReLU"
    bottom: "ip2"
    top: "ip2"
    bias_param {
      filler {
        value: 0
      }
    }
    fixed_precision: true
    precision {
      enter: 2
      fraccio: 14
      rounding: "stochastic"
    }
  }
  layer {
    name: "ip3"
    type: "InnerProduct"
    bottom: "ip2"
    top: "ip3"
    inner_product_param {
      num_output: 10
      weight_filler {
        type: "gaussian"
        mean: 0
        std: 0.01
      }
    }
    bias_param {
      filler {
        value: 0
      }
    }
    fixed_precision: true
    precision {
      enter: 2
      fraccio: 14
      rounding: "stochastic"
    }
  }
  layer {
    name: "accuracy"
    type: "Accuracy"
    bottom: "ip3"
    bottom: "label"
    top: "accuracy"
  }
  layer {
    name: "loss"
    type: "SoftmaxWithLoss"
    bottom: "ip3"
    bottom: "label"
    top: "loss"
    fixed_precision: true
    precision {
      enter: 2
      fraccio: 14
      rounding: "stochastic"
    }
  }
}
train_state {
  level: 0
  stage: ""
}
fixed_precision: true
precision {
  enter: 2
  fraccio: 14
  rounding: "stochastic"
}
I0509 13:58:10.742257 19924 solver.cpp:82] Creating training net specified in net_param.
I0509 13:58:10.742321 19924 net.cpp:294] The NetState phase (0) differed from the phase (1) specified by a rule in layer mnist
I0509 13:58:10.742450 19924 net.cpp:51] Initializing net from parameters: 
name: "LeNet"
state {
  phase: TRAIN
  level: 0
  stage: ""
}
layer {
  name: "mnist"
  type: "Data"
  top: "data"
  top: "label"
  include {
    phase: TRAIN
  }
  transform_param {
    scale: 0.00390625
  }
  data_param {
    source: "data/mnist_train_lmdb"
    batch_size: 100
    backend: LMDB
  }
}
layer {
  name: "ip1"
  type: "InnerProduct"
  bottom: "data"
  top: "ip1"
  inner_product_param {
    num_output: 1000
    weight_filler {
      type: "gaussian"
      mean: 0
      std: 0.01
    }
  }
  bias_param {
    filler {
      value: 0
    }
  }
  fixed_precision: true
  precision {
    enter: 2
    fraccio: 14
    rounding: "stochastic"
  }
}
layer {
  name: "relu1"
  type: "ReLU"
  bottom: "ip1"
  top: "ip1"
  fixed_precision: true
  precision {
    enter: 2
    fraccio: 14
    rounding: "stochastic"
  }
}
layer {
  name: "ip2"
  type: "InnerProduct"
  bottom: "ip1"
  top: "ip2"
  inner_product_param {
    num_output: 1000
    weight_filler {
      type: "gaussian"
      mean: 0
      std: 0.01
    }
  }
  bias_param {
    filler {
      value: 0
    }
  }
  fixed_precision: true
  precision {
    enter: 2
    fraccio: 14
    rounding: "stochastic"
  }
}
layer {
  name: "relu2"
  type: "ReLU"
  bottom: "ip2"
  top: "ip2"
  bias_param {
    filler {
      value: 0
    }
  }
  fixed_precision: true
  precision {
    enter: 2
    fraccio: 14
    rounding: "stochastic"
  }
}
layer {
  name: "ip3"
  type: "InnerProduct"
  bottom: "ip2"
  top: "ip3"
  inner_product_param {
    num_output: 10
    weight_filler {
      type: "gaussian"
      mean: 0
      std: 0.01
    }
  }
  bias_param {
    filler {
      value: 0
    }
  }
  fixed_precision: true
  precision {
    enter: 2
    fraccio: 14
    rounding: "stochastic"
  }
}
layer {
  name: "accuracy"
  type: "Accuracy"
  bottom: "ip3"
  bottom: "label"
  top: "accuracy"
}
layer {
  name: "loss"
  type: "SoftmaxWithLoss"
  bottom: "ip3"
  bottom: "label"
  top: "loss"
  fixed_precision: true
  precision {
    enter: 2
    fraccio: 14
    rounding: "stochastic"
  }
}
I0509 13:58:10.742997 19924 layer_factory.hpp:77] Creating layer mnist
I0509 13:58:10.774937 19924 db_lmdb.cpp:35] Opened lmdb data/mnist_train_lmdb
I0509 13:58:10.775449 19924 net.cpp:84] Creating Layer mnist
I0509 13:58:10.775487 19924 net.cpp:380] mnist -> data
I0509 13:58:10.775537 19924 net.cpp:380] mnist -> label
I0509 13:58:10.775602 19924 data_layer.cpp:45] output data size: 100,1,28,28
I0509 13:58:10.777402 19924 net.cpp:122] Setting up mnist
I0509 13:58:10.777441 19924 net.cpp:129] Top shape: 100 1 28 28 (78400)
I0509 13:58:10.777456 19924 net.cpp:129] Top shape: 100 (100)
I0509 13:58:10.777467 19924 net.cpp:137] Memory required for data: 628000
I0509 13:58:10.777485 19924 layer_factory.hpp:77] Creating layer label_mnist_1_split
I0509 13:58:10.777506 19924 net.cpp:84] Creating Layer label_mnist_1_split
I0509 13:58:10.777519 19924 net.cpp:406] label_mnist_1_split <- label
I0509 13:58:10.777541 19924 net.cpp:380] label_mnist_1_split -> label_mnist_1_split_0
I0509 13:58:10.777560 19924 net.cpp:380] label_mnist_1_split -> label_mnist_1_split_1
I0509 13:58:10.777581 19924 net.cpp:122] Setting up label_mnist_1_split
I0509 13:58:10.777597 19924 net.cpp:129] Top shape: 100 (100)
I0509 13:58:10.777609 19924 net.cpp:129] Top shape: 100 (100)
I0509 13:58:10.777619 19924 net.cpp:137] Memory required for data: 629600
I0509 13:58:10.777631 19924 layer_factory.hpp:77] Creating layer ip1
I0509 13:58:10.777653 19924 net.cpp:84] Creating Layer ip1
I0509 13:58:10.777665 19924 net.cpp:406] ip1 <- data
I0509 13:58:10.777680 19924 net.cpp:380] ip1 -> ip1
I0509 13:58:10.829514 19924 net.cpp:122] Setting up ip1
I0509 13:58:10.829586 19924 net.cpp:129] Top shape: 100 1000 (100000)
I0509 13:58:10.829597 19924 net.cpp:137] Memory required for data: 1429600
I0509 13:58:10.829627 19924 layer_factory.hpp:77] Creating layer relu1
I0509 13:58:10.829656 19924 net.cpp:84] Creating Layer relu1
I0509 13:58:10.829669 19924 net.cpp:406] relu1 <- ip1
I0509 13:58:10.829684 19924 net.cpp:367] relu1 -> ip1 (in-place)
I0509 13:58:10.829707 19924 net.cpp:122] Setting up relu1
I0509 13:58:10.829721 19924 net.cpp:129] Top shape: 100 1000 (100000)
I0509 13:58:10.829731 19924 net.cpp:137] Memory required for data: 2229600
I0509 13:58:10.829741 19924 layer_factory.hpp:77] Creating layer ip2
I0509 13:58:10.829762 19924 net.cpp:84] Creating Layer ip2
I0509 13:58:10.829774 19924 net.cpp:406] ip2 <- ip1
I0509 13:58:10.829789 19924 net.cpp:380] ip2 -> ip2
I0509 13:58:10.892302 19924 net.cpp:122] Setting up ip2
I0509 13:58:10.892376 19924 net.cpp:129] Top shape: 100 1000 (100000)
I0509 13:58:10.892387 19924 net.cpp:137] Memory required for data: 3029600
I0509 13:58:10.892411 19924 layer_factory.hpp:77] Creating layer relu2
I0509 13:58:10.892437 19924 net.cpp:84] Creating Layer relu2
I0509 13:58:10.892451 19924 net.cpp:406] relu2 <- ip2
I0509 13:58:10.892467 19924 net.cpp:367] relu2 -> ip2 (in-place)
I0509 13:58:10.892488 19924 net.cpp:122] Setting up relu2
I0509 13:58:10.892552 19924 net.cpp:129] Top shape: 100 1000 (100000)
I0509 13:58:10.892563 19924 net.cpp:137] Memory required for data: 3829600
I0509 13:58:10.892575 19924 layer_factory.hpp:77] Creating layer ip3
I0509 13:58:10.892592 19924 net.cpp:84] Creating Layer ip3
I0509 13:58:10.892603 19924 net.cpp:406] ip3 <- ip2
I0509 13:58:10.892619 19924 net.cpp:380] ip3 -> ip3
I0509 13:58:10.893316 19924 net.cpp:122] Setting up ip3
I0509 13:58:10.893339 19924 net.cpp:129] Top shape: 100 10 (1000)
I0509 13:58:10.893350 19924 net.cpp:137] Memory required for data: 3837600
I0509 13:58:10.893368 19924 layer_factory.hpp:77] Creating layer ip3_ip3_0_split
I0509 13:58:10.893384 19924 net.cpp:84] Creating Layer ip3_ip3_0_split
I0509 13:58:10.893396 19924 net.cpp:406] ip3_ip3_0_split <- ip3
I0509 13:58:10.893410 19924 net.cpp:380] ip3_ip3_0_split -> ip3_ip3_0_split_0
I0509 13:58:10.893426 19924 net.cpp:380] ip3_ip3_0_split -> ip3_ip3_0_split_1
I0509 13:58:10.893445 19924 net.cpp:122] Setting up ip3_ip3_0_split
I0509 13:58:10.893458 19924 net.cpp:129] Top shape: 100 10 (1000)
I0509 13:58:10.893471 19924 net.cpp:129] Top shape: 100 10 (1000)
I0509 13:58:10.893481 19924 net.cpp:137] Memory required for data: 3853600
I0509 13:58:10.893491 19924 layer_factory.hpp:77] Creating layer accuracy
I0509 13:58:10.893518 19924 net.cpp:84] Creating Layer accuracy
I0509 13:58:10.893530 19924 net.cpp:406] accuracy <- ip3_ip3_0_split_0
I0509 13:58:10.893543 19924 net.cpp:406] accuracy <- label_mnist_1_split_0
I0509 13:58:10.893556 19924 net.cpp:380] accuracy -> accuracy
…
