…
  layer {
    name: "mnist"
    type: "Data"
    top: "data"
    top: "label"
    include {
      phase: TRAIN
    }
    transform_param {
      scale: 0.00390625
    }
    data_param {
      source: "data/mnist_train_lmdb"
      batch_size: 100
      backend: LMDB
    }
  }
  layer {
    name: "mnist"
    type: "Data"
    top: "data"
    top: "label"
    include {
      phase: TEST
    }
    transform_param {
      scale: 0.00390625
    }
    data_param {
      source: "data/mnist_test_lmdb"
      batch_size: 100
      backend: LMDB
    }
  }
  layer {
    name: "ip1"
    type: "InnerProduct"
    bottom: "data"
    top: "ip1"
    inner_product_param {
      num_output: 1000
      weight_filler {
        type: "gaussian"
        mean: 0
        std: 0.01
      }
    }
    bias_param {
      filler {
        value: 0
      }
    }
    fixed_precision: true
    precision {
      enter: 2
      fraccio: 14
      rounding: "stochastic"
    }
  }
  layer {
    name: "relu1"
    type: "ReLU"
    bottom: "ip1"
    top: "ip1"
    fixed_precision: true
    precision {
      enter: 2
      fraccio: 14
      rounding: "stochastic"
    }
  }
  layer {
    name: "ip2"
    type: "InnerProduct"
    bottom: "ip1"
    top: "ip2"
    inner_product_param {
      num_output: 1000
      weight_filler {
        type: "gaussian"
        mean: 0
        std: 0.01
      }
    }
    bias_param {
      filler {
        value: 0
      }
    }
    fixed_precision: true
    precision {
      enter: 2
      fraccio: 14
      rounding: "stochastic"
    }
  }
  layer {
    name: "relu2"
    type: "ReLU"
    bottom: "ip2"
    top: "ip2"
    bias_param {
      filler {
        value: 0
      }
    }
    fixed_precision: true
    precision {
      enter: 2
      fraccio: 14
      rounding: "stochastic"
    }
  }
  layer {
    name: "ip3"
    type: "InnerProduct"
    bottom: "ip2"
    top: "ip3"
    inner_product_param {
      num_output: 10
      weight_filler {
        type: "gaussian"
        mean: 0
        std: 0.01
      }
    }
    bias_param {
      filler {
        value: 0
      }
    }
    fixed_precision: true
    precision {
      enter: 2
      fraccio: 14
      rounding: "stochastic"
    }
  }
  layer {
    name: "accuracy"
    type: "Accuracy"
    bottom: "ip3"
    bottom: "label"
    top: "accuracy"
  }
  layer {
    name: "loss"
    type: "SoftmaxWithLoss"
    bottom: "ip3"
    bottom: "label"
    top: "loss"
    fixed_precision: true
    precision {
      enter: 2
      fraccio: 14
      rounding: "stochastic"
    }
  }
}
train_state {
  level: 0
  stage: ""
}
fixed_precision: true
precision {
  enter: 2
  fraccio: 14
  rounding: "stochastic"
}
I0509 11:42:58.692312 25698 solver.cpp:82] Creating training net specified in net_param.
I0509 11:42:58.692456 25698 net.cpp:294] The NetState phase (0) differed from the phase (1) specified by a rule in layer mnist
I0509 11:42:58.692687 25698 net.cpp:51] Initializing net from parameters: 
name: "LeNet"
state {
  phase: TRAIN
  level: 0
  stage: ""
}
layer {
  name: "mnist"
  type: "Data"
  top: "data"
  top: "label"
  include {
    phase: TRAIN
  }
  transform_param {
    scale: 0.00390625
  }
  data_param {
    source: "data/mnist_train_lmdb"
    batch_size: 100
    backend: LMDB
  }
}
layer {
  name: "ip1"
  type: "InnerProduct"
  bottom: "data"
  top: "ip1"
  inner_product_param {
    num_output: 1000
    weight_filler {
      type: "gaussian"
      mean: 0
      std: 0.01
    }
  }
  bias_param {
    filler {
      value: 0
    }
  }
  fixed_precision: true
  precision {
    enter: 2
    fraccio: 14
    rounding: "stochastic"
  }
}
layer {
  name: "relu1"
  type: "ReLU"
  bottom: "ip1"
  top: "ip1"
  fixed_precision: true
  precision {
    enter: 2
    fraccio: 14
    rounding: "stochastic"
  }
}
layer {
  name: "ip2"
  type: "InnerProduct"
  bottom: "ip1"
  top: "ip2"
  inner_product_param {
    num_output: 1000
    weight_filler {
      type: "gaussian"
      mean: 0
      std: 0.01
    }
  }
  bias_param {
    filler {
      value: 0
    }
  }
  fixed_precision: true
  precision {
    enter: 2
    fraccio: 14
    rounding: "stochastic"
  }
}
layer {
  name: "relu2"
  type: "ReLU"
  bottom: "ip2"
  top: "ip2"
  bias_param {
    filler {
      value: 0
    }
  }
  fixed_precision: true
  precision {
    enter: 2
    fraccio: 14
    rounding: "stochastic"
  }
}
layer {
  name: "ip3"
  type: "InnerProduct"
  bottom: "ip2"
  top: "ip3"
  inner_product_param {
    num_output: 10
    weight_filler {
      type: "gaussian"
      mean: 0
      std: 0.01
    }
  }
  bias_param {
    filler {
      value: 0
    }
  }
  fixed_precision: true
  precision {
    enter: 2
    fraccio: 14
    rounding: "stochastic"
  }
}
layer {
  name: "accuracy"
  type: "Accuracy"
  bottom: "ip3"
  bottom: "label"
  top: "accuracy"
}
layer {
  name: "loss"
  type: "SoftmaxWithLoss"
  bottom: "ip3"
  bottom: "label"
  top: "loss"
  fixed_precision: true
  precision {
    enter: 2
    fraccio: 14
    rounding: "stochastic"
  }
}
I0509 11:42:58.693352 25698 layer_factory.hpp:77] Creating layer mnist
I0509 11:42:58.811460 25698 db_lmdb.cpp:35] Opened lmdb data/mnist_train_lmdb
I0509 11:42:58.811800 25698 net.cpp:84] Creating Layer mnist
I0509 11:42:58.811856 25698 net.cpp:380] mnist -> data
I0509 11:42:58.811947 25698 net.cpp:380] mnist -> label
I0509 11:42:58.812160 25698 data_layer.cpp:45] output data size: 100,1,28,28
I0509 11:42:58.814016 25698 net.cpp:122] Setting up mnist
I0509 11:42:58.814074 25698 net.cpp:129] Top shape: 100 1 28 28 (78400)
I0509 11:42:58.814092 25698 net.cpp:129] Top shape: 100 (100)
I0509 11:42:58.814103 25698 net.cpp:137] Memory required for data: 628000
I0509 11:42:58.814121 25698 layer_factory.hpp:77] Creating layer label_mnist_1_split
I0509 11:42:58.814152 25698 net.cpp:84] Creating Layer label_mnist_1_split
I0509 11:42:58.814169 25698 net.cpp:406] label_mnist_1_split <- label
I0509 11:42:58.814190 25698 net.cpp:380] label_mnist_1_split -> label_mnist_1_split_0
I0509 11:42:58.814209 25698 net.cpp:380] label_mnist_1_split -> label_mnist_1_split_1
I0509 11:42:58.814249 25698 net.cpp:122] Setting up label_mnist_1_split
I0509 11:42:58.814270 25698 net.cpp:129] Top shape: 100 (100)
I0509 11:42:58.814282 25698 net.cpp:129] Top shape: 100 (100)
I0509 11:42:58.814291 25698 net.cpp:137] Memory required for data: 629600
I0509 11:42:58.814375 25698 layer_factory.hpp:77] Creating layer ip1
I0509 11:42:58.814424 25698 net.cpp:84] Creating Layer ip1
I0509 11:42:58.814442 25698 net.cpp:406] ip1 <- data
I0509 11:42:58.814460 25698 net.cpp:380] ip1 -> ip1
I0509 11:42:58.869016 25698 net.cpp:122] Setting up ip1
I0509 11:42:58.869073 25698 net.cpp:129] Top shape: 100 1000 (100000)
I0509 11:42:58.869084 25698 net.cpp:137] Memory required for data: 1429600
I0509 11:42:58.869127 25698 layer_factory.hpp:77] Creating layer relu1
I0509 11:42:58.869168 25698 net.cpp:84] Creating Layer relu1
I0509 11:42:58.869184 25698 net.cpp:406] relu1 <- ip1
I0509 11:42:58.869199 25698 net.cpp:367] relu1 -> ip1 (in-place)
I0509 11:42:58.869232 25698 net.cpp:122] Setting up relu1
I0509 11:42:58.869248 25698 net.cpp:129] Top shape: 100 1000 (100000)
I0509 11:42:58.869258 25698 net.cpp:137] Memory required for data: 2229600
I0509 11:42:58.869269 25698 layer_factory.hpp:77] Creating layer ip2
I0509 11:42:58.869289 25698 net.cpp:84] Creating Layer ip2
I0509 11:42:58.869308 25698 net.cpp:406] ip2 <- ip1
I0509 11:42:58.869325 25698 net.cpp:380] ip2 -> ip2
I0509 11:42:58.931308 25698 net.cpp:122] Setting up ip2
I0509 11:42:58.931346 25698 net.cpp:129] Top shape: 100 1000 (100000)
I0509 11:42:58.931356 25698 net.cpp:137] Memory required for data: 3029600
I0509 11:42:58.931376 25698 layer_factory.hpp:77] Creating layer relu2
I0509 11:42:58.931396 25698 net.cpp:84] Creating Layer relu2
I0509 11:42:58.931407 25698 net.cpp:406] relu2 <- ip2
I0509 11:42:58.931421 25698 net.cpp:367] relu2 -> ip2 (in-place)
I0509 11:42:58.931438 25698 net.cpp:122] Setting up relu2
I0509 11:42:58.931491 25698 net.cpp:129] Top shape: 100 1000 (100000)
I0509 11:42:58.931502 25698 net.cpp:137] Memory required for data: 3829600
I0509 11:42:58.931512 25698 layer_factory.hpp:77] Creating layer ip3
I0509 11:42:58.931529 25698 net.cpp:84] Creating Layer ip3
I0509 11:42:58.931540 25698 net.cpp:406] ip3 <- ip2
I0509 11:42:58.931555 25698 net.cpp:380] ip3 -> ip3
I0509 11:42:58.932214 25698 net.cpp:122] Setting up ip3
I0509 11:42:58.932235 25698 net.cpp:129] Top shape: 100 10 (1000)
I0509 11:42:58.932245 25698 net.cpp:137] Memory required for data: 3837600
I0509 11:42:58.932263 25698 layer_factory.hpp:77] Creating layer ip3_ip3_0_split
I0509 11:42:58.932278 25698 net.cpp:84] Creating Layer ip3_ip3_0_split
I0509 11:42:58.932289 25698 net.cpp:406] ip3_ip3_0_split <- ip3
I0509 11:42:58.932309 25698 net.cpp:380] ip3_ip3_0_split -> ip3_ip3_0_split_0
I0509 11:42:58.932327 25698 net.cpp:380] ip3_ip3_0_split -> ip3_ip3_0_split_1
I0509 11:42:58.932345 25698 net.cpp:122] Setting up ip3_ip3_0_split
I0509 11:42:58.932358 25698 net.cpp:129] Top shape: 100 10 (1000)
I0509 11:42:58.932370 25698 net.cpp:129] Top shape: 100 10 (1000)
I0509 11:42:58.932380 25698 net.cpp:137] Memory required for data: 3853600
I0509 11:42:58.932390 25698 layer_factory.hpp:77] Creating layer accuracy
I0509 11:42:58.932430 25698 net.cpp:84] Creating Layer accuracy
I0509 11:42:58.932446 25698 net.cpp:406] accuracy <- ip3_ip3_0_split_0
I0509 11:42:58.932457 25698 net.cpp:406] accuracy <- label_mnist_1_split_0
I0509 11:42:58.932471 25698 net.cpp:380] accuracy -> accuracy
…
