…
  layer {
    name: "mnist"
    type: "Data"
    top: "data"
    top: "label"
    include {
      phase: TRAIN
    }
    transform_param {
      scale: 0.00390625
    }
    data_param {
      source: "data/mnist_train_lmdb"
      batch_size: 100
      backend: LMDB
    }
  }
  layer {
    name: "mnist"
    type: "Data"
    top: "data"
    top: "label"
    include {
      phase: TEST
    }
    transform_param {
      scale: 0.00390625
    }
    data_param {
      source: "data/mnist_test_lmdb"
      batch_size: 100
      backend: LMDB
    }
  }
  layer {
    name: "ip1"
    type: "InnerProduct"
    bottom: "data"
    top: "ip1"
    inner_product_param {
      num_output: 1000
      weight_filler {
        type: "gaussian"
        mean: 0
        std: 0.01
      }
    }
    bias_param {
      filler {
        value: 0
      }
    }
    fixed_precision: true
    precision {
      enter: 2
      fraccio: 14
      rounding: "withProb"
      prob: 0.9
    }
  }
  layer {
    name: "relu1"
    type: "ReLU"
    bottom: "ip1"
    top: "ip1"
    fixed_precision: true
    precision {
      enter: 2
      fraccio: 14
      rounding: "withProb"
      prob: 0.9
    }
  }
  layer {
    name: "ip2"
    type: "InnerProduct"
    bottom: "ip1"
    top: "ip2"
    inner_product_param {
      num_output: 1000
      weight_filler {
        type: "gaussian"
        mean: 0
        std: 0.01
      }
    }
    bias_param {
      filler {
        value: 0
      }
    }
    fixed_precision: true
    precision {
      enter: 2
      fraccio: 14
      rounding: "withProb"
      prob: 0.9
    }
  }
  layer {
    name: "relu2"
    type: "ReLU"
    bottom: "ip2"
    top: "ip2"
    bias_param {
      filler {
        value: 0
      }
    }
    fixed_precision: true
    precision {
      enter: 2
      fraccio: 14
      rounding: "withProb"
      prob: 0.9
    }
  }
  layer {
    name: "ip3"
    type: "InnerProduct"
    bottom: "ip2"
    top: "ip3"
    inner_product_param {
      num_output: 10
      weight_filler {
        type: "gaussian"
        mean: 0
        std: 0.01
      }
    }
    bias_param {
      filler {
        value: 0
      }
    }
    fixed_precision: true
    precision {
      enter: 2
      fraccio: 14
      rounding: "withProb"
      prob: 0.9
    }
  }
  layer {
    name: "accuracy"
    type: "Accuracy"
    bottom: "ip3"
    bottom: "label"
    top: "accuracy"
  }
  layer {
    name: "loss"
    type: "SoftmaxWithLoss"
    bottom: "ip3"
    bottom: "label"
    top: "loss"
    fixed_precision: true
    precision {
      enter: 2
      fraccio: 14
      rounding: "withProb"
      prob: 0.9
    }
  }
}
train_state {
  level: 0
  stage: ""
}
fixed_precision: true
precision {
  enter: 2
  fraccio: 14
  rounding: "withProb"
  prob: 0.9
}
I0502 17:26:11.414445  2295 solver.cpp:82] Creating training net specified in net_param.
I0502 17:26:11.414516  2295 net.cpp:294] The NetState phase (0) differed from the phase (1) specified by a rule in layer mnist
I0502 17:26:11.414659  2295 net.cpp:51] Initializing net from parameters: 
name: "LeNet"
state {
  phase: TRAIN
  level: 0
  stage: ""
}
layer {
  name: "mnist"
  type: "Data"
  top: "data"
  top: "label"
  include {
    phase: TRAIN
  }
  transform_param {
    scale: 0.00390625
  }
  data_param {
    source: "data/mnist_train_lmdb"
    batch_size: 100
    backend: LMDB
  }
}
layer {
  name: "ip1"
  type: "InnerProduct"
  bottom: "data"
  top: "ip1"
  inner_product_param {
    num_output: 1000
    weight_filler {
      type: "gaussian"
      mean: 0
      std: 0.01
    }
  }
  bias_param {
    filler {
      value: 0
    }
  }
  fixed_precision: true
  precision {
    enter: 2
    fraccio: 14
    rounding: "withProb"
    prob: 0.9
  }
}
layer {
  name: "relu1"
  type: "ReLU"
  bottom: "ip1"
  top: "ip1"
  fixed_precision: true
  precision {
    enter: 2
    fraccio: 14
    rounding: "withProb"
    prob: 0.9
  }
}
layer {
  name: "ip2"
  type: "InnerProduct"
  bottom: "ip1"
  top: "ip2"
  inner_product_param {
    num_output: 1000
    weight_filler {
      type: "gaussian"
      mean: 0
      std: 0.01
    }
  }
  bias_param {
    filler {
      value: 0
    }
  }
  fixed_precision: true
  precision {
    enter: 2
    fraccio: 14
    rounding: "withProb"
    prob: 0.9
  }
}
layer {
  name: "relu2"
  type: "ReLU"
  bottom: "ip2"
  top: "ip2"
  bias_param {
    filler {
      value: 0
    }
  }
  fixed_precision: true
  precision {
    enter: 2
    fraccio: 14
    rounding: "withProb"
    prob: 0.9
  }
}
layer {
  name: "ip3"
  type: "InnerProduct"
  bottom: "ip2"
  top: "ip3"
  inner_product_param {
    num_output: 10
    weight_filler {
      type: "gaussian"
      mean: 0
      std: 0.01
    }
  }
  bias_param {
    filler {
      value: 0
    }
  }
  fixed_precision: true
  precision {
    enter: 2
    fraccio: 14
    rounding: "withProb"
    prob: 0.9
  }
}
layer {
  name: "accuracy"
  type: "Accuracy"
  bottom: "ip3"
  bottom: "label"
  top: "accuracy"
}
layer {
  name: "loss"
  type: "SoftmaxWithLoss"
  bottom: "ip3"
  bottom: "label"
  top: "loss"
  fixed_precision: true
  precision {
    enter: 2
    fraccio: 14
    rounding: "withProb"
    prob: 0.9
  }
}
I0502 17:26:11.415226  2295 layer_factory.hpp:77] Creating layer mnist
I0502 17:26:11.416360  2295 db_lmdb.cpp:35] Opened lmdb data/mnist_train_lmdb
I0502 17:26:11.417415  2295 net.cpp:84] Creating Layer mnist
I0502 17:26:11.417448  2295 net.cpp:380] mnist -> data
I0502 17:26:11.417502  2295 net.cpp:380] mnist -> label
I0502 17:26:11.417567  2295 data_layer.cpp:45] output data size: 100,1,28,28
I0502 17:26:11.419256  2295 net.cpp:122] Setting up mnist
I0502 17:26:11.419296  2295 net.cpp:129] Top shape: 100 1 28 28 (78400)
I0502 17:26:11.419311  2295 net.cpp:129] Top shape: 100 (100)
I0502 17:26:11.419322  2295 net.cpp:137] Memory required for data: 628000
I0502 17:26:11.419337  2295 layer_factory.hpp:77] Creating layer label_mnist_1_split
I0502 17:26:11.419356  2295 net.cpp:84] Creating Layer label_mnist_1_split
I0502 17:26:11.419370  2295 net.cpp:406] label_mnist_1_split <- label
I0502 17:26:11.419391  2295 net.cpp:380] label_mnist_1_split -> label_mnist_1_split_0
I0502 17:26:11.419409  2295 net.cpp:380] label_mnist_1_split -> label_mnist_1_split_1
I0502 17:26:11.419427  2295 net.cpp:122] Setting up label_mnist_1_split
I0502 17:26:11.419442  2295 net.cpp:129] Top shape: 100 (100)
I0502 17:26:11.419455  2295 net.cpp:129] Top shape: 100 (100)
I0502 17:26:11.419464  2295 net.cpp:137] Memory required for data: 629600
I0502 17:26:11.419474  2295 layer_factory.hpp:77] Creating layer ip1
I0502 17:26:11.419500  2295 net.cpp:84] Creating Layer ip1
I0502 17:26:11.419514  2295 net.cpp:406] ip1 <- data
I0502 17:26:11.419529  2295 net.cpp:380] ip1 -> ip1
I0502 17:26:11.466949  2295 net.cpp:122] Setting up ip1
I0502 17:26:11.467031  2295 net.cpp:129] Top shape: 100 1000 (100000)
I0502 17:26:11.467043  2295 net.cpp:137] Memory required for data: 1429600
I0502 17:26:11.467074  2295 layer_factory.hpp:77] Creating layer relu1
I0502 17:26:11.467103  2295 net.cpp:84] Creating Layer relu1
I0502 17:26:11.467116  2295 net.cpp:406] relu1 <- ip1
I0502 17:26:11.467133  2295 net.cpp:367] relu1 -> ip1 (in-place)
I0502 17:26:11.467152  2295 net.cpp:122] Setting up relu1
I0502 17:26:11.467165  2295 net.cpp:129] Top shape: 100 1000 (100000)
I0502 17:26:11.467175  2295 net.cpp:137] Memory required for data: 2229600
I0502 17:26:11.467186  2295 layer_factory.hpp:77] Creating layer ip2
I0502 17:26:11.467206  2295 net.cpp:84] Creating Layer ip2
I0502 17:26:11.467217  2295 net.cpp:406] ip2 <- ip1
I0502 17:26:11.467232  2295 net.cpp:380] ip2 -> ip2
I0502 17:26:11.523831  2295 net.cpp:122] Setting up ip2
I0502 17:26:11.523911  2295 net.cpp:129] Top shape: 100 1000 (100000)
I0502 17:26:11.523922  2295 net.cpp:137] Memory required for data: 3029600
I0502 17:26:11.523947  2295 layer_factory.hpp:77] Creating layer relu2
I0502 17:26:11.523972  2295 net.cpp:84] Creating Layer relu2
I0502 17:26:11.524025  2295 net.cpp:406] relu2 <- ip2
I0502 17:26:11.524044  2295 net.cpp:367] relu2 -> ip2 (in-place)
I0502 17:26:11.524066  2295 net.cpp:122] Setting up relu2
I0502 17:26:11.524080  2295 net.cpp:129] Top shape: 100 1000 (100000)
I0502 17:26:11.524091  2295 net.cpp:137] Memory required for data: 3829600
I0502 17:26:11.524101  2295 layer_factory.hpp:77] Creating layer ip3
I0502 17:26:11.524117  2295 net.cpp:84] Creating Layer ip3
I0502 17:26:11.524128  2295 net.cpp:406] ip3 <- ip2
I0502 17:26:11.524143  2295 net.cpp:380] ip3 -> ip3
I0502 17:26:11.524761  2295 net.cpp:122] Setting up ip3
I0502 17:26:11.524785  2295 net.cpp:129] Top shape: 100 10 (1000)
I0502 17:26:11.524796  2295 net.cpp:137] Memory required for data: 3837600
I0502 17:26:11.524812  2295 layer_factory.hpp:77] Creating layer ip3_ip3_0_split
I0502 17:26:11.524828  2295 net.cpp:84] Creating Layer ip3_ip3_0_split
I0502 17:26:11.524839  2295 net.cpp:406] ip3_ip3_0_split <- ip3
I0502 17:26:11.524853  2295 net.cpp:380] ip3_ip3_0_split -> ip3_ip3_0_split_0
I0502 17:26:11.524869  2295 net.cpp:380] ip3_ip3_0_split -> ip3_ip3_0_split_1
I0502 17:26:11.524888  2295 net.cpp:122] Setting up ip3_ip3_0_split
I0502 17:26:11.524901  2295 net.cpp:129] Top shape: 100 10 (1000)
I0502 17:26:11.524914  2295 net.cpp:129] Top shape: 100 10 (1000)
I0502 17:26:11.524924  2295 net.cpp:137] Memory required for data: 3853600
I0502 17:26:11.524933  2295 layer_factory.hpp:77] Creating layer accuracy
I0502 17:26:11.524960  2295 net.cpp:84] Creating Layer accuracy
I0502 17:26:11.524972  2295 net.cpp:406] accuracy <- ip3_ip3_0_split_0
I0502 17:26:11.524984  2295 net.cpp:406] accuracy <- label_mnist_1_split_0
I0502 17:26:11.524997  2295 net.cpp:380] accuracy -> accuracy
…
