…
  layer {
    name: "mnist"
    type: "Data"
    top: "data"
    top: "label"
    include {
      phase: TRAIN
    }
    transform_param {
      scale: 0.00390625
    }
    data_param {
      source: "data/mnist_train_lmdb"
      batch_size: 100
      backend: LMDB
    }
  }
  layer {
    name: "mnist"
    type: "Data"
    top: "data"
    top: "label"
    include {
      phase: TEST
    }
    transform_param {
      scale: 0.00390625
    }
    data_param {
      source: "data/mnist_test_lmdb"
      batch_size: 100
      backend: LMDB
    }
  }
  layer {
    name: "ip1"
    type: "InnerProduct"
    bottom: "data"
    top: "ip1"
    inner_product_param {
      num_output: 1000
      weight_filler {
        type: "gaussian"
        mean: 0
        std: 0.01
      }
    }
    bias_param {
      filler {
        value: 0
      }
    }
    fixed_precision: true
    precision {
      enter: 2
      fraccio: 14
      rounding: "withProb"
      prob: 0.9
    }
  }
  layer {
    name: "relu1"
    type: "ReLU"
    bottom: "ip1"
    top: "ip1"
    fixed_precision: true
    precision {
      enter: 2
      fraccio: 14
      rounding: "withProb"
      prob: 0.9
    }
  }
  layer {
    name: "ip2"
    type: "InnerProduct"
    bottom: "ip1"
    top: "ip2"
    inner_product_param {
      num_output: 1000
      weight_filler {
        type: "gaussian"
        mean: 0
        std: 0.01
      }
    }
    bias_param {
      filler {
        value: 0
      }
    }
    fixed_precision: true
    precision {
      enter: 2
      fraccio: 14
      rounding: "withProb"
      prob: 0.9
    }
  }
  layer {
    name: "relu2"
    type: "ReLU"
    bottom: "ip2"
    top: "ip2"
    bias_param {
      filler {
        value: 0
      }
    }
    fixed_precision: true
    precision {
      enter: 2
      fraccio: 14
      rounding: "withProb"
      prob: 0.9
    }
  }
  layer {
    name: "ip3"
    type: "InnerProduct"
    bottom: "ip2"
    top: "ip3"
    inner_product_param {
      num_output: 10
      weight_filler {
        type: "gaussian"
        mean: 0
        std: 0.01
      }
    }
    bias_param {
      filler {
        value: 0
      }
    }
    fixed_precision: true
    precision {
      enter: 2
      fraccio: 14
      rounding: "withProb"
      prob: 0.9
    }
  }
  layer {
    name: "accuracy"
    type: "Accuracy"
    bottom: "ip3"
    bottom: "label"
    top: "accuracy"
  }
  layer {
    name: "loss"
    type: "SoftmaxWithLoss"
    bottom: "ip3"
    bottom: "label"
    top: "loss"
    fixed_precision: true
    precision {
      enter: 2
      fraccio: 14
      rounding: "withProb"
      prob: 0.9
    }
  }
}
train_state {
  level: 0
  stage: ""
}
fixed_precision: true
precision {
  enter: 2
  fraccio: 14
  rounding: "withProb"
  prob: 0.9
}
I0502 17:26:52.732604  2405 solver.cpp:82] Creating training net specified in net_param.
I0502 17:26:52.732677  2405 net.cpp:294] The NetState phase (0) differed from the phase (1) specified by a rule in layer mnist
I0502 17:26:52.732825  2405 net.cpp:51] Initializing net from parameters: 
name: "LeNet"
state {
  phase: TRAIN
  level: 0
  stage: ""
}
layer {
  name: "mnist"
  type: "Data"
  top: "data"
  top: "label"
  include {
    phase: TRAIN
  }
  transform_param {
    scale: 0.00390625
  }
  data_param {
    source: "data/mnist_train_lmdb"
    batch_size: 100
    backend: LMDB
  }
}
layer {
  name: "ip1"
  type: "InnerProduct"
  bottom: "data"
  top: "ip1"
  inner_product_param {
    num_output: 1000
    weight_filler {
      type: "gaussian"
      mean: 0
      std: 0.01
    }
  }
  bias_param {
    filler {
      value: 0
    }
  }
  fixed_precision: true
  precision {
    enter: 2
    fraccio: 14
    rounding: "withProb"
    prob: 0.9
  }
}
layer {
  name: "relu1"
  type: "ReLU"
  bottom: "ip1"
  top: "ip1"
  fixed_precision: true
  precision {
    enter: 2
    fraccio: 14
    rounding: "withProb"
    prob: 0.9
  }
}
layer {
  name: "ip2"
  type: "InnerProduct"
  bottom: "ip1"
  top: "ip2"
  inner_product_param {
    num_output: 1000
    weight_filler {
      type: "gaussian"
      mean: 0
      std: 0.01
    }
  }
  bias_param {
    filler {
      value: 0
    }
  }
  fixed_precision: true
  precision {
    enter: 2
    fraccio: 14
    rounding: "withProb"
    prob: 0.9
  }
}
layer {
  name: "relu2"
  type: "ReLU"
  bottom: "ip2"
  top: "ip2"
  bias_param {
    filler {
      value: 0
    }
  }
  fixed_precision: true
  precision {
    enter: 2
    fraccio: 14
    rounding: "withProb"
    prob: 0.9
  }
}
layer {
  name: "ip3"
  type: "InnerProduct"
  bottom: "ip2"
  top: "ip3"
  inner_product_param {
    num_output: 10
    weight_filler {
      type: "gaussian"
      mean: 0
      std: 0.01
    }
  }
  bias_param {
    filler {
      value: 0
    }
  }
  fixed_precision: true
  precision {
    enter: 2
    fraccio: 14
    rounding: "withProb"
    prob: 0.9
  }
}
layer {
  name: "accuracy"
  type: "Accuracy"
  bottom: "ip3"
  bottom: "label"
  top: "accuracy"
}
layer {
  name: "loss"
  type: "SoftmaxWithLoss"
  bottom: "ip3"
  bottom: "label"
  top: "loss"
  fixed_precision: true
  precision {
    enter: 2
    fraccio: 14
    rounding: "withProb"
    prob: 0.9
  }
}
I0502 17:26:52.733419  2405 layer_factory.hpp:77] Creating layer mnist
I0502 17:26:52.734756  2405 db_lmdb.cpp:35] Opened lmdb data/mnist_train_lmdb
I0502 17:26:52.735740  2405 net.cpp:84] Creating Layer mnist
I0502 17:26:52.735774  2405 net.cpp:380] mnist -> data
I0502 17:26:52.735823  2405 net.cpp:380] mnist -> label
I0502 17:26:52.735887  2405 data_layer.cpp:45] output data size: 100,1,28,28
I0502 17:26:52.737603  2405 net.cpp:122] Setting up mnist
I0502 17:26:52.737646  2405 net.cpp:129] Top shape: 100 1 28 28 (78400)
I0502 17:26:52.737663  2405 net.cpp:129] Top shape: 100 (100)
I0502 17:26:52.737673  2405 net.cpp:137] Memory required for data: 628000
I0502 17:26:52.737690  2405 layer_factory.hpp:77] Creating layer label_mnist_1_split
I0502 17:26:52.737711  2405 net.cpp:84] Creating Layer label_mnist_1_split
I0502 17:26:52.737725  2405 net.cpp:406] label_mnist_1_split <- label
I0502 17:26:52.737747  2405 net.cpp:380] label_mnist_1_split -> label_mnist_1_split_0
I0502 17:26:52.737767  2405 net.cpp:380] label_mnist_1_split -> label_mnist_1_split_1
I0502 17:26:52.737787  2405 net.cpp:122] Setting up label_mnist_1_split
I0502 17:26:52.737802  2405 net.cpp:129] Top shape: 100 (100)
I0502 17:26:52.737813  2405 net.cpp:129] Top shape: 100 (100)
I0502 17:26:52.737823  2405 net.cpp:137] Memory required for data: 629600
I0502 17:26:52.737833  2405 layer_factory.hpp:77] Creating layer ip1
I0502 17:26:52.737855  2405 net.cpp:84] Creating Layer ip1
I0502 17:26:52.737869  2405 net.cpp:406] ip1 <- data
I0502 17:26:52.737884  2405 net.cpp:380] ip1 -> ip1
I0502 17:26:52.785373  2405 net.cpp:122] Setting up ip1
I0502 17:26:52.785459  2405 net.cpp:129] Top shape: 100 1000 (100000)
I0502 17:26:52.785470  2405 net.cpp:137] Memory required for data: 1429600
I0502 17:26:52.785501  2405 layer_factory.hpp:77] Creating layer relu1
I0502 17:26:52.785538  2405 net.cpp:84] Creating Layer relu1
I0502 17:26:52.785553  2405 net.cpp:406] relu1 <- ip1
I0502 17:26:52.785569  2405 net.cpp:367] relu1 -> ip1 (in-place)
I0502 17:26:52.785590  2405 net.cpp:122] Setting up relu1
I0502 17:26:52.785604  2405 net.cpp:129] Top shape: 100 1000 (100000)
I0502 17:26:52.785614  2405 net.cpp:137] Memory required for data: 2229600
I0502 17:26:52.785624  2405 layer_factory.hpp:77] Creating layer ip2
I0502 17:26:52.785643  2405 net.cpp:84] Creating Layer ip2
I0502 17:26:52.785655  2405 net.cpp:406] ip2 <- ip1
I0502 17:26:52.785670  2405 net.cpp:380] ip2 -> ip2
I0502 17:26:52.842589  2405 net.cpp:122] Setting up ip2
I0502 17:26:52.842674  2405 net.cpp:129] Top shape: 100 1000 (100000)
I0502 17:26:52.842685  2405 net.cpp:137] Memory required for data: 3029600
I0502 17:26:52.842710  2405 layer_factory.hpp:77] Creating layer relu2
I0502 17:26:52.842734  2405 net.cpp:84] Creating Layer relu2
I0502 17:26:52.842788  2405 net.cpp:406] relu2 <- ip2
I0502 17:26:52.842808  2405 net.cpp:367] relu2 -> ip2 (in-place)
I0502 17:26:52.842829  2405 net.cpp:122] Setting up relu2
I0502 17:26:52.842842  2405 net.cpp:129] Top shape: 100 1000 (100000)
I0502 17:26:52.842852  2405 net.cpp:137] Memory required for data: 3829600
I0502 17:26:52.842862  2405 layer_factory.hpp:77] Creating layer ip3
I0502 17:26:52.842880  2405 net.cpp:84] Creating Layer ip3
I0502 17:26:52.842890  2405 net.cpp:406] ip3 <- ip2
I0502 17:26:52.842905  2405 net.cpp:380] ip3 -> ip3
I0502 17:26:52.843525  2405 net.cpp:122] Setting up ip3
I0502 17:26:52.843549  2405 net.cpp:129] Top shape: 100 10 (1000)
I0502 17:26:52.843559  2405 net.cpp:137] Memory required for data: 3837600
I0502 17:26:52.843577  2405 layer_factory.hpp:77] Creating layer ip3_ip3_0_split
I0502 17:26:52.843593  2405 net.cpp:84] Creating Layer ip3_ip3_0_split
I0502 17:26:52.843605  2405 net.cpp:406] ip3_ip3_0_split <- ip3
I0502 17:26:52.843617  2405 net.cpp:380] ip3_ip3_0_split -> ip3_ip3_0_split_0
I0502 17:26:52.843633  2405 net.cpp:380] ip3_ip3_0_split -> ip3_ip3_0_split_1
I0502 17:26:52.843652  2405 net.cpp:122] Setting up ip3_ip3_0_split
I0502 17:26:52.843664  2405 net.cpp:129] Top shape: 100 10 (1000)
I0502 17:26:52.843677  2405 net.cpp:129] Top shape: 100 10 (1000)
I0502 17:26:52.843688  2405 net.cpp:137] Memory required for data: 3853600
I0502 17:26:52.843698  2405 layer_factory.hpp:77] Creating layer accuracy
I0502 17:26:52.843724  2405 net.cpp:84] Creating Layer accuracy
I0502 17:26:52.843736  2405 net.cpp:406] accuracy <- ip3_ip3_0_split_0
I0502 17:26:52.843749  2405 net.cpp:406] accuracy <- label_mnist_1_split_0
I0502 17:26:52.843760  2405 net.cpp:380] accuracy -> accuracy
…
