…
  layer {
    name: "mnist"
    type: "Data"
    top: "data"
    top: "label"
    include {
      phase: TRAIN
    }
    transform_param {
      scale: 0.00390625
    }
    data_param {
      source: "data/mnist_train_lmdb"
      batch_size: 100
      backend: LMDB
    }
  }
  layer {
    name: "mnist"
    type: "Data"
    top: "data"
    top: "label"
    include {
      phase: TEST
    }
    transform_param {
      scale: 0.00390625
    }
    data_param {
      source: "data/mnist_test_lmdb"
      batch_size: 100
      backend: LMDB
    }
  }
  layer {
    name: "ip1"
    type: "InnerProduct"
    bottom: "data"
    top: "ip1"
    inner_product_param {
      num_output: 1000
      weight_filler {
        type: "gaussian"
        mean: 0
        std: 0.01
      }
    }
    bias_param {
      filler {
        value: 0
      }
    }
    fixed_precision: true
    precision {
      enter: 2
      fraccio: 6
      rounding: "stochastic"
    }
  }
  layer {
    name: "relu1"
    type: "ReLU"
    bottom: "ip1"
    top: "ip1"
    fixed_precision: true
    precision {
      enter: 2
      fraccio: 6
      rounding: "stochastic"
    }
  }
  layer {
    name: "ip2"
    type: "InnerProduct"
    bottom: "ip1"
    top: "ip2"
    inner_product_param {
      num_output: 1000
      weight_filler {
        type: "gaussian"
        mean: 0
        std: 0.01
      }
    }
    bias_param {
      filler {
        value: 0
      }
    }
    fixed_precision: true
    precision {
      enter: 2
      fraccio: 6
      rounding: "stochastic"
    }
  }
  layer {
    name: "relu2"
    type: "ReLU"
    bottom: "ip2"
    top: "ip2"
    bias_param {
      filler {
        value: 0
      }
    }
    fixed_precision: true
    precision {
      enter: 2
      fraccio: 6
      rounding: "stochastic"
    }
  }
  layer {
    name: "ip3"
    type: "InnerProduct"
    bottom: "ip2"
    top: "ip3"
    inner_product_param {
      num_output: 10
      weight_filler {
        type: "gaussian"
        mean: 0
        std: 0.01
      }
    }
    bias_param {
      filler {
        value: 0
      }
    }
    fixed_precision: true
    precision {
      enter: 2
      fraccio: 6
      rounding: "stochastic"
    }
  }
  layer {
    name: "accuracy"
    type: "Accuracy"
    bottom: "ip3"
    bottom: "label"
    top: "accuracy"
  }
  layer {
    name: "loss"
    type: "SoftmaxWithLoss"
    bottom: "ip3"
    bottom: "label"
    top: "loss"
    fixed_precision: true
    precision {
      enter: 2
      fraccio: 6
      rounding: "stochastic"
    }
  }
}
train_state {
  level: 0
  stage: ""
}
fixed_precision: true
precision {
  enter: 2
  fraccio: 6
  rounding: "stochastic"
}
I0504 13:07:46.739881 28250 solver.cpp:82] Creating training net specified in net_param.
I0504 13:07:46.739948 28250 net.cpp:294] The NetState phase (0) differed from the phase (1) specified by a rule in layer mnist
I0504 13:07:46.740077 28250 net.cpp:51] Initializing net from parameters: 
name: "LeNet"
state {
  phase: TRAIN
  level: 0
  stage: ""
}
layer {
  name: "mnist"
  type: "Data"
  top: "data"
  top: "label"
  include {
    phase: TRAIN
  }
  transform_param {
    scale: 0.00390625
  }
  data_param {
    source: "data/mnist_train_lmdb"
    batch_size: 100
    backend: LMDB
  }
}
layer {
  name: "ip1"
  type: "InnerProduct"
  bottom: "data"
  top: "ip1"
  inner_product_param {
    num_output: 1000
    weight_filler {
      type: "gaussian"
      mean: 0
      std: 0.01
    }
  }
  bias_param {
    filler {
      value: 0
    }
  }
  fixed_precision: true
  precision {
    enter: 2
    fraccio: 6
    rounding: "stochastic"
  }
}
layer {
  name: "relu1"
  type: "ReLU"
  bottom: "ip1"
  top: "ip1"
  fixed_precision: true
  precision {
    enter: 2
    fraccio: 6
    rounding: "stochastic"
  }
}
layer {
  name: "ip2"
  type: "InnerProduct"
  bottom: "ip1"
  top: "ip2"
  inner_product_param {
    num_output: 1000
    weight_filler {
      type: "gaussian"
      mean: 0
      std: 0.01
    }
  }
  bias_param {
    filler {
      value: 0
    }
  }
  fixed_precision: true
  precision {
    enter: 2
    fraccio: 6
    rounding: "stochastic"
  }
}
layer {
  name: "relu2"
  type: "ReLU"
  bottom: "ip2"
  top: "ip2"
  bias_param {
    filler {
      value: 0
    }
  }
  fixed_precision: true
  precision {
    enter: 2
    fraccio: 6
    rounding: "stochastic"
  }
}
layer {
  name: "ip3"
  type: "InnerProduct"
  bottom: "ip2"
  top: "ip3"
  inner_product_param {
    num_output: 10
    weight_filler {
      type: "gaussian"
      mean: 0
      std: 0.01
    }
  }
  bias_param {
    filler {
      value: 0
    }
  }
  fixed_precision: true
  precision {
    enter: 2
    fraccio: 6
    rounding: "stochastic"
  }
}
layer {
  name: "accuracy"
  type: "Accuracy"
  bottom: "ip3"
  bottom: "label"
  top: "accuracy"
}
layer {
  name: "loss"
  type: "SoftmaxWithLoss"
  bottom: "ip3"
  bottom: "label"
  top: "loss"
  fixed_precision: true
  precision {
    enter: 2
    fraccio: 6
    rounding: "stochastic"
  }
}
I0504 13:07:46.741072 28250 layer_factory.hpp:77] Creating layer mnist
I0504 13:07:46.774595 28250 db_lmdb.cpp:35] Opened lmdb data/mnist_train_lmdb
I0504 13:07:46.774988 28250 net.cpp:84] Creating Layer mnist
I0504 13:07:46.775025 28250 net.cpp:380] mnist -> data
I0504 13:07:46.775080 28250 net.cpp:380] mnist -> label
I0504 13:07:46.775151 28250 data_layer.cpp:45] output data size: 100,1,28,28
I0504 13:07:46.776873 28250 net.cpp:122] Setting up mnist
I0504 13:07:46.776911 28250 net.cpp:129] Top shape: 100 1 28 28 (78400)
I0504 13:07:46.776926 28250 net.cpp:129] Top shape: 100 (100)
I0504 13:07:46.776937 28250 net.cpp:137] Memory required for data: 628000
I0504 13:07:46.776954 28250 layer_factory.hpp:77] Creating layer label_mnist_1_split
I0504 13:07:46.776975 28250 net.cpp:84] Creating Layer label_mnist_1_split
I0504 13:07:46.776988 28250 net.cpp:406] label_mnist_1_split <- label
I0504 13:07:46.777010 28250 net.cpp:380] label_mnist_1_split -> label_mnist_1_split_0
I0504 13:07:46.777029 28250 net.cpp:380] label_mnist_1_split -> label_mnist_1_split_1
I0504 13:07:46.777047 28250 net.cpp:122] Setting up label_mnist_1_split
I0504 13:07:46.777061 28250 net.cpp:129] Top shape: 100 (100)
I0504 13:07:46.777073 28250 net.cpp:129] Top shape: 100 (100)
I0504 13:07:46.777083 28250 net.cpp:137] Memory required for data: 629600
I0504 13:07:46.777094 28250 layer_factory.hpp:77] Creating layer ip1
I0504 13:07:46.777117 28250 net.cpp:84] Creating Layer ip1
I0504 13:07:46.777128 28250 net.cpp:406] ip1 <- data
I0504 13:07:46.777143 28250 net.cpp:380] ip1 -> ip1
I0504 13:07:46.828486 28250 net.cpp:122] Setting up ip1
I0504 13:07:46.828549 28250 net.cpp:129] Top shape: 100 1000 (100000)
I0504 13:07:46.828565 28250 net.cpp:137] Memory required for data: 1429600
I0504 13:07:46.828599 28250 layer_factory.hpp:77] Creating layer relu1
I0504 13:07:46.828630 28250 net.cpp:84] Creating Layer relu1
I0504 13:07:46.828644 28250 net.cpp:406] relu1 <- ip1
I0504 13:07:46.828660 28250 net.cpp:367] relu1 -> ip1 (in-place)
I0504 13:07:46.828680 28250 net.cpp:122] Setting up relu1
I0504 13:07:46.828693 28250 net.cpp:129] Top shape: 100 1000 (100000)
I0504 13:07:46.828703 28250 net.cpp:137] Memory required for data: 2229600
I0504 13:07:46.828714 28250 layer_factory.hpp:77] Creating layer ip2
I0504 13:07:46.828735 28250 net.cpp:84] Creating Layer ip2
I0504 13:07:46.828747 28250 net.cpp:406] ip2 <- ip1
I0504 13:07:46.828761 28250 net.cpp:380] ip2 -> ip2
I0504 13:07:46.889554 28250 net.cpp:122] Setting up ip2
I0504 13:07:46.889614 28250 net.cpp:129] Top shape: 100 1000 (100000)
I0504 13:07:46.889626 28250 net.cpp:137] Memory required for data: 3029600
I0504 13:07:46.889652 28250 layer_factory.hpp:77] Creating layer relu2
I0504 13:07:46.889680 28250 net.cpp:84] Creating Layer relu2
I0504 13:07:46.889693 28250 net.cpp:406] relu2 <- ip2
I0504 13:07:46.889709 28250 net.cpp:367] relu2 -> ip2 (in-place)
I0504 13:07:46.889777 28250 net.cpp:122] Setting up relu2
I0504 13:07:46.889792 28250 net.cpp:129] Top shape: 100 1000 (100000)
I0504 13:07:46.889802 28250 net.cpp:137] Memory required for data: 3829600
I0504 13:07:46.889813 28250 layer_factory.hpp:77] Creating layer ip3
I0504 13:07:46.889830 28250 net.cpp:84] Creating Layer ip3
I0504 13:07:46.889842 28250 net.cpp:406] ip3 <- ip2
I0504 13:07:46.889856 28250 net.cpp:380] ip3 -> ip3
I0504 13:07:46.890514 28250 net.cpp:122] Setting up ip3
I0504 13:07:46.890535 28250 net.cpp:129] Top shape: 100 10 (1000)
I0504 13:07:46.890547 28250 net.cpp:137] Memory required for data: 3837600
I0504 13:07:46.890569 28250 layer_factory.hpp:77] Creating layer ip3_ip3_0_split
I0504 13:07:46.890586 28250 net.cpp:84] Creating Layer ip3_ip3_0_split
I0504 13:07:46.890597 28250 net.cpp:406] ip3_ip3_0_split <- ip3
I0504 13:07:46.890610 28250 net.cpp:380] ip3_ip3_0_split -> ip3_ip3_0_split_0
I0504 13:07:46.890626 28250 net.cpp:380] ip3_ip3_0_split -> ip3_ip3_0_split_1
I0504 13:07:46.890645 28250 net.cpp:122] Setting up ip3_ip3_0_split
I0504 13:07:46.890658 28250 net.cpp:129] Top shape: 100 10 (1000)
I0504 13:07:46.890671 28250 net.cpp:129] Top shape: 100 10 (1000)
I0504 13:07:46.890681 28250 net.cpp:137] Memory required for data: 3853600
I0504 13:07:46.890691 28250 layer_factory.hpp:77] Creating layer accuracy
I0504 13:07:46.890717 28250 net.cpp:84] Creating Layer accuracy
I0504 13:07:46.890730 28250 net.cpp:406] accuracy <- ip3_ip3_0_split_0
I0504 13:07:46.890743 28250 net.cpp:406] accuracy <- label_mnist_1_split_0
I0504 13:07:46.890754 28250 net.cpp:380] accuracy -> accuracy
…
