…
  layer {
    name: "mnist"
    type: "Data"
    top: "data"
    top: "label"
    include {
      phase: TRAIN
    }
    transform_param {
      scale: 0.00390625
    }
    data_param {
      source: "data/mnist_train_lmdb"
      batch_size: 100
      backend: LMDB
    }
  }
  layer {
    name: "mnist"
    type: "Data"
    top: "data"
    top: "label"
    include {
      phase: TEST
    }
    transform_param {
      scale: 0.00390625
    }
    data_param {
      source: "data/mnist_test_lmdb"
      batch_size: 100
      backend: LMDB
    }
  }
  layer {
    name: "ip1"
    type: "InnerProduct"
    bottom: "data"
    top: "ip1"
    inner_product_param {
      num_output: 1000
      weight_filler {
        type: "gaussian"
        mean: 0
        std: 0.01
      }
    }
    bias_param {
      filler {
        value: 0
      }
    }
    fixed_precision: true
    precision {
      enter: 2
      fraccio: 14
      rounding: "withProb"
      prob: 0.1
    }
  }
  layer {
    name: "relu1"
    type: "ReLU"
    bottom: "ip1"
    top: "ip1"
    fixed_precision: true
    precision {
      enter: 2
      fraccio: 14
      rounding: "withProb"
      prob: 0.1
    }
  }
  layer {
    name: "ip2"
    type: "InnerProduct"
    bottom: "ip1"
    top: "ip2"
    inner_product_param {
      num_output: 1000
      weight_filler {
        type: "gaussian"
        mean: 0
        std: 0.01
      }
    }
    bias_param {
      filler {
        value: 0
      }
    }
    fixed_precision: true
    precision {
      enter: 2
      fraccio: 14
      rounding: "withProb"
      prob: 0.1
    }
  }
  layer {
    name: "relu2"
    type: "ReLU"
    bottom: "ip2"
    top: "ip2"
    bias_param {
      filler {
        value: 0
      }
    }
    fixed_precision: true
    precision {
      enter: 2
      fraccio: 14
      rounding: "withProb"
      prob: 0.1
    }
  }
  layer {
    name: "ip3"
    type: "InnerProduct"
    bottom: "ip2"
    top: "ip3"
    inner_product_param {
      num_output: 10
      weight_filler {
        type: "gaussian"
        mean: 0
        std: 0.01
      }
    }
    bias_param {
      filler {
        value: 0
      }
    }
    fixed_precision: true
    precision {
      enter: 2
      fraccio: 14
      rounding: "withProb"
      prob: 0.1
    }
  }
  layer {
    name: "accuracy"
    type: "Accuracy"
    bottom: "ip3"
    bottom: "label"
    top: "accuracy"
  }
  layer {
    name: "loss"
    type: "SoftmaxWithLoss"
    bottom: "ip3"
    bottom: "label"
    top: "loss"
    fixed_precision: true
    precision {
      enter: 2
      fraccio: 14
      rounding: "withProb"
      prob: 0.1
    }
  }
}
train_state {
  level: 0
  stage: ""
}
fixed_precision: true
precision {
  enter: 2
  fraccio: 14
  rounding: "withProb"
  prob: 0.1
}
I0502 17:27:26.641345 20443 solver.cpp:82] Creating training net specified in net_param.
I0502 17:27:26.641554 20443 net.cpp:294] The NetState phase (0) differed from the phase (1) specified by a rule in layer mnist
I0502 17:27:26.641736 20443 net.cpp:51] Initializing net from parameters: 
name: "LeNet"
state {
  phase: TRAIN
  level: 0
  stage: ""
}
layer {
  name: "mnist"
  type: "Data"
  top: "data"
  top: "label"
  include {
    phase: TRAIN
  }
  transform_param {
    scale: 0.00390625
  }
  data_param {
    source: "data/mnist_train_lmdb"
    batch_size: 100
    backend: LMDB
  }
}
layer {
  name: "ip1"
  type: "InnerProduct"
  bottom: "data"
  top: "ip1"
  inner_product_param {
    num_output: 1000
    weight_filler {
      type: "gaussian"
      mean: 0
      std: 0.01
    }
  }
  bias_param {
    filler {
      value: 0
    }
  }
  fixed_precision: true
  precision {
    enter: 2
    fraccio: 14
    rounding: "withProb"
    prob: 0.1
  }
}
layer {
  name: "relu1"
  type: "ReLU"
  bottom: "ip1"
  top: "ip1"
  fixed_precision: true
  precision {
    enter: 2
    fraccio: 14
    rounding: "withProb"
    prob: 0.1
  }
}
layer {
  name: "ip2"
  type: "InnerProduct"
  bottom: "ip1"
  top: "ip2"
  inner_product_param {
    num_output: 1000
    weight_filler {
      type: "gaussian"
      mean: 0
      std: 0.01
    }
  }
  bias_param {
    filler {
      value: 0
    }
  }
  fixed_precision: true
  precision {
    enter: 2
    fraccio: 14
    rounding: "withProb"
    prob: 0.1
  }
}
layer {
  name: "relu2"
  type: "ReLU"
  bottom: "ip2"
  top: "ip2"
  bias_param {
    filler {
      value: 0
    }
  }
  fixed_precision: true
  precision {
    enter: 2
    fraccio: 14
    rounding: "withProb"
    prob: 0.1
  }
}
layer {
  name: "ip3"
  type: "InnerProduct"
  bottom: "ip2"
  top: "ip3"
  inner_product_param {
    num_output: 10
    weight_filler {
      type: "gaussian"
      mean: 0
      std: 0.01
    }
  }
  bias_param {
    filler {
      value: 0
    }
  }
  fixed_precision: true
  precision {
    enter: 2
    fraccio: 14
    rounding: "withProb"
    prob: 0.1
  }
}
layer {
  name: "accuracy"
  type: "Accuracy"
  bottom: "ip3"
  bottom: "label"
  top: "accuracy"
}
layer {
  name: "loss"
  type: "SoftmaxWithLoss"
  bottom: "ip3"
  bottom: "label"
  top: "loss"
  fixed_precision: true
  precision {
    enter: 2
    fraccio: 14
    rounding: "withProb"
    prob: 0.1
  }
}
I0502 17:27:26.643390 20443 layer_factory.hpp:77] Creating layer mnist
I0502 17:27:26.732384 20443 db_lmdb.cpp:35] Opened lmdb data/mnist_train_lmdb
I0502 17:27:26.741506 20443 net.cpp:84] Creating Layer mnist
I0502 17:27:26.741587 20443 net.cpp:380] mnist -> data
I0502 17:27:26.741680 20443 net.cpp:380] mnist -> label
I0502 17:27:26.741847 20443 data_layer.cpp:45] output data size: 100,1,28,28
I0502 17:27:26.743685 20443 net.cpp:122] Setting up mnist
I0502 17:27:26.743749 20443 net.cpp:129] Top shape: 100 1 28 28 (78400)
I0502 17:27:26.743769 20443 net.cpp:129] Top shape: 100 (100)
I0502 17:27:26.743779 20443 net.cpp:137] Memory required for data: 628000
I0502 17:27:26.743798 20443 layer_factory.hpp:77] Creating layer label_mnist_1_split
I0502 17:27:26.743830 20443 net.cpp:84] Creating Layer label_mnist_1_split
I0502 17:27:26.743847 20443 net.cpp:406] label_mnist_1_split <- label
I0502 17:27:26.743870 20443 net.cpp:380] label_mnist_1_split -> label_mnist_1_split_0
I0502 17:27:26.743896 20443 net.cpp:380] label_mnist_1_split -> label_mnist_1_split_1
I0502 17:27:26.743916 20443 net.cpp:122] Setting up label_mnist_1_split
I0502 17:27:26.743930 20443 net.cpp:129] Top shape: 100 (100)
I0502 17:27:26.743942 20443 net.cpp:129] Top shape: 100 (100)
I0502 17:27:26.743950 20443 net.cpp:137] Memory required for data: 629600
I0502 17:27:26.743962 20443 layer_factory.hpp:77] Creating layer ip1
I0502 17:27:26.744006 20443 net.cpp:84] Creating Layer ip1
I0502 17:27:26.744024 20443 net.cpp:406] ip1 <- data
I0502 17:27:26.744040 20443 net.cpp:380] ip1 -> ip1
I0502 17:27:26.790087 20443 net.cpp:122] Setting up ip1
I0502 17:27:26.790155 20443 net.cpp:129] Top shape: 100 1000 (100000)
I0502 17:27:26.790168 20443 net.cpp:137] Memory required for data: 1429600
I0502 17:27:26.790210 20443 layer_factory.hpp:77] Creating layer relu1
I0502 17:27:26.790259 20443 net.cpp:84] Creating Layer relu1
I0502 17:27:26.790277 20443 net.cpp:406] relu1 <- ip1
I0502 17:27:26.790292 20443 net.cpp:367] relu1 -> ip1 (in-place)
I0502 17:27:26.790313 20443 net.cpp:122] Setting up relu1
I0502 17:27:26.790325 20443 net.cpp:129] Top shape: 100 1000 (100000)
I0502 17:27:26.790335 20443 net.cpp:137] Memory required for data: 2229600
I0502 17:27:26.790345 20443 layer_factory.hpp:77] Creating layer ip2
I0502 17:27:26.790365 20443 net.cpp:84] Creating Layer ip2
I0502 17:27:26.790377 20443 net.cpp:406] ip2 <- ip1
I0502 17:27:26.790391 20443 net.cpp:380] ip2 -> ip2
I0502 17:27:26.844087 20443 net.cpp:122] Setting up ip2
I0502 17:27:26.844168 20443 net.cpp:129] Top shape: 100 1000 (100000)
I0502 17:27:26.844179 20443 net.cpp:137] Memory required for data: 3029600
I0502 17:27:26.844202 20443 layer_factory.hpp:77] Creating layer relu2
I0502 17:27:26.844228 20443 net.cpp:84] Creating Layer relu2
I0502 17:27:26.844280 20443 net.cpp:406] relu2 <- ip2
I0502 17:27:26.844298 20443 net.cpp:367] relu2 -> ip2 (in-place)
I0502 17:27:26.844319 20443 net.cpp:122] Setting up relu2
I0502 17:27:26.844332 20443 net.cpp:129] Top shape: 100 1000 (100000)
I0502 17:27:26.844342 20443 net.cpp:137] Memory required for data: 3829600
I0502 17:27:26.844352 20443 layer_factory.hpp:77] Creating layer ip3
I0502 17:27:26.844368 20443 net.cpp:84] Creating Layer ip3
I0502 17:27:26.844379 20443 net.cpp:406] ip3 <- ip2
I0502 17:27:26.844393 20443 net.cpp:380] ip3 -> ip3
I0502 17:27:26.844969 20443 net.cpp:122] Setting up ip3
I0502 17:27:26.844991 20443 net.cpp:129] Top shape: 100 10 (1000)
I0502 17:27:26.845002 20443 net.cpp:137] Memory required for data: 3837600
I0502 17:27:26.845019 20443 layer_factory.hpp:77] Creating layer ip3_ip3_0_split
I0502 17:27:26.845036 20443 net.cpp:84] Creating Layer ip3_ip3_0_split
I0502 17:27:26.845046 20443 net.cpp:406] ip3_ip3_0_split <- ip3
I0502 17:27:26.845059 20443 net.cpp:380] ip3_ip3_0_split -> ip3_ip3_0_split_0
I0502 17:27:26.845074 20443 net.cpp:380] ip3_ip3_0_split -> ip3_ip3_0_split_1
I0502 17:27:26.845093 20443 net.cpp:122] Setting up ip3_ip3_0_split
I0502 17:27:26.845106 20443 net.cpp:129] Top shape: 100 10 (1000)
I0502 17:27:26.845118 20443 net.cpp:129] Top shape: 100 10 (1000)
I0502 17:27:26.845127 20443 net.cpp:137] Memory required for data: 3853600
I0502 17:27:26.845137 20443 layer_factory.hpp:77] Creating layer accuracy
I0502 17:27:26.845199 20443 net.cpp:84] Creating Layer accuracy
I0502 17:27:26.845216 20443 net.cpp:406] accuracy <- ip3_ip3_0_split_0
I0502 17:27:26.845228 20443 net.cpp:406] accuracy <- label_mnist_1_split_0
I0502 17:27:26.845240 20443 net.cpp:380] accuracy -> accuracy
…
