…
  layer {
    name: "mnist"
    type: "Data"
    top: "data"
    top: "label"
    include {
      phase: TRAIN
    }
    transform_param {
      scale: 0.00390625
    }
    data_param {
      source: "data/mnist_train_lmdb"
      batch_size: 100
      backend: LMDB
    }
  }
  layer {
    name: "mnist"
    type: "Data"
    top: "data"
    top: "label"
    include {
      phase: TEST
    }
    transform_param {
      scale: 0.00390625
    }
    data_param {
      source: "data/mnist_test_lmdb"
      batch_size: 100
      backend: LMDB
    }
  }
  layer {
    name: "ip1"
    type: "InnerProduct"
    bottom: "data"
    top: "ip1"
    inner_product_param {
      num_output: 1000
      weight_filler {
        type: "gaussian"
        mean: 0
        std: 0.01
      }
    }
    bias_param {
      filler {
        value: 0
      }
    }
    fixed_precision: true
    precision {
      enter: 2
      fraccio: 14
      rounding: "withProb"
      prob: 0.9
    }
  }
  layer {
    name: "relu1"
    type: "ReLU"
    bottom: "ip1"
    top: "ip1"
    fixed_precision: true
    precision {
      enter: 2
      fraccio: 14
      rounding: "withProb"
      prob: 0.9
    }
  }
  layer {
    name: "ip2"
    type: "InnerProduct"
    bottom: "ip1"
    top: "ip2"
    inner_product_param {
      num_output: 1000
      weight_filler {
        type: "gaussian"
        mean: 0
        std: 0.01
      }
    }
    bias_param {
      filler {
        value: 0
      }
    }
    fixed_precision: true
    precision {
      enter: 2
      fraccio: 14
      rounding: "withProb"
      prob: 0.9
    }
  }
  layer {
    name: "relu2"
    type: "ReLU"
    bottom: "ip2"
    top: "ip2"
    bias_param {
      filler {
        value: 0
      }
    }
    fixed_precision: true
    precision {
      enter: 2
      fraccio: 14
      rounding: "withProb"
      prob: 0.9
    }
  }
  layer {
    name: "ip3"
    type: "InnerProduct"
    bottom: "ip2"
    top: "ip3"
    inner_product_param {
      num_output: 10
      weight_filler {
        type: "gaussian"
        mean: 0
        std: 0.01
      }
    }
    bias_param {
      filler {
        value: 0
      }
    }
    fixed_precision: true
    precision {
      enter: 2
      fraccio: 14
      rounding: "withProb"
      prob: 0.9
    }
  }
  layer {
    name: "accuracy"
    type: "Accuracy"
    bottom: "ip3"
    bottom: "label"
    top: "accuracy"
  }
  layer {
    name: "loss"
    type: "SoftmaxWithLoss"
    bottom: "ip3"
    bottom: "label"
    top: "loss"
    fixed_precision: true
    precision {
      enter: 2
      fraccio: 14
      rounding: "withProb"
      prob: 0.9
    }
  }
}
train_state {
  level: 0
  stage: ""
}
fixed_precision: true
precision {
  enter: 2
  fraccio: 14
  rounding: "withProb"
  prob: 0.9
}
I0502 17:25:31.118096  2163 solver.cpp:82] Creating training net specified in net_param.
I0502 17:25:31.118214  2163 net.cpp:294] The NetState phase (0) differed from the phase (1) specified by a rule in layer mnist
I0502 17:25:31.118389  2163 net.cpp:51] Initializing net from parameters: 
name: "LeNet"
state {
  phase: TRAIN
  level: 0
  stage: ""
}
layer {
  name: "mnist"
  type: "Data"
  top: "data"
  top: "label"
  include {
    phase: TRAIN
  }
  transform_param {
    scale: 0.00390625
  }
  data_param {
    source: "data/mnist_train_lmdb"
    batch_size: 100
    backend: LMDB
  }
}
layer {
  name: "ip1"
  type: "InnerProduct"
  bottom: "data"
  top: "ip1"
  inner_product_param {
    num_output: 1000
    weight_filler {
      type: "gaussian"
      mean: 0
      std: 0.01
    }
  }
  bias_param {
    filler {
      value: 0
    }
  }
  fixed_precision: true
  precision {
    enter: 2
    fraccio: 14
    rounding: "withProb"
    prob: 0.9
  }
}
layer {
  name: "relu1"
  type: "ReLU"
  bottom: "ip1"
  top: "ip1"
  fixed_precision: true
  precision {
    enter: 2
    fraccio: 14
    rounding: "withProb"
    prob: 0.9
  }
}
layer {
  name: "ip2"
  type: "InnerProduct"
  bottom: "ip1"
  top: "ip2"
  inner_product_param {
    num_output: 1000
    weight_filler {
      type: "gaussian"
      mean: 0
      std: 0.01
    }
  }
  bias_param {
    filler {
      value: 0
    }
  }
  fixed_precision: true
  precision {
    enter: 2
    fraccio: 14
    rounding: "withProb"
    prob: 0.9
  }
}
layer {
  name: "relu2"
  type: "ReLU"
  bottom: "ip2"
  top: "ip2"
  bias_param {
    filler {
      value: 0
    }
  }
  fixed_precision: true
  precision {
    enter: 2
    fraccio: 14
    rounding: "withProb"
    prob: 0.9
  }
}
layer {
  name: "ip3"
  type: "InnerProduct"
  bottom: "ip2"
  top: "ip3"
  inner_product_param {
    num_output: 10
    weight_filler {
      type: "gaussian"
      mean: 0
      std: 0.01
    }
  }
  bias_param {
    filler {
      value: 0
    }
  }
  fixed_precision: true
  precision {
    enter: 2
    fraccio: 14
    rounding: "withProb"
    prob: 0.9
  }
}
layer {
  name: "accuracy"
  type: "Accuracy"
  bottom: "ip3"
  bottom: "label"
  top: "accuracy"
}
layer {
  name: "loss"
  type: "SoftmaxWithLoss"
  bottom: "ip3"
  bottom: "label"
  top: "loss"
  fixed_precision: true
  precision {
    enter: 2
    fraccio: 14
    rounding: "withProb"
    prob: 0.9
  }
}
I0502 17:25:31.119813  2163 layer_factory.hpp:77] Creating layer mnist
I0502 17:25:31.139423  2163 db_lmdb.cpp:35] Opened lmdb data/mnist_train_lmdb
I0502 17:25:31.140656  2163 net.cpp:84] Creating Layer mnist
I0502 17:25:31.140707  2163 net.cpp:380] mnist -> data
I0502 17:25:31.140790  2163 net.cpp:380] mnist -> label
I0502 17:25:31.140980  2163 data_layer.cpp:45] output data size: 100,1,28,28
I0502 17:25:31.142786  2163 net.cpp:122] Setting up mnist
I0502 17:25:31.142848  2163 net.cpp:129] Top shape: 100 1 28 28 (78400)
I0502 17:25:31.142868  2163 net.cpp:129] Top shape: 100 (100)
I0502 17:25:31.142879  2163 net.cpp:137] Memory required for data: 628000
I0502 17:25:31.142894  2163 layer_factory.hpp:77] Creating layer label_mnist_1_split
I0502 17:25:31.142926  2163 net.cpp:84] Creating Layer label_mnist_1_split
I0502 17:25:31.142943  2163 net.cpp:406] label_mnist_1_split <- label
I0502 17:25:31.142966  2163 net.cpp:380] label_mnist_1_split -> label_mnist_1_split_0
I0502 17:25:31.142983  2163 net.cpp:380] label_mnist_1_split -> label_mnist_1_split_1
I0502 17:25:31.143002  2163 net.cpp:122] Setting up label_mnist_1_split
I0502 17:25:31.143016  2163 net.cpp:129] Top shape: 100 (100)
I0502 17:25:31.143028  2163 net.cpp:129] Top shape: 100 (100)
I0502 17:25:31.143038  2163 net.cpp:137] Memory required for data: 629600
I0502 17:25:31.143049  2163 layer_factory.hpp:77] Creating layer ip1
I0502 17:25:31.143088  2163 net.cpp:84] Creating Layer ip1
I0502 17:25:31.143106  2163 net.cpp:406] ip1 <- data
I0502 17:25:31.143122  2163 net.cpp:380] ip1 -> ip1
I0502 17:25:31.191864  2163 net.cpp:122] Setting up ip1
I0502 17:25:31.191931  2163 net.cpp:129] Top shape: 100 1000 (100000)
I0502 17:25:31.191941  2163 net.cpp:137] Memory required for data: 1429600
I0502 17:25:31.191985  2163 layer_factory.hpp:77] Creating layer relu1
I0502 17:25:31.192035  2163 net.cpp:84] Creating Layer relu1
I0502 17:25:31.192051  2163 net.cpp:406] relu1 <- ip1
I0502 17:25:31.192068  2163 net.cpp:367] relu1 -> ip1 (in-place)
I0502 17:25:31.192088  2163 net.cpp:122] Setting up relu1
I0502 17:25:31.192102  2163 net.cpp:129] Top shape: 100 1000 (100000)
I0502 17:25:31.192112  2163 net.cpp:137] Memory required for data: 2229600
I0502 17:25:31.192122  2163 layer_factory.hpp:77] Creating layer ip2
I0502 17:25:31.192142  2163 net.cpp:84] Creating Layer ip2
I0502 17:25:31.192154  2163 net.cpp:406] ip2 <- ip1
I0502 17:25:31.192169  2163 net.cpp:380] ip2 -> ip2
I0502 17:25:31.249189  2163 net.cpp:122] Setting up ip2
I0502 17:25:31.249264  2163 net.cpp:129] Top shape: 100 1000 (100000)
I0502 17:25:31.249275  2163 net.cpp:137] Memory required for data: 3029600
I0502 17:25:31.249299  2163 layer_factory.hpp:77] Creating layer relu2
I0502 17:25:31.249323  2163 net.cpp:84] Creating Layer relu2
I0502 17:25:31.249375  2163 net.cpp:406] relu2 <- ip2
I0502 17:25:31.249394  2163 net.cpp:367] relu2 -> ip2 (in-place)
I0502 17:25:31.249415  2163 net.cpp:122] Setting up relu2
I0502 17:25:31.249429  2163 net.cpp:129] Top shape: 100 1000 (100000)
I0502 17:25:31.249439  2163 net.cpp:137] Memory required for data: 3829600
I0502 17:25:31.249449  2163 layer_factory.hpp:77] Creating layer ip3
I0502 17:25:31.249471  2163 net.cpp:84] Creating Layer ip3
I0502 17:25:31.249485  2163 net.cpp:406] ip3 <- ip2
I0502 17:25:31.249500  2163 net.cpp:380] ip3 -> ip3
I0502 17:25:31.250113  2163 net.cpp:122] Setting up ip3
I0502 17:25:31.250134  2163 net.cpp:129] Top shape: 100 10 (1000)
I0502 17:25:31.250145  2163 net.cpp:137] Memory required for data: 3837600
I0502 17:25:31.250162  2163 layer_factory.hpp:77] Creating layer ip3_ip3_0_split
I0502 17:25:31.250178  2163 net.cpp:84] Creating Layer ip3_ip3_0_split
I0502 17:25:31.250190  2163 net.cpp:406] ip3_ip3_0_split <- ip3
I0502 17:25:31.250203  2163 net.cpp:380] ip3_ip3_0_split -> ip3_ip3_0_split_0
I0502 17:25:31.250219  2163 net.cpp:380] ip3_ip3_0_split -> ip3_ip3_0_split_1
I0502 17:25:31.250238  2163 net.cpp:122] Setting up ip3_ip3_0_split
I0502 17:25:31.250252  2163 net.cpp:129] Top shape: 100 10 (1000)
I0502 17:25:31.250264  2163 net.cpp:129] Top shape: 100 10 (1000)
I0502 17:25:31.250274  2163 net.cpp:137] Memory required for data: 3853600
I0502 17:25:31.250284  2163 layer_factory.hpp:77] Creating layer accuracy
I0502 17:25:31.250341  2163 net.cpp:84] Creating Layer accuracy
I0502 17:25:31.250357  2163 net.cpp:406] accuracy <- ip3_ip3_0_split_0
I0502 17:25:31.250370  2163 net.cpp:406] accuracy <- label_mnist_1_split_0
I0502 17:25:31.250383  2163 net.cpp:380] accuracy -> accuracy
…
