…
  layer {
    name: "mnist"
    type: "Data"
    top: "data"
    top: "label"
    include {
      phase: TRAIN
    }
    transform_param {
      scale: 0.00390625
    }
    data_param {
      source: "data/mnist_train_lmdb"
      batch_size: 100
      backend: LMDB
    }
  }
  layer {
    name: "mnist"
    type: "Data"
    top: "data"
    top: "label"
    include {
      phase: TEST
    }
    transform_param {
      scale: 0.00390625
    }
    data_param {
      source: "data/mnist_test_lmdb"
      batch_size: 100
      backend: LMDB
    }
  }
  layer {
    name: "ip1"
    type: "InnerProduct"
    bottom: "data"
    top: "ip1"
    inner_product_param {
      num_output: 1000
      weight_filler {
        type: "gaussian"
        mean: 0
        std: 0.01
      }
    }
    bias_param {
      filler {
        value: 0
      }
    }
    fixed_precision: true
    precision {
      enter: 2
      fraccio: 14
      rounding: "nearest"
    }
  }
  layer {
    name: "relu1"
    type: "ReLU"
    bottom: "ip1"
    top: "ip1"
    fixed_precision: true
    precision {
      enter: 2
      fraccio: 14
      rounding: "nearest"
    }
  }
  layer {
    name: "ip2"
    type: "InnerProduct"
    bottom: "ip1"
    top: "ip2"
    inner_product_param {
      num_output: 1000
      weight_filler {
        type: "gaussian"
        mean: 0
        std: 0.01
      }
    }
    bias_param {
      filler {
        value: 0
      }
    }
    fixed_precision: true
    precision {
      enter: 2
      fraccio: 14
      rounding: "nearest"
    }
  }
  layer {
    name: "relu2"
    type: "ReLU"
    bottom: "ip2"
    top: "ip2"
    bias_param {
      filler {
        value: 0
      }
    }
    fixed_precision: true
    precision {
      enter: 2
      fraccio: 14
      rounding: "nearest"
    }
  }
  layer {
    name: "ip3"
    type: "InnerProduct"
    bottom: "ip2"
    top: "ip3"
    inner_product_param {
      num_output: 10
      weight_filler {
        type: "gaussian"
        mean: 0
        std: 0.01
      }
    }
    bias_param {
      filler {
        value: 0
      }
    }
    fixed_precision: true
    precision {
      enter: 2
      fraccio: 14
      rounding: "nearest"
    }
  }
  layer {
    name: "accuracy"
    type: "Accuracy"
    bottom: "ip3"
    bottom: "label"
    top: "accuracy"
  }
  layer {
    name: "loss"
    type: "SoftmaxWithLoss"
    bottom: "ip3"
    bottom: "label"
    top: "loss"
    fixed_precision: true
    precision {
      enter: 2
      fraccio: 14
      rounding: "nearest"
    }
  }
}
train_state {
  level: 0
  stage: ""
}
fixed_precision: true
precision {
  enter: 2
  fraccio: 14
  rounding: "nearest"
}
I0331 08:52:40.679618  1905 solver.cpp:82] Creating training net specified in net_param.
I0331 08:52:40.679679  1905 net.cpp:294] The NetState phase (0) differed from the phase (1) specified by a rule in layer mnist
I0331 08:52:40.679853  1905 net.cpp:51] Initializing net from parameters: 
name: "LeNet"
state {
  phase: TRAIN
  level: 0
  stage: ""
}
layer {
  name: "mnist"
  type: "Data"
  top: "data"
  top: "label"
  include {
    phase: TRAIN
  }
  transform_param {
    scale: 0.00390625
  }
  data_param {
    source: "data/mnist_train_lmdb"
    batch_size: 100
    backend: LMDB
  }
}
layer {
  name: "ip1"
  type: "InnerProduct"
  bottom: "data"
  top: "ip1"
  inner_product_param {
    num_output: 1000
    weight_filler {
      type: "gaussian"
      mean: 0
      std: 0.01
    }
  }
  bias_param {
    filler {
      value: 0
    }
  }
  fixed_precision: true
  precision {
    enter: 2
    fraccio: 14
    rounding: "nearest"
  }
}
layer {
  name: "relu1"
  type: "ReLU"
  bottom: "ip1"
  top: "ip1"
  fixed_precision: true
  precision {
    enter: 2
    fraccio: 14
    rounding: "nearest"
  }
}
layer {
  name: "ip2"
  type: "InnerProduct"
  bottom: "ip1"
  top: "ip2"
  inner_product_param {
    num_output: 1000
    weight_filler {
      type: "gaussian"
      mean: 0
      std: 0.01
    }
  }
  bias_param {
    filler {
      value: 0
    }
  }
  fixed_precision: true
  precision {
    enter: 2
    fraccio: 14
    rounding: "nearest"
  }
}
layer {
  name: "relu2"
  type: "ReLU"
  bottom: "ip2"
  top: "ip2"
  bias_param {
    filler {
      value: 0
    }
  }
  fixed_precision: true
  precision {
    enter: 2
    fraccio: 14
    rounding: "nearest"
  }
}
layer {
  name: "ip3"
  type: "InnerProduct"
  bottom: "ip2"
  top: "ip3"
  inner_product_param {
    num_output: 10
    weight_filler {
      type: "gaussian"
      mean: 0
      std: 0.01
    }
  }
  bias_param {
    filler {
      value: 0
    }
  }
  fixed_precision: true
  precision {
    enter: 2
    fraccio: 14
    rounding: "nearest"
  }
}
layer {
  name: "accuracy"
  type: "Accuracy"
  bottom: "ip3"
  bottom: "label"
  top: "accuracy"
}
layer {
  name: "loss"
  type: "SoftmaxWithLoss"
  bottom: "ip3"
  bottom: "label"
  top: "loss"
  fixed_precision: true
  precision {
    enter: 2
    fraccio: 14
    rounding: "nearest"
  }
}
I0331 08:52:40.679985  1905 layer_factory.hpp:77] Creating layer mnist
I0331 08:52:40.680109  1905 db_lmdb.cpp:35] Opened lmdb data/mnist_train_lmdb
I0331 08:52:40.680140  1905 net.cpp:84] Creating Layer mnist
I0331 08:52:40.680153  1905 net.cpp:380] mnist -> data
I0331 08:52:40.680182  1905 net.cpp:380] mnist -> label
I0331 08:52:40.680227  1905 data_layer.cpp:45] output data size: 100,1,28,28
I0331 08:52:40.682075  1905 net.cpp:122] Setting up mnist
I0331 08:52:40.682101  1905 net.cpp:129] Top shape: 100 1 28 28 (78400)
I0331 08:52:40.682111  1905 net.cpp:129] Top shape: 100 (100)
I0331 08:52:40.682119  1905 net.cpp:137] Memory required for data: 628000
I0331 08:52:40.682132  1905 layer_factory.hpp:77] Creating layer label_mnist_1_split
I0331 08:52:40.682148  1905 net.cpp:84] Creating Layer label_mnist_1_split
I0331 08:52:40.682158  1905 net.cpp:406] label_mnist_1_split <- label
I0331 08:52:40.682173  1905 net.cpp:380] label_mnist_1_split -> label_mnist_1_split_0
I0331 08:52:40.682186  1905 net.cpp:380] label_mnist_1_split -> label_mnist_1_split_1
I0331 08:52:40.682200  1905 net.cpp:122] Setting up label_mnist_1_split
I0331 08:52:40.682211  1905 net.cpp:129] Top shape: 100 (100)
I0331 08:52:40.682219  1905 net.cpp:129] Top shape: 100 (100)
I0331 08:52:40.682227  1905 net.cpp:137] Memory required for data: 629600
I0331 08:52:40.682235  1905 layer_factory.hpp:77] Creating layer ip1
I0331 08:52:40.682246  1905 net.cpp:84] Creating Layer ip1
I0331 08:52:40.682255  1905 net.cpp:406] ip1 <- data
I0331 08:52:40.682265  1905 net.cpp:380] ip1 -> ip1
I0331 08:52:40.782999  1905 net.cpp:122] Setting up ip1
I0331 08:52:40.783042  1905 net.cpp:129] Top shape: 100 1000 (100000)
I0331 08:52:40.783054  1905 net.cpp:137] Memory required for data: 1429600
I0331 08:52:40.783083  1905 layer_factory.hpp:77] Creating layer relu1
I0331 08:52:40.783104  1905 net.cpp:84] Creating Layer relu1
I0331 08:52:40.783116  1905 net.cpp:406] relu1 <- ip1
I0331 08:52:40.783129  1905 net.cpp:367] relu1 -> ip1 (in-place)
I0331 08:52:40.783154  1905 net.cpp:122] Setting up relu1
I0331 08:52:40.783164  1905 net.cpp:129] Top shape: 100 1000 (100000)
I0331 08:52:40.783172  1905 net.cpp:137] Memory required for data: 2229600
I0331 08:52:40.783180  1905 layer_factory.hpp:77] Creating layer ip2
I0331 08:52:40.783195  1905 net.cpp:84] Creating Layer ip2
I0331 08:52:40.783205  1905 net.cpp:406] ip2 <- ip1
I0331 08:52:40.783216  1905 net.cpp:380] ip2 -> ip2
I0331 08:52:40.867362  1905 net.cpp:122] Setting up ip2
I0331 08:52:40.867404  1905 net.cpp:129] Top shape: 100 1000 (100000)
I0331 08:52:40.867413  1905 net.cpp:137] Memory required for data: 3029600
I0331 08:52:40.867430  1905 layer_factory.hpp:77] Creating layer relu2
I0331 08:52:40.867446  1905 net.cpp:84] Creating Layer relu2
I0331 08:52:40.867456  1905 net.cpp:406] relu2 <- ip2
I0331 08:52:40.867470  1905 net.cpp:367] relu2 -> ip2 (in-place)
I0331 08:52:40.867496  1905 net.cpp:122] Setting up relu2
I0331 08:52:40.867516  1905 net.cpp:129] Top shape: 100 1000 (100000)
I0331 08:52:40.867523  1905 net.cpp:137] Memory required for data: 3829600
I0331 08:52:40.867532  1905 layer_factory.hpp:77] Creating layer ip3
I0331 08:52:40.867543  1905 net.cpp:84] Creating Layer ip3
I0331 08:52:40.867552  1905 net.cpp:406] ip3 <- ip2
I0331 08:52:40.867563  1905 net.cpp:380] ip3 -> ip3
I0331 08:52:40.868455  1905 net.cpp:122] Setting up ip3
I0331 08:52:40.868468  1905 net.cpp:129] Top shape: 100 10 (1000)
I0331 08:52:40.868474  1905 net.cpp:137] Memory required for data: 3837600
I0331 08:52:40.868489  1905 layer_factory.hpp:77] Creating layer ip3_ip3_0_split
I0331 08:52:40.868500  1905 net.cpp:84] Creating Layer ip3_ip3_0_split
I0331 08:52:40.868508  1905 net.cpp:406] ip3_ip3_0_split <- ip3
I0331 08:52:40.868518  1905 net.cpp:380] ip3_ip3_0_split -> ip3_ip3_0_split_0
I0331 08:52:40.868532  1905 net.cpp:380] ip3_ip3_0_split -> ip3_ip3_0_split_1
I0331 08:52:40.868547  1905 net.cpp:122] Setting up ip3_ip3_0_split
I0331 08:52:40.868556  1905 net.cpp:129] Top shape: 100 10 (1000)
I0331 08:52:40.868566  1905 net.cpp:129] Top shape: 100 10 (1000)
I0331 08:52:40.868572  1905 net.cpp:137] Memory required for data: 3853600
I0331 08:52:40.868582  1905 layer_factory.hpp:77] Creating layer accuracy
I0331 08:52:40.868593  1905 net.cpp:84] Creating Layer accuracy
I0331 08:52:40.868602  1905 net.cpp:406] accuracy <- ip3_ip3_0_split_0
I0331 08:52:40.868610  1905 net.cpp:406] accuracy <- label_mnist_1_split_0
I0331 08:52:40.868623  1905 net.cpp:380] accuracy -> accuracy
…
