…
  layer {
    name: "mnist"
    type: "Data"
    top: "data"
    top: "label"
    include {
      phase: TRAIN
    }
    transform_param {
      scale: 0.00390625
    }
    data_param {
      source: "data/mnist_train_lmdb"
      batch_size: 100
      backend: LMDB
    }
  }
  layer {
    name: "mnist"
    type: "Data"
    top: "data"
    top: "label"
    include {
      phase: TEST
    }
    transform_param {
      scale: 0.00390625
    }
    data_param {
      source: "data/mnist_test_lmdb"
      batch_size: 100
      backend: LMDB
    }
  }
  layer {
    name: "ip1"
    type: "InnerProduct"
    bottom: "data"
    top: "ip1"
    inner_product_param {
      num_output: 1000
      weight_filler {
        type: "gaussian"
        mean: 0
        std: 0.01
      }
    }
    bias_param {
      filler {
        value: 0
      }
    }
    fixed_precision: true
    precision {
      enter: 2
      fraccio: 14
      rounding: "withProb"
      prob: 0.1
    }
  }
  layer {
    name: "relu1"
    type: "ReLU"
    bottom: "ip1"
    top: "ip1"
    fixed_precision: true
    precision {
      enter: 2
      fraccio: 14
      rounding: "withProb"
      prob: 0.1
    }
  }
  layer {
    name: "ip2"
    type: "InnerProduct"
    bottom: "ip1"
    top: "ip2"
    inner_product_param {
      num_output: 1000
      weight_filler {
        type: "gaussian"
        mean: 0
        std: 0.01
      }
    }
    bias_param {
      filler {
        value: 0
      }
    }
    fixed_precision: true
    precision {
      enter: 2
      fraccio: 14
      rounding: "withProb"
      prob: 0.1
    }
  }
  layer {
    name: "relu2"
    type: "ReLU"
    bottom: "ip2"
    top: "ip2"
    bias_param {
      filler {
        value: 0
      }
    }
    fixed_precision: true
    precision {
      enter: 2
      fraccio: 14
      rounding: "withProb"
      prob: 0.1
    }
  }
  layer {
    name: "ip3"
    type: "InnerProduct"
    bottom: "ip2"
    top: "ip3"
    inner_product_param {
      num_output: 10
      weight_filler {
        type: "gaussian"
        mean: 0
        std: 0.01
      }
    }
    bias_param {
      filler {
        value: 0
      }
    }
    fixed_precision: true
    precision {
      enter: 2
      fraccio: 14
      rounding: "withProb"
      prob: 0.1
    }
  }
  layer {
    name: "accuracy"
    type: "Accuracy"
    bottom: "ip3"
    bottom: "label"
    top: "accuracy"
  }
  layer {
    name: "loss"
    type: "SoftmaxWithLoss"
    bottom: "ip3"
    bottom: "label"
    top: "loss"
    fixed_precision: true
    precision {
      enter: 2
      fraccio: 14
      rounding: "withProb"
      prob: 0.1
    }
  }
}
train_state {
  level: 0
  stage: ""
}
fixed_precision: true
precision {
  enter: 2
  fraccio: 14
  rounding: "withProb"
  prob: 0.1
}
I0407 22:22:45.284323 31774 solver.cpp:82] Creating training net specified in net_param.
I0407 22:22:45.284385 31774 net.cpp:294] The NetState phase (0) differed from the phase (1) specified by a rule in layer mnist
I0407 22:22:45.284569 31774 net.cpp:51] Initializing net from parameters: 
name: "LeNet"
state {
  phase: TRAIN
  level: 0
  stage: ""
}
layer {
  name: "mnist"
  type: "Data"
  top: "data"
  top: "label"
  include {
    phase: TRAIN
  }
  transform_param {
    scale: 0.00390625
  }
  data_param {
    source: "data/mnist_train_lmdb"
    batch_size: 100
    backend: LMDB
  }
}
layer {
  name: "ip1"
  type: "InnerProduct"
  bottom: "data"
  top: "ip1"
  inner_product_param {
    num_output: 1000
    weight_filler {
      type: "gaussian"
      mean: 0
      std: 0.01
    }
  }
  bias_param {
    filler {
      value: 0
    }
  }
  fixed_precision: true
  precision {
    enter: 2
    fraccio: 14
    rounding: "withProb"
    prob: 0.1
  }
}
layer {
  name: "relu1"
  type: "ReLU"
  bottom: "ip1"
  top: "ip1"
  fixed_precision: true
  precision {
    enter: 2
    fraccio: 14
    rounding: "withProb"
    prob: 0.1
  }
}
layer {
  name: "ip2"
  type: "InnerProduct"
  bottom: "ip1"
  top: "ip2"
  inner_product_param {
    num_output: 1000
    weight_filler {
      type: "gaussian"
      mean: 0
      std: 0.01
    }
  }
  bias_param {
    filler {
      value: 0
    }
  }
  fixed_precision: true
  precision {
    enter: 2
    fraccio: 14
    rounding: "withProb"
    prob: 0.1
  }
}
layer {
  name: "relu2"
  type: "ReLU"
  bottom: "ip2"
  top: "ip2"
  bias_param {
    filler {
      value: 0
    }
  }
  fixed_precision: true
  precision {
    enter: 2
    fraccio: 14
    rounding: "withProb"
    prob: 0.1
  }
}
layer {
  name: "ip3"
  type: "InnerProduct"
  bottom: "ip2"
  top: "ip3"
  inner_product_param {
    num_output: 10
    weight_filler {
      type: "gaussian"
      mean: 0
      std: 0.01
    }
  }
  bias_param {
    filler {
      value: 0
    }
  }
  fixed_precision: true
  precision {
    enter: 2
    fraccio: 14
    rounding: "withProb"
    prob: 0.1
  }
}
layer {
  name: "accuracy"
  type: "Accuracy"
  bottom: "ip3"
  bottom: "label"
  top: "accuracy"
}
layer {
  name: "loss"
  type: "SoftmaxWithLoss"
  bottom: "ip3"
  bottom: "label"
  top: "loss"
  fixed_precision: true
  precision {
    enter: 2
    fraccio: 14
    rounding: "withProb"
    prob: 0.1
  }
}
I0407 22:22:45.284699 31774 layer_factory.hpp:77] Creating layer mnist
I0407 22:22:45.284822 31774 db_lmdb.cpp:35] Opened lmdb data/mnist_train_lmdb
I0407 22:22:45.284852 31774 net.cpp:84] Creating Layer mnist
I0407 22:22:45.284865 31774 net.cpp:380] mnist -> data
I0407 22:22:45.284894 31774 net.cpp:380] mnist -> label
I0407 22:22:45.284932 31774 data_layer.cpp:45] output data size: 100,1,28,28
I0407 22:22:45.286777 31774 net.cpp:122] Setting up mnist
I0407 22:22:45.286804 31774 net.cpp:129] Top shape: 100 1 28 28 (78400)
I0407 22:22:45.286814 31774 net.cpp:129] Top shape: 100 (100)
I0407 22:22:45.286823 31774 net.cpp:137] Memory required for data: 628000
I0407 22:22:45.286834 31774 layer_factory.hpp:77] Creating layer label_mnist_1_split
I0407 22:22:45.286850 31774 net.cpp:84] Creating Layer label_mnist_1_split
I0407 22:22:45.286860 31774 net.cpp:406] label_mnist_1_split <- label
I0407 22:22:45.286875 31774 net.cpp:380] label_mnist_1_split -> label_mnist_1_split_0
I0407 22:22:45.286887 31774 net.cpp:380] label_mnist_1_split -> label_mnist_1_split_1
I0407 22:22:45.286901 31774 net.cpp:122] Setting up label_mnist_1_split
I0407 22:22:45.286911 31774 net.cpp:129] Top shape: 100 (100)
I0407 22:22:45.286919 31774 net.cpp:129] Top shape: 100 (100)
I0407 22:22:45.286926 31774 net.cpp:137] Memory required for data: 629600
I0407 22:22:45.286934 31774 layer_factory.hpp:77] Creating layer ip1
I0407 22:22:45.286950 31774 net.cpp:84] Creating Layer ip1
I0407 22:22:45.286957 31774 net.cpp:406] ip1 <- data
I0407 22:22:45.286968 31774 net.cpp:380] ip1 -> ip1
I0407 22:22:45.396992 31774 net.cpp:122] Setting up ip1
I0407 22:22:45.397032 31774 net.cpp:129] Top shape: 100 1000 (100000)
I0407 22:22:45.397040 31774 net.cpp:137] Memory required for data: 1429600
I0407 22:22:45.397063 31774 layer_factory.hpp:77] Creating layer relu1
I0407 22:22:45.397079 31774 net.cpp:84] Creating Layer relu1
I0407 22:22:45.397089 31774 net.cpp:406] relu1 <- ip1
I0407 22:22:45.397101 31774 net.cpp:367] relu1 -> ip1 (in-place)
I0407 22:22:45.397125 31774 net.cpp:122] Setting up relu1
I0407 22:22:45.397135 31774 net.cpp:129] Top shape: 100 1000 (100000)
I0407 22:22:45.397141 31774 net.cpp:137] Memory required for data: 2229600
I0407 22:22:45.397148 31774 layer_factory.hpp:77] Creating layer ip2
I0407 22:22:45.397164 31774 net.cpp:84] Creating Layer ip2
I0407 22:22:45.397172 31774 net.cpp:406] ip2 <- ip1
I0407 22:22:45.397182 31774 net.cpp:380] ip2 -> ip2
I0407 22:22:45.491448 31774 net.cpp:122] Setting up ip2
I0407 22:22:45.491489 31774 net.cpp:129] Top shape: 100 1000 (100000)
I0407 22:22:45.491497 31774 net.cpp:137] Memory required for data: 3029600
I0407 22:22:45.491514 31774 layer_factory.hpp:77] Creating layer relu2
I0407 22:22:45.491542 31774 net.cpp:84] Creating Layer relu2
I0407 22:22:45.491559 31774 net.cpp:406] relu2 <- ip2
I0407 22:22:45.491570 31774 net.cpp:367] relu2 -> ip2 (in-place)
I0407 22:22:45.491586 31774 net.cpp:122] Setting up relu2
I0407 22:22:45.491595 31774 net.cpp:129] Top shape: 100 1000 (100000)
I0407 22:22:45.491601 31774 net.cpp:137] Memory required for data: 3829600
I0407 22:22:45.491607 31774 layer_factory.hpp:77] Creating layer ip3
I0407 22:22:45.491619 31774 net.cpp:84] Creating Layer ip3
I0407 22:22:45.491626 31774 net.cpp:406] ip3 <- ip2
I0407 22:22:45.491636 31774 net.cpp:380] ip3 -> ip3
I0407 22:22:45.492534 31774 net.cpp:122] Setting up ip3
I0407 22:22:45.492545 31774 net.cpp:129] Top shape: 100 10 (1000)
I0407 22:22:45.492552 31774 net.cpp:137] Memory required for data: 3837600
I0407 22:22:45.492564 31774 layer_factory.hpp:77] Creating layer ip3_ip3_0_split
I0407 22:22:45.492575 31774 net.cpp:84] Creating Layer ip3_ip3_0_split
I0407 22:22:45.492583 31774 net.cpp:406] ip3_ip3_0_split <- ip3
I0407 22:22:45.492591 31774 net.cpp:380] ip3_ip3_0_split -> ip3_ip3_0_split_0
I0407 22:22:45.492602 31774 net.cpp:380] ip3_ip3_0_split -> ip3_ip3_0_split_1
I0407 22:22:45.492616 31774 net.cpp:122] Setting up ip3_ip3_0_split
I0407 22:22:45.492624 31774 net.cpp:129] Top shape: 100 10 (1000)
I0407 22:22:45.492632 31774 net.cpp:129] Top shape: 100 10 (1000)
I0407 22:22:45.492640 31774 net.cpp:137] Memory required for data: 3853600
I0407 22:22:45.492645 31774 layer_factory.hpp:77] Creating layer accuracy
I0407 22:22:45.492660 31774 net.cpp:84] Creating Layer accuracy
I0407 22:22:45.492666 31774 net.cpp:406] accuracy <- ip3_ip3_0_split_0
I0407 22:22:45.492674 31774 net.cpp:406] accuracy <- label_mnist_1_split_0
I0407 22:22:45.492684 31774 net.cpp:380] accuracy -> accuracy
…
