…
  layer {
    name: "mnist"
    type: "Data"
    top: "data"
    top: "label"
    include {
      phase: TRAIN
    }
    transform_param {
      scale: 0.00390625
    }
    data_param {
      source: "data/mnist_train_lmdb"
      batch_size: 100
      backend: LMDB
    }
  }
  layer {
    name: "mnist"
    type: "Data"
    top: "data"
    top: "label"
    include {
      phase: TEST
    }
    transform_param {
      scale: 0.00390625
    }
    data_param {
      source: "data/mnist_test_lmdb"
      batch_size: 100
      backend: LMDB
    }
  }
  layer {
    name: "ip1"
    type: "InnerProduct"
    bottom: "data"
    top: "ip1"
    inner_product_param {
      num_output: 1000
      weight_filler {
        type: "gaussian"
        mean: 0
        std: 0.01
      }
    }
    bias_param {
      filler {
        value: 0
      }
    }
    fixed_precision: true
    precision {
      enter: 2
      fraccio: 14
      rounding: "withProb"
      prob: 0.5
    }
  }
  layer {
    name: "relu1"
    type: "ReLU"
    bottom: "ip1"
    top: "ip1"
    fixed_precision: true
    precision {
      enter: 2
      fraccio: 14
      rounding: "withProb"
      prob: 0.5
    }
  }
  layer {
    name: "ip2"
    type: "InnerProduct"
    bottom: "ip1"
    top: "ip2"
    inner_product_param {
      num_output: 1000
      weight_filler {
        type: "gaussian"
        mean: 0
        std: 0.01
      }
    }
    bias_param {
      filler {
        value: 0
      }
    }
    fixed_precision: true
    precision {
      enter: 2
      fraccio: 14
      rounding: "withProb"
      prob: 0.5
    }
  }
  layer {
    name: "relu2"
    type: "ReLU"
    bottom: "ip2"
    top: "ip2"
    bias_param {
      filler {
        value: 0
      }
    }
    fixed_precision: true
    precision {
      enter: 2
      fraccio: 14
      rounding: "withProb"
      prob: 0.5
    }
  }
  layer {
    name: "ip3"
    type: "InnerProduct"
    bottom: "ip2"
    top: "ip3"
    inner_product_param {
      num_output: 10
      weight_filler {
        type: "gaussian"
        mean: 0
        std: 0.01
      }
    }
    bias_param {
      filler {
        value: 0
      }
    }
    fixed_precision: true
    precision {
      enter: 2
      fraccio: 14
      rounding: "withProb"
      prob: 0.5
    }
  }
  layer {
    name: "accuracy"
    type: "Accuracy"
    bottom: "ip3"
    bottom: "label"
    top: "accuracy"
  }
  layer {
    name: "loss"
    type: "SoftmaxWithLoss"
    bottom: "ip3"
    bottom: "label"
    top: "loss"
    fixed_precision: true
    precision {
      enter: 2
      fraccio: 14
      rounding: "withProb"
      prob: 0.5
    }
  }
}
train_state {
  level: 0
  stage: ""
}
fixed_precision: true
precision {
  enter: 2
  fraccio: 14
  rounding: "withProb"
  prob: 0.5
}
I0407 19:06:17.563040 19304 solver.cpp:82] Creating training net specified in net_param.
I0407 19:06:17.563104 19304 net.cpp:294] The NetState phase (0) differed from the phase (1) specified by a rule in layer mnist
I0407 19:06:17.563292 19304 net.cpp:51] Initializing net from parameters: 
name: "LeNet"
state {
  phase: TRAIN
  level: 0
  stage: ""
}
layer {
  name: "mnist"
  type: "Data"
  top: "data"
  top: "label"
  include {
    phase: TRAIN
  }
  transform_param {
    scale: 0.00390625
  }
  data_param {
    source: "data/mnist_train_lmdb"
    batch_size: 100
    backend: LMDB
  }
}
layer {
  name: "ip1"
  type: "InnerProduct"
  bottom: "data"
  top: "ip1"
  inner_product_param {
    num_output: 1000
    weight_filler {
      type: "gaussian"
      mean: 0
      std: 0.01
    }
  }
  bias_param {
    filler {
      value: 0
    }
  }
  fixed_precision: true
  precision {
    enter: 2
    fraccio: 14
    rounding: "withProb"
    prob: 0.5
  }
}
layer {
  name: "relu1"
  type: "ReLU"
  bottom: "ip1"
  top: "ip1"
  fixed_precision: true
  precision {
    enter: 2
    fraccio: 14
    rounding: "withProb"
    prob: 0.5
  }
}
layer {
  name: "ip2"
  type: "InnerProduct"
  bottom: "ip1"
  top: "ip2"
  inner_product_param {
    num_output: 1000
    weight_filler {
      type: "gaussian"
      mean: 0
      std: 0.01
    }
  }
  bias_param {
    filler {
      value: 0
    }
  }
  fixed_precision: true
  precision {
    enter: 2
    fraccio: 14
    rounding: "withProb"
    prob: 0.5
  }
}
layer {
  name: "relu2"
  type: "ReLU"
  bottom: "ip2"
  top: "ip2"
  bias_param {
    filler {
      value: 0
    }
  }
  fixed_precision: true
  precision {
    enter: 2
    fraccio: 14
    rounding: "withProb"
    prob: 0.5
  }
}
layer {
  name: "ip3"
  type: "InnerProduct"
  bottom: "ip2"
  top: "ip3"
  inner_product_param {
    num_output: 10
    weight_filler {
      type: "gaussian"
      mean: 0
      std: 0.01
    }
  }
  bias_param {
    filler {
      value: 0
    }
  }
  fixed_precision: true
  precision {
    enter: 2
    fraccio: 14
    rounding: "withProb"
    prob: 0.5
  }
}
layer {
  name: "accuracy"
  type: "Accuracy"
  bottom: "ip3"
  bottom: "label"
  top: "accuracy"
}
layer {
  name: "loss"
  type: "SoftmaxWithLoss"
  bottom: "ip3"
  bottom: "label"
  top: "loss"
  fixed_precision: true
  precision {
    enter: 2
    fraccio: 14
    rounding: "withProb"
    prob: 0.5
  }
}
I0407 19:06:17.563429 19304 layer_factory.hpp:77] Creating layer mnist
I0407 19:06:17.563561 19304 db_lmdb.cpp:35] Opened lmdb data/mnist_train_lmdb
I0407 19:06:17.563596 19304 net.cpp:84] Creating Layer mnist
I0407 19:06:17.563611 19304 net.cpp:380] mnist -> data
I0407 19:06:17.563647 19304 net.cpp:380] mnist -> label
I0407 19:06:17.563688 19304 data_layer.cpp:45] output data size: 100,1,28,28
I0407 19:06:17.565456 19304 net.cpp:122] Setting up mnist
I0407 19:06:17.565482 19304 net.cpp:129] Top shape: 100 1 28 28 (78400)
I0407 19:06:17.565496 19304 net.cpp:129] Top shape: 100 (100)
I0407 19:06:17.565506 19304 net.cpp:137] Memory required for data: 628000
I0407 19:06:17.565521 19304 layer_factory.hpp:77] Creating layer label_mnist_1_split
I0407 19:06:17.565541 19304 net.cpp:84] Creating Layer label_mnist_1_split
I0407 19:06:17.565552 19304 net.cpp:406] label_mnist_1_split <- label
I0407 19:06:17.565569 19304 net.cpp:380] label_mnist_1_split -> label_mnist_1_split_0
I0407 19:06:17.565585 19304 net.cpp:380] label_mnist_1_split -> label_mnist_1_split_1
I0407 19:06:17.565599 19304 net.cpp:122] Setting up label_mnist_1_split
I0407 19:06:17.565610 19304 net.cpp:129] Top shape: 100 (100)
I0407 19:06:17.565621 19304 net.cpp:129] Top shape: 100 (100)
I0407 19:06:17.565629 19304 net.cpp:137] Memory required for data: 629600
I0407 19:06:17.565636 19304 layer_factory.hpp:77] Creating layer ip1
I0407 19:06:17.565654 19304 net.cpp:84] Creating Layer ip1
I0407 19:06:17.565661 19304 net.cpp:406] ip1 <- data
I0407 19:06:17.565671 19304 net.cpp:380] ip1 -> ip1
I0407 19:06:17.687944 19304 net.cpp:122] Setting up ip1
I0407 19:06:17.687984 19304 net.cpp:129] Top shape: 100 1000 (100000)
I0407 19:06:17.687993 19304 net.cpp:137] Memory required for data: 1429600
I0407 19:06:17.688011 19304 layer_factory.hpp:77] Creating layer relu1
I0407 19:06:17.688026 19304 net.cpp:84] Creating Layer relu1
I0407 19:06:17.688035 19304 net.cpp:406] relu1 <- ip1
I0407 19:06:17.688043 19304 net.cpp:367] relu1 -> ip1 (in-place)
I0407 19:06:17.688061 19304 net.cpp:122] Setting up relu1
I0407 19:06:17.688067 19304 net.cpp:129] Top shape: 100 1000 (100000)
I0407 19:06:17.688071 19304 net.cpp:137] Memory required for data: 2229600
I0407 19:06:17.688076 19304 layer_factory.hpp:77] Creating layer ip2
I0407 19:06:17.688087 19304 net.cpp:84] Creating Layer ip2
I0407 19:06:17.688092 19304 net.cpp:406] ip2 <- ip1
I0407 19:06:17.688099 19304 net.cpp:380] ip2 -> ip2
I0407 19:06:17.775502 19304 net.cpp:122] Setting up ip2
I0407 19:06:17.775550 19304 net.cpp:129] Top shape: 100 1000 (100000)
I0407 19:06:17.775557 19304 net.cpp:137] Memory required for data: 3029600
I0407 19:06:17.775573 19304 layer_factory.hpp:77] Creating layer relu2
I0407 19:06:17.775599 19304 net.cpp:84] Creating Layer relu2
I0407 19:06:17.775627 19304 net.cpp:406] relu2 <- ip2
I0407 19:06:17.775645 19304 net.cpp:367] relu2 -> ip2 (in-place)
I0407 19:06:17.775656 19304 net.cpp:122] Setting up relu2
I0407 19:06:17.775662 19304 net.cpp:129] Top shape: 100 1000 (100000)
I0407 19:06:17.775666 19304 net.cpp:137] Memory required for data: 3829600
I0407 19:06:17.775672 19304 layer_factory.hpp:77] Creating layer ip3
I0407 19:06:17.775679 19304 net.cpp:84] Creating Layer ip3
I0407 19:06:17.775684 19304 net.cpp:406] ip3 <- ip2
I0407 19:06:17.775691 19304 net.cpp:380] ip3 -> ip3
I0407 19:06:17.776573 19304 net.cpp:122] Setting up ip3
I0407 19:06:17.776582 19304 net.cpp:129] Top shape: 100 10 (1000)
I0407 19:06:17.776597 19304 net.cpp:137] Memory required for data: 3837600
I0407 19:06:17.776604 19304 layer_factory.hpp:77] Creating layer ip3_ip3_0_split
I0407 19:06:17.776612 19304 net.cpp:84] Creating Layer ip3_ip3_0_split
I0407 19:06:17.776615 19304 net.cpp:406] ip3_ip3_0_split <- ip3
I0407 19:06:17.776623 19304 net.cpp:380] ip3_ip3_0_split -> ip3_ip3_0_split_0
I0407 19:06:17.776630 19304 net.cpp:380] ip3_ip3_0_split -> ip3_ip3_0_split_1
I0407 19:06:17.776638 19304 net.cpp:122] Setting up ip3_ip3_0_split
I0407 19:06:17.776643 19304 net.cpp:129] Top shape: 100 10 (1000)
I0407 19:06:17.776648 19304 net.cpp:129] Top shape: 100 10 (1000)
I0407 19:06:17.776654 19304 net.cpp:137] Memory required for data: 3853600
I0407 19:06:17.776656 19304 layer_factory.hpp:77] Creating layer accuracy
I0407 19:06:17.776665 19304 net.cpp:84] Creating Layer accuracy
I0407 19:06:17.776670 19304 net.cpp:406] accuracy <- ip3_ip3_0_split_0
I0407 19:06:17.776675 19304 net.cpp:406] accuracy <- label_mnist_1_split_0
I0407 19:06:17.776680 19304 net.cpp:380] accuracy -> accuracy
…
