…
  layer {
    name: "mnist"
    type: "Data"
    top: "data"
    top: "label"
    include {
      phase: TRAIN
    }
    transform_param {
      scale: 0.00390625
    }
    data_param {
      source: "data/mnist_train_lmdb"
      batch_size: 100
      backend: LMDB
    }
  }
  layer {
    name: "mnist"
    type: "Data"
    top: "data"
    top: "label"
    include {
      phase: TEST
    }
    transform_param {
      scale: 0.00390625
    }
    data_param {
      source: "data/mnist_test_lmdb"
      batch_size: 100
      backend: LMDB
    }
  }
  layer {
    name: "ip1"
    type: "InnerProduct"
    bottom: "data"
    top: "ip1"
    inner_product_param {
      num_output: 1000
      weight_filler {
        type: "gaussian"
        mean: 0
        std: 0.01
      }
    }
    bias_param {
      filler {
        value: 0
      }
    }
    fixed_precision: true
    precision {
      enter: 2
      fraccio: 14
      rounding: "withProb"
      prob: 0.9
    }
  }
  layer {
    name: "relu1"
    type: "ReLU"
    bottom: "ip1"
    top: "ip1"
    fixed_precision: true
    precision {
      enter: 2
      fraccio: 14
      rounding: "withProb"
      prob: 0.9
    }
  }
  layer {
    name: "ip2"
    type: "InnerProduct"
    bottom: "ip1"
    top: "ip2"
    inner_product_param {
      num_output: 1000
      weight_filler {
        type: "gaussian"
        mean: 0
        std: 0.01
      }
    }
    bias_param {
      filler {
        value: 0
      }
    }
    fixed_precision: true
    precision {
      enter: 2
      fraccio: 14
      rounding: "withProb"
      prob: 0.9
    }
  }
  layer {
    name: "relu2"
    type: "ReLU"
    bottom: "ip2"
    top: "ip2"
    bias_param {
      filler {
        value: 0
      }
    }
    fixed_precision: true
    precision {
      enter: 2
      fraccio: 14
      rounding: "withProb"
      prob: 0.9
    }
  }
  layer {
    name: "ip3"
    type: "InnerProduct"
    bottom: "ip2"
    top: "ip3"
    inner_product_param {
      num_output: 10
      weight_filler {
        type: "gaussian"
        mean: 0
        std: 0.01
      }
    }
    bias_param {
      filler {
        value: 0
      }
    }
    fixed_precision: true
    precision {
      enter: 2
      fraccio: 14
      rounding: "withProb"
      prob: 0.9
    }
  }
  layer {
    name: "accuracy"
    type: "Accuracy"
    bottom: "ip3"
    bottom: "label"
    top: "accuracy"
  }
  layer {
    name: "loss"
    type: "SoftmaxWithLoss"
    bottom: "ip3"
    bottom: "label"
    top: "loss"
    fixed_precision: true
    precision {
      enter: 2
      fraccio: 14
      rounding: "withProb"
      prob: 0.9
    }
  }
}
train_state {
  level: 0
  stage: ""
}
fixed_precision: true
precision {
  enter: 2
  fraccio: 14
  rounding: "withProb"
  prob: 0.9
}
I0408 00:17:51.515992  2899 solver.cpp:82] Creating training net specified in net_param.
I0408 00:17:51.516049  2899 net.cpp:294] The NetState phase (0) differed from the phase (1) specified by a rule in layer mnist
I0408 00:17:51.516229  2899 net.cpp:51] Initializing net from parameters: 
name: "LeNet"
state {
  phase: TRAIN
  level: 0
  stage: ""
}
layer {
  name: "mnist"
  type: "Data"
  top: "data"
  top: "label"
  include {
    phase: TRAIN
  }
  transform_param {
    scale: 0.00390625
  }
  data_param {
    source: "data/mnist_train_lmdb"
    batch_size: 100
    backend: LMDB
  }
}
layer {
  name: "ip1"
  type: "InnerProduct"
  bottom: "data"
  top: "ip1"
  inner_product_param {
    num_output: 1000
    weight_filler {
      type: "gaussian"
      mean: 0
      std: 0.01
    }
  }
  bias_param {
    filler {
      value: 0
    }
  }
  fixed_precision: true
  precision {
    enter: 2
    fraccio: 14
    rounding: "withProb"
    prob: 0.9
  }
}
layer {
  name: "relu1"
  type: "ReLU"
  bottom: "ip1"
  top: "ip1"
  fixed_precision: true
  precision {
    enter: 2
    fraccio: 14
    rounding: "withProb"
    prob: 0.9
  }
}
layer {
  name: "ip2"
  type: "InnerProduct"
  bottom: "ip1"
  top: "ip2"
  inner_product_param {
    num_output: 1000
    weight_filler {
      type: "gaussian"
      mean: 0
      std: 0.01
    }
  }
  bias_param {
    filler {
      value: 0
    }
  }
  fixed_precision: true
  precision {
    enter: 2
    fraccio: 14
    rounding: "withProb"
    prob: 0.9
  }
}
layer {
  name: "relu2"
  type: "ReLU"
  bottom: "ip2"
  top: "ip2"
  bias_param {
    filler {
      value: 0
    }
  }
  fixed_precision: true
  precision {
    enter: 2
    fraccio: 14
    rounding: "withProb"
    prob: 0.9
  }
}
layer {
  name: "ip3"
  type: "InnerProduct"
  bottom: "ip2"
  top: "ip3"
  inner_product_param {
    num_output: 10
    weight_filler {
      type: "gaussian"
      mean: 0
      std: 0.01
    }
  }
  bias_param {
    filler {
      value: 0
    }
  }
  fixed_precision: true
  precision {
    enter: 2
    fraccio: 14
    rounding: "withProb"
    prob: 0.9
  }
}
layer {
  name: "accuracy"
  type: "Accuracy"
  bottom: "ip3"
  bottom: "label"
  top: "accuracy"
}
layer {
  name: "loss"
  type: "SoftmaxWithLoss"
  bottom: "ip3"
  bottom: "label"
  top: "loss"
  fixed_precision: true
  precision {
    enter: 2
    fraccio: 14
    rounding: "withProb"
    prob: 0.9
  }
}
I0408 00:17:51.516351  2899 layer_factory.hpp:77] Creating layer mnist
I0408 00:17:51.516463  2899 db_lmdb.cpp:35] Opened lmdb data/mnist_train_lmdb
I0408 00:17:51.516492  2899 net.cpp:84] Creating Layer mnist
I0408 00:17:51.516504  2899 net.cpp:380] mnist -> data
I0408 00:17:51.516530  2899 net.cpp:380] mnist -> label
I0408 00:17:51.516566  2899 data_layer.cpp:45] output data size: 100,1,28,28
I0408 00:17:51.518378  2899 net.cpp:122] Setting up mnist
I0408 00:17:51.518402  2899 net.cpp:129] Top shape: 100 1 28 28 (78400)
I0408 00:17:51.518412  2899 net.cpp:129] Top shape: 100 (100)
I0408 00:17:51.518419  2899 net.cpp:137] Memory required for data: 628000
I0408 00:17:51.518429  2899 layer_factory.hpp:77] Creating layer label_mnist_1_split
I0408 00:17:51.518445  2899 net.cpp:84] Creating Layer label_mnist_1_split
I0408 00:17:51.518455  2899 net.cpp:406] label_mnist_1_split <- label
I0408 00:17:51.518466  2899 net.cpp:380] label_mnist_1_split -> label_mnist_1_split_0
I0408 00:17:51.518479  2899 net.cpp:380] label_mnist_1_split -> label_mnist_1_split_1
I0408 00:17:51.518491  2899 net.cpp:122] Setting up label_mnist_1_split
I0408 00:17:51.518501  2899 net.cpp:129] Top shape: 100 (100)
I0408 00:17:51.518508  2899 net.cpp:129] Top shape: 100 (100)
I0408 00:17:51.518514  2899 net.cpp:137] Memory required for data: 629600
I0408 00:17:51.518522  2899 layer_factory.hpp:77] Creating layer ip1
I0408 00:17:51.518537  2899 net.cpp:84] Creating Layer ip1
I0408 00:17:51.518544  2899 net.cpp:406] ip1 <- data
I0408 00:17:51.518553  2899 net.cpp:380] ip1 -> ip1
I0408 00:17:51.626144  2899 net.cpp:122] Setting up ip1
I0408 00:17:51.626180  2899 net.cpp:129] Top shape: 100 1000 (100000)
I0408 00:17:51.626188  2899 net.cpp:137] Memory required for data: 1429600
I0408 00:17:51.626204  2899 layer_factory.hpp:77] Creating layer relu1
I0408 00:17:51.626216  2899 net.cpp:84] Creating Layer relu1
I0408 00:17:51.626222  2899 net.cpp:406] relu1 <- ip1
I0408 00:17:51.626230  2899 net.cpp:367] relu1 -> ip1 (in-place)
I0408 00:17:51.626243  2899 net.cpp:122] Setting up relu1
I0408 00:17:51.626248  2899 net.cpp:129] Top shape: 100 1000 (100000)
I0408 00:17:51.626252  2899 net.cpp:137] Memory required for data: 2229600
I0408 00:17:51.626256  2899 layer_factory.hpp:77] Creating layer ip2
I0408 00:17:51.626266  2899 net.cpp:84] Creating Layer ip2
I0408 00:17:51.626271  2899 net.cpp:406] ip2 <- ip1
I0408 00:17:51.626276  2899 net.cpp:380] ip2 -> ip2
I0408 00:17:51.725805  2899 net.cpp:122] Setting up ip2
I0408 00:17:51.725845  2899 net.cpp:129] Top shape: 100 1000 (100000)
I0408 00:17:51.725852  2899 net.cpp:137] Memory required for data: 3029600
I0408 00:17:51.725867  2899 layer_factory.hpp:77] Creating layer relu2
I0408 00:17:51.725890  2899 net.cpp:84] Creating Layer relu2
I0408 00:17:51.725909  2899 net.cpp:406] relu2 <- ip2
I0408 00:17:51.725917  2899 net.cpp:367] relu2 -> ip2 (in-place)
I0408 00:17:51.725929  2899 net.cpp:122] Setting up relu2
I0408 00:17:51.725934  2899 net.cpp:129] Top shape: 100 1000 (100000)
I0408 00:17:51.725939  2899 net.cpp:137] Memory required for data: 3829600
I0408 00:17:51.725944  2899 layer_factory.hpp:77] Creating layer ip3
I0408 00:17:51.725952  2899 net.cpp:84] Creating Layer ip3
I0408 00:17:51.725957  2899 net.cpp:406] ip3 <- ip2
I0408 00:17:51.725963  2899 net.cpp:380] ip3 -> ip3
I0408 00:17:51.727108  2899 net.cpp:122] Setting up ip3
I0408 00:17:51.727118  2899 net.cpp:129] Top shape: 100 10 (1000)
I0408 00:17:51.727123  2899 net.cpp:137] Memory required for data: 3837600
I0408 00:17:51.727133  2899 layer_factory.hpp:77] Creating layer ip3_ip3_0_split
I0408 00:17:51.727141  2899 net.cpp:84] Creating Layer ip3_ip3_0_split
I0408 00:17:51.727146  2899 net.cpp:406] ip3_ip3_0_split <- ip3
I0408 00:17:51.727152  2899 net.cpp:380] ip3_ip3_0_split -> ip3_ip3_0_split_0
I0408 00:17:51.727160  2899 net.cpp:380] ip3_ip3_0_split -> ip3_ip3_0_split_1
I0408 00:17:51.727169  2899 net.cpp:122] Setting up ip3_ip3_0_split
I0408 00:17:51.727175  2899 net.cpp:129] Top shape: 100 10 (1000)
I0408 00:17:51.727180  2899 net.cpp:129] Top shape: 100 10 (1000)
I0408 00:17:51.727185  2899 net.cpp:137] Memory required for data: 3853600
I0408 00:17:51.727190  2899 layer_factory.hpp:77] Creating layer accuracy
I0408 00:17:51.727200  2899 net.cpp:84] Creating Layer accuracy
I0408 00:17:51.727205  2899 net.cpp:406] accuracy <- ip3_ip3_0_split_0
I0408 00:17:51.727210  2899 net.cpp:406] accuracy <- label_mnist_1_split_0
I0408 00:17:51.727216  2899 net.cpp:380] accuracy -> accuracy
…
