…
  layer {
    name: "mnist"
    type: "Data"
    top: "data"
    top: "label"
    include {
      phase: TRAIN
    }
    transform_param {
      scale: 0.00390625
    }
    data_param {
      source: "data/mnist_train_lmdb"
      batch_size: 100
      backend: LMDB
    }
  }
  layer {
    name: "mnist"
    type: "Data"
    top: "data"
    top: "label"
    include {
      phase: TEST
    }
    transform_param {
      scale: 0.00390625
    }
    data_param {
      source: "data/mnist_test_lmdb"
      batch_size: 100
      backend: LMDB
    }
  }
  layer {
    name: "ip1"
    type: "InnerProduct"
    bottom: "data"
    top: "ip1"
    inner_product_param {
      num_output: 1000
      weight_filler {
        type: "gaussian"
        mean: 0
        std: 0.01
      }
    }
    bias_param {
      filler {
        value: 0
      }
    }
    fixed_precision: true
    precision {
      enter: 2
      fraccio: 14
      rounding: "stochastic"
    }
  }
  layer {
    name: "relu1"
    type: "ReLU"
    bottom: "ip1"
    top: "ip1"
    fixed_precision: true
    precision {
      enter: 2
      fraccio: 14
      rounding: "stochastic"
    }
  }
  layer {
    name: "ip2"
    type: "InnerProduct"
    bottom: "ip1"
    top: "ip2"
    inner_product_param {
      num_output: 1000
      weight_filler {
        type: "gaussian"
        mean: 0
        std: 0.01
      }
    }
    bias_param {
      filler {
        value: 0
      }
    }
    fixed_precision: true
    precision {
      enter: 2
      fraccio: 14
      rounding: "stochastic"
    }
  }
  layer {
    name: "relu2"
    type: "ReLU"
    bottom: "ip2"
    top: "ip2"
    bias_param {
      filler {
        value: 0
      }
    }
    fixed_precision: true
    precision {
      enter: 2
      fraccio: 14
      rounding: "stochastic"
    }
  }
  layer {
    name: "ip3"
    type: "InnerProduct"
    bottom: "ip2"
    top: "ip3"
    inner_product_param {
      num_output: 10
      weight_filler {
        type: "gaussian"
        mean: 0
        std: 0.01
      }
    }
    bias_param {
      filler {
        value: 0
      }
    }
    fixed_precision: true
    precision {
      enter: 2
      fraccio: 14
      rounding: "stochastic"
    }
  }
  layer {
    name: "accuracy"
    type: "Accuracy"
    bottom: "ip3"
    bottom: "label"
    top: "accuracy"
  }
  layer {
    name: "loss"
    type: "SoftmaxWithLoss"
    bottom: "ip3"
    bottom: "label"
    top: "loss"
    fixed_precision: true
    precision {
      enter: 2
      fraccio: 14
      rounding: "stochastic"
    }
  }
}
train_state {
  level: 0
  stage: ""
}
fixed_precision: true
precision {
  enter: 2
  fraccio: 14
  rounding: "stochastic"
}
I0330 21:33:53.872360 24623 solver.cpp:82] Creating training net specified in net_param.
I0330 21:33:53.872421 24623 net.cpp:294] The NetState phase (0) differed from the phase (1) specified by a rule in layer mnist
I0330 21:33:53.872591 24623 net.cpp:51] Initializing net from parameters: 
name: "LeNet"
state {
  phase: TRAIN
  level: 0
  stage: ""
}
layer {
  name: "mnist"
  type: "Data"
  top: "data"
  top: "label"
  include {
    phase: TRAIN
  }
  transform_param {
    scale: 0.00390625
  }
  data_param {
    source: "data/mnist_train_lmdb"
    batch_size: 100
    backend: LMDB
  }
}
layer {
  name: "ip1"
  type: "InnerProduct"
  bottom: "data"
  top: "ip1"
  inner_product_param {
    num_output: 1000
    weight_filler {
      type: "gaussian"
      mean: 0
      std: 0.01
    }
  }
  bias_param {
    filler {
      value: 0
    }
  }
  fixed_precision: true
  precision {
    enter: 2
    fraccio: 14
    rounding: "stochastic"
  }
}
layer {
  name: "relu1"
  type: "ReLU"
  bottom: "ip1"
  top: "ip1"
  fixed_precision: true
  precision {
    enter: 2
    fraccio: 14
    rounding: "stochastic"
  }
}
layer {
  name: "ip2"
  type: "InnerProduct"
  bottom: "ip1"
  top: "ip2"
  inner_product_param {
    num_output: 1000
    weight_filler {
      type: "gaussian"
      mean: 0
      std: 0.01
    }
  }
  bias_param {
    filler {
      value: 0
    }
  }
  fixed_precision: true
  precision {
    enter: 2
    fraccio: 14
    rounding: "stochastic"
  }
}
layer {
  name: "relu2"
  type: "ReLU"
  bottom: "ip2"
  top: "ip2"
  bias_param {
    filler {
      value: 0
    }
  }
  fixed_precision: true
  precision {
    enter: 2
    fraccio: 14
    rounding: "stochastic"
  }
}
layer {
  name: "ip3"
  type: "InnerProduct"
  bottom: "ip2"
  top: "ip3"
  inner_product_param {
    num_output: 10
    weight_filler {
      type: "gaussian"
      mean: 0
      std: 0.01
    }
  }
  bias_param {
    filler {
      value: 0
    }
  }
  fixed_precision: true
  precision {
    enter: 2
    fraccio: 14
    rounding: "stochastic"
  }
}
layer {
  name: "accuracy"
  type: "Accuracy"
  bottom: "ip3"
  bottom: "label"
  top: "accuracy"
}
layer {
  name: "loss"
  type: "SoftmaxWithLoss"
  bottom: "ip3"
  bottom: "label"
  top: "loss"
  fixed_precision: true
  precision {
    enter: 2
    fraccio: 14
    rounding: "stochastic"
  }
}
I0330 21:33:53.872720 24623 layer_factory.hpp:77] Creating layer mnist
I0330 21:33:53.872840 24623 db_lmdb.cpp:35] Opened lmdb data/mnist_train_lmdb
I0330 21:33:53.872872 24623 net.cpp:84] Creating Layer mnist
I0330 21:33:53.872886 24623 net.cpp:380] mnist -> data
I0330 21:33:53.872915 24623 net.cpp:380] mnist -> label
I0330 21:33:53.872954 24623 data_layer.cpp:45] output data size: 100,1,28,28
I0330 21:33:53.874747 24623 net.cpp:122] Setting up mnist
I0330 21:33:53.874780 24623 net.cpp:129] Top shape: 100 1 28 28 (78400)
I0330 21:33:53.874790 24623 net.cpp:129] Top shape: 100 (100)
I0330 21:33:53.874799 24623 net.cpp:137] Memory required for data: 628000
I0330 21:33:53.874812 24623 layer_factory.hpp:77] Creating layer label_mnist_1_split
I0330 21:33:53.874831 24623 net.cpp:84] Creating Layer label_mnist_1_split
I0330 21:33:53.874842 24623 net.cpp:406] label_mnist_1_split <- label
I0330 21:33:53.874857 24623 net.cpp:380] label_mnist_1_split -> label_mnist_1_split_0
I0330 21:33:53.874872 24623 net.cpp:380] label_mnist_1_split -> label_mnist_1_split_1
I0330 21:33:53.874887 24623 net.cpp:122] Setting up label_mnist_1_split
I0330 21:33:53.874898 24623 net.cpp:129] Top shape: 100 (100)
I0330 21:33:53.874907 24623 net.cpp:129] Top shape: 100 (100)
I0330 21:33:53.874913 24623 net.cpp:137] Memory required for data: 629600
I0330 21:33:53.874922 24623 layer_factory.hpp:77] Creating layer ip1
I0330 21:33:53.874938 24623 net.cpp:84] Creating Layer ip1
I0330 21:33:53.874946 24623 net.cpp:406] ip1 <- data
I0330 21:33:53.874956 24623 net.cpp:380] ip1 -> ip1
I0330 21:33:54.014483 24623 net.cpp:122] Setting up ip1
I0330 21:33:54.014523 24623 net.cpp:129] Top shape: 100 1000 (100000)
I0330 21:33:54.014528 24623 net.cpp:137] Memory required for data: 1429600
I0330 21:33:54.014544 24623 layer_factory.hpp:77] Creating layer relu1
I0330 21:33:54.014555 24623 net.cpp:84] Creating Layer relu1
I0330 21:33:54.014561 24623 net.cpp:406] relu1 <- ip1
I0330 21:33:54.014567 24623 net.cpp:367] relu1 -> ip1 (in-place)
I0330 21:33:54.014586 24623 net.cpp:122] Setting up relu1
I0330 21:33:54.014593 24623 net.cpp:129] Top shape: 100 1000 (100000)
I0330 21:33:54.014597 24623 net.cpp:137] Memory required for data: 2229600
I0330 21:33:54.014601 24623 layer_factory.hpp:77] Creating layer ip2
I0330 21:33:54.014611 24623 net.cpp:84] Creating Layer ip2
I0330 21:33:54.014614 24623 net.cpp:406] ip2 <- ip1
I0330 21:33:54.014621 24623 net.cpp:380] ip2 -> ip2
I0330 21:33:54.099431 24623 net.cpp:122] Setting up ip2
I0330 21:33:54.099478 24623 net.cpp:129] Top shape: 100 1000 (100000)
I0330 21:33:54.099483 24623 net.cpp:137] Memory required for data: 3029600
I0330 21:33:54.099496 24623 layer_factory.hpp:77] Creating layer relu2
I0330 21:33:54.099509 24623 net.cpp:84] Creating Layer relu2
I0330 21:33:54.099514 24623 net.cpp:406] relu2 <- ip2
I0330 21:33:54.099520 24623 net.cpp:367] relu2 -> ip2 (in-place)
I0330 21:33:54.099541 24623 net.cpp:122] Setting up relu2
I0330 21:33:54.099556 24623 net.cpp:129] Top shape: 100 1000 (100000)
I0330 21:33:54.099570 24623 net.cpp:137] Memory required for data: 3829600
I0330 21:33:54.099572 24623 layer_factory.hpp:77] Creating layer ip3
I0330 21:33:54.099589 24623 net.cpp:84] Creating Layer ip3
I0330 21:33:54.099593 24623 net.cpp:406] ip3 <- ip2
I0330 21:33:54.099598 24623 net.cpp:380] ip3 -> ip3
I0330 21:33:54.100473 24623 net.cpp:122] Setting up ip3
I0330 21:33:54.100481 24623 net.cpp:129] Top shape: 100 10 (1000)
I0330 21:33:54.100494 24623 net.cpp:137] Memory required for data: 3837600
I0330 21:33:54.100502 24623 layer_factory.hpp:77] Creating layer ip3_ip3_0_split
I0330 21:33:54.100508 24623 net.cpp:84] Creating Layer ip3_ip3_0_split
I0330 21:33:54.100512 24623 net.cpp:406] ip3_ip3_0_split <- ip3
I0330 21:33:54.100517 24623 net.cpp:380] ip3_ip3_0_split -> ip3_ip3_0_split_0
I0330 21:33:54.100523 24623 net.cpp:380] ip3_ip3_0_split -> ip3_ip3_0_split_1
I0330 21:33:54.100533 24623 net.cpp:122] Setting up ip3_ip3_0_split
I0330 21:33:54.100538 24623 net.cpp:129] Top shape: 100 10 (1000)
I0330 21:33:54.100543 24623 net.cpp:129] Top shape: 100 10 (1000)
I0330 21:33:54.100546 24623 net.cpp:137] Memory required for data: 3853600
I0330 21:33:54.100549 24623 layer_factory.hpp:77] Creating layer accuracy
I0330 21:33:54.100556 24623 net.cpp:84] Creating Layer accuracy
I0330 21:33:54.100560 24623 net.cpp:406] accuracy <- ip3_ip3_0_split_0
I0330 21:33:54.100565 24623 net.cpp:406] accuracy <- label_mnist_1_split_0
I0330 21:33:54.100571 24623 net.cpp:380] accuracy -> accuracy
…
