…
  layer {
    name: "mnist"
    type: "Data"
    top: "data"
    top: "label"
    include {
      phase: TRAIN
    }
    transform_param {
      scale: 0.00390625
    }
    data_param {
      source: "data/mnist_train_lmdb"
      batch_size: 100
      backend: LMDB
    }
  }
  layer {
    name: "mnist"
    type: "Data"
    top: "data"
    top: "label"
    include {
      phase: TEST
    }
    transform_param {
      scale: 0.00390625
    }
    data_param {
      source: "data/mnist_test_lmdb"
      batch_size: 100
      backend: LMDB
    }
  }
  layer {
    name: "ip1"
    type: "InnerProduct"
    bottom: "data"
    top: "ip1"
    inner_product_param {
      num_output: 1000
      weight_filler {
        type: "gaussian"
        mean: 0
        std: 0.01
      }
    }
    bias_param {
      filler {
        value: 0
      }
    }
    fixed_precision: true
    precision {
      enter: 1
      fraccio: 9
      rounding: "stochastic"
    }
  }
  layer {
    name: "relu1"
    type: "ReLU"
    bottom: "ip1"
    top: "ip1"
    fixed_precision: true
    precision {
      enter: 1
      fraccio: 9
      rounding: "stochastic"
    }
  }
  layer {
    name: "ip2"
    type: "InnerProduct"
    bottom: "ip1"
    top: "ip2"
    inner_product_param {
      num_output: 1000
      weight_filler {
        type: "gaussian"
        mean: 0
        std: 0.01
      }
    }
    bias_param {
      filler {
        value: 0
      }
    }
    fixed_precision: true
    precision {
      enter: 1
      fraccio: 9
      rounding: "stochastic"
    }
  }
  layer {
    name: "relu2"
    type: "ReLU"
    bottom: "ip2"
    top: "ip2"
    bias_param {
      filler {
        value: 0
      }
    }
    fixed_precision: true
    precision {
      enter: 1
      fraccio: 9
      rounding: "stochastic"
    }
  }
  layer {
    name: "ip3"
    type: "InnerProduct"
    bottom: "ip2"
    top: "ip3"
    inner_product_param {
      num_output: 10
      weight_filler {
        type: "gaussian"
        mean: 0
        std: 0.01
      }
    }
    bias_param {
      filler {
        value: 0
      }
    }
    fixed_precision: true
    precision {
      enter: 1
      fraccio: 9
      rounding: "stochastic"
    }
  }
  layer {
    name: "accuracy"
    type: "Accuracy"
    bottom: "ip3"
    bottom: "label"
    top: "accuracy"
  }
  layer {
    name: "loss"
    type: "SoftmaxWithLoss"
    bottom: "ip3"
    bottom: "label"
    top: "loss"
    fixed_precision: true
    precision {
      enter: 1
      fraccio: 9
      rounding: "stochastic"
    }
  }
}
train_state {
  level: 0
  stage: ""
}
fixed_precision: true
precision {
  enter: 1
  fraccio: 9
  rounding: "stochastic"
}
I0404 15:28:17.857457 32517 solver.cpp:82] Creating training net specified in net_param.
I0404 15:28:17.857543 32517 net.cpp:294] The NetState phase (0) differed from the phase (1) specified by a rule in layer mnist
I0404 15:28:17.857739 32517 net.cpp:51] Initializing net from parameters: 
name: "LeNet"
state {
  phase: TRAIN
  level: 0
  stage: ""
}
layer {
  name: "mnist"
  type: "Data"
  top: "data"
  top: "label"
  include {
    phase: TRAIN
  }
  transform_param {
    scale: 0.00390625
  }
  data_param {
    source: "data/mnist_train_lmdb"
    batch_size: 100
    backend: LMDB
  }
}
layer {
  name: "ip1"
  type: "InnerProduct"
  bottom: "data"
  top: "ip1"
  inner_product_param {
    num_output: 1000
    weight_filler {
      type: "gaussian"
      mean: 0
      std: 0.01
    }
  }
  bias_param {
    filler {
      value: 0
    }
  }
  fixed_precision: true
  precision {
    enter: 1
    fraccio: 9
    rounding: "stochastic"
  }
}
layer {
  name: "relu1"
  type: "ReLU"
  bottom: "ip1"
  top: "ip1"
  fixed_precision: true
  precision {
    enter: 1
    fraccio: 9
    rounding: "stochastic"
  }
}
layer {
  name: "ip2"
  type: "InnerProduct"
  bottom: "ip1"
  top: "ip2"
  inner_product_param {
    num_output: 1000
    weight_filler {
      type: "gaussian"
      mean: 0
      std: 0.01
    }
  }
  bias_param {
    filler {
      value: 0
    }
  }
  fixed_precision: true
  precision {
    enter: 1
    fraccio: 9
    rounding: "stochastic"
  }
}
layer {
  name: "relu2"
  type: "ReLU"
  bottom: "ip2"
  top: "ip2"
  bias_param {
    filler {
      value: 0
    }
  }
  fixed_precision: true
  precision {
    enter: 1
    fraccio: 9
    rounding: "stochastic"
  }
}
layer {
  name: "ip3"
  type: "InnerProduct"
  bottom: "ip2"
  top: "ip3"
  inner_product_param {
    num_output: 10
    weight_filler {
      type: "gaussian"
      mean: 0
      std: 0.01
    }
  }
  bias_param {
    filler {
      value: 0
    }
  }
  fixed_precision: true
  precision {
    enter: 1
    fraccio: 9
    rounding: "stochastic"
  }
}
layer {
  name: "accuracy"
  type: "Accuracy"
  bottom: "ip3"
  bottom: "label"
  top: "accuracy"
}
layer {
  name: "loss"
  type: "SoftmaxWithLoss"
  bottom: "ip3"
  bottom: "label"
  top: "loss"
  fixed_precision: true
  precision {
    enter: 1
    fraccio: 9
    rounding: "stochastic"
  }
}
I0404 15:28:17.857895 32517 layer_factory.hpp:77] Creating layer mnist
I0404 15:28:17.858044 32517 db_lmdb.cpp:35] Opened lmdb data/mnist_train_lmdb
I0404 15:28:17.858101 32517 net.cpp:84] Creating Layer mnist
I0404 15:28:17.858134 32517 net.cpp:380] mnist -> data
I0404 15:28:17.858184 32517 net.cpp:380] mnist -> label
I0404 15:28:17.858249 32517 data_layer.cpp:45] output data size: 100,1,28,28
I0404 15:28:17.860030 32517 net.cpp:122] Setting up mnist
I0404 15:28:17.860079 32517 net.cpp:129] Top shape: 100 1 28 28 (78400)
I0404 15:28:17.860107 32517 net.cpp:129] Top shape: 100 (100)
I0404 15:28:17.860131 32517 net.cpp:137] Memory required for data: 628000
I0404 15:28:17.860159 32517 layer_factory.hpp:77] Creating layer label_mnist_1_split
I0404 15:28:17.860193 32517 net.cpp:84] Creating Layer label_mnist_1_split
I0404 15:28:17.860220 32517 net.cpp:406] label_mnist_1_split <- label
I0404 15:28:17.860252 32517 net.cpp:380] label_mnist_1_split -> label_mnist_1_split_0
I0404 15:28:17.860283 32517 net.cpp:380] label_mnist_1_split -> label_mnist_1_split_1
I0404 15:28:17.860316 32517 net.cpp:122] Setting up label_mnist_1_split
I0404 15:28:17.860343 32517 net.cpp:129] Top shape: 100 (100)
I0404 15:28:17.860368 32517 net.cpp:129] Top shape: 100 (100)
I0404 15:28:17.860390 32517 net.cpp:137] Memory required for data: 629600
I0404 15:28:17.860412 32517 layer_factory.hpp:77] Creating layer ip1
I0404 15:28:17.860441 32517 net.cpp:84] Creating Layer ip1
I0404 15:28:17.860466 32517 net.cpp:406] ip1 <- data
I0404 15:28:17.860493 32517 net.cpp:380] ip1 -> ip1
I0404 15:28:17.972404 32517 net.cpp:122] Setting up ip1
I0404 15:28:17.972499 32517 net.cpp:129] Top shape: 100 1000 (100000)
I0404 15:28:17.972540 32517 net.cpp:137] Memory required for data: 1429600
I0404 15:28:17.972587 32517 layer_factory.hpp:77] Creating layer relu1
I0404 15:28:17.972626 32517 net.cpp:84] Creating Layer relu1
I0404 15:28:17.972658 32517 net.cpp:406] relu1 <- ip1
I0404 15:28:17.972690 32517 net.cpp:367] relu1 -> ip1 (in-place)
I0404 15:28:17.972733 32517 net.cpp:122] Setting up relu1
I0404 15:28:17.972762 32517 net.cpp:129] Top shape: 100 1000 (100000)
I0404 15:28:17.972787 32517 net.cpp:137] Memory required for data: 2229600
I0404 15:28:17.972812 32517 layer_factory.hpp:77] Creating layer ip2
I0404 15:28:17.972842 32517 net.cpp:84] Creating Layer ip2
I0404 15:28:17.972867 32517 net.cpp:406] ip2 <- ip1
I0404 15:28:17.972896 32517 net.cpp:380] ip2 -> ip2
I0404 15:28:18.071282 32517 net.cpp:122] Setting up ip2
I0404 15:28:18.071337 32517 net.cpp:129] Top shape: 100 1000 (100000)
I0404 15:28:18.071347 32517 net.cpp:137] Memory required for data: 3029600
I0404 15:28:18.071364 32517 layer_factory.hpp:77] Creating layer relu2
I0404 15:28:18.071383 32517 net.cpp:84] Creating Layer relu2
I0404 15:28:18.071391 32517 net.cpp:406] relu2 <- ip2
I0404 15:28:18.071401 32517 net.cpp:367] relu2 -> ip2 (in-place)
I0404 15:28:18.071424 32517 net.cpp:122] Setting up relu2
I0404 15:28:18.071444 32517 net.cpp:129] Top shape: 100 1000 (100000)
I0404 15:28:18.071449 32517 net.cpp:137] Memory required for data: 3829600
I0404 15:28:18.071452 32517 layer_factory.hpp:77] Creating layer ip3
I0404 15:28:18.071461 32517 net.cpp:84] Creating Layer ip3
I0404 15:28:18.071466 32517 net.cpp:406] ip3 <- ip2
I0404 15:28:18.071472 32517 net.cpp:380] ip3 -> ip3
I0404 15:28:18.072394 32517 net.cpp:122] Setting up ip3
I0404 15:28:18.072403 32517 net.cpp:129] Top shape: 100 10 (1000)
I0404 15:28:18.072418 32517 net.cpp:137] Memory required for data: 3837600
I0404 15:28:18.072427 32517 layer_factory.hpp:77] Creating layer ip3_ip3_0_split
I0404 15:28:18.072434 32517 net.cpp:84] Creating Layer ip3_ip3_0_split
I0404 15:28:18.072438 32517 net.cpp:406] ip3_ip3_0_split <- ip3
I0404 15:28:18.072444 32517 net.cpp:380] ip3_ip3_0_split -> ip3_ip3_0_split_0
I0404 15:28:18.072451 32517 net.cpp:380] ip3_ip3_0_split -> ip3_ip3_0_split_1
I0404 15:28:18.072460 32517 net.cpp:122] Setting up ip3_ip3_0_split
I0404 15:28:18.072468 32517 net.cpp:129] Top shape: 100 10 (1000)
I0404 15:28:18.072471 32517 net.cpp:129] Top shape: 100 10 (1000)
I0404 15:28:18.072475 32517 net.cpp:137] Memory required for data: 3853600
I0404 15:28:18.072479 32517 layer_factory.hpp:77] Creating layer accuracy
I0404 15:28:18.072486 32517 net.cpp:84] Creating Layer accuracy
I0404 15:28:18.072491 32517 net.cpp:406] accuracy <- ip3_ip3_0_split_0
I0404 15:28:18.072496 32517 net.cpp:406] accuracy <- label_mnist_1_split_0
I0404 15:28:18.072504 32517 net.cpp:380] accuracy -> accuracy
…
