…
  layer {
    name: "mnist"
    type: "Data"
    top: "data"
    top: "label"
    include {
      phase: TRAIN
    }
    transform_param {
      scale: 0.00390625
    }
    data_param {
      source: "data/mnist_train_lmdb"
      batch_size: 100
      backend: LMDB
    }
  }
  layer {
    name: "mnist"
    type: "Data"
    top: "data"
    top: "label"
    include {
      phase: TEST
    }
    transform_param {
      scale: 0.00390625
    }
    data_param {
      source: "data/mnist_test_lmdb"
      batch_size: 100
      backend: LMDB
    }
  }
  layer {
    name: "ip1"
    type: "InnerProduct"
    bottom: "data"
    top: "ip1"
    inner_product_param {
      num_output: 1000
      weight_filler {
        type: "gaussian"
        mean: 0
        std: 0.01
      }
    }
    bias_param {
      filler {
        value: 0
      }
    }
    fixed_precision: true
    precision {
      enter: 1
      fraccio: 9
      rounding: "stochastic"
    }
  }
  layer {
    name: "relu1"
    type: "ReLU"
    bottom: "ip1"
    top: "ip1"
    fixed_precision: true
    precision {
      enter: 1
      fraccio: 9
      rounding: "stochastic"
    }
  }
  layer {
    name: "ip2"
    type: "InnerProduct"
    bottom: "ip1"
    top: "ip2"
    inner_product_param {
      num_output: 1000
      weight_filler {
        type: "gaussian"
        mean: 0
        std: 0.01
      }
    }
    bias_param {
      filler {
        value: 0
      }
    }
    fixed_precision: true
    precision {
      enter: 1
      fraccio: 9
      rounding: "stochastic"
    }
  }
  layer {
    name: "relu2"
    type: "ReLU"
    bottom: "ip2"
    top: "ip2"
    bias_param {
      filler {
        value: 0
      }
    }
    fixed_precision: true
    precision {
      enter: 1
      fraccio: 9
      rounding: "stochastic"
    }
  }
  layer {
    name: "ip3"
    type: "InnerProduct"
    bottom: "ip2"
    top: "ip3"
    inner_product_param {
      num_output: 10
      weight_filler {
        type: "gaussian"
        mean: 0
        std: 0.01
      }
    }
    bias_param {
      filler {
        value: 0
      }
    }
    fixed_precision: true
    precision {
      enter: 1
      fraccio: 9
      rounding: "stochastic"
    }
  }
  layer {
    name: "accuracy"
    type: "Accuracy"
    bottom: "ip3"
    bottom: "label"
    top: "accuracy"
  }
  layer {
    name: "loss"
    type: "SoftmaxWithLoss"
    bottom: "ip3"
    bottom: "label"
    top: "loss"
    fixed_precision: true
    precision {
      enter: 1
      fraccio: 9
      rounding: "stochastic"
    }
  }
}
train_state {
  level: 0
  stage: ""
}
fixed_precision: true
precision {
  enter: 1
  fraccio: 9
  rounding: "stochastic"
}
I0404 14:26:11.896953 28216 solver.cpp:82] Creating training net specified in net_param.
I0404 14:26:11.897012 28216 net.cpp:294] The NetState phase (0) differed from the phase (1) specified by a rule in layer mnist
I0404 14:26:11.897181 28216 net.cpp:51] Initializing net from parameters: 
name: "LeNet"
state {
  phase: TRAIN
  level: 0
  stage: ""
}
layer {
  name: "mnist"
  type: "Data"
  top: "data"
  top: "label"
  include {
    phase: TRAIN
  }
  transform_param {
    scale: 0.00390625
  }
  data_param {
    source: "data/mnist_train_lmdb"
    batch_size: 100
    backend: LMDB
  }
}
layer {
  name: "ip1"
  type: "InnerProduct"
  bottom: "data"
  top: "ip1"
  inner_product_param {
    num_output: 1000
    weight_filler {
      type: "gaussian"
      mean: 0
      std: 0.01
    }
  }
  bias_param {
    filler {
      value: 0
    }
  }
  fixed_precision: true
  precision {
    enter: 1
    fraccio: 9
    rounding: "stochastic"
  }
}
layer {
  name: "relu1"
  type: "ReLU"
  bottom: "ip1"
  top: "ip1"
  fixed_precision: true
  precision {
    enter: 1
    fraccio: 9
    rounding: "stochastic"
  }
}
layer {
  name: "ip2"
  type: "InnerProduct"
  bottom: "ip1"
  top: "ip2"
  inner_product_param {
    num_output: 1000
    weight_filler {
      type: "gaussian"
      mean: 0
      std: 0.01
    }
  }
  bias_param {
    filler {
      value: 0
    }
  }
  fixed_precision: true
  precision {
    enter: 1
    fraccio: 9
    rounding: "stochastic"
  }
}
layer {
  name: "relu2"
  type: "ReLU"
  bottom: "ip2"
  top: "ip2"
  bias_param {
    filler {
      value: 0
    }
  }
  fixed_precision: true
  precision {
    enter: 1
    fraccio: 9
    rounding: "stochastic"
  }
}
layer {
  name: "ip3"
  type: "InnerProduct"
  bottom: "ip2"
  top: "ip3"
  inner_product_param {
    num_output: 10
    weight_filler {
      type: "gaussian"
      mean: 0
      std: 0.01
    }
  }
  bias_param {
    filler {
      value: 0
    }
  }
  fixed_precision: true
  precision {
    enter: 1
    fraccio: 9
    rounding: "stochastic"
  }
}
layer {
  name: "accuracy"
  type: "Accuracy"
  bottom: "ip3"
  bottom: "label"
  top: "accuracy"
}
layer {
  name: "loss"
  type: "SoftmaxWithLoss"
  bottom: "ip3"
  bottom: "label"
  top: "loss"
  fixed_precision: true
  precision {
    enter: 1
    fraccio: 9
    rounding: "stochastic"
  }
}
I0404 14:26:11.897306 28216 layer_factory.hpp:77] Creating layer mnist
I0404 14:26:11.897425 28216 db_lmdb.cpp:35] Opened lmdb data/mnist_train_lmdb
I0404 14:26:11.897454 28216 net.cpp:84] Creating Layer mnist
I0404 14:26:11.897465 28216 net.cpp:380] mnist -> data
I0404 14:26:11.897493 28216 net.cpp:380] mnist -> label
I0404 14:26:11.897532 28216 data_layer.cpp:45] output data size: 100,1,28,28
I0404 14:26:11.899201 28216 net.cpp:122] Setting up mnist
I0404 14:26:11.899229 28216 net.cpp:129] Top shape: 100 1 28 28 (78400)
I0404 14:26:11.899238 28216 net.cpp:129] Top shape: 100 (100)
I0404 14:26:11.899245 28216 net.cpp:137] Memory required for data: 628000
I0404 14:26:11.899256 28216 layer_factory.hpp:77] Creating layer label_mnist_1_split
I0404 14:26:11.899273 28216 net.cpp:84] Creating Layer label_mnist_1_split
I0404 14:26:11.899282 28216 net.cpp:406] label_mnist_1_split <- label
I0404 14:26:11.899296 28216 net.cpp:380] label_mnist_1_split -> label_mnist_1_split_0
I0404 14:26:11.899308 28216 net.cpp:380] label_mnist_1_split -> label_mnist_1_split_1
I0404 14:26:11.899322 28216 net.cpp:122] Setting up label_mnist_1_split
I0404 14:26:11.899330 28216 net.cpp:129] Top shape: 100 (100)
I0404 14:26:11.899338 28216 net.cpp:129] Top shape: 100 (100)
I0404 14:26:11.899345 28216 net.cpp:137] Memory required for data: 629600
I0404 14:26:11.899351 28216 layer_factory.hpp:77] Creating layer ip1
I0404 14:26:11.899364 28216 net.cpp:84] Creating Layer ip1
I0404 14:26:11.899371 28216 net.cpp:406] ip1 <- data
I0404 14:26:11.899380 28216 net.cpp:380] ip1 -> ip1
I0404 14:26:12.013934 28216 net.cpp:122] Setting up ip1
I0404 14:26:12.013972 28216 net.cpp:129] Top shape: 100 1000 (100000)
I0404 14:26:12.013978 28216 net.cpp:137] Memory required for data: 1429600
I0404 14:26:12.013996 28216 layer_factory.hpp:77] Creating layer relu1
I0404 14:26:12.014012 28216 net.cpp:84] Creating Layer relu1
I0404 14:26:12.014022 28216 net.cpp:406] relu1 <- ip1
I0404 14:26:12.014031 28216 net.cpp:367] relu1 -> ip1 (in-place)
I0404 14:26:12.014048 28216 net.cpp:122] Setting up relu1
I0404 14:26:12.014055 28216 net.cpp:129] Top shape: 100 1000 (100000)
I0404 14:26:12.014058 28216 net.cpp:137] Memory required for data: 2229600
I0404 14:26:12.014062 28216 layer_factory.hpp:77] Creating layer ip2
I0404 14:26:12.014072 28216 net.cpp:84] Creating Layer ip2
I0404 14:26:12.014076 28216 net.cpp:406] ip2 <- ip1
I0404 14:26:12.014082 28216 net.cpp:380] ip2 -> ip2
I0404 14:26:12.103703 28216 net.cpp:122] Setting up ip2
I0404 14:26:12.103735 28216 net.cpp:129] Top shape: 100 1000 (100000)
I0404 14:26:12.103741 28216 net.cpp:137] Memory required for data: 3029600
I0404 14:26:12.103754 28216 layer_factory.hpp:77] Creating layer relu2
I0404 14:26:12.103766 28216 net.cpp:84] Creating Layer relu2
I0404 14:26:12.103771 28216 net.cpp:406] relu2 <- ip2
I0404 14:26:12.103778 28216 net.cpp:367] relu2 -> ip2 (in-place)
I0404 14:26:12.103798 28216 net.cpp:122] Setting up relu2
I0404 14:26:12.103813 28216 net.cpp:129] Top shape: 100 1000 (100000)
I0404 14:26:12.103816 28216 net.cpp:137] Memory required for data: 3829600
I0404 14:26:12.103821 28216 layer_factory.hpp:77] Creating layer ip3
I0404 14:26:12.103828 28216 net.cpp:84] Creating Layer ip3
I0404 14:26:12.103832 28216 net.cpp:406] ip3 <- ip2
I0404 14:26:12.103838 28216 net.cpp:380] ip3 -> ip3
I0404 14:26:12.104794 28216 net.cpp:122] Setting up ip3
I0404 14:26:12.104801 28216 net.cpp:129] Top shape: 100 10 (1000)
I0404 14:26:12.104806 28216 net.cpp:137] Memory required for data: 3837600
I0404 14:26:12.104813 28216 layer_factory.hpp:77] Creating layer ip3_ip3_0_split
I0404 14:26:12.104820 28216 net.cpp:84] Creating Layer ip3_ip3_0_split
I0404 14:26:12.104823 28216 net.cpp:406] ip3_ip3_0_split <- ip3
I0404 14:26:12.104828 28216 net.cpp:380] ip3_ip3_0_split -> ip3_ip3_0_split_0
I0404 14:26:12.104835 28216 net.cpp:380] ip3_ip3_0_split -> ip3_ip3_0_split_1
I0404 14:26:12.104845 28216 net.cpp:122] Setting up ip3_ip3_0_split
I0404 14:26:12.104849 28216 net.cpp:129] Top shape: 100 10 (1000)
I0404 14:26:12.104853 28216 net.cpp:129] Top shape: 100 10 (1000)
I0404 14:26:12.104857 28216 net.cpp:137] Memory required for data: 3853600
I0404 14:26:12.104861 28216 layer_factory.hpp:77] Creating layer accuracy
I0404 14:26:12.104868 28216 net.cpp:84] Creating Layer accuracy
I0404 14:26:12.104872 28216 net.cpp:406] accuracy <- ip3_ip3_0_split_0
I0404 14:26:12.104877 28216 net.cpp:406] accuracy <- label_mnist_1_split_0
I0404 14:26:12.104883 28216 net.cpp:380] accuracy -> accuracy
…
