…
  layer {
    name: "mnist"
    type: "Data"
    top: "data"
    top: "label"
    include {
      phase: TRAIN
    }
    transform_param {
      scale: 0.00390625
    }
    data_param {
      source: "data/mnist_train_lmdb"
      batch_size: 100
      backend: LMDB
    }
  }
  layer {
    name: "mnist"
    type: "Data"
    top: "data"
    top: "label"
    include {
      phase: TEST
    }
    transform_param {
      scale: 0.00390625
    }
    data_param {
      source: "data/mnist_test_lmdb"
      batch_size: 100
      backend: LMDB
    }
  }
  layer {
    name: "ip1"
    type: "InnerProduct"
    bottom: "data"
    top: "ip1"
    inner_product_param {
      num_output: 1000
      weight_filler {
        type: "gaussian"
        mean: 0
        std: 0.01
      }
    }
    bias_param {
      filler {
        value: 0
      }
    }
    fixed_precision: true
    precision {
      enter: 1
      fraccio: 9
      rounding: "stochastic"
    }
  }
  layer {
    name: "relu1"
    type: "ReLU"
    bottom: "ip1"
    top: "ip1"
    fixed_precision: true
    precision {
      enter: 1
      fraccio: 9
      rounding: "stochastic"
    }
  }
  layer {
    name: "ip2"
    type: "InnerProduct"
    bottom: "ip1"
    top: "ip2"
    inner_product_param {
      num_output: 1000
      weight_filler {
        type: "gaussian"
        mean: 0
        std: 0.01
      }
    }
    bias_param {
      filler {
        value: 0
      }
    }
    fixed_precision: true
    precision {
      enter: 1
      fraccio: 9
      rounding: "stochastic"
    }
  }
  layer {
    name: "relu2"
    type: "ReLU"
    bottom: "ip2"
    top: "ip2"
    bias_param {
      filler {
        value: 0
      }
    }
    fixed_precision: true
    precision {
      enter: 1
      fraccio: 9
      rounding: "stochastic"
    }
  }
  layer {
    name: "ip3"
    type: "InnerProduct"
    bottom: "ip2"
    top: "ip3"
    inner_product_param {
      num_output: 10
      weight_filler {
        type: "gaussian"
        mean: 0
        std: 0.01
      }
    }
    bias_param {
      filler {
        value: 0
      }
    }
    fixed_precision: true
    precision {
      enter: 1
      fraccio: 9
      rounding: "stochastic"
    }
  }
  layer {
    name: "accuracy"
    type: "Accuracy"
    bottom: "ip3"
    bottom: "label"
    top: "accuracy"
  }
  layer {
    name: "loss"
    type: "SoftmaxWithLoss"
    bottom: "ip3"
    bottom: "label"
    top: "loss"
    fixed_precision: true
    precision {
      enter: 1
      fraccio: 9
      rounding: "stochastic"
    }
  }
}
train_state {
  level: 0
  stage: ""
}
fixed_precision: true
precision {
  enter: 1
  fraccio: 9
  rounding: "stochastic"
}
I0404 16:34:36.096956  4509 solver.cpp:82] Creating training net specified in net_param.
I0404 16:34:36.097007  4509 net.cpp:294] The NetState phase (0) differed from the phase (1) specified by a rule in layer mnist
I0404 16:34:36.097152  4509 net.cpp:51] Initializing net from parameters: 
name: "LeNet"
state {
  phase: TRAIN
  level: 0
  stage: ""
}
layer {
  name: "mnist"
  type: "Data"
  top: "data"
  top: "label"
  include {
    phase: TRAIN
  }
  transform_param {
    scale: 0.00390625
  }
  data_param {
    source: "data/mnist_train_lmdb"
    batch_size: 100
    backend: LMDB
  }
}
layer {
  name: "ip1"
  type: "InnerProduct"
  bottom: "data"
  top: "ip1"
  inner_product_param {
    num_output: 1000
    weight_filler {
      type: "gaussian"
      mean: 0
      std: 0.01
    }
  }
  bias_param {
    filler {
      value: 0
    }
  }
  fixed_precision: true
  precision {
    enter: 1
    fraccio: 9
    rounding: "stochastic"
  }
}
layer {
  name: "relu1"
  type: "ReLU"
  bottom: "ip1"
  top: "ip1"
  fixed_precision: true
  precision {
    enter: 1
    fraccio: 9
    rounding: "stochastic"
  }
}
layer {
  name: "ip2"
  type: "InnerProduct"
  bottom: "ip1"
  top: "ip2"
  inner_product_param {
    num_output: 1000
    weight_filler {
      type: "gaussian"
      mean: 0
      std: 0.01
    }
  }
  bias_param {
    filler {
      value: 0
    }
  }
  fixed_precision: true
  precision {
    enter: 1
    fraccio: 9
    rounding: "stochastic"
  }
}
layer {
  name: "relu2"
  type: "ReLU"
  bottom: "ip2"
  top: "ip2"
  bias_param {
    filler {
      value: 0
    }
  }
  fixed_precision: true
  precision {
    enter: 1
    fraccio: 9
    rounding: "stochastic"
  }
}
layer {
  name: "ip3"
  type: "InnerProduct"
  bottom: "ip2"
  top: "ip3"
  inner_product_param {
    num_output: 10
    weight_filler {
      type: "gaussian"
      mean: 0
      std: 0.01
    }
  }
  bias_param {
    filler {
      value: 0
    }
  }
  fixed_precision: true
  precision {
    enter: 1
    fraccio: 9
    rounding: "stochastic"
  }
}
layer {
  name: "accuracy"
  type: "Accuracy"
  bottom: "ip3"
  bottom: "label"
  top: "accuracy"
}
layer {
  name: "loss"
  type: "SoftmaxWithLoss"
  bottom: "ip3"
  bottom: "label"
  top: "loss"
  fixed_precision: true
  precision {
    enter: 1
    fraccio: 9
    rounding: "stochastic"
  }
}
I0404 16:34:36.097264  4509 layer_factory.hpp:77] Creating layer mnist
I0404 16:34:36.097369  4509 db_lmdb.cpp:35] Opened lmdb data/mnist_train_lmdb
I0404 16:34:36.097396  4509 net.cpp:84] Creating Layer mnist
I0404 16:34:36.097407  4509 net.cpp:380] mnist -> data
I0404 16:34:36.097434  4509 net.cpp:380] mnist -> label
I0404 16:34:36.097466  4509 data_layer.cpp:45] output data size: 100,1,28,28
I0404 16:34:36.098948  4509 net.cpp:122] Setting up mnist
I0404 16:34:36.098973  4509 net.cpp:129] Top shape: 100 1 28 28 (78400)
I0404 16:34:36.098981  4509 net.cpp:129] Top shape: 100 (100)
I0404 16:34:36.098989  4509 net.cpp:137] Memory required for data: 628000
I0404 16:34:36.098999  4509 layer_factory.hpp:77] Creating layer label_mnist_1_split
I0404 16:34:36.099012  4509 net.cpp:84] Creating Layer label_mnist_1_split
I0404 16:34:36.099020  4509 net.cpp:406] label_mnist_1_split <- label
I0404 16:34:36.099035  4509 net.cpp:380] label_mnist_1_split -> label_mnist_1_split_0
I0404 16:34:36.099045  4509 net.cpp:380] label_mnist_1_split -> label_mnist_1_split_1
I0404 16:34:36.099057  4509 net.cpp:122] Setting up label_mnist_1_split
I0404 16:34:36.099066  4509 net.cpp:129] Top shape: 100 (100)
I0404 16:34:36.099073  4509 net.cpp:129] Top shape: 100 (100)
I0404 16:34:36.099079  4509 net.cpp:137] Memory required for data: 629600
I0404 16:34:36.099086  4509 layer_factory.hpp:77] Creating layer ip1
I0404 16:34:36.099099  4509 net.cpp:84] Creating Layer ip1
I0404 16:34:36.099105  4509 net.cpp:406] ip1 <- data
I0404 16:34:36.099114  4509 net.cpp:380] ip1 -> ip1
I0404 16:34:36.199709  4509 net.cpp:122] Setting up ip1
I0404 16:34:36.199746  4509 net.cpp:129] Top shape: 100 1000 (100000)
I0404 16:34:36.199753  4509 net.cpp:137] Memory required for data: 1429600
I0404 16:34:36.199769  4509 layer_factory.hpp:77] Creating layer relu1
I0404 16:34:36.199780  4509 net.cpp:84] Creating Layer relu1
I0404 16:34:36.199785  4509 net.cpp:406] relu1 <- ip1
I0404 16:34:36.199792  4509 net.cpp:367] relu1 -> ip1 (in-place)
I0404 16:34:36.199810  4509 net.cpp:122] Setting up relu1
I0404 16:34:36.199815  4509 net.cpp:129] Top shape: 100 1000 (100000)
I0404 16:34:36.199818  4509 net.cpp:137] Memory required for data: 2229600
I0404 16:34:36.199822  4509 layer_factory.hpp:77] Creating layer ip2
I0404 16:34:36.199831  4509 net.cpp:84] Creating Layer ip2
I0404 16:34:36.199834  4509 net.cpp:406] ip2 <- ip1
I0404 16:34:36.199841  4509 net.cpp:380] ip2 -> ip2
I0404 16:34:36.284788  4509 net.cpp:122] Setting up ip2
I0404 16:34:36.284834  4509 net.cpp:129] Top shape: 100 1000 (100000)
I0404 16:34:36.284843  4509 net.cpp:137] Memory required for data: 3029600
I0404 16:34:36.284857  4509 layer_factory.hpp:77] Creating layer relu2
I0404 16:34:36.284870  4509 net.cpp:84] Creating Layer relu2
I0404 16:34:36.284875  4509 net.cpp:406] relu2 <- ip2
I0404 16:34:36.284883  4509 net.cpp:367] relu2 -> ip2 (in-place)
I0404 16:34:36.284900  4509 net.cpp:122] Setting up relu2
I0404 16:34:36.284914  4509 net.cpp:129] Top shape: 100 1000 (100000)
I0404 16:34:36.284917  4509 net.cpp:137] Memory required for data: 3829600
I0404 16:34:36.284921  4509 layer_factory.hpp:77] Creating layer ip3
I0404 16:34:36.284929  4509 net.cpp:84] Creating Layer ip3
I0404 16:34:36.284932  4509 net.cpp:406] ip3 <- ip2
I0404 16:34:36.284939  4509 net.cpp:380] ip3 -> ip3
I0404 16:34:36.285842  4509 net.cpp:122] Setting up ip3
I0404 16:34:36.285876  4509 net.cpp:129] Top shape: 100 10 (1000)
I0404 16:34:36.285881  4509 net.cpp:137] Memory required for data: 3837600
I0404 16:34:36.285888  4509 layer_factory.hpp:77] Creating layer ip3_ip3_0_split
I0404 16:34:36.285895  4509 net.cpp:84] Creating Layer ip3_ip3_0_split
I0404 16:34:36.285899  4509 net.cpp:406] ip3_ip3_0_split <- ip3
I0404 16:34:36.285904  4509 net.cpp:380] ip3_ip3_0_split -> ip3_ip3_0_split_0
I0404 16:34:36.285912  4509 net.cpp:380] ip3_ip3_0_split -> ip3_ip3_0_split_1
I0404 16:34:36.285924  4509 net.cpp:122] Setting up ip3_ip3_0_split
I0404 16:34:36.285933  4509 net.cpp:129] Top shape: 100 10 (1000)
I0404 16:34:36.285938  4509 net.cpp:129] Top shape: 100 10 (1000)
I0404 16:34:36.285943  4509 net.cpp:137] Memory required for data: 3853600
I0404 16:34:36.285948  4509 layer_factory.hpp:77] Creating layer accuracy
I0404 16:34:36.285959  4509 net.cpp:84] Creating Layer accuracy
I0404 16:34:36.285966  4509 net.cpp:406] accuracy <- ip3_ip3_0_split_0
I0404 16:34:36.285974  4509 net.cpp:406] accuracy <- label_mnist_1_split_0
I0404 16:34:36.285984  4509 net.cpp:380] accuracy -> accuracy
…
