…
  layer {
    name: "mnist"
    type: "Data"
    top: "data"
    top: "label"
    include {
      phase: TRAIN
    }
    transform_param {
      scale: 0.00390625
    }
    data_param {
      source: "data/mnist_train_lmdb"
      batch_size: 100
      backend: LMDB
    }
  }
  layer {
    name: "mnist"
    type: "Data"
    top: "data"
    top: "label"
    include {
      phase: TEST
    }
    transform_param {
      scale: 0.00390625
    }
    data_param {
      source: "data/mnist_test_lmdb"
      batch_size: 100
      backend: LMDB
    }
  }
  layer {
    name: "ip1"
    type: "InnerProduct"
    bottom: "data"
    top: "ip1"
    inner_product_param {
      num_output: 1000
      weight_filler {
        type: "gaussian"
        mean: 0
        std: 0.01
      }
    }
    bias_param {
      filler {
        value: 0
      }
    }
    fixed_precision: true
    precision {
      enter: 1
      fraccio: 9
      rounding: "stochastic"
    }
  }
  layer {
    name: "relu1"
    type: "ReLU"
    bottom: "ip1"
    top: "ip1"
    fixed_precision: true
    precision {
      enter: 1
      fraccio: 9
      rounding: "stochastic"
    }
  }
  layer {
    name: "ip2"
    type: "InnerProduct"
    bottom: "ip1"
    top: "ip2"
    inner_product_param {
      num_output: 1000
      weight_filler {
        type: "gaussian"
        mean: 0
        std: 0.01
      }
    }
    bias_param {
      filler {
        value: 0
      }
    }
    fixed_precision: true
    precision {
      enter: 1
      fraccio: 9
      rounding: "stochastic"
    }
  }
  layer {
    name: "relu2"
    type: "ReLU"
    bottom: "ip2"
    top: "ip2"
    bias_param {
      filler {
        value: 0
      }
    }
    fixed_precision: true
    precision {
      enter: 1
      fraccio: 9
      rounding: "stochastic"
    }
  }
  layer {
    name: "ip3"
    type: "InnerProduct"
    bottom: "ip2"
    top: "ip3"
    inner_product_param {
      num_output: 10
      weight_filler {
        type: "gaussian"
        mean: 0
        std: 0.01
      }
    }
    bias_param {
      filler {
        value: 0
      }
    }
    fixed_precision: true
    precision {
      enter: 1
      fraccio: 9
      rounding: "stochastic"
    }
  }
  layer {
    name: "accuracy"
    type: "Accuracy"
    bottom: "ip3"
    bottom: "label"
    top: "accuracy"
  }
  layer {
    name: "loss"
    type: "SoftmaxWithLoss"
    bottom: "ip3"
    bottom: "label"
    top: "loss"
    fixed_precision: true
    precision {
      enter: 1
      fraccio: 9
      rounding: "stochastic"
    }
  }
}
train_state {
  level: 0
  stage: ""
}
fixed_precision: true
precision {
  enter: 1
  fraccio: 9
  rounding: "stochastic"
}
I0404 16:34:35.635730  4500 solver.cpp:82] Creating training net specified in net_param.
I0404 16:34:35.635792  4500 net.cpp:294] The NetState phase (0) differed from the phase (1) specified by a rule in layer mnist
I0404 16:34:35.635954  4500 net.cpp:51] Initializing net from parameters: 
name: "LeNet"
state {
  phase: TRAIN
  level: 0
  stage: ""
}
layer {
  name: "mnist"
  type: "Data"
  top: "data"
  top: "label"
  include {
    phase: TRAIN
  }
  transform_param {
    scale: 0.00390625
  }
  data_param {
    source: "data/mnist_train_lmdb"
    batch_size: 100
    backend: LMDB
  }
}
layer {
  name: "ip1"
  type: "InnerProduct"
  bottom: "data"
  top: "ip1"
  inner_product_param {
    num_output: 1000
    weight_filler {
      type: "gaussian"
      mean: 0
      std: 0.01
    }
  }
  bias_param {
    filler {
      value: 0
    }
  }
  fixed_precision: true
  precision {
    enter: 1
    fraccio: 9
    rounding: "stochastic"
  }
}
layer {
  name: "relu1"
  type: "ReLU"
  bottom: "ip1"
  top: "ip1"
  fixed_precision: true
  precision {
    enter: 1
    fraccio: 9
    rounding: "stochastic"
  }
}
layer {
  name: "ip2"
  type: "InnerProduct"
  bottom: "ip1"
  top: "ip2"
  inner_product_param {
    num_output: 1000
    weight_filler {
      type: "gaussian"
      mean: 0
      std: 0.01
    }
  }
  bias_param {
    filler {
      value: 0
    }
  }
  fixed_precision: true
  precision {
    enter: 1
    fraccio: 9
    rounding: "stochastic"
  }
}
layer {
  name: "relu2"
  type: "ReLU"
  bottom: "ip2"
  top: "ip2"
  bias_param {
    filler {
      value: 0
    }
  }
  fixed_precision: true
  precision {
    enter: 1
    fraccio: 9
    rounding: "stochastic"
  }
}
layer {
  name: "ip3"
  type: "InnerProduct"
  bottom: "ip2"
  top: "ip3"
  inner_product_param {
    num_output: 10
    weight_filler {
      type: "gaussian"
      mean: 0
      std: 0.01
    }
  }
  bias_param {
    filler {
      value: 0
    }
  }
  fixed_precision: true
  precision {
    enter: 1
    fraccio: 9
    rounding: "stochastic"
  }
}
layer {
  name: "accuracy"
  type: "Accuracy"
  bottom: "ip3"
  bottom: "label"
  top: "accuracy"
}
layer {
  name: "loss"
  type: "SoftmaxWithLoss"
  bottom: "ip3"
  bottom: "label"
  top: "loss"
  fixed_precision: true
  precision {
    enter: 1
    fraccio: 9
    rounding: "stochastic"
  }
}
I0404 16:34:35.636082  4500 layer_factory.hpp:77] Creating layer mnist
I0404 16:34:35.636201  4500 db_lmdb.cpp:35] Opened lmdb data/mnist_train_lmdb
I0404 16:34:35.636231  4500 net.cpp:84] Creating Layer mnist
I0404 16:34:35.636245  4500 net.cpp:380] mnist -> data
I0404 16:34:35.636273  4500 net.cpp:380] mnist -> label
I0404 16:34:35.636317  4500 data_layer.cpp:45] output data size: 100,1,28,28
I0404 16:34:35.638176  4500 net.cpp:122] Setting up mnist
I0404 16:34:35.638219  4500 net.cpp:129] Top shape: 100 1 28 28 (78400)
I0404 16:34:35.638231  4500 net.cpp:129] Top shape: 100 (100)
I0404 16:34:35.638238  4500 net.cpp:137] Memory required for data: 628000
I0404 16:34:35.638253  4500 layer_factory.hpp:77] Creating layer label_mnist_1_split
I0404 16:34:35.638275  4500 net.cpp:84] Creating Layer label_mnist_1_split
I0404 16:34:35.638288  4500 net.cpp:406] label_mnist_1_split <- label
I0404 16:34:35.638303  4500 net.cpp:380] label_mnist_1_split -> label_mnist_1_split_0
I0404 16:34:35.638319  4500 net.cpp:380] label_mnist_1_split -> label_mnist_1_split_1
I0404 16:34:35.638335  4500 net.cpp:122] Setting up label_mnist_1_split
I0404 16:34:35.638347  4500 net.cpp:129] Top shape: 100 (100)
I0404 16:34:35.638356  4500 net.cpp:129] Top shape: 100 (100)
I0404 16:34:35.638366  4500 net.cpp:137] Memory required for data: 629600
I0404 16:34:35.638373  4500 layer_factory.hpp:77] Creating layer ip1
I0404 16:34:35.638388  4500 net.cpp:84] Creating Layer ip1
I0404 16:34:35.638397  4500 net.cpp:406] ip1 <- data
I0404 16:34:35.638408  4500 net.cpp:380] ip1 -> ip1
I0404 16:34:35.754020  4500 net.cpp:122] Setting up ip1
I0404 16:34:35.754065  4500 net.cpp:129] Top shape: 100 1000 (100000)
I0404 16:34:35.754075  4500 net.cpp:137] Memory required for data: 1429600
I0404 16:34:35.754098  4500 layer_factory.hpp:77] Creating layer relu1
I0404 16:34:35.754117  4500 net.cpp:84] Creating Layer relu1
I0404 16:34:35.754127  4500 net.cpp:406] relu1 <- ip1
I0404 16:34:35.754139  4500 net.cpp:367] relu1 -> ip1 (in-place)
I0404 16:34:35.754164  4500 net.cpp:122] Setting up relu1
I0404 16:34:35.754176  4500 net.cpp:129] Top shape: 100 1000 (100000)
I0404 16:34:35.754184  4500 net.cpp:137] Memory required for data: 2229600
I0404 16:34:35.754190  4500 layer_factory.hpp:77] Creating layer ip2
I0404 16:34:35.754204  4500 net.cpp:84] Creating Layer ip2
I0404 16:34:35.754212  4500 net.cpp:406] ip2 <- ip1
I0404 16:34:35.754223  4500 net.cpp:380] ip2 -> ip2
I0404 16:34:35.851500  4500 net.cpp:122] Setting up ip2
I0404 16:34:35.851552  4500 net.cpp:129] Top shape: 100 1000 (100000)
I0404 16:34:35.851564  4500 net.cpp:137] Memory required for data: 3029600
I0404 16:34:35.851590  4500 layer_factory.hpp:77] Creating layer relu2
I0404 16:34:35.851611  4500 net.cpp:84] Creating Layer relu2
I0404 16:34:35.851625  4500 net.cpp:406] relu2 <- ip2
I0404 16:34:35.851639  4500 net.cpp:367] relu2 -> ip2 (in-place)
I0404 16:34:35.851670  4500 net.cpp:122] Setting up relu2
I0404 16:34:35.851693  4500 net.cpp:129] Top shape: 100 1000 (100000)
I0404 16:34:35.851702  4500 net.cpp:137] Memory required for data: 3829600
I0404 16:34:35.851711  4500 layer_factory.hpp:77] Creating layer ip3
I0404 16:34:35.851724  4500 net.cpp:84] Creating Layer ip3
I0404 16:34:35.851734  4500 net.cpp:406] ip3 <- ip2
I0404 16:34:35.851747  4500 net.cpp:380] ip3 -> ip3
I0404 16:34:35.852776  4500 net.cpp:122] Setting up ip3
I0404 16:34:35.852788  4500 net.cpp:129] Top shape: 100 10 (1000)
I0404 16:34:35.852797  4500 net.cpp:137] Memory required for data: 3837600
I0404 16:34:35.852813  4500 layer_factory.hpp:77] Creating layer ip3_ip3_0_split
I0404 16:34:35.852825  4500 net.cpp:84] Creating Layer ip3_ip3_0_split
I0404 16:34:35.852834  4500 net.cpp:406] ip3_ip3_0_split <- ip3
I0404 16:34:35.852846  4500 net.cpp:380] ip3_ip3_0_split -> ip3_ip3_0_split_0
I0404 16:34:35.852860  4500 net.cpp:380] ip3_ip3_0_split -> ip3_ip3_0_split_1
I0404 16:34:35.852875  4500 net.cpp:122] Setting up ip3_ip3_0_split
I0404 16:34:35.852885  4500 net.cpp:129] Top shape: 100 10 (1000)
I0404 16:34:35.852892  4500 net.cpp:129] Top shape: 100 10 (1000)
I0404 16:34:35.852900  4500 net.cpp:137] Memory required for data: 3853600
I0404 16:34:35.852905  4500 layer_factory.hpp:77] Creating layer accuracy
I0404 16:34:35.852918  4500 net.cpp:84] Creating Layer accuracy
I0404 16:34:35.852926  4500 net.cpp:406] accuracy <- ip3_ip3_0_split_0
I0404 16:34:35.852936  4500 net.cpp:406] accuracy <- label_mnist_1_split_0
I0404 16:34:35.852949  4500 net.cpp:380] accuracy -> accuracy
…
