…
  layer {
    name: "mnist"
    type: "Data"
    top: "data"
    top: "label"
    include {
      phase: TRAIN
    }
    transform_param {
      scale: 0.00390625
    }
    data_param {
      source: "data/mnist_train_lmdb"
      batch_size: 100
      backend: LMDB
    }
  }
  layer {
    name: "mnist"
    type: "Data"
    top: "data"
    top: "label"
    include {
      phase: TEST
    }
    transform_param {
      scale: 0.00390625
    }
    data_param {
      source: "data/mnist_test_lmdb"
      batch_size: 100
      backend: LMDB
    }
  }
  layer {
    name: "ip1"
    type: "InnerProduct"
    bottom: "data"
    top: "ip1"
    inner_product_param {
      num_output: 1000
      weight_filler {
        type: "gaussian"
        mean: 0
        std: 0.01
      }
    }
    bias_param {
      filler {
        value: 0
      }
    }
    fixed_precision: true
    precision {
      enter: 1
      fraccio: 9
      rounding: "stochastic"
    }
  }
  layer {
    name: "relu1"
    type: "ReLU"
    bottom: "ip1"
    top: "ip1"
    fixed_precision: true
    precision {
      enter: 1
      fraccio: 9
      rounding: "stochastic"
    }
  }
  layer {
    name: "ip2"
    type: "InnerProduct"
    bottom: "ip1"
    top: "ip2"
    inner_product_param {
      num_output: 1000
      weight_filler {
        type: "gaussian"
        mean: 0
        std: 0.01
      }
    }
    bias_param {
      filler {
        value: 0
      }
    }
    fixed_precision: true
    precision {
      enter: 1
      fraccio: 9
      rounding: "stochastic"
    }
  }
  layer {
    name: "relu2"
    type: "ReLU"
    bottom: "ip2"
    top: "ip2"
    bias_param {
      filler {
        value: 0
      }
    }
    fixed_precision: true
    precision {
      enter: 1
      fraccio: 9
      rounding: "stochastic"
    }
  }
  layer {
    name: "ip3"
    type: "InnerProduct"
    bottom: "ip2"
    top: "ip3"
    inner_product_param {
      num_output: 10
      weight_filler {
        type: "gaussian"
        mean: 0
        std: 0.01
      }
    }
    bias_param {
      filler {
        value: 0
      }
    }
    fixed_precision: true
    precision {
      enter: 1
      fraccio: 9
      rounding: "stochastic"
    }
  }
  layer {
    name: "accuracy"
    type: "Accuracy"
    bottom: "ip3"
    bottom: "label"
    top: "accuracy"
  }
  layer {
    name: "loss"
    type: "SoftmaxWithLoss"
    bottom: "ip3"
    bottom: "label"
    top: "loss"
    fixed_precision: true
    precision {
      enter: 1
      fraccio: 9
      rounding: "stochastic"
    }
  }
}
train_state {
  level: 0
  stage: ""
}
fixed_precision: true
precision {
  enter: 1
  fraccio: 9
  rounding: "stochastic"
}
I0404 16:31:15.594943  4265 solver.cpp:82] Creating training net specified in net_param.
I0404 16:31:15.594995  4265 net.cpp:294] The NetState phase (0) differed from the phase (1) specified by a rule in layer mnist
I0404 16:31:15.595160  4265 net.cpp:51] Initializing net from parameters: 
name: "LeNet"
state {
  phase: TRAIN
  level: 0
  stage: ""
}
layer {
  name: "mnist"
  type: "Data"
  top: "data"
  top: "label"
  include {
    phase: TRAIN
  }
  transform_param {
    scale: 0.00390625
  }
  data_param {
    source: "data/mnist_train_lmdb"
    batch_size: 100
    backend: LMDB
  }
}
layer {
  name: "ip1"
  type: "InnerProduct"
  bottom: "data"
  top: "ip1"
  inner_product_param {
    num_output: 1000
    weight_filler {
      type: "gaussian"
      mean: 0
      std: 0.01
    }
  }
  bias_param {
    filler {
      value: 0
    }
  }
  fixed_precision: true
  precision {
    enter: 1
    fraccio: 9
    rounding: "stochastic"
  }
}
layer {
  name: "relu1"
  type: "ReLU"
  bottom: "ip1"
  top: "ip1"
  fixed_precision: true
  precision {
    enter: 1
    fraccio: 9
    rounding: "stochastic"
  }
}
layer {
  name: "ip2"
  type: "InnerProduct"
  bottom: "ip1"
  top: "ip2"
  inner_product_param {
    num_output: 1000
    weight_filler {
      type: "gaussian"
      mean: 0
      std: 0.01
    }
  }
  bias_param {
    filler {
      value: 0
    }
  }
  fixed_precision: true
  precision {
    enter: 1
    fraccio: 9
    rounding: "stochastic"
  }
}
layer {
  name: "relu2"
  type: "ReLU"
  bottom: "ip2"
  top: "ip2"
  bias_param {
    filler {
      value: 0
    }
  }
  fixed_precision: true
  precision {
    enter: 1
    fraccio: 9
    rounding: "stochastic"
  }
}
layer {
  name: "ip3"
  type: "InnerProduct"
  bottom: "ip2"
  top: "ip3"
  inner_product_param {
    num_output: 10
    weight_filler {
      type: "gaussian"
      mean: 0
      std: 0.01
    }
  }
  bias_param {
    filler {
      value: 0
    }
  }
  fixed_precision: true
  precision {
    enter: 1
    fraccio: 9
    rounding: "stochastic"
  }
}
layer {
  name: "accuracy"
  type: "Accuracy"
  bottom: "ip3"
  bottom: "label"
  top: "accuracy"
}
layer {
  name: "loss"
  type: "SoftmaxWithLoss"
  bottom: "ip3"
  bottom: "label"
  top: "loss"
  fixed_precision: true
  precision {
    enter: 1
    fraccio: 9
    rounding: "stochastic"
  }
}
I0404 16:31:15.595281  4265 layer_factory.hpp:77] Creating layer mnist
I0404 16:31:15.595397  4265 db_lmdb.cpp:35] Opened lmdb data/mnist_train_lmdb
I0404 16:31:15.595427  4265 net.cpp:84] Creating Layer mnist
I0404 16:31:15.595440  4265 net.cpp:380] mnist -> data
I0404 16:31:15.595468  4265 net.cpp:380] mnist -> label
I0404 16:31:15.595505  4265 data_layer.cpp:45] output data size: 100,1,28,28
I0404 16:31:15.597208  4265 net.cpp:122] Setting up mnist
I0404 16:31:15.597234  4265 net.cpp:129] Top shape: 100 1 28 28 (78400)
I0404 16:31:15.597246  4265 net.cpp:129] Top shape: 100 (100)
I0404 16:31:15.597254  4265 net.cpp:137] Memory required for data: 628000
I0404 16:31:15.597266  4265 layer_factory.hpp:77] Creating layer label_mnist_1_split
I0404 16:31:15.597285  4265 net.cpp:84] Creating Layer label_mnist_1_split
I0404 16:31:15.597295  4265 net.cpp:406] label_mnist_1_split <- label
I0404 16:31:15.597308  4265 net.cpp:380] label_mnist_1_split -> label_mnist_1_split_0
I0404 16:31:15.597321  4265 net.cpp:380] label_mnist_1_split -> label_mnist_1_split_1
I0404 16:31:15.597335  4265 net.cpp:122] Setting up label_mnist_1_split
I0404 16:31:15.597345  4265 net.cpp:129] Top shape: 100 (100)
I0404 16:31:15.597354  4265 net.cpp:129] Top shape: 100 (100)
I0404 16:31:15.597362  4265 net.cpp:137] Memory required for data: 629600
I0404 16:31:15.597369  4265 layer_factory.hpp:77] Creating layer ip1
I0404 16:31:15.597385  4265 net.cpp:84] Creating Layer ip1
I0404 16:31:15.597393  4265 net.cpp:406] ip1 <- data
I0404 16:31:15.597404  4265 net.cpp:380] ip1 -> ip1
I0404 16:31:15.709929  4265 net.cpp:122] Setting up ip1
I0404 16:31:15.709967  4265 net.cpp:129] Top shape: 100 1000 (100000)
I0404 16:31:15.709975  4265 net.cpp:137] Memory required for data: 1429600
I0404 16:31:15.709995  4265 layer_factory.hpp:77] Creating layer relu1
I0404 16:31:15.710009  4265 net.cpp:84] Creating Layer relu1
I0404 16:31:15.710017  4265 net.cpp:406] relu1 <- ip1
I0404 16:31:15.710026  4265 net.cpp:367] relu1 -> ip1 (in-place)
I0404 16:31:15.710045  4265 net.cpp:122] Setting up relu1
I0404 16:31:15.710052  4265 net.cpp:129] Top shape: 100 1000 (100000)
I0404 16:31:15.710057  4265 net.cpp:137] Memory required for data: 2229600
I0404 16:31:15.710062  4265 layer_factory.hpp:77] Creating layer ip2
I0404 16:31:15.710072  4265 net.cpp:84] Creating Layer ip2
I0404 16:31:15.710077  4265 net.cpp:406] ip2 <- ip1
I0404 16:31:15.710084  4265 net.cpp:380] ip2 -> ip2
I0404 16:31:15.800390  4265 net.cpp:122] Setting up ip2
I0404 16:31:15.800432  4265 net.cpp:129] Top shape: 100 1000 (100000)
I0404 16:31:15.800439  4265 net.cpp:137] Memory required for data: 3029600
I0404 16:31:15.800454  4265 layer_factory.hpp:77] Creating layer relu2
I0404 16:31:15.800469  4265 net.cpp:84] Creating Layer relu2
I0404 16:31:15.800475  4265 net.cpp:406] relu2 <- ip2
I0404 16:31:15.800484  4265 net.cpp:367] relu2 -> ip2 (in-place)
I0404 16:31:15.800505  4265 net.cpp:122] Setting up relu2
I0404 16:31:15.800523  4265 net.cpp:129] Top shape: 100 1000 (100000)
I0404 16:31:15.800528  4265 net.cpp:137] Memory required for data: 3829600
I0404 16:31:15.800531  4265 layer_factory.hpp:77] Creating layer ip3
I0404 16:31:15.800539  4265 net.cpp:84] Creating Layer ip3
I0404 16:31:15.800544  4265 net.cpp:406] ip3 <- ip2
I0404 16:31:15.800550  4265 net.cpp:380] ip3 -> ip3
I0404 16:31:15.801455  4265 net.cpp:122] Setting up ip3
I0404 16:31:15.801465  4265 net.cpp:129] Top shape: 100 10 (1000)
I0404 16:31:15.801479  4265 net.cpp:137] Memory required for data: 3837600
I0404 16:31:15.801488  4265 layer_factory.hpp:77] Creating layer ip3_ip3_0_split
I0404 16:31:15.801496  4265 net.cpp:84] Creating Layer ip3_ip3_0_split
I0404 16:31:15.801499  4265 net.cpp:406] ip3_ip3_0_split <- ip3
I0404 16:31:15.801506  4265 net.cpp:380] ip3_ip3_0_split -> ip3_ip3_0_split_0
I0404 16:31:15.801513  4265 net.cpp:380] ip3_ip3_0_split -> ip3_ip3_0_split_1
I0404 16:31:15.801522  4265 net.cpp:122] Setting up ip3_ip3_0_split
I0404 16:31:15.801527  4265 net.cpp:129] Top shape: 100 10 (1000)
I0404 16:31:15.801532  4265 net.cpp:129] Top shape: 100 10 (1000)
I0404 16:31:15.801535  4265 net.cpp:137] Memory required for data: 3853600
I0404 16:31:15.801539  4265 layer_factory.hpp:77] Creating layer accuracy
I0404 16:31:15.801547  4265 net.cpp:84] Creating Layer accuracy
I0404 16:31:15.801551  4265 net.cpp:406] accuracy <- ip3_ip3_0_split_0
I0404 16:31:15.801555  4265 net.cpp:406] accuracy <- label_mnist_1_split_0
I0404 16:31:15.801563  4265 net.cpp:380] accuracy -> accuracy
…
