…
  layer {
    name: "mnist"
    type: "Data"
    top: "data"
    top: "label"
    include {
      phase: TRAIN
    }
    transform_param {
      scale: 0.00390625
    }
    data_param {
      source: "data/mnist_train_lmdb"
      batch_size: 100
      backend: LMDB
    }
  }
  layer {
    name: "mnist"
    type: "Data"
    top: "data"
    top: "label"
    include {
      phase: TEST
    }
    transform_param {
      scale: 0.00390625
    }
    data_param {
      source: "data/mnist_test_lmdb"
      batch_size: 100
      backend: LMDB
    }
  }
  layer {
    name: "ip1"
    type: "InnerProduct"
    bottom: "data"
    top: "ip1"
    inner_product_param {
      num_output: 1000
      weight_filler {
        type: "gaussian"
        mean: 0
        std: 0.1
      }
    }
    bias_param {
      filler {
        value: 0
      }
    }
    floating_point: true
    fpoint {
      exp: 2
      mant: 5
      rounding: "stochastic"
    }
  }
  layer {
    name: "relu1"
    type: "ReLU"
    bottom: "ip1"
    top: "ip1"
    floating_point: true
    fpoint {
      exp: 2
      mant: 5
      rounding: "stochastic"
    }
  }
  layer {
    name: "ip2"
    type: "InnerProduct"
    bottom: "ip1"
    top: "ip2"
    inner_product_param {
      num_output: 1000
      weight_filler {
        type: "gaussian"
        mean: 0
        std: 0.1
      }
    }
    bias_param {
      filler {
        value: 0
      }
    }
    floating_point: true
    fpoint {
      exp: 2
      mant: 5
      rounding: "stochastic"
    }
  }
  layer {
    name: "relu2"
    type: "ReLU"
    bottom: "ip2"
    top: "ip2"
    bias_param {
      filler {
        value: 0
      }
    }
    floating_point: true
    fpoint {
      exp: 2
      mant: 5
      rounding: "stochastic"
    }
  }
  layer {
    name: "ip3"
    type: "InnerProduct"
    bottom: "ip2"
    top: "ip3"
    inner_product_param {
      num_output: 10
      weight_filler {
        type: "gaussian"
        mean: 0
        std: 0.1
      }
    }
    bias_param {
      filler {
        value: 0
      }
    }
    floating_point: true
    fpoint {
      exp: 2
      mant: 5
      rounding: "stochastic"
    }
  }
  layer {
    name: "accuracy"
    type: "Accuracy"
    bottom: "ip3"
    bottom: "label"
    top: "accuracy"
  }
  layer {
    name: "loss"
    type: "SoftmaxWithLoss"
    bottom: "ip3"
    bottom: "label"
    top: "loss"
    floating_point: true
    fpoint {
      exp: 2
      mant: 5
      rounding: "stochastic"
    }
  }
}
train_state {
  level: 0
  stage: ""
}
floating_point: true
fpoint {
  exp: 2
  mant: 5
  rounding: "stochastic"
}
I0503 14:34:14.175611  4708 solver.cpp:82] Creating training net specified in net_param.
I0503 14:34:14.175690  4708 net.cpp:294] The NetState phase (0) differed from the phase (1) specified by a rule in layer mnist
I0503 14:34:14.175823  4708 net.cpp:51] Initializing net from parameters: 
name: "LeNet"
state {
  phase: TRAIN
  level: 0
  stage: ""
}
layer {
  name: "mnist"
  type: "Data"
  top: "data"
  top: "label"
  include {
    phase: TRAIN
  }
  transform_param {
    scale: 0.00390625
  }
  data_param {
    source: "data/mnist_train_lmdb"
    batch_size: 100
    backend: LMDB
  }
}
layer {
  name: "ip1"
  type: "InnerProduct"
  bottom: "data"
  top: "ip1"
  inner_product_param {
    num_output: 1000
    weight_filler {
      type: "gaussian"
      mean: 0
      std: 0.1
    }
  }
  bias_param {
    filler {
      value: 0
    }
  }
  floating_point: true
  fpoint {
    exp: 2
    mant: 5
    rounding: "stochastic"
  }
}
layer {
  name: "relu1"
  type: "ReLU"
  bottom: "ip1"
  top: "ip1"
  floating_point: true
  fpoint {
    exp: 2
    mant: 5
    rounding: "stochastic"
  }
}
layer {
  name: "ip2"
  type: "InnerProduct"
  bottom: "ip1"
  top: "ip2"
  inner_product_param {
    num_output: 1000
    weight_filler {
      type: "gaussian"
      mean: 0
      std: 0.1
    }
  }
  bias_param {
    filler {
      value: 0
    }
  }
  floating_point: true
  fpoint {
    exp: 2
    mant: 5
    rounding: "stochastic"
  }
}
layer {
  name: "relu2"
  type: "ReLU"
  bottom: "ip2"
  top: "ip2"
  bias_param {
    filler {
      value: 0
    }
  }
  floating_point: true
  fpoint {
    exp: 2
    mant: 5
    rounding: "stochastic"
  }
}
layer {
  name: "ip3"
  type: "InnerProduct"
  bottom: "ip2"
  top: "ip3"
  inner_product_param {
    num_output: 10
    weight_filler {
      type: "gaussian"
      mean: 0
      std: 0.1
    }
  }
  bias_param {
    filler {
      value: 0
    }
  }
  floating_point: true
  fpoint {
    exp: 2
    mant: 5
    rounding: "stochastic"
  }
}
layer {
  name: "accuracy"
  type: "Accuracy"
  bottom: "ip3"
  bottom: "label"
  top: "accuracy"
}
layer {
  name: "loss"
  type: "SoftmaxWithLoss"
  bottom: "ip3"
  bottom: "label"
  top: "loss"
  floating_point: true
  fpoint {
    exp: 2
    mant: 5
    rounding: "stochastic"
  }
}
I0503 14:34:14.176311  4708 layer_factory.hpp:77] Creating layer mnist
I0503 14:34:14.177397  4708 db_lmdb.cpp:35] Opened lmdb data/mnist_train_lmdb
I0503 14:34:14.177618  4708 net.cpp:84] Creating Layer mnist
I0503 14:34:14.177649  4708 net.cpp:380] mnist -> data
I0503 14:34:14.177698  4708 net.cpp:380] mnist -> label
I0503 14:34:14.177767  4708 data_layer.cpp:45] output data size: 100,1,28,28
I0503 14:34:14.179563  4708 net.cpp:122] Setting up mnist
I0503 14:34:14.179602  4708 net.cpp:129] Top shape: 100 1 28 28 (78400)
I0503 14:34:14.179617  4708 net.cpp:129] Top shape: 100 (100)
I0503 14:34:14.179627  4708 net.cpp:137] Memory required for data: 628000
I0503 14:34:14.179646  4708 layer_factory.hpp:77] Creating layer label_mnist_1_split
I0503 14:34:14.179667  4708 net.cpp:84] Creating Layer label_mnist_1_split
I0503 14:34:14.179682  4708 net.cpp:406] label_mnist_1_split <- label
I0503 14:34:14.179703  4708 net.cpp:380] label_mnist_1_split -> label_mnist_1_split_0
I0503 14:34:14.179723  4708 net.cpp:380] label_mnist_1_split -> label_mnist_1_split_1
I0503 14:34:14.179741  4708 net.cpp:122] Setting up label_mnist_1_split
I0503 14:34:14.179756  4708 net.cpp:129] Top shape: 100 (100)
I0503 14:34:14.179769  4708 net.cpp:129] Top shape: 100 (100)
I0503 14:34:14.179778  4708 net.cpp:137] Memory required for data: 629600
I0503 14:34:14.179790  4708 layer_factory.hpp:77] Creating layer ip1
I0503 14:34:14.179811  4708 net.cpp:84] Creating Layer ip1
I0503 14:34:14.179823  4708 net.cpp:406] ip1 <- data
I0503 14:34:14.179838  4708 net.cpp:380] ip1 -> ip1
I0503 14:34:14.220393  4708 net.cpp:122] Setting up ip1
I0503 14:34:14.220476  4708 net.cpp:129] Top shape: 100 1000 (100000)
I0503 14:34:14.220489  4708 net.cpp:137] Memory required for data: 1429600
I0503 14:34:14.220520  4708 layer_factory.hpp:77] Creating layer relu1
I0503 14:34:14.220548  4708 net.cpp:84] Creating Layer relu1
I0503 14:34:14.220562  4708 net.cpp:406] relu1 <- ip1
I0503 14:34:14.220578  4708 net.cpp:367] relu1 -> ip1 (in-place)
I0503 14:34:14.220600  4708 net.cpp:122] Setting up relu1
I0503 14:34:14.220613  4708 net.cpp:129] Top shape: 100 1000 (100000)
I0503 14:34:14.220624  4708 net.cpp:137] Memory required for data: 2229600
I0503 14:34:14.220634  4708 layer_factory.hpp:77] Creating layer ip2
I0503 14:34:14.220654  4708 net.cpp:84] Creating Layer ip2
I0503 14:34:14.220666  4708 net.cpp:406] ip2 <- ip1
I0503 14:34:14.220681  4708 net.cpp:380] ip2 -> ip2
I0503 14:34:14.268481  4708 net.cpp:122] Setting up ip2
I0503 14:34:14.268564  4708 net.cpp:129] Top shape: 100 1000 (100000)
I0503 14:34:14.268575  4708 net.cpp:137] Memory required for data: 3029600
I0503 14:34:14.268599  4708 layer_factory.hpp:77] Creating layer relu2
I0503 14:34:14.268625  4708 net.cpp:84] Creating Layer relu2
I0503 14:34:14.268638  4708 net.cpp:406] relu2 <- ip2
I0503 14:34:14.268656  4708 net.cpp:367] relu2 -> ip2 (in-place)
I0503 14:34:14.268678  4708 net.cpp:122] Setting up relu2
I0503 14:34:14.268692  4708 net.cpp:129] Top shape: 100 1000 (100000)
I0503 14:34:14.268748  4708 net.cpp:137] Memory required for data: 3829600
I0503 14:34:14.268761  4708 layer_factory.hpp:77] Creating layer ip3
I0503 14:34:14.268779  4708 net.cpp:84] Creating Layer ip3
I0503 14:34:14.268790  4708 net.cpp:406] ip3 <- ip2
I0503 14:34:14.268805  4708 net.cpp:380] ip3 -> ip3
I0503 14:34:14.269098  4708 net.cpp:122] Setting up ip3
I0503 14:34:14.269120  4708 net.cpp:129] Top shape: 100 10 (1000)
I0503 14:34:14.269131  4708 net.cpp:137] Memory required for data: 3837600
I0503 14:34:14.269150  4708 layer_factory.hpp:77] Creating layer ip3_ip3_0_split
I0503 14:34:14.269165  4708 net.cpp:84] Creating Layer ip3_ip3_0_split
I0503 14:34:14.269176  4708 net.cpp:406] ip3_ip3_0_split <- ip3
I0503 14:34:14.269191  4708 net.cpp:380] ip3_ip3_0_split -> ip3_ip3_0_split_0
I0503 14:34:14.269207  4708 net.cpp:380] ip3_ip3_0_split -> ip3_ip3_0_split_1
I0503 14:34:14.269225  4708 net.cpp:122] Setting up ip3_ip3_0_split
I0503 14:34:14.269239  4708 net.cpp:129] Top shape: 100 10 (1000)
I0503 14:34:14.269253  4708 net.cpp:129] Top shape: 100 10 (1000)
I0503 14:34:14.269263  4708 net.cpp:137] Memory required for data: 3853600
I0503 14:34:14.269273  4708 layer_factory.hpp:77] Creating layer accuracy
I0503 14:34:14.269299  4708 net.cpp:84] Creating Layer accuracy
I0503 14:34:14.269312  4708 net.cpp:406] accuracy <- ip3_ip3_0_split_0
I0503 14:34:14.269325  4708 net.cpp:406] accuracy <- label_mnist_1_split_0
I0503 14:34:14.269338  4708 net.cpp:380] accuracy -> accuracy
…
