…
  layer {
    name: "mnist"
    type: "Data"
    top: "data"
    top: "label"
    include {
      phase: TRAIN
    }
    transform_param {
      scale: 0.00390625
    }
    data_param {
      source: "data/mnist_train_lmdb"
      batch_size: 100
      backend: LMDB
    }
  }
  layer {
    name: "mnist"
    type: "Data"
    top: "data"
    top: "label"
    include {
      phase: TEST
    }
    transform_param {
      scale: 0.00390625
    }
    data_param {
      source: "data/mnist_test_lmdb"
      batch_size: 100
      backend: LMDB
    }
  }
  layer {
    name: "ip1"
    type: "InnerProduct"
    bottom: "data"
    top: "ip1"
    inner_product_param {
      num_output: 1000
      weight_filler {
        type: "gaussian"
        mean: 0
        std: 0.1
      }
    }
    bias_param {
      filler {
        value: 0
      }
    }
    floating_point: true
    fpoint {
      exp: 2
      mant: 5
      rounding: "stochastic"
    }
  }
  layer {
    name: "relu1"
    type: "ReLU"
    bottom: "ip1"
    top: "ip1"
    floating_point: true
    fpoint {
      exp: 2
      mant: 5
      rounding: "stochastic"
    }
  }
  layer {
    name: "ip2"
    type: "InnerProduct"
    bottom: "ip1"
    top: "ip2"
    inner_product_param {
      num_output: 1000
      weight_filler {
        type: "gaussian"
        mean: 0
        std: 0.1
      }
    }
    bias_param {
      filler {
        value: 0
      }
    }
    floating_point: true
    fpoint {
      exp: 2
      mant: 5
      rounding: "stochastic"
    }
  }
  layer {
    name: "relu2"
    type: "ReLU"
    bottom: "ip2"
    top: "ip2"
    bias_param {
      filler {
        value: 0
      }
    }
    floating_point: true
    fpoint {
      exp: 2
      mant: 5
      rounding: "stochastic"
    }
  }
  layer {
    name: "ip3"
    type: "InnerProduct"
    bottom: "ip2"
    top: "ip3"
    inner_product_param {
      num_output: 10
      weight_filler {
        type: "gaussian"
        mean: 0
        std: 0.1
      }
    }
    bias_param {
      filler {
        value: 0
      }
    }
    floating_point: true
    fpoint {
      exp: 2
      mant: 5
      rounding: "stochastic"
    }
  }
  layer {
    name: "accuracy"
    type: "Accuracy"
    bottom: "ip3"
    bottom: "label"
    top: "accuracy"
  }
  layer {
    name: "loss"
    type: "SoftmaxWithLoss"
    bottom: "ip3"
    bottom: "label"
    top: "loss"
    floating_point: true
    fpoint {
      exp: 2
      mant: 5
      rounding: "stochastic"
    }
  }
}
train_state {
  level: 0
  stage: ""
}
floating_point: true
fpoint {
  exp: 2
  mant: 5
  rounding: "stochastic"
}
I0503 15:18:40.448505 11863 solver.cpp:82] Creating training net specified in net_param.
I0503 15:18:40.448585 11863 net.cpp:294] The NetState phase (0) differed from the phase (1) specified by a rule in layer mnist
I0503 15:18:40.448725 11863 net.cpp:51] Initializing net from parameters: 
name: "LeNet"
state {
  phase: TRAIN
  level: 0
  stage: ""
}
layer {
  name: "mnist"
  type: "Data"
  top: "data"
  top: "label"
  include {
    phase: TRAIN
  }
  transform_param {
    scale: 0.00390625
  }
  data_param {
    source: "data/mnist_train_lmdb"
    batch_size: 100
    backend: LMDB
  }
}
layer {
  name: "ip1"
  type: "InnerProduct"
  bottom: "data"
  top: "ip1"
  inner_product_param {
    num_output: 1000
    weight_filler {
      type: "gaussian"
      mean: 0
      std: 0.1
    }
  }
  bias_param {
    filler {
      value: 0
    }
  }
  floating_point: true
  fpoint {
    exp: 2
    mant: 5
    rounding: "stochastic"
  }
}
layer {
  name: "relu1"
  type: "ReLU"
  bottom: "ip1"
  top: "ip1"
  floating_point: true
  fpoint {
    exp: 2
    mant: 5
    rounding: "stochastic"
  }
}
layer {
  name: "ip2"
  type: "InnerProduct"
  bottom: "ip1"
  top: "ip2"
  inner_product_param {
    num_output: 1000
    weight_filler {
      type: "gaussian"
      mean: 0
      std: 0.1
    }
  }
  bias_param {
    filler {
      value: 0
    }
  }
  floating_point: true
  fpoint {
    exp: 2
    mant: 5
    rounding: "stochastic"
  }
}
layer {
  name: "relu2"
  type: "ReLU"
  bottom: "ip2"
  top: "ip2"
  bias_param {
    filler {
      value: 0
    }
  }
  floating_point: true
  fpoint {
    exp: 2
    mant: 5
    rounding: "stochastic"
  }
}
layer {
  name: "ip3"
  type: "InnerProduct"
  bottom: "ip2"
  top: "ip3"
  inner_product_param {
    num_output: 10
    weight_filler {
      type: "gaussian"
      mean: 0
      std: 0.1
    }
  }
  bias_param {
    filler {
      value: 0
    }
  }
  floating_point: true
  fpoint {
    exp: 2
    mant: 5
    rounding: "stochastic"
  }
}
layer {
  name: "accuracy"
  type: "Accuracy"
  bottom: "ip3"
  bottom: "label"
  top: "accuracy"
}
layer {
  name: "loss"
  type: "SoftmaxWithLoss"
  bottom: "ip3"
  bottom: "label"
  top: "loss"
  floating_point: true
  fpoint {
    exp: 2
    mant: 5
    rounding: "stochastic"
  }
}
I0503 15:18:40.449215 11863 layer_factory.hpp:77] Creating layer mnist
I0503 15:18:40.451010 11863 db_lmdb.cpp:35] Opened lmdb data/mnist_train_lmdb
I0503 15:18:40.451342 11863 net.cpp:84] Creating Layer mnist
I0503 15:18:40.451375 11863 net.cpp:380] mnist -> data
I0503 15:18:40.451421 11863 net.cpp:380] mnist -> label
I0503 15:18:40.451480 11863 data_layer.cpp:45] output data size: 100,1,28,28
I0503 15:18:40.453186 11863 net.cpp:122] Setting up mnist
I0503 15:18:40.453223 11863 net.cpp:129] Top shape: 100 1 28 28 (78400)
I0503 15:18:40.453238 11863 net.cpp:129] Top shape: 100 (100)
I0503 15:18:40.453248 11863 net.cpp:137] Memory required for data: 628000
I0503 15:18:40.453265 11863 layer_factory.hpp:77] Creating layer label_mnist_1_split
I0503 15:18:40.453285 11863 net.cpp:84] Creating Layer label_mnist_1_split
I0503 15:18:40.453299 11863 net.cpp:406] label_mnist_1_split <- label
I0503 15:18:40.453320 11863 net.cpp:380] label_mnist_1_split -> label_mnist_1_split_0
I0503 15:18:40.453338 11863 net.cpp:380] label_mnist_1_split -> label_mnist_1_split_1
I0503 15:18:40.453357 11863 net.cpp:122] Setting up label_mnist_1_split
I0503 15:18:40.453372 11863 net.cpp:129] Top shape: 100 (100)
I0503 15:18:40.453383 11863 net.cpp:129] Top shape: 100 (100)
I0503 15:18:40.453393 11863 net.cpp:137] Memory required for data: 629600
I0503 15:18:40.453404 11863 layer_factory.hpp:77] Creating layer ip1
I0503 15:18:40.453424 11863 net.cpp:84] Creating Layer ip1
I0503 15:18:40.453436 11863 net.cpp:406] ip1 <- data
I0503 15:18:40.453450 11863 net.cpp:380] ip1 -> ip1
I0503 15:18:40.476050 11863 net.cpp:122] Setting up ip1
I0503 15:18:40.476124 11863 net.cpp:129] Top shape: 100 1000 (100000)
I0503 15:18:40.476135 11863 net.cpp:137] Memory required for data: 1429600
I0503 15:18:40.476164 11863 layer_factory.hpp:77] Creating layer relu1
I0503 15:18:40.476192 11863 net.cpp:84] Creating Layer relu1
I0503 15:18:40.476205 11863 net.cpp:406] relu1 <- ip1
I0503 15:18:40.476222 11863 net.cpp:367] relu1 -> ip1 (in-place)
I0503 15:18:40.476240 11863 net.cpp:122] Setting up relu1
I0503 15:18:40.476253 11863 net.cpp:129] Top shape: 100 1000 (100000)
I0503 15:18:40.476263 11863 net.cpp:137] Memory required for data: 2229600
I0503 15:18:40.476274 11863 layer_factory.hpp:77] Creating layer ip2
I0503 15:18:40.476294 11863 net.cpp:84] Creating Layer ip2
I0503 15:18:40.476305 11863 net.cpp:406] ip2 <- ip1
I0503 15:18:40.476320 11863 net.cpp:380] ip2 -> ip2
I0503 15:18:40.501449 11863 net.cpp:122] Setting up ip2
I0503 15:18:40.501526 11863 net.cpp:129] Top shape: 100 1000 (100000)
I0503 15:18:40.501538 11863 net.cpp:137] Memory required for data: 3029600
I0503 15:18:40.501561 11863 layer_factory.hpp:77] Creating layer relu2
I0503 15:18:40.501587 11863 net.cpp:84] Creating Layer relu2
I0503 15:18:40.501600 11863 net.cpp:406] relu2 <- ip2
I0503 15:18:40.501616 11863 net.cpp:367] relu2 -> ip2 (in-place)
I0503 15:18:40.501637 11863 net.cpp:122] Setting up relu2
I0503 15:18:40.501652 11863 net.cpp:129] Top shape: 100 1000 (100000)
I0503 15:18:40.501710 11863 net.cpp:137] Memory required for data: 3829600
I0503 15:18:40.501724 11863 layer_factory.hpp:77] Creating layer ip3
I0503 15:18:40.501740 11863 net.cpp:84] Creating Layer ip3
I0503 15:18:40.501751 11863 net.cpp:406] ip3 <- ip2
I0503 15:18:40.501766 11863 net.cpp:380] ip3 -> ip3
I0503 15:18:40.502058 11863 net.cpp:122] Setting up ip3
I0503 15:18:40.502079 11863 net.cpp:129] Top shape: 100 10 (1000)
I0503 15:18:40.502089 11863 net.cpp:137] Memory required for data: 3837600
I0503 15:18:40.502107 11863 layer_factory.hpp:77] Creating layer ip3_ip3_0_split
I0503 15:18:40.502125 11863 net.cpp:84] Creating Layer ip3_ip3_0_split
I0503 15:18:40.502135 11863 net.cpp:406] ip3_ip3_0_split <- ip3
I0503 15:18:40.502148 11863 net.cpp:380] ip3_ip3_0_split -> ip3_ip3_0_split_0
I0503 15:18:40.502164 11863 net.cpp:380] ip3_ip3_0_split -> ip3_ip3_0_split_1
I0503 15:18:40.502183 11863 net.cpp:122] Setting up ip3_ip3_0_split
I0503 15:18:40.502197 11863 net.cpp:129] Top shape: 100 10 (1000)
I0503 15:18:40.502209 11863 net.cpp:129] Top shape: 100 10 (1000)
I0503 15:18:40.502219 11863 net.cpp:137] Memory required for data: 3853600
I0503 15:18:40.502230 11863 layer_factory.hpp:77] Creating layer accuracy
I0503 15:18:40.502255 11863 net.cpp:84] Creating Layer accuracy
I0503 15:18:40.502269 11863 net.cpp:406] accuracy <- ip3_ip3_0_split_0
I0503 15:18:40.502281 11863 net.cpp:406] accuracy <- label_mnist_1_split_0
I0503 15:18:40.502295 11863 net.cpp:380] accuracy -> accuracy
…
