…
  layer {
    name: "mnist"
    type: "Data"
    top: "data"
    top: "label"
    include {
      phase: TRAIN
    }
    transform_param {
      scale: 0.00390625
    }
    data_param {
      source: "data/mnist_train_lmdb"
      batch_size: 100
      backend: LMDB
    }
  }
  layer {
    name: "mnist"
    type: "Data"
    top: "data"
    top: "label"
    include {
      phase: TEST
    }
    transform_param {
      scale: 0.00390625
    }
    data_param {
      source: "data/mnist_test_lmdb"
      batch_size: 100
      backend: LMDB
    }
  }
  layer {
    name: "ip1"
    type: "InnerProduct"
    bottom: "data"
    top: "ip1"
    inner_product_param {
      num_output: 1000
      weight_filler {
        type: "gaussian"
        mean: 0
        std: 0.1
      }
    }
    bias_param {
      filler {
        value: 0
      }
    }
    floating_point: true
    fpoint {
      exp: 2
      mant: 5
      rounding: "stochastic"
    }
  }
  layer {
    name: "relu1"
    type: "ReLU"
    bottom: "ip1"
    top: "ip1"
    floating_point: true
    fpoint {
      exp: 2
      mant: 5
      rounding: "stochastic"
    }
  }
  layer {
    name: "ip2"
    type: "InnerProduct"
    bottom: "ip1"
    top: "ip2"
    inner_product_param {
      num_output: 1000
      weight_filler {
        type: "gaussian"
        mean: 0
        std: 0.1
      }
    }
    bias_param {
      filler {
        value: 0
      }
    }
    floating_point: true
    fpoint {
      exp: 2
      mant: 5
      rounding: "stochastic"
    }
  }
  layer {
    name: "relu2"
    type: "ReLU"
    bottom: "ip2"
    top: "ip2"
    bias_param {
      filler {
        value: 0
      }
    }
    floating_point: true
    fpoint {
      exp: 2
      mant: 5
      rounding: "stochastic"
    }
  }
  layer {
    name: "ip3"
    type: "InnerProduct"
    bottom: "ip2"
    top: "ip3"
    inner_product_param {
      num_output: 10
      weight_filler {
        type: "gaussian"
        mean: 0
        std: 0.1
      }
    }
    bias_param {
      filler {
        value: 0
      }
    }
    floating_point: true
    fpoint {
      exp: 2
      mant: 5
      rounding: "stochastic"
    }
  }
  layer {
    name: "accuracy"
    type: "Accuracy"
    bottom: "ip3"
    bottom: "label"
    top: "accuracy"
  }
  layer {
    name: "loss"
    type: "SoftmaxWithLoss"
    bottom: "ip3"
    bottom: "label"
    top: "loss"
    floating_point: true
    fpoint {
      exp: 2
      mant: 5
      rounding: "stochastic"
    }
  }
}
train_state {
  level: 0
  stage: ""
}
floating_point: true
fpoint {
  exp: 2
  mant: 5
  rounding: "stochastic"
}
I0503 14:34:20.038767  6115 solver.cpp:82] Creating training net specified in net_param.
I0503 14:34:20.038904  6115 net.cpp:294] The NetState phase (0) differed from the phase (1) specified by a rule in layer mnist
I0503 14:34:20.039093  6115 net.cpp:51] Initializing net from parameters: 
name: "LeNet"
state {
  phase: TRAIN
  level: 0
  stage: ""
}
layer {
  name: "mnist"
  type: "Data"
  top: "data"
  top: "label"
  include {
    phase: TRAIN
  }
  transform_param {
    scale: 0.00390625
  }
  data_param {
    source: "data/mnist_train_lmdb"
    batch_size: 100
    backend: LMDB
  }
}
layer {
  name: "ip1"
  type: "InnerProduct"
  bottom: "data"
  top: "ip1"
  inner_product_param {
    num_output: 1000
    weight_filler {
      type: "gaussian"
      mean: 0
      std: 0.1
    }
  }
  bias_param {
    filler {
      value: 0
    }
  }
  floating_point: true
  fpoint {
    exp: 2
    mant: 5
    rounding: "stochastic"
  }
}
layer {
  name: "relu1"
  type: "ReLU"
  bottom: "ip1"
  top: "ip1"
  floating_point: true
  fpoint {
    exp: 2
    mant: 5
    rounding: "stochastic"
  }
}
layer {
  name: "ip2"
  type: "InnerProduct"
  bottom: "ip1"
  top: "ip2"
  inner_product_param {
    num_output: 1000
    weight_filler {
      type: "gaussian"
      mean: 0
      std: 0.1
    }
  }
  bias_param {
    filler {
      value: 0
    }
  }
  floating_point: true
  fpoint {
    exp: 2
    mant: 5
    rounding: "stochastic"
  }
}
layer {
  name: "relu2"
  type: "ReLU"
  bottom: "ip2"
  top: "ip2"
  bias_param {
    filler {
      value: 0
    }
  }
  floating_point: true
  fpoint {
    exp: 2
    mant: 5
    rounding: "stochastic"
  }
}
layer {
  name: "ip3"
  type: "InnerProduct"
  bottom: "ip2"
  top: "ip3"
  inner_product_param {
    num_output: 10
    weight_filler {
      type: "gaussian"
      mean: 0
      std: 0.1
    }
  }
  bias_param {
    filler {
      value: 0
    }
  }
  floating_point: true
  fpoint {
    exp: 2
    mant: 5
    rounding: "stochastic"
  }
}
layer {
  name: "accuracy"
  type: "Accuracy"
  bottom: "ip3"
  bottom: "label"
  top: "accuracy"
}
layer {
  name: "loss"
  type: "SoftmaxWithLoss"
  bottom: "ip3"
  bottom: "label"
  top: "loss"
  floating_point: true
  fpoint {
    exp: 2
    mant: 5
    rounding: "stochastic"
  }
}
I0503 14:34:20.039608  6115 layer_factory.hpp:77] Creating layer mnist
I0503 14:34:20.063501  6115 db_lmdb.cpp:35] Opened lmdb data/mnist_train_lmdb
I0503 14:34:20.063999  6115 net.cpp:84] Creating Layer mnist
I0503 14:34:20.064054  6115 net.cpp:380] mnist -> data
I0503 14:34:20.064138  6115 net.cpp:380] mnist -> label
I0503 14:34:20.064296  6115 data_layer.cpp:45] output data size: 100,1,28,28
I0503 14:34:20.066087  6115 net.cpp:122] Setting up mnist
I0503 14:34:20.066146  6115 net.cpp:129] Top shape: 100 1 28 28 (78400)
I0503 14:34:20.066165  6115 net.cpp:129] Top shape: 100 (100)
I0503 14:34:20.066176  6115 net.cpp:137] Memory required for data: 628000
I0503 14:34:20.066195  6115 layer_factory.hpp:77] Creating layer label_mnist_1_split
I0503 14:34:20.066227  6115 net.cpp:84] Creating Layer label_mnist_1_split
I0503 14:34:20.066244  6115 net.cpp:406] label_mnist_1_split <- label
I0503 14:34:20.066267  6115 net.cpp:380] label_mnist_1_split -> label_mnist_1_split_0
I0503 14:34:20.066285  6115 net.cpp:380] label_mnist_1_split -> label_mnist_1_split_1
I0503 14:34:20.066304  6115 net.cpp:122] Setting up label_mnist_1_split
I0503 14:34:20.066319  6115 net.cpp:129] Top shape: 100 (100)
I0503 14:34:20.066331  6115 net.cpp:129] Top shape: 100 (100)
I0503 14:34:20.066342  6115 net.cpp:137] Memory required for data: 629600
I0503 14:34:20.066354  6115 layer_factory.hpp:77] Creating layer ip1
I0503 14:34:20.066393  6115 net.cpp:84] Creating Layer ip1
I0503 14:34:20.066411  6115 net.cpp:406] ip1 <- data
I0503 14:34:20.066426  6115 net.cpp:380] ip1 -> ip1
I0503 14:34:20.090168  6115 net.cpp:122] Setting up ip1
I0503 14:34:20.090224  6115 net.cpp:129] Top shape: 100 1000 (100000)
I0503 14:34:20.090235  6115 net.cpp:137] Memory required for data: 1429600
I0503 14:34:20.090277  6115 layer_factory.hpp:77] Creating layer relu1
I0503 14:34:20.090324  6115 net.cpp:84] Creating Layer relu1
I0503 14:34:20.090342  6115 net.cpp:406] relu1 <- ip1
I0503 14:34:20.090358  6115 net.cpp:367] relu1 -> ip1 (in-place)
I0503 14:34:20.090378  6115 net.cpp:122] Setting up relu1
I0503 14:34:20.090391  6115 net.cpp:129] Top shape: 100 1000 (100000)
I0503 14:34:20.090402  6115 net.cpp:137] Memory required for data: 2229600
I0503 14:34:20.090414  6115 layer_factory.hpp:77] Creating layer ip2
I0503 14:34:20.090432  6115 net.cpp:84] Creating Layer ip2
I0503 14:34:20.090443  6115 net.cpp:406] ip2 <- ip1
I0503 14:34:20.090458  6115 net.cpp:380] ip2 -> ip2
I0503 14:34:20.115842  6115 net.cpp:122] Setting up ip2
I0503 14:34:20.115911  6115 net.cpp:129] Top shape: 100 1000 (100000)
I0503 14:34:20.115922  6115 net.cpp:137] Memory required for data: 3029600
I0503 14:34:20.115945  6115 layer_factory.hpp:77] Creating layer relu2
I0503 14:34:20.115969  6115 net.cpp:84] Creating Layer relu2
I0503 14:34:20.115981  6115 net.cpp:406] relu2 <- ip2
I0503 14:34:20.115998  6115 net.cpp:367] relu2 -> ip2 (in-place)
I0503 14:34:20.116017  6115 net.cpp:122] Setting up relu2
I0503 14:34:20.116031  6115 net.cpp:129] Top shape: 100 1000 (100000)
I0503 14:34:20.116080  6115 net.cpp:137] Memory required for data: 3829600
I0503 14:34:20.116092  6115 layer_factory.hpp:77] Creating layer ip3
I0503 14:34:20.116109  6115 net.cpp:84] Creating Layer ip3
I0503 14:34:20.116122  6115 net.cpp:406] ip3 <- ip2
I0503 14:34:20.116135  6115 net.cpp:380] ip3 -> ip3
I0503 14:34:20.116420  6115 net.cpp:122] Setting up ip3
I0503 14:34:20.116443  6115 net.cpp:129] Top shape: 100 10 (1000)
I0503 14:34:20.116454  6115 net.cpp:137] Memory required for data: 3837600
I0503 14:34:20.116472  6115 layer_factory.hpp:77] Creating layer ip3_ip3_0_split
I0503 14:34:20.116488  6115 net.cpp:84] Creating Layer ip3_ip3_0_split
I0503 14:34:20.116500  6115 net.cpp:406] ip3_ip3_0_split <- ip3
I0503 14:34:20.116513  6115 net.cpp:380] ip3_ip3_0_split -> ip3_ip3_0_split_0
I0503 14:34:20.116529  6115 net.cpp:380] ip3_ip3_0_split -> ip3_ip3_0_split_1
I0503 14:34:20.116549  6115 net.cpp:122] Setting up ip3_ip3_0_split
I0503 14:34:20.116564  6115 net.cpp:129] Top shape: 100 10 (1000)
I0503 14:34:20.116575  6115 net.cpp:129] Top shape: 100 10 (1000)
I0503 14:34:20.116586  6115 net.cpp:137] Memory required for data: 3853600
I0503 14:34:20.116596  6115 layer_factory.hpp:77] Creating layer accuracy
I0503 14:34:20.116704  6115 net.cpp:84] Creating Layer accuracy
I0503 14:34:20.116722  6115 net.cpp:406] accuracy <- ip3_ip3_0_split_0
I0503 14:34:20.116735  6115 net.cpp:406] accuracy <- label_mnist_1_split_0
I0503 14:34:20.116749  6115 net.cpp:380] accuracy -> accuracy
…
