…
  layer {
    name: "mnist"
    type: "Data"
    top: "data"
    top: "label"
    include {
      phase: TRAIN
    }
    transform_param {
      scale: 0.00390625
    }
    data_param {
      source: "data/mnist_train_lmdb"
      batch_size: 100
      backend: LMDB
    }
  }
  layer {
    name: "mnist"
    type: "Data"
    top: "data"
    top: "label"
    include {
      phase: TEST
    }
    transform_param {
      scale: 0.00390625
    }
    data_param {
      source: "data/mnist_test_lmdb"
      batch_size: 100
      backend: LMDB
    }
  }
  layer {
    name: "ip1"
    type: "InnerProduct"
    bottom: "data"
    top: "ip1"
    inner_product_param {
      num_output: 1000
      weight_filler {
        type: "gaussian"
        mean: 0
        std: 0.1
      }
    }
    bias_param {
      filler {
        value: 0
      }
    }
    floating_point: true
    fpoint {
      exp: 2
      mant: 5
      rounding: "stochastic"
    }
  }
  layer {
    name: "relu1"
    type: "ReLU"
    bottom: "ip1"
    top: "ip1"
    floating_point: true
    fpoint {
      exp: 2
      mant: 5
      rounding: "stochastic"
    }
  }
  layer {
    name: "ip2"
    type: "InnerProduct"
    bottom: "ip1"
    top: "ip2"
    inner_product_param {
      num_output: 1000
      weight_filler {
        type: "gaussian"
        mean: 0
        std: 0.1
      }
    }
    bias_param {
      filler {
        value: 0
      }
    }
    floating_point: true
    fpoint {
      exp: 2
      mant: 5
      rounding: "stochastic"
    }
  }
  layer {
    name: "relu2"
    type: "ReLU"
    bottom: "ip2"
    top: "ip2"
    bias_param {
      filler {
        value: 0
      }
    }
    floating_point: true
    fpoint {
      exp: 2
      mant: 5
      rounding: "stochastic"
    }
  }
  layer {
    name: "ip3"
    type: "InnerProduct"
    bottom: "ip2"
    top: "ip3"
    inner_product_param {
      num_output: 10
      weight_filler {
        type: "gaussian"
        mean: 0
        std: 0.1
      }
    }
    bias_param {
      filler {
        value: 0
      }
    }
    floating_point: true
    fpoint {
      exp: 2
      mant: 5
      rounding: "stochastic"
    }
  }
  layer {
    name: "accuracy"
    type: "Accuracy"
    bottom: "ip3"
    bottom: "label"
    top: "accuracy"
  }
  layer {
    name: "loss"
    type: "SoftmaxWithLoss"
    bottom: "ip3"
    bottom: "label"
    top: "loss"
    floating_point: true
    fpoint {
      exp: 2
      mant: 5
      rounding: "stochastic"
    }
  }
}
train_state {
  level: 0
  stage: ""
}
floating_point: true
fpoint {
  exp: 2
  mant: 5
  rounding: "stochastic"
}
I0503 15:18:47.433862 11916 solver.cpp:82] Creating training net specified in net_param.
I0503 15:18:47.433949 11916 net.cpp:294] The NetState phase (0) differed from the phase (1) specified by a rule in layer mnist
I0503 15:18:47.434087 11916 net.cpp:51] Initializing net from parameters: 
name: "LeNet"
state {
  phase: TRAIN
  level: 0
  stage: ""
}
layer {
  name: "mnist"
  type: "Data"
  top: "data"
  top: "label"
  include {
    phase: TRAIN
  }
  transform_param {
    scale: 0.00390625
  }
  data_param {
    source: "data/mnist_train_lmdb"
    batch_size: 100
    backend: LMDB
  }
}
layer {
  name: "ip1"
  type: "InnerProduct"
  bottom: "data"
  top: "ip1"
  inner_product_param {
    num_output: 1000
    weight_filler {
      type: "gaussian"
      mean: 0
      std: 0.1
    }
  }
  bias_param {
    filler {
      value: 0
    }
  }
  floating_point: true
  fpoint {
    exp: 2
    mant: 5
    rounding: "stochastic"
  }
}
layer {
  name: "relu1"
  type: "ReLU"
  bottom: "ip1"
  top: "ip1"
  floating_point: true
  fpoint {
    exp: 2
    mant: 5
    rounding: "stochastic"
  }
}
layer {
  name: "ip2"
  type: "InnerProduct"
  bottom: "ip1"
  top: "ip2"
  inner_product_param {
    num_output: 1000
    weight_filler {
      type: "gaussian"
      mean: 0
      std: 0.1
    }
  }
  bias_param {
    filler {
      value: 0
    }
  }
  floating_point: true
  fpoint {
    exp: 2
    mant: 5
    rounding: "stochastic"
  }
}
layer {
  name: "relu2"
  type: "ReLU"
  bottom: "ip2"
  top: "ip2"
  bias_param {
    filler {
      value: 0
    }
  }
  floating_point: true
  fpoint {
    exp: 2
    mant: 5
    rounding: "stochastic"
  }
}
layer {
  name: "ip3"
  type: "InnerProduct"
  bottom: "ip2"
  top: "ip3"
  inner_product_param {
    num_output: 10
    weight_filler {
      type: "gaussian"
      mean: 0
      std: 0.1
    }
  }
  bias_param {
    filler {
      value: 0
    }
  }
  floating_point: true
  fpoint {
    exp: 2
    mant: 5
    rounding: "stochastic"
  }
}
layer {
  name: "accuracy"
  type: "Accuracy"
  bottom: "ip3"
  bottom: "label"
  top: "accuracy"
}
layer {
  name: "loss"
  type: "SoftmaxWithLoss"
  bottom: "ip3"
  bottom: "label"
  top: "loss"
  floating_point: true
  fpoint {
    exp: 2
    mant: 5
    rounding: "stochastic"
  }
}
I0503 15:18:47.435205 11916 layer_factory.hpp:77] Creating layer mnist
I0503 15:18:47.436389 11916 db_lmdb.cpp:35] Opened lmdb data/mnist_train_lmdb
I0503 15:18:47.436751 11916 net.cpp:84] Creating Layer mnist
I0503 15:18:47.436782 11916 net.cpp:380] mnist -> data
I0503 15:18:47.436831 11916 net.cpp:380] mnist -> label
I0503 15:18:47.436892 11916 data_layer.cpp:45] output data size: 100,1,28,28
I0503 15:18:47.438596 11916 net.cpp:122] Setting up mnist
I0503 15:18:47.438637 11916 net.cpp:129] Top shape: 100 1 28 28 (78400)
I0503 15:18:47.438650 11916 net.cpp:129] Top shape: 100 (100)
I0503 15:18:47.438661 11916 net.cpp:137] Memory required for data: 628000
I0503 15:18:47.438680 11916 layer_factory.hpp:77] Creating layer label_mnist_1_split
I0503 15:18:47.438709 11916 net.cpp:84] Creating Layer label_mnist_1_split
I0503 15:18:47.438724 11916 net.cpp:406] label_mnist_1_split <- label
I0503 15:18:47.438745 11916 net.cpp:380] label_mnist_1_split -> label_mnist_1_split_0
I0503 15:18:47.438763 11916 net.cpp:380] label_mnist_1_split -> label_mnist_1_split_1
I0503 15:18:47.438782 11916 net.cpp:122] Setting up label_mnist_1_split
I0503 15:18:47.438797 11916 net.cpp:129] Top shape: 100 (100)
I0503 15:18:47.438809 11916 net.cpp:129] Top shape: 100 (100)
I0503 15:18:47.438819 11916 net.cpp:137] Memory required for data: 629600
I0503 15:18:47.438829 11916 layer_factory.hpp:77] Creating layer ip1
I0503 15:18:47.438849 11916 net.cpp:84] Creating Layer ip1
I0503 15:18:47.438863 11916 net.cpp:406] ip1 <- data
I0503 15:18:47.438876 11916 net.cpp:380] ip1 -> ip1
I0503 15:18:47.461421 11916 net.cpp:122] Setting up ip1
I0503 15:18:47.461496 11916 net.cpp:129] Top shape: 100 1000 (100000)
I0503 15:18:47.461508 11916 net.cpp:137] Memory required for data: 1429600
I0503 15:18:47.461536 11916 layer_factory.hpp:77] Creating layer relu1
I0503 15:18:47.461563 11916 net.cpp:84] Creating Layer relu1
I0503 15:18:47.461577 11916 net.cpp:406] relu1 <- ip1
I0503 15:18:47.461593 11916 net.cpp:367] relu1 -> ip1 (in-place)
I0503 15:18:47.461612 11916 net.cpp:122] Setting up relu1
I0503 15:18:47.461627 11916 net.cpp:129] Top shape: 100 1000 (100000)
I0503 15:18:47.461637 11916 net.cpp:137] Memory required for data: 2229600
I0503 15:18:47.461647 11916 layer_factory.hpp:77] Creating layer ip2
I0503 15:18:47.461666 11916 net.cpp:84] Creating Layer ip2
I0503 15:18:47.461678 11916 net.cpp:406] ip2 <- ip1
I0503 15:18:47.461700 11916 net.cpp:380] ip2 -> ip2
I0503 15:18:47.486891 11916 net.cpp:122] Setting up ip2
I0503 15:18:47.486968 11916 net.cpp:129] Top shape: 100 1000 (100000)
I0503 15:18:47.486979 11916 net.cpp:137] Memory required for data: 3029600
I0503 15:18:47.487002 11916 layer_factory.hpp:77] Creating layer relu2
I0503 15:18:47.487026 11916 net.cpp:84] Creating Layer relu2
I0503 15:18:47.487038 11916 net.cpp:406] relu2 <- ip2
I0503 15:18:47.487056 11916 net.cpp:367] relu2 -> ip2 (in-place)
I0503 15:18:47.487076 11916 net.cpp:122] Setting up relu2
I0503 15:18:47.487090 11916 net.cpp:129] Top shape: 100 1000 (100000)
I0503 15:18:47.487143 11916 net.cpp:137] Memory required for data: 3829600
I0503 15:18:47.487154 11916 layer_factory.hpp:77] Creating layer ip3
I0503 15:18:47.487172 11916 net.cpp:84] Creating Layer ip3
I0503 15:18:47.487184 11916 net.cpp:406] ip3 <- ip2
I0503 15:18:47.487200 11916 net.cpp:380] ip3 -> ip3
I0503 15:18:47.487488 11916 net.cpp:122] Setting up ip3
I0503 15:18:47.487509 11916 net.cpp:129] Top shape: 100 10 (1000)
I0503 15:18:47.487520 11916 net.cpp:137] Memory required for data: 3837600
I0503 15:18:47.487538 11916 layer_factory.hpp:77] Creating layer ip3_ip3_0_split
I0503 15:18:47.487555 11916 net.cpp:84] Creating Layer ip3_ip3_0_split
I0503 15:18:47.487565 11916 net.cpp:406] ip3_ip3_0_split <- ip3
I0503 15:18:47.487579 11916 net.cpp:380] ip3_ip3_0_split -> ip3_ip3_0_split_0
I0503 15:18:47.487594 11916 net.cpp:380] ip3_ip3_0_split -> ip3_ip3_0_split_1
I0503 15:18:47.487612 11916 net.cpp:122] Setting up ip3_ip3_0_split
I0503 15:18:47.487627 11916 net.cpp:129] Top shape: 100 10 (1000)
I0503 15:18:47.487639 11916 net.cpp:129] Top shape: 100 10 (1000)
I0503 15:18:47.487649 11916 net.cpp:137] Memory required for data: 3853600
I0503 15:18:47.487660 11916 layer_factory.hpp:77] Creating layer accuracy
I0503 15:18:47.487690 11916 net.cpp:84] Creating Layer accuracy
I0503 15:18:47.487704 11916 net.cpp:406] accuracy <- ip3_ip3_0_split_0
I0503 15:18:47.487717 11916 net.cpp:406] accuracy <- label_mnist_1_split_0
I0503 15:18:47.487730 11916 net.cpp:380] accuracy -> accuracy
…
