…
  layer {
    name: "mnist"
    type: "Data"
    top: "data"
    top: "label"
    include {
      phase: TRAIN
    }
    transform_param {
      scale: 0.00390625
    }
    data_param {
      source: "data/mnist_train_lmdb"
      batch_size: 100
      backend: LMDB
    }
  }
  layer {
    name: "mnist"
    type: "Data"
    top: "data"
    top: "label"
    include {
      phase: TEST
    }
    transform_param {
      scale: 0.00390625
    }
    data_param {
      source: "data/mnist_test_lmdb"
      batch_size: 100
      backend: LMDB
    }
  }
  layer {
    name: "ip1"
    type: "InnerProduct"
    bottom: "data"
    top: "ip1"
    inner_product_param {
      num_output: 1000
      weight_filler {
        type: "gaussian"
        mean: 0
        std: 0.1
      }
    }
    bias_param {
      filler {
        value: 0
      }
    }
    floating_point: true
    fpoint {
      exp: 2
      mant: 5
      rounding: "stochastic"
    }
  }
  layer {
    name: "relu1"
    type: "ReLU"
    bottom: "ip1"
    top: "ip1"
    floating_point: true
    fpoint {
      exp: 2
      mant: 5
      rounding: "stochastic"
    }
  }
  layer {
    name: "ip2"
    type: "InnerProduct"
    bottom: "ip1"
    top: "ip2"
    inner_product_param {
      num_output: 1000
      weight_filler {
        type: "gaussian"
        mean: 0
        std: 0.1
      }
    }
    bias_param {
      filler {
        value: 0
      }
    }
    floating_point: true
    fpoint {
      exp: 2
      mant: 5
      rounding: "stochastic"
    }
  }
  layer {
    name: "relu2"
    type: "ReLU"
    bottom: "ip2"
    top: "ip2"
    bias_param {
      filler {
        value: 0
      }
    }
    floating_point: true
    fpoint {
      exp: 2
      mant: 5
      rounding: "stochastic"
    }
  }
  layer {
    name: "ip3"
    type: "InnerProduct"
    bottom: "ip2"
    top: "ip3"
    inner_product_param {
      num_output: 10
      weight_filler {
        type: "gaussian"
        mean: 0
        std: 0.1
      }
    }
    bias_param {
      filler {
        value: 0
      }
    }
    floating_point: true
    fpoint {
      exp: 2
      mant: 5
      rounding: "stochastic"
    }
  }
  layer {
    name: "accuracy"
    type: "Accuracy"
    bottom: "ip3"
    bottom: "label"
    top: "accuracy"
  }
  layer {
    name: "loss"
    type: "SoftmaxWithLoss"
    bottom: "ip3"
    bottom: "label"
    top: "loss"
    floating_point: true
    fpoint {
      exp: 2
      mant: 5
      rounding: "stochastic"
    }
  }
}
train_state {
  level: 0
  stage: ""
}
floating_point: true
fpoint {
  exp: 2
  mant: 5
  rounding: "stochastic"
}
I0503 15:18:53.538949 11957 solver.cpp:82] Creating training net specified in net_param.
I0503 15:18:53.539026 11957 net.cpp:294] The NetState phase (0) differed from the phase (1) specified by a rule in layer mnist
I0503 15:18:53.539160 11957 net.cpp:51] Initializing net from parameters: 
name: "LeNet"
state {
  phase: TRAIN
  level: 0
  stage: ""
}
layer {
  name: "mnist"
  type: "Data"
  top: "data"
  top: "label"
  include {
    phase: TRAIN
  }
  transform_param {
    scale: 0.00390625
  }
  data_param {
    source: "data/mnist_train_lmdb"
    batch_size: 100
    backend: LMDB
  }
}
layer {
  name: "ip1"
  type: "InnerProduct"
  bottom: "data"
  top: "ip1"
  inner_product_param {
    num_output: 1000
    weight_filler {
      type: "gaussian"
      mean: 0
      std: 0.1
    }
  }
  bias_param {
    filler {
      value: 0
    }
  }
  floating_point: true
  fpoint {
    exp: 2
    mant: 5
    rounding: "stochastic"
  }
}
layer {
  name: "relu1"
  type: "ReLU"
  bottom: "ip1"
  top: "ip1"
  floating_point: true
  fpoint {
    exp: 2
    mant: 5
    rounding: "stochastic"
  }
}
layer {
  name: "ip2"
  type: "InnerProduct"
  bottom: "ip1"
  top: "ip2"
  inner_product_param {
    num_output: 1000
    weight_filler {
      type: "gaussian"
      mean: 0
      std: 0.1
    }
  }
  bias_param {
    filler {
      value: 0
    }
  }
  floating_point: true
  fpoint {
    exp: 2
    mant: 5
    rounding: "stochastic"
  }
}
layer {
  name: "relu2"
  type: "ReLU"
  bottom: "ip2"
  top: "ip2"
  bias_param {
    filler {
      value: 0
    }
  }
  floating_point: true
  fpoint {
    exp: 2
    mant: 5
    rounding: "stochastic"
  }
}
layer {
  name: "ip3"
  type: "InnerProduct"
  bottom: "ip2"
  top: "ip3"
  inner_product_param {
    num_output: 10
    weight_filler {
      type: "gaussian"
      mean: 0
      std: 0.1
    }
  }
  bias_param {
    filler {
      value: 0
    }
  }
  floating_point: true
  fpoint {
    exp: 2
    mant: 5
    rounding: "stochastic"
  }
}
layer {
  name: "accuracy"
  type: "Accuracy"
  bottom: "ip3"
  bottom: "label"
  top: "accuracy"
}
layer {
  name: "loss"
  type: "SoftmaxWithLoss"
  bottom: "ip3"
  bottom: "label"
  top: "loss"
  floating_point: true
  fpoint {
    exp: 2
    mant: 5
    rounding: "stochastic"
  }
}
I0503 15:18:53.540390 11957 layer_factory.hpp:77] Creating layer mnist
I0503 15:18:53.541757 11957 db_lmdb.cpp:35] Opened lmdb data/mnist_train_lmdb
I0503 15:18:53.542202 11957 net.cpp:84] Creating Layer mnist
I0503 15:18:53.542235 11957 net.cpp:380] mnist -> data
I0503 15:18:53.542280 11957 net.cpp:380] mnist -> label
I0503 15:18:53.542340 11957 data_layer.cpp:45] output data size: 100,1,28,28
I0503 15:18:53.544047 11957 net.cpp:122] Setting up mnist
I0503 15:18:53.544087 11957 net.cpp:129] Top shape: 100 1 28 28 (78400)
I0503 15:18:53.544102 11957 net.cpp:129] Top shape: 100 (100)
I0503 15:18:53.544112 11957 net.cpp:137] Memory required for data: 628000
I0503 15:18:53.544131 11957 layer_factory.hpp:77] Creating layer label_mnist_1_split
I0503 15:18:53.544152 11957 net.cpp:84] Creating Layer label_mnist_1_split
I0503 15:18:53.544164 11957 net.cpp:406] label_mnist_1_split <- label
I0503 15:18:53.544186 11957 net.cpp:380] label_mnist_1_split -> label_mnist_1_split_0
I0503 15:18:53.544205 11957 net.cpp:380] label_mnist_1_split -> label_mnist_1_split_1
I0503 15:18:53.544224 11957 net.cpp:122] Setting up label_mnist_1_split
I0503 15:18:53.544239 11957 net.cpp:129] Top shape: 100 (100)
I0503 15:18:53.544251 11957 net.cpp:129] Top shape: 100 (100)
I0503 15:18:53.544261 11957 net.cpp:137] Memory required for data: 629600
I0503 15:18:53.544271 11957 layer_factory.hpp:77] Creating layer ip1
I0503 15:18:53.544292 11957 net.cpp:84] Creating Layer ip1
I0503 15:18:53.544306 11957 net.cpp:406] ip1 <- data
I0503 15:18:53.544319 11957 net.cpp:380] ip1 -> ip1
I0503 15:18:53.567117 11957 net.cpp:122] Setting up ip1
I0503 15:18:53.567194 11957 net.cpp:129] Top shape: 100 1000 (100000)
I0503 15:18:53.567206 11957 net.cpp:137] Memory required for data: 1429600
I0503 15:18:53.567235 11957 layer_factory.hpp:77] Creating layer relu1
I0503 15:18:53.567263 11957 net.cpp:84] Creating Layer relu1
I0503 15:18:53.567276 11957 net.cpp:406] relu1 <- ip1
I0503 15:18:53.567291 11957 net.cpp:367] relu1 -> ip1 (in-place)
I0503 15:18:53.567309 11957 net.cpp:122] Setting up relu1
I0503 15:18:53.567323 11957 net.cpp:129] Top shape: 100 1000 (100000)
I0503 15:18:53.567333 11957 net.cpp:137] Memory required for data: 2229600
I0503 15:18:53.567343 11957 layer_factory.hpp:77] Creating layer ip2
I0503 15:18:53.567363 11957 net.cpp:84] Creating Layer ip2
I0503 15:18:53.567374 11957 net.cpp:406] ip2 <- ip1
I0503 15:18:53.567389 11957 net.cpp:380] ip2 -> ip2
I0503 15:18:53.592696 11957 net.cpp:122] Setting up ip2
I0503 15:18:53.592777 11957 net.cpp:129] Top shape: 100 1000 (100000)
I0503 15:18:53.592789 11957 net.cpp:137] Memory required for data: 3029600
I0503 15:18:53.592813 11957 layer_factory.hpp:77] Creating layer relu2
I0503 15:18:53.592836 11957 net.cpp:84] Creating Layer relu2
I0503 15:18:53.592849 11957 net.cpp:406] relu2 <- ip2
I0503 15:18:53.592865 11957 net.cpp:367] relu2 -> ip2 (in-place)
I0503 15:18:53.592886 11957 net.cpp:122] Setting up relu2
I0503 15:18:53.592900 11957 net.cpp:129] Top shape: 100 1000 (100000)
I0503 15:18:53.592952 11957 net.cpp:137] Memory required for data: 3829600
I0503 15:18:53.592963 11957 layer_factory.hpp:77] Creating layer ip3
I0503 15:18:53.592980 11957 net.cpp:84] Creating Layer ip3
I0503 15:18:53.592993 11957 net.cpp:406] ip3 <- ip2
I0503 15:18:53.593008 11957 net.cpp:380] ip3 -> ip3
I0503 15:18:53.593294 11957 net.cpp:122] Setting up ip3
I0503 15:18:53.593317 11957 net.cpp:129] Top shape: 100 10 (1000)
I0503 15:18:53.593327 11957 net.cpp:137] Memory required for data: 3837600
I0503 15:18:53.593344 11957 layer_factory.hpp:77] Creating layer ip3_ip3_0_split
I0503 15:18:53.593360 11957 net.cpp:84] Creating Layer ip3_ip3_0_split
I0503 15:18:53.593371 11957 net.cpp:406] ip3_ip3_0_split <- ip3
I0503 15:18:53.593385 11957 net.cpp:380] ip3_ip3_0_split -> ip3_ip3_0_split_0
I0503 15:18:53.593400 11957 net.cpp:380] ip3_ip3_0_split -> ip3_ip3_0_split_1
I0503 15:18:53.593420 11957 net.cpp:122] Setting up ip3_ip3_0_split
I0503 15:18:53.593432 11957 net.cpp:129] Top shape: 100 10 (1000)
I0503 15:18:53.593446 11957 net.cpp:129] Top shape: 100 10 (1000)
I0503 15:18:53.593456 11957 net.cpp:137] Memory required for data: 3853600
I0503 15:18:53.593466 11957 layer_factory.hpp:77] Creating layer accuracy
I0503 15:18:53.593490 11957 net.cpp:84] Creating Layer accuracy
I0503 15:18:53.593503 11957 net.cpp:406] accuracy <- ip3_ip3_0_split_0
I0503 15:18:53.593515 11957 net.cpp:406] accuracy <- label_mnist_1_split_0
I0503 15:18:53.593528 11957 net.cpp:380] accuracy -> accuracy
…
