…
  layer {
    name: "mnist"
    type: "Data"
    top: "data"
    top: "label"
    include {
      phase: TRAIN
    }
    transform_param {
      scale: 0.00390625
    }
    data_param {
      source: "data/mnist_train_lmdb"
      batch_size: 100
      backend: LMDB
    }
  }
  layer {
    name: "mnist"
    type: "Data"
    top: "data"
    top: "label"
    include {
      phase: TEST
    }
    transform_param {
      scale: 0.00390625
    }
    data_param {
      source: "data/mnist_test_lmdb"
      batch_size: 100
      backend: LMDB
    }
  }
  layer {
    name: "ip1"
    type: "InnerProduct"
    bottom: "data"
    top: "ip1"
    inner_product_param {
      num_output: 1000
      weight_filler {
        type: "gaussian"
        mean: 0
        std: 0.1
      }
    }
    bias_param {
      filler {
        value: 0
      }
    }
    floating_point: true
    fpoint {
      exp: 2
      mant: 5
      rounding: "stochastic"
    }
  }
  layer {
    name: "relu1"
    type: "ReLU"
    bottom: "ip1"
    top: "ip1"
    floating_point: true
    fpoint {
      exp: 2
      mant: 5
      rounding: "stochastic"
    }
  }
  layer {
    name: "ip2"
    type: "InnerProduct"
    bottom: "ip1"
    top: "ip2"
    inner_product_param {
      num_output: 1000
      weight_filler {
        type: "gaussian"
        mean: 0
        std: 0.1
      }
    }
    bias_param {
      filler {
        value: 0
      }
    }
    floating_point: true
    fpoint {
      exp: 2
      mant: 5
      rounding: "stochastic"
    }
  }
  layer {
    name: "relu2"
    type: "ReLU"
    bottom: "ip2"
    top: "ip2"
    bias_param {
      filler {
        value: 0
      }
    }
    floating_point: true
    fpoint {
      exp: 2
      mant: 5
      rounding: "stochastic"
    }
  }
  layer {
    name: "ip3"
    type: "InnerProduct"
    bottom: "ip2"
    top: "ip3"
    inner_product_param {
      num_output: 10
      weight_filler {
        type: "gaussian"
        mean: 0
        std: 0.1
      }
    }
    bias_param {
      filler {
        value: 0
      }
    }
    floating_point: true
    fpoint {
      exp: 2
      mant: 5
      rounding: "stochastic"
    }
  }
  layer {
    name: "accuracy"
    type: "Accuracy"
    bottom: "ip3"
    bottom: "label"
    top: "accuracy"
  }
  layer {
    name: "loss"
    type: "SoftmaxWithLoss"
    bottom: "ip3"
    bottom: "label"
    top: "loss"
    floating_point: true
    fpoint {
      exp: 2
      mant: 5
      rounding: "stochastic"
    }
  }
}
train_state {
  level: 0
  stage: ""
}
floating_point: true
fpoint {
  exp: 2
  mant: 5
  rounding: "stochastic"
}
I0503 15:18:59.785560  2286 solver.cpp:82] Creating training net specified in net_param.
I0503 15:18:59.785717  2286 net.cpp:294] The NetState phase (0) differed from the phase (1) specified by a rule in layer mnist
I0503 15:18:59.785882  2286 net.cpp:51] Initializing net from parameters: 
name: "LeNet"
state {
  phase: TRAIN
  level: 0
  stage: ""
}
layer {
  name: "mnist"
  type: "Data"
  top: "data"
  top: "label"
  include {
    phase: TRAIN
  }
  transform_param {
    scale: 0.00390625
  }
  data_param {
    source: "data/mnist_train_lmdb"
    batch_size: 100
    backend: LMDB
  }
}
layer {
  name: "ip1"
  type: "InnerProduct"
  bottom: "data"
  top: "ip1"
  inner_product_param {
    num_output: 1000
    weight_filler {
      type: "gaussian"
      mean: 0
      std: 0.1
    }
  }
  bias_param {
    filler {
      value: 0
    }
  }
  floating_point: true
  fpoint {
    exp: 2
    mant: 5
    rounding: "stochastic"
  }
}
layer {
  name: "relu1"
  type: "ReLU"
  bottom: "ip1"
  top: "ip1"
  floating_point: true
  fpoint {
    exp: 2
    mant: 5
    rounding: "stochastic"
  }
}
layer {
  name: "ip2"
  type: "InnerProduct"
  bottom: "ip1"
  top: "ip2"
  inner_product_param {
    num_output: 1000
    weight_filler {
      type: "gaussian"
      mean: 0
      std: 0.1
    }
  }
  bias_param {
    filler {
      value: 0
    }
  }
  floating_point: true
  fpoint {
    exp: 2
    mant: 5
    rounding: "stochastic"
  }
}
layer {
  name: "relu2"
  type: "ReLU"
  bottom: "ip2"
  top: "ip2"
  bias_param {
    filler {
      value: 0
    }
  }
  floating_point: true
  fpoint {
    exp: 2
    mant: 5
    rounding: "stochastic"
  }
}
layer {
  name: "ip3"
  type: "InnerProduct"
  bottom: "ip2"
  top: "ip3"
  inner_product_param {
    num_output: 10
    weight_filler {
      type: "gaussian"
      mean: 0
      std: 0.1
    }
  }
  bias_param {
    filler {
      value: 0
    }
  }
  floating_point: true
  fpoint {
    exp: 2
    mant: 5
    rounding: "stochastic"
  }
}
layer {
  name: "accuracy"
  type: "Accuracy"
  bottom: "ip3"
  bottom: "label"
  top: "accuracy"
}
layer {
  name: "loss"
  type: "SoftmaxWithLoss"
  bottom: "ip3"
  bottom: "label"
  top: "loss"
  floating_point: true
  fpoint {
    exp: 2
    mant: 5
    rounding: "stochastic"
  }
}
I0503 15:18:59.786394  2286 layer_factory.hpp:77] Creating layer mnist
I0503 15:18:59.809790  2286 db_lmdb.cpp:35] Opened lmdb data/mnist_train_lmdb
I0503 15:18:59.810206  2286 net.cpp:84] Creating Layer mnist
I0503 15:18:59.810259  2286 net.cpp:380] mnist -> data
I0503 15:18:59.810345  2286 net.cpp:380] mnist -> label
I0503 15:18:59.810501  2286 data_layer.cpp:45] output data size: 100,1,28,28
I0503 15:18:59.812289  2286 net.cpp:122] Setting up mnist
I0503 15:18:59.812348  2286 net.cpp:129] Top shape: 100 1 28 28 (78400)
I0503 15:18:59.812368  2286 net.cpp:129] Top shape: 100 (100)
I0503 15:18:59.812378  2286 net.cpp:137] Memory required for data: 628000
I0503 15:18:59.812397  2286 layer_factory.hpp:77] Creating layer label_mnist_1_split
I0503 15:18:59.812430  2286 net.cpp:84] Creating Layer label_mnist_1_split
I0503 15:18:59.812448  2286 net.cpp:406] label_mnist_1_split <- label
I0503 15:18:59.812469  2286 net.cpp:380] label_mnist_1_split -> label_mnist_1_split_0
I0503 15:18:59.812489  2286 net.cpp:380] label_mnist_1_split -> label_mnist_1_split_1
I0503 15:18:59.812507  2286 net.cpp:122] Setting up label_mnist_1_split
I0503 15:18:59.812523  2286 net.cpp:129] Top shape: 100 (100)
I0503 15:18:59.812536  2286 net.cpp:129] Top shape: 100 (100)
I0503 15:18:59.812546  2286 net.cpp:137] Memory required for data: 629600
I0503 15:18:59.812556  2286 layer_factory.hpp:77] Creating layer ip1
I0503 15:18:59.812602  2286 net.cpp:84] Creating Layer ip1
I0503 15:18:59.812621  2286 net.cpp:406] ip1 <- data
I0503 15:18:59.812638  2286 net.cpp:380] ip1 -> ip1
I0503 15:18:59.836326  2286 net.cpp:122] Setting up ip1
I0503 15:18:59.836380  2286 net.cpp:129] Top shape: 100 1000 (100000)
I0503 15:18:59.836390  2286 net.cpp:137] Memory required for data: 1429600
I0503 15:18:59.836431  2286 layer_factory.hpp:77] Creating layer relu1
I0503 15:18:59.836480  2286 net.cpp:84] Creating Layer relu1
I0503 15:18:59.836496  2286 net.cpp:406] relu1 <- ip1
I0503 15:18:59.836513  2286 net.cpp:367] relu1 -> ip1 (in-place)
I0503 15:18:59.836534  2286 net.cpp:122] Setting up relu1
I0503 15:18:59.836547  2286 net.cpp:129] Top shape: 100 1000 (100000)
I0503 15:18:59.836557  2286 net.cpp:137] Memory required for data: 2229600
I0503 15:18:59.836568  2286 layer_factory.hpp:77] Creating layer ip2
I0503 15:18:59.836592  2286 net.cpp:84] Creating Layer ip2
I0503 15:18:59.836606  2286 net.cpp:406] ip2 <- ip1
I0503 15:18:59.836622  2286 net.cpp:380] ip2 -> ip2
I0503 15:18:59.862315  2286 net.cpp:122] Setting up ip2
I0503 15:18:59.862378  2286 net.cpp:129] Top shape: 100 1000 (100000)
I0503 15:18:59.862390  2286 net.cpp:137] Memory required for data: 3029600
I0503 15:18:59.862412  2286 layer_factory.hpp:77] Creating layer relu2
I0503 15:18:59.862437  2286 net.cpp:84] Creating Layer relu2
I0503 15:18:59.862449  2286 net.cpp:406] relu2 <- ip2
I0503 15:18:59.862465  2286 net.cpp:367] relu2 -> ip2 (in-place)
I0503 15:18:59.862486  2286 net.cpp:122] Setting up relu2
I0503 15:18:59.862500  2286 net.cpp:129] Top shape: 100 1000 (100000)
I0503 15:18:59.862545  2286 net.cpp:137] Memory required for data: 3829600
I0503 15:18:59.862556  2286 layer_factory.hpp:77] Creating layer ip3
I0503 15:18:59.862574  2286 net.cpp:84] Creating Layer ip3
I0503 15:18:59.862586  2286 net.cpp:406] ip3 <- ip2
I0503 15:18:59.862608  2286 net.cpp:380] ip3 -> ip3
I0503 15:18:59.862895  2286 net.cpp:122] Setting up ip3
I0503 15:18:59.862917  2286 net.cpp:129] Top shape: 100 10 (1000)
I0503 15:18:59.862928  2286 net.cpp:137] Memory required for data: 3837600
I0503 15:18:59.862946  2286 layer_factory.hpp:77] Creating layer ip3_ip3_0_split
I0503 15:18:59.862962  2286 net.cpp:84] Creating Layer ip3_ip3_0_split
I0503 15:18:59.862973  2286 net.cpp:406] ip3_ip3_0_split <- ip3
I0503 15:18:59.862987  2286 net.cpp:380] ip3_ip3_0_split -> ip3_ip3_0_split_0
I0503 15:18:59.863003  2286 net.cpp:380] ip3_ip3_0_split -> ip3_ip3_0_split_1
I0503 15:18:59.863021  2286 net.cpp:122] Setting up ip3_ip3_0_split
I0503 15:18:59.863034  2286 net.cpp:129] Top shape: 100 10 (1000)
I0503 15:18:59.863047  2286 net.cpp:129] Top shape: 100 10 (1000)
I0503 15:18:59.863057  2286 net.cpp:137] Memory required for data: 3853600
I0503 15:18:59.863067  2286 layer_factory.hpp:77] Creating layer accuracy
I0503 15:18:59.863117  2286 net.cpp:84] Creating Layer accuracy
I0503 15:18:59.863134  2286 net.cpp:406] accuracy <- ip3_ip3_0_split_0
I0503 15:18:59.863147  2286 net.cpp:406] accuracy <- label_mnist_1_split_0
I0503 15:18:59.863160  2286 net.cpp:380] accuracy -> accuracy
…
