…
  layer {
    name: "mnist"
    type: "Data"
    top: "data"
    top: "label"
    include {
      phase: TRAIN
    }
    transform_param {
      scale: 0.00390625
    }
    data_param {
      source: "data/mnist_train_lmdb"
      batch_size: 100
      backend: LMDB
    }
  }
  layer {
    name: "mnist"
    type: "Data"
    top: "data"
    top: "label"
    include {
      phase: TEST
    }
    transform_param {
      scale: 0.00390625
    }
    data_param {
      source: "data/mnist_test_lmdb"
      batch_size: 100
      backend: LMDB
    }
  }
  layer {
    name: "ip1"
    type: "InnerProduct"
    bottom: "data"
    top: "ip1"
    inner_product_param {
      num_output: 1000
      weight_filler {
        type: "gaussian"
        mean: 0
        std: 0.1
      }
    }
    bias_param {
      filler {
        value: 0
      }
    }
    floating_point: true
    fpoint {
      exp: 2
      mant: 5
      rounding: "stochastic"
    }
  }
  layer {
    name: "relu1"
    type: "ReLU"
    bottom: "ip1"
    top: "ip1"
    floating_point: true
    fpoint {
      exp: 2
      mant: 5
      rounding: "stochastic"
    }
  }
  layer {
    name: "ip2"
    type: "InnerProduct"
    bottom: "ip1"
    top: "ip2"
    inner_product_param {
      num_output: 1000
      weight_filler {
        type: "gaussian"
        mean: 0
        std: 0.1
      }
    }
    bias_param {
      filler {
        value: 0
      }
    }
    floating_point: true
    fpoint {
      exp: 2
      mant: 5
      rounding: "stochastic"
    }
  }
  layer {
    name: "relu2"
    type: "ReLU"
    bottom: "ip2"
    top: "ip2"
    bias_param {
      filler {
        value: 0
      }
    }
    floating_point: true
    fpoint {
      exp: 2
      mant: 5
      rounding: "stochastic"
    }
  }
  layer {
    name: "ip3"
    type: "InnerProduct"
    bottom: "ip2"
    top: "ip3"
    inner_product_param {
      num_output: 10
      weight_filler {
        type: "gaussian"
        mean: 0
        std: 0.1
      }
    }
    bias_param {
      filler {
        value: 0
      }
    }
    floating_point: true
    fpoint {
      exp: 2
      mant: 5
      rounding: "stochastic"
    }
  }
  layer {
    name: "accuracy"
    type: "Accuracy"
    bottom: "ip3"
    bottom: "label"
    top: "accuracy"
  }
  layer {
    name: "loss"
    type: "SoftmaxWithLoss"
    bottom: "ip3"
    bottom: "label"
    top: "loss"
    floating_point: true
    fpoint {
      exp: 2
      mant: 5
      rounding: "stochastic"
    }
  }
}
train_state {
  level: 0
  stage: ""
}
floating_point: true
fpoint {
  exp: 2
  mant: 5
  rounding: "stochastic"
}
I0503 14:31:12.385334  4253 solver.cpp:82] Creating training net specified in net_param.
I0503 14:31:12.385413  4253 net.cpp:294] The NetState phase (0) differed from the phase (1) specified by a rule in layer mnist
I0503 14:31:12.385545  4253 net.cpp:51] Initializing net from parameters: 
name: "LeNet"
state {
  phase: TRAIN
  level: 0
  stage: ""
}
layer {
  name: "mnist"
  type: "Data"
  top: "data"
  top: "label"
  include {
    phase: TRAIN
  }
  transform_param {
    scale: 0.00390625
  }
  data_param {
    source: "data/mnist_train_lmdb"
    batch_size: 100
    backend: LMDB
  }
}
layer {
  name: "ip1"
  type: "InnerProduct"
  bottom: "data"
  top: "ip1"
  inner_product_param {
    num_output: 1000
    weight_filler {
      type: "gaussian"
      mean: 0
      std: 0.1
    }
  }
  bias_param {
    filler {
      value: 0
    }
  }
  floating_point: true
  fpoint {
    exp: 2
    mant: 5
    rounding: "stochastic"
  }
}
layer {
  name: "relu1"
  type: "ReLU"
  bottom: "ip1"
  top: "ip1"
  floating_point: true
  fpoint {
    exp: 2
    mant: 5
    rounding: "stochastic"
  }
}
layer {
  name: "ip2"
  type: "InnerProduct"
  bottom: "ip1"
  top: "ip2"
  inner_product_param {
    num_output: 1000
    weight_filler {
      type: "gaussian"
      mean: 0
      std: 0.1
    }
  }
  bias_param {
    filler {
      value: 0
    }
  }
  floating_point: true
  fpoint {
    exp: 2
    mant: 5
    rounding: "stochastic"
  }
}
layer {
  name: "relu2"
  type: "ReLU"
  bottom: "ip2"
  top: "ip2"
  bias_param {
    filler {
      value: 0
    }
  }
  floating_point: true
  fpoint {
    exp: 2
    mant: 5
    rounding: "stochastic"
  }
}
layer {
  name: "ip3"
  type: "InnerProduct"
  bottom: "ip2"
  top: "ip3"
  inner_product_param {
    num_output: 10
    weight_filler {
      type: "gaussian"
      mean: 0
      std: 0.1
    }
  }
  bias_param {
    filler {
      value: 0
    }
  }
  floating_point: true
  fpoint {
    exp: 2
    mant: 5
    rounding: "stochastic"
  }
}
layer {
  name: "accuracy"
  type: "Accuracy"
  bottom: "ip3"
  bottom: "label"
  top: "accuracy"
}
layer {
  name: "loss"
  type: "SoftmaxWithLoss"
  bottom: "ip3"
  bottom: "label"
  top: "loss"
  floating_point: true
  fpoint {
    exp: 2
    mant: 5
    rounding: "stochastic"
  }
}
I0503 14:31:12.386587  4253 layer_factory.hpp:77] Creating layer mnist
I0503 14:31:12.401582  4253 db_lmdb.cpp:35] Opened lmdb data/mnist_train_lmdb
I0503 14:31:12.401932  4253 net.cpp:84] Creating Layer mnist
I0503 14:31:12.401971  4253 net.cpp:380] mnist -> data
I0503 14:31:12.402026  4253 net.cpp:380] mnist -> label
I0503 14:31:12.402101  4253 data_layer.cpp:45] output data size: 100,1,28,28
I0503 14:31:12.403841  4253 net.cpp:122] Setting up mnist
I0503 14:31:12.403878  4253 net.cpp:129] Top shape: 100 1 28 28 (78400)
I0503 14:31:12.403893  4253 net.cpp:129] Top shape: 100 (100)
I0503 14:31:12.403904  4253 net.cpp:137] Memory required for data: 628000
I0503 14:31:12.403923  4253 layer_factory.hpp:77] Creating layer label_mnist_1_split
I0503 14:31:12.403945  4253 net.cpp:84] Creating Layer label_mnist_1_split
I0503 14:31:12.403959  4253 net.cpp:406] label_mnist_1_split <- label
I0503 14:31:12.403982  4253 net.cpp:380] label_mnist_1_split -> label_mnist_1_split_0
I0503 14:31:12.404002  4253 net.cpp:380] label_mnist_1_split -> label_mnist_1_split_1
I0503 14:31:12.404021  4253 net.cpp:122] Setting up label_mnist_1_split
I0503 14:31:12.404036  4253 net.cpp:129] Top shape: 100 (100)
I0503 14:31:12.404049  4253 net.cpp:129] Top shape: 100 (100)
I0503 14:31:12.404059  4253 net.cpp:137] Memory required for data: 629600
I0503 14:31:12.404070  4253 layer_factory.hpp:77] Creating layer ip1
I0503 14:31:12.404094  4253 net.cpp:84] Creating Layer ip1
I0503 14:31:12.404108  4253 net.cpp:406] ip1 <- data
I0503 14:31:12.404122  4253 net.cpp:380] ip1 -> ip1
I0503 14:31:12.444427  4253 net.cpp:122] Setting up ip1
I0503 14:31:12.444504  4253 net.cpp:129] Top shape: 100 1000 (100000)
I0503 14:31:12.444516  4253 net.cpp:137] Memory required for data: 1429600
I0503 14:31:12.444546  4253 layer_factory.hpp:77] Creating layer relu1
I0503 14:31:12.444576  4253 net.cpp:84] Creating Layer relu1
I0503 14:31:12.444591  4253 net.cpp:406] relu1 <- ip1
I0503 14:31:12.444607  4253 net.cpp:367] relu1 -> ip1 (in-place)
I0503 14:31:12.444627  4253 net.cpp:122] Setting up relu1
I0503 14:31:12.444640  4253 net.cpp:129] Top shape: 100 1000 (100000)
I0503 14:31:12.444650  4253 net.cpp:137] Memory required for data: 2229600
I0503 14:31:12.444661  4253 layer_factory.hpp:77] Creating layer ip2
I0503 14:31:12.444681  4253 net.cpp:84] Creating Layer ip2
I0503 14:31:12.444694  4253 net.cpp:406] ip2 <- ip1
I0503 14:31:12.444710  4253 net.cpp:380] ip2 -> ip2
I0503 14:31:12.492102  4253 net.cpp:122] Setting up ip2
I0503 14:31:12.492182  4253 net.cpp:129] Top shape: 100 1000 (100000)
I0503 14:31:12.492194  4253 net.cpp:137] Memory required for data: 3029600
I0503 14:31:12.492218  4253 layer_factory.hpp:77] Creating layer relu2
I0503 14:31:12.492244  4253 net.cpp:84] Creating Layer relu2
I0503 14:31:12.492256  4253 net.cpp:406] relu2 <- ip2
I0503 14:31:12.492274  4253 net.cpp:367] relu2 -> ip2 (in-place)
I0503 14:31:12.492295  4253 net.cpp:122] Setting up relu2
I0503 14:31:12.492310  4253 net.cpp:129] Top shape: 100 1000 (100000)
I0503 14:31:12.492367  4253 net.cpp:137] Memory required for data: 3829600
I0503 14:31:12.492380  4253 layer_factory.hpp:77] Creating layer ip3
I0503 14:31:12.492398  4253 net.cpp:84] Creating Layer ip3
I0503 14:31:12.492410  4253 net.cpp:406] ip3 <- ip2
I0503 14:31:12.492426  4253 net.cpp:380] ip3 -> ip3
I0503 14:31:12.492715  4253 net.cpp:122] Setting up ip3
I0503 14:31:12.492738  4253 net.cpp:129] Top shape: 100 10 (1000)
I0503 14:31:12.492749  4253 net.cpp:137] Memory required for data: 3837600
I0503 14:31:12.492766  4253 layer_factory.hpp:77] Creating layer ip3_ip3_0_split
I0503 14:31:12.492784  4253 net.cpp:84] Creating Layer ip3_ip3_0_split
I0503 14:31:12.492794  4253 net.cpp:406] ip3_ip3_0_split <- ip3
I0503 14:31:12.492810  4253 net.cpp:380] ip3_ip3_0_split -> ip3_ip3_0_split_0
I0503 14:31:12.492825  4253 net.cpp:380] ip3_ip3_0_split -> ip3_ip3_0_split_1
I0503 14:31:12.492844  4253 net.cpp:122] Setting up ip3_ip3_0_split
I0503 14:31:12.492858  4253 net.cpp:129] Top shape: 100 10 (1000)
I0503 14:31:12.492871  4253 net.cpp:129] Top shape: 100 10 (1000)
I0503 14:31:12.492882  4253 net.cpp:137] Memory required for data: 3853600
I0503 14:31:12.492892  4253 layer_factory.hpp:77] Creating layer accuracy
I0503 14:31:12.492918  4253 net.cpp:84] Creating Layer accuracy
I0503 14:31:12.492933  4253 net.cpp:406] accuracy <- ip3_ip3_0_split_0
I0503 14:31:12.492945  4253 net.cpp:406] accuracy <- label_mnist_1_split_0
I0503 14:31:12.492959  4253 net.cpp:380] accuracy -> accuracy
…
