…
  layer {
    name: "mnist"
    type: "Data"
    top: "data"
    top: "label"
    include {
      phase: TRAIN
    }
    transform_param {
      scale: 0.00390625
    }
    data_param {
      source: "data/mnist_train_lmdb"
      batch_size: 100
      backend: LMDB
    }
  }
  layer {
    name: "mnist"
    type: "Data"
    top: "data"
    top: "label"
    include {
      phase: TEST
    }
    transform_param {
      scale: 0.00390625
    }
    data_param {
      source: "data/mnist_test_lmdb"
      batch_size: 100
      backend: LMDB
    }
  }
  layer {
    name: "ip1"
    type: "InnerProduct"
    bottom: "data"
    top: "ip1"
    inner_product_param {
      num_output: 1000
      weight_filler {
        type: "gaussian"
        mean: 0
        std: 0.1
      }
    }
    bias_param {
      filler {
        value: 0
      }
    }
    floating_point: true
    fpoint {
      exp: 2
      mant: 5
      rounding: "stochastic"
    }
  }
  layer {
    name: "relu1"
    type: "ReLU"
    bottom: "ip1"
    top: "ip1"
    floating_point: true
    fpoint {
      exp: 2
      mant: 5
      rounding: "stochastic"
    }
  }
  layer {
    name: "ip2"
    type: "InnerProduct"
    bottom: "ip1"
    top: "ip2"
    inner_product_param {
      num_output: 1000
      weight_filler {
        type: "gaussian"
        mean: 0
        std: 0.1
      }
    }
    bias_param {
      filler {
        value: 0
      }
    }
    floating_point: true
    fpoint {
      exp: 2
      mant: 5
      rounding: "stochastic"
    }
  }
  layer {
    name: "relu2"
    type: "ReLU"
    bottom: "ip2"
    top: "ip2"
    bias_param {
      filler {
        value: 0
      }
    }
    floating_point: true
    fpoint {
      exp: 2
      mant: 5
      rounding: "stochastic"
    }
  }
  layer {
    name: "ip3"
    type: "InnerProduct"
    bottom: "ip2"
    top: "ip3"
    inner_product_param {
      num_output: 10
      weight_filler {
        type: "gaussian"
        mean: 0
        std: 0.1
      }
    }
    bias_param {
      filler {
        value: 0
      }
    }
    floating_point: true
    fpoint {
      exp: 2
      mant: 5
      rounding: "stochastic"
    }
  }
  layer {
    name: "accuracy"
    type: "Accuracy"
    bottom: "ip3"
    bottom: "label"
    top: "accuracy"
  }
  layer {
    name: "loss"
    type: "SoftmaxWithLoss"
    bottom: "ip3"
    bottom: "label"
    top: "loss"
    floating_point: true
    fpoint {
      exp: 2
      mant: 5
      rounding: "stochastic"
    }
  }
}
train_state {
  level: 0
  stage: ""
}
floating_point: true
fpoint {
  exp: 2
  mant: 5
  rounding: "stochastic"
}
I0503 21:28:47.026268 21106 solver.cpp:82] Creating training net specified in net_param.
I0503 21:28:47.026351 21106 net.cpp:294] The NetState phase (0) differed from the phase (1) specified by a rule in layer mnist
I0503 21:28:47.026489 21106 net.cpp:51] Initializing net from parameters: 
name: "LeNet"
state {
  phase: TRAIN
  level: 0
  stage: ""
}
layer {
  name: "mnist"
  type: "Data"
  top: "data"
  top: "label"
  include {
    phase: TRAIN
  }
  transform_param {
    scale: 0.00390625
  }
  data_param {
    source: "data/mnist_train_lmdb"
    batch_size: 100
    backend: LMDB
  }
}
layer {
  name: "ip1"
  type: "InnerProduct"
  bottom: "data"
  top: "ip1"
  inner_product_param {
    num_output: 1000
    weight_filler {
      type: "gaussian"
      mean: 0
      std: 0.1
    }
  }
  bias_param {
    filler {
      value: 0
    }
  }
  floating_point: true
  fpoint {
    exp: 2
    mant: 5
    rounding: "stochastic"
  }
}
layer {
  name: "relu1"
  type: "ReLU"
  bottom: "ip1"
  top: "ip1"
  floating_point: true
  fpoint {
    exp: 2
    mant: 5
    rounding: "stochastic"
  }
}
layer {
  name: "ip2"
  type: "InnerProduct"
  bottom: "ip1"
  top: "ip2"
  inner_product_param {
    num_output: 1000
    weight_filler {
      type: "gaussian"
      mean: 0
      std: 0.1
    }
  }
  bias_param {
    filler {
      value: 0
    }
  }
  floating_point: true
  fpoint {
    exp: 2
    mant: 5
    rounding: "stochastic"
  }
}
layer {
  name: "relu2"
  type: "ReLU"
  bottom: "ip2"
  top: "ip2"
  bias_param {
    filler {
      value: 0
    }
  }
  floating_point: true
  fpoint {
    exp: 2
    mant: 5
    rounding: "stochastic"
  }
}
layer {
  name: "ip3"
  type: "InnerProduct"
  bottom: "ip2"
  top: "ip3"
  inner_product_param {
    num_output: 10
    weight_filler {
      type: "gaussian"
      mean: 0
      std: 0.1
    }
  }
  bias_param {
    filler {
      value: 0
    }
  }
  floating_point: true
  fpoint {
    exp: 2
    mant: 5
    rounding: "stochastic"
  }
}
layer {
  name: "accuracy"
  type: "Accuracy"
  bottom: "ip3"
  bottom: "label"
  top: "accuracy"
}
layer {
  name: "loss"
  type: "SoftmaxWithLoss"
  bottom: "ip3"
  bottom: "label"
  top: "loss"
  floating_point: true
  fpoint {
    exp: 2
    mant: 5
    rounding: "stochastic"
  }
}
I0503 21:28:47.027616 21106 layer_factory.hpp:77] Creating layer mnist
I0503 21:28:47.124243 21106 db_lmdb.cpp:35] Opened lmdb data/mnist_train_lmdb
I0503 21:28:47.124651 21106 net.cpp:84] Creating Layer mnist
I0503 21:28:47.124691 21106 net.cpp:380] mnist -> data
I0503 21:28:47.124747 21106 net.cpp:380] mnist -> label
I0503 21:28:47.124819 21106 data_layer.cpp:45] output data size: 100,1,28,28
I0503 21:28:47.126547 21106 net.cpp:122] Setting up mnist
I0503 21:28:47.126587 21106 net.cpp:129] Top shape: 100 1 28 28 (78400)
I0503 21:28:47.126602 21106 net.cpp:129] Top shape: 100 (100)
I0503 21:28:47.126613 21106 net.cpp:137] Memory required for data: 628000
I0503 21:28:47.126636 21106 layer_factory.hpp:77] Creating layer label_mnist_1_split
I0503 21:28:47.126689 21106 net.cpp:84] Creating Layer label_mnist_1_split
I0503 21:28:47.126709 21106 net.cpp:406] label_mnist_1_split <- label
I0503 21:28:47.126732 21106 net.cpp:380] label_mnist_1_split -> label_mnist_1_split_0
I0503 21:28:47.126751 21106 net.cpp:380] label_mnist_1_split -> label_mnist_1_split_1
I0503 21:28:47.126770 21106 net.cpp:122] Setting up label_mnist_1_split
I0503 21:28:47.126785 21106 net.cpp:129] Top shape: 100 (100)
I0503 21:28:47.126797 21106 net.cpp:129] Top shape: 100 (100)
I0503 21:28:47.126807 21106 net.cpp:137] Memory required for data: 629600
I0503 21:28:47.126817 21106 layer_factory.hpp:77] Creating layer ip1
I0503 21:28:47.126840 21106 net.cpp:84] Creating Layer ip1
I0503 21:28:47.126853 21106 net.cpp:406] ip1 <- data
I0503 21:28:47.126868 21106 net.cpp:380] ip1 -> ip1
I0503 21:28:47.150324 21106 net.cpp:122] Setting up ip1
I0503 21:28:47.150390 21106 net.cpp:129] Top shape: 100 1000 (100000)
I0503 21:28:47.150403 21106 net.cpp:137] Memory required for data: 1429600
I0503 21:28:47.150432 21106 layer_factory.hpp:77] Creating layer relu1
I0503 21:28:47.150460 21106 net.cpp:84] Creating Layer relu1
I0503 21:28:47.150473 21106 net.cpp:406] relu1 <- ip1
I0503 21:28:47.150490 21106 net.cpp:367] relu1 -> ip1 (in-place)
I0503 21:28:47.150509 21106 net.cpp:122] Setting up relu1
I0503 21:28:47.150522 21106 net.cpp:129] Top shape: 100 1000 (100000)
I0503 21:28:47.150532 21106 net.cpp:137] Memory required for data: 2229600
I0503 21:28:47.150542 21106 layer_factory.hpp:77] Creating layer ip2
I0503 21:28:47.150562 21106 net.cpp:84] Creating Layer ip2
I0503 21:28:47.150573 21106 net.cpp:406] ip2 <- ip1
I0503 21:28:47.150588 21106 net.cpp:380] ip2 -> ip2
I0503 21:28:47.175662 21106 net.cpp:122] Setting up ip2
I0503 21:28:47.175740 21106 net.cpp:129] Top shape: 100 1000 (100000)
I0503 21:28:47.175750 21106 net.cpp:137] Memory required for data: 3029600
I0503 21:28:47.175775 21106 layer_factory.hpp:77] Creating layer relu2
I0503 21:28:47.175798 21106 net.cpp:84] Creating Layer relu2
I0503 21:28:47.175810 21106 net.cpp:406] relu2 <- ip2
I0503 21:28:47.175827 21106 net.cpp:367] relu2 -> ip2 (in-place)
I0503 21:28:47.175848 21106 net.cpp:122] Setting up relu2
I0503 21:28:47.175860 21106 net.cpp:129] Top shape: 100 1000 (100000)
I0503 21:28:47.175910 21106 net.cpp:137] Memory required for data: 3829600
I0503 21:28:47.175922 21106 layer_factory.hpp:77] Creating layer ip3
I0503 21:28:47.175940 21106 net.cpp:84] Creating Layer ip3
I0503 21:28:47.175951 21106 net.cpp:406] ip3 <- ip2
I0503 21:28:47.175966 21106 net.cpp:380] ip3 -> ip3
I0503 21:28:47.176254 21106 net.cpp:122] Setting up ip3
I0503 21:28:47.176275 21106 net.cpp:129] Top shape: 100 10 (1000)
I0503 21:28:47.176286 21106 net.cpp:137] Memory required for data: 3837600
I0503 21:28:47.176303 21106 layer_factory.hpp:77] Creating layer ip3_ip3_0_split
I0503 21:28:47.176319 21106 net.cpp:84] Creating Layer ip3_ip3_0_split
I0503 21:28:47.176329 21106 net.cpp:406] ip3_ip3_0_split <- ip3
I0503 21:28:47.176343 21106 net.cpp:380] ip3_ip3_0_split -> ip3_ip3_0_split_0
I0503 21:28:47.176359 21106 net.cpp:380] ip3_ip3_0_split -> ip3_ip3_0_split_1
I0503 21:28:47.176378 21106 net.cpp:122] Setting up ip3_ip3_0_split
I0503 21:28:47.176391 21106 net.cpp:129] Top shape: 100 10 (1000)
I0503 21:28:47.176404 21106 net.cpp:129] Top shape: 100 10 (1000)
I0503 21:28:47.176414 21106 net.cpp:137] Memory required for data: 3853600
I0503 21:28:47.176424 21106 layer_factory.hpp:77] Creating layer accuracy
I0503 21:28:47.176486 21106 net.cpp:84] Creating Layer accuracy
I0503 21:28:47.176501 21106 net.cpp:406] accuracy <- ip3_ip3_0_split_0
I0503 21:28:47.176513 21106 net.cpp:406] accuracy <- label_mnist_1_split_0
I0503 21:28:47.176527 21106 net.cpp:380] accuracy -> accuracy
…
