…
I0331 12:39:52.423660 15997 solver.cpp:87] Creating training net from net file: NET.prototxt
I0331 12:39:52.424191 15997 net.cpp:294] The NetState phase (0) differed from the phase (1) specified by a rule in layer mnist
I0331 12:39:52.424409 15997 net.cpp:51] Initializing net from parameters: 
name: "LeNet"
state {
  phase: TRAIN
  level: 0
  stage: ""
}
layer {
  name: "mnist"
  type: "Data"
  top: "data"
  top: "label"
  include {
    phase: TRAIN
  }
  transform_param {
    scale: 0.00390625
  }
  data_param {
    source: "data/mnist_train_lmdb"
    batch_size: 100
    backend: LMDB
  }
}
layer {
  name: "ip1"
  type: "InnerProduct"
  bottom: "data"
  top: "ip1"
  param {
    lr_mult: 1
  }
  param {
    lr_mult: 2
  }
  inner_product_param {
    num_output: 1000
    weight_filler {
      type: "gaussian"
      mean: 0
      std: 0.01
    }
  }
  bias_param {
    filler {
      value: 0
    }
  }
  fixed_precision: false
  precision {
    enter: 2
    fraccio: 10
    rounding: "stochastic"
  }
}
layer {
  name: "relu1"
  type: "ReLU"
  bottom: "ip1"
  top: "ip1"
  fixed_precision: false
  precision {
    enter: 2
    fraccio: 10
    rounding: "stochastic"
  }
}
layer {
  name: "ip2"
  type: "InnerProduct"
  bottom: "ip1"
  top: "ip2"
  param {
    lr_mult: 1
  }
  param {
    lr_mult: 2
  }
  inner_product_param {
    num_output: 1000
    weight_filler {
      type: "gaussian"
      mean: 0
      std: 0.01
    }
  }
  bias_param {
    filler {
      value: 0
    }
  }
  fixed_precision: false
  precision {
    enter: 2
    fraccio: 10
    rounding: "stochastic"
  }
}
layer {
  name: "relu2"
  type: "ReLU"
  bottom: "ip2"
  top: "ip2"
  bias_param {
    filler {
      value: 0
    }
  }
  fixed_precision: false
  precision {
    enter: 2
    fraccio: 10
    rounding: "stochastic"
  }
}
layer {
  name: "ip3"
  type: "InnerProduct"
  bottom: "ip2"
  top: "ip3"
  param {
    lr_mult: 1
  }
  param {
    lr_mult: 2
  }
  inner_product_param {
    num_output: 10
    weight_filler {
      type: "gaussian"
      mean: 0
      std: 0.01
    }
  }
  bias_param {
    filler {
      value: 0
    }
  }
  fixed_precision: false
  precision {
    enter: 2
    fraccio: 10
    rounding: "stochastic"
  }
}
layer {
  name: "accuracy"
  type: "Accuracy"
  bottom: "ip3"
  bottom: "label"
  top: "accuracy"
}
layer {
  name: "loss"
  type: "SoftmaxWithLoss"
  bottom: "ip3"
  bottom: "label"
  top: "loss"
  fixed_precision: false
  precision {
    enter: 2
    fraccio: 10
    rounding: "stochastic"
  }
}
I0331 12:39:52.424533 15997 layer_factory.hpp:77] Creating layer mnist
I0331 12:39:52.424654 15997 db_lmdb.cpp:35] Opened lmdb data/mnist_train_lmdb
I0331 12:39:52.424688 15997 net.cpp:84] Creating Layer mnist
I0331 12:39:52.424702 15997 net.cpp:380] mnist -> data
I0331 12:39:52.424731 15997 net.cpp:380] mnist -> label
I0331 12:39:52.424768 15997 data_layer.cpp:45] output data size: 100,1,28,28
I0331 12:39:52.426674 15997 net.cpp:122] Setting up mnist
I0331 12:39:52.426704 15997 net.cpp:129] Top shape: 100 1 28 28 (78400)
I0331 12:39:52.426715 15997 net.cpp:129] Top shape: 100 (100)
I0331 12:39:52.426723 15997 net.cpp:137] Memory required for data: 628000
I0331 12:39:52.426735 15997 layer_factory.hpp:77] Creating layer label_mnist_1_split
I0331 12:39:52.426753 15997 net.cpp:84] Creating Layer label_mnist_1_split
I0331 12:39:52.426764 15997 net.cpp:406] label_mnist_1_split <- label
I0331 12:39:52.426779 15997 net.cpp:380] label_mnist_1_split -> label_mnist_1_split_0
I0331 12:39:52.426793 15997 net.cpp:380] label_mnist_1_split -> label_mnist_1_split_1
I0331 12:39:52.426807 15997 net.cpp:122] Setting up label_mnist_1_split
I0331 12:39:52.426826 15997 net.cpp:129] Top shape: 100 (100)
I0331 12:39:52.426847 15997 net.cpp:129] Top shape: 100 (100)
I0331 12:39:52.426856 15997 net.cpp:137] Memory required for data: 629600
I0331 12:39:52.426863 15997 layer_factory.hpp:77] Creating layer ip1
I0331 12:39:52.426882 15997 net.cpp:84] Creating Layer ip1
I0331 12:39:52.426890 15997 net.cpp:406] ip1 <- data
I0331 12:39:52.426901 15997 net.cpp:380] ip1 -> ip1
I0331 12:39:52.515486 15997 net.cpp:122] Setting up ip1
I0331 12:39:52.515525 15997 net.cpp:129] Top shape: 100 1000 (100000)
I0331 12:39:52.515534 15997 net.cpp:137] Memory required for data: 1429600
I0331 12:39:52.515558 15997 layer_factory.hpp:77] Creating layer relu1
I0331 12:39:52.515573 15997 net.cpp:84] Creating Layer relu1
I0331 12:39:52.515581 15997 net.cpp:406] relu1 <- ip1
I0331 12:39:52.515591 15997 net.cpp:367] relu1 -> ip1 (in-place)
I0331 12:39:52.515611 15997 net.cpp:122] Setting up relu1
I0331 12:39:52.515620 15997 net.cpp:129] Top shape: 100 1000 (100000)
I0331 12:39:52.515627 15997 net.cpp:137] Memory required for data: 2229600
I0331 12:39:52.515635 15997 layer_factory.hpp:77] Creating layer ip2
I0331 12:39:52.515648 15997 net.cpp:84] Creating Layer ip2
I0331 12:39:52.515655 15997 net.cpp:406] ip2 <- ip1
I0331 12:39:52.515666 15997 net.cpp:380] ip2 -> ip2
I0331 12:39:52.585407 15997 net.cpp:122] Setting up ip2
I0331 12:39:52.585436 15997 net.cpp:129] Top shape: 100 1000 (100000)
I0331 12:39:52.585444 15997 net.cpp:137] Memory required for data: 3029600
I0331 12:39:52.585461 15997 layer_factory.hpp:77] Creating layer relu2
I0331 12:39:52.585480 15997 net.cpp:84] Creating Layer relu2
I0331 12:39:52.585491 15997 net.cpp:406] relu2 <- ip2
I0331 12:39:52.585503 15997 net.cpp:367] relu2 -> ip2 (in-place)
I0331 12:39:52.585520 15997 net.cpp:122] Setting up relu2
I0331 12:39:52.585530 15997 net.cpp:129] Top shape: 100 1000 (100000)
I0331 12:39:52.585536 15997 net.cpp:137] Memory required for data: 3829600
I0331 12:39:52.585546 15997 layer_factory.hpp:77] Creating layer ip3
I0331 12:39:52.585558 15997 net.cpp:84] Creating Layer ip3
I0331 12:39:52.585566 15997 net.cpp:406] ip3 <- ip2
I0331 12:39:52.585575 15997 net.cpp:380] ip3 -> ip3
I0331 12:39:52.586505 15997 net.cpp:122] Setting up ip3
I0331 12:39:52.586519 15997 net.cpp:129] Top shape: 100 10 (1000)
I0331 12:39:52.586525 15997 net.cpp:137] Memory required for data: 3837600
I0331 12:39:52.586539 15997 layer_factory.hpp:77] Creating layer ip3_ip3_0_split
I0331 12:39:52.586550 15997 net.cpp:84] Creating Layer ip3_ip3_0_split
I0331 12:39:52.586558 15997 net.cpp:406] ip3_ip3_0_split <- ip3
I0331 12:39:52.586568 15997 net.cpp:380] ip3_ip3_0_split -> ip3_ip3_0_split_0
I0331 12:39:52.586586 15997 net.cpp:380] ip3_ip3_0_split -> ip3_ip3_0_split_1
I0331 12:39:52.586604 15997 net.cpp:122] Setting up ip3_ip3_0_split
I0331 12:39:52.586613 15997 net.cpp:129] Top shape: 100 10 (1000)
I0331 12:39:52.586622 15997 net.cpp:129] Top shape: 100 10 (1000)
I0331 12:39:52.586630 15997 net.cpp:137] Memory required for data: 3853600
I0331 12:39:52.586637 15997 layer_factory.hpp:77] Creating layer accuracy
I0331 12:39:52.586649 15997 net.cpp:84] Creating Layer accuracy
I0331 12:39:52.586657 15997 net.cpp:406] accuracy <- ip3_ip3_0_split_0
I0331 12:39:52.586665 15997 net.cpp:406] accuracy <- label_mnist_1_split_0
I0331 12:39:52.586675 15997 net.cpp:380] accuracy -> accuracy
…
