…
  layer {
    name: "mnist"
    type: "Data"
    top: "data"
    top: "label"
    include {
      phase: TRAIN
    }
    transform_param {
      scale: 0.00390625
    }
    data_param {
      source: "data/mnist_train_lmdb"
      batch_size: 100
      backend: LMDB
    }
  }
  layer {
    name: "mnist"
    type: "Data"
    top: "data"
    top: "label"
    include {
      phase: TEST
    }
    transform_param {
      scale: 0.00390625
    }
    data_param {
      source: "data/mnist_test_lmdb"
      batch_size: 100
      backend: LMDB
    }
  }
  layer {
    name: "ip1"
    type: "InnerProduct"
    bottom: "data"
    top: "ip1"
    inner_product_param {
      num_output: 1000
      weight_filler {
        type: "gaussian"
        mean: 0
        std: 0.1
      }
    }
    bias_param {
      filler {
        value: 0
      }
    }
    floating_point: true
    fpoint {
      exp: 2
      mant: 5
      rounding: "stochastic"
    }
  }
  layer {
    name: "relu1"
    type: "ReLU"
    bottom: "ip1"
    top: "ip1"
    floating_point: true
    fpoint {
      exp: 2
      mant: 5
      rounding: "stochastic"
    }
  }
  layer {
    name: "ip2"
    type: "InnerProduct"
    bottom: "ip1"
    top: "ip2"
    inner_product_param {
      num_output: 1000
      weight_filler {
        type: "gaussian"
        mean: 0
        std: 0.1
      }
    }
    bias_param {
      filler {
        value: 0
      }
    }
    floating_point: true
    fpoint {
      exp: 2
      mant: 5
      rounding: "stochastic"
    }
  }
  layer {
    name: "relu2"
    type: "ReLU"
    bottom: "ip2"
    top: "ip2"
    bias_param {
      filler {
        value: 0
      }
    }
    floating_point: true
    fpoint {
      exp: 2
      mant: 5
      rounding: "stochastic"
    }
  }
  layer {
    name: "ip3"
    type: "InnerProduct"
    bottom: "ip2"
    top: "ip3"
    inner_product_param {
      num_output: 10
      weight_filler {
        type: "gaussian"
        mean: 0
        std: 0.1
      }
    }
    bias_param {
      filler {
        value: 0
      }
    }
    floating_point: true
    fpoint {
      exp: 2
      mant: 5
      rounding: "stochastic"
    }
  }
  layer {
    name: "accuracy"
    type: "Accuracy"
    bottom: "ip3"
    bottom: "label"
    top: "accuracy"
  }
  layer {
    name: "loss"
    type: "SoftmaxWithLoss"
    bottom: "ip3"
    bottom: "label"
    top: "loss"
    floating_point: true
    fpoint {
      exp: 2
      mant: 5
      rounding: "stochastic"
    }
  }
}
train_state {
  level: 0
  stage: ""
}
floating_point: true
fpoint {
  exp: 2
  mant: 5
  rounding: "stochastic"
}
I0503 21:27:34.507086 31218 solver.cpp:82] Creating training net specified in net_param.
I0503 21:27:34.507150 31218 net.cpp:294] The NetState phase (0) differed from the phase (1) specified by a rule in layer mnist
I0503 21:27:34.507280 31218 net.cpp:51] Initializing net from parameters: 
name: "LeNet"
state {
  phase: TRAIN
  level: 0
  stage: ""
}
layer {
  name: "mnist"
  type: "Data"
  top: "data"
  top: "label"
  include {
    phase: TRAIN
  }
  transform_param {
    scale: 0.00390625
  }
  data_param {
    source: "data/mnist_train_lmdb"
    batch_size: 100
    backend: LMDB
  }
}
layer {
  name: "ip1"
  type: "InnerProduct"
  bottom: "data"
  top: "ip1"
  inner_product_param {
    num_output: 1000
    weight_filler {
      type: "gaussian"
      mean: 0
      std: 0.1
    }
  }
  bias_param {
    filler {
      value: 0
    }
  }
  floating_point: true
  fpoint {
    exp: 2
    mant: 5
    rounding: "stochastic"
  }
}
layer {
  name: "relu1"
  type: "ReLU"
  bottom: "ip1"
  top: "ip1"
  floating_point: true
  fpoint {
    exp: 2
    mant: 5
    rounding: "stochastic"
  }
}
layer {
  name: "ip2"
  type: "InnerProduct"
  bottom: "ip1"
  top: "ip2"
  inner_product_param {
    num_output: 1000
    weight_filler {
      type: "gaussian"
      mean: 0
      std: 0.1
    }
  }
  bias_param {
    filler {
      value: 0
    }
  }
  floating_point: true
  fpoint {
    exp: 2
    mant: 5
    rounding: "stochastic"
  }
}
layer {
  name: "relu2"
  type: "ReLU"
  bottom: "ip2"
  top: "ip2"
  bias_param {
    filler {
      value: 0
    }
  }
  floating_point: true
  fpoint {
    exp: 2
    mant: 5
    rounding: "stochastic"
  }
}
layer {
  name: "ip3"
  type: "InnerProduct"
  bottom: "ip2"
  top: "ip3"
  inner_product_param {
    num_output: 10
    weight_filler {
      type: "gaussian"
      mean: 0
      std: 0.1
    }
  }
  bias_param {
    filler {
      value: 0
    }
  }
  floating_point: true
  fpoint {
    exp: 2
    mant: 5
    rounding: "stochastic"
  }
}
layer {
  name: "accuracy"
  type: "Accuracy"
  bottom: "ip3"
  bottom: "label"
  top: "accuracy"
}
layer {
  name: "loss"
  type: "SoftmaxWithLoss"
  bottom: "ip3"
  bottom: "label"
  top: "loss"
  floating_point: true
  fpoint {
    exp: 2
    mant: 5
    rounding: "stochastic"
  }
}
I0503 21:27:34.507807 31218 layer_factory.hpp:77] Creating layer mnist
I0503 21:27:34.509346 31218 db_lmdb.cpp:35] Opened lmdb data/mnist_train_lmdb
I0503 21:27:34.509650 31218 net.cpp:84] Creating Layer mnist
I0503 21:27:34.509683 31218 net.cpp:380] mnist -> data
I0503 21:27:34.509732 31218 net.cpp:380] mnist -> label
I0503 21:27:34.509798 31218 data_layer.cpp:45] output data size: 100,1,28,28
I0503 21:27:34.511615 31218 net.cpp:122] Setting up mnist
I0503 21:27:34.511670 31218 net.cpp:129] Top shape: 100 1 28 28 (78400)
I0503 21:27:34.511687 31218 net.cpp:129] Top shape: 100 (100)
I0503 21:27:34.511698 31218 net.cpp:137] Memory required for data: 628000
I0503 21:27:34.511715 31218 layer_factory.hpp:77] Creating layer label_mnist_1_split
I0503 21:27:34.511739 31218 net.cpp:84] Creating Layer label_mnist_1_split
I0503 21:27:34.511752 31218 net.cpp:406] label_mnist_1_split <- label
I0503 21:27:34.511775 31218 net.cpp:380] label_mnist_1_split -> label_mnist_1_split_0
I0503 21:27:34.511795 31218 net.cpp:380] label_mnist_1_split -> label_mnist_1_split_1
I0503 21:27:34.511813 31218 net.cpp:122] Setting up label_mnist_1_split
I0503 21:27:34.511828 31218 net.cpp:129] Top shape: 100 (100)
I0503 21:27:34.511840 31218 net.cpp:129] Top shape: 100 (100)
I0503 21:27:34.511850 31218 net.cpp:137] Memory required for data: 629600
I0503 21:27:34.511862 31218 layer_factory.hpp:77] Creating layer ip1
I0503 21:27:34.511883 31218 net.cpp:84] Creating Layer ip1
I0503 21:27:34.511896 31218 net.cpp:406] ip1 <- data
I0503 21:27:34.511911 31218 net.cpp:380] ip1 -> ip1
I0503 21:27:34.534700 31218 net.cpp:122] Setting up ip1
I0503 21:27:34.534780 31218 net.cpp:129] Top shape: 100 1000 (100000)
I0503 21:27:34.534791 31218 net.cpp:137] Memory required for data: 1429600
I0503 21:27:34.534821 31218 layer_factory.hpp:77] Creating layer relu1
I0503 21:27:34.534849 31218 net.cpp:84] Creating Layer relu1
I0503 21:27:34.534862 31218 net.cpp:406] relu1 <- ip1
I0503 21:27:34.534878 31218 net.cpp:367] relu1 -> ip1 (in-place)
I0503 21:27:34.534898 31218 net.cpp:122] Setting up relu1
I0503 21:27:34.534911 31218 net.cpp:129] Top shape: 100 1000 (100000)
I0503 21:27:34.534921 31218 net.cpp:137] Memory required for data: 2229600
I0503 21:27:34.534931 31218 layer_factory.hpp:77] Creating layer ip2
I0503 21:27:34.534951 31218 net.cpp:84] Creating Layer ip2
I0503 21:27:34.534962 31218 net.cpp:406] ip2 <- ip1
I0503 21:27:34.534977 31218 net.cpp:380] ip2 -> ip2
I0503 21:27:34.560576 31218 net.cpp:122] Setting up ip2
I0503 21:27:34.560662 31218 net.cpp:129] Top shape: 100 1000 (100000)
I0503 21:27:34.560673 31218 net.cpp:137] Memory required for data: 3029600
I0503 21:27:34.560698 31218 layer_factory.hpp:77] Creating layer relu2
I0503 21:27:34.560724 31218 net.cpp:84] Creating Layer relu2
I0503 21:27:34.560735 31218 net.cpp:406] relu2 <- ip2
I0503 21:27:34.560752 31218 net.cpp:367] relu2 -> ip2 (in-place)
I0503 21:27:34.560773 31218 net.cpp:122] Setting up relu2
I0503 21:27:34.560787 31218 net.cpp:129] Top shape: 100 1000 (100000)
I0503 21:27:34.560837 31218 net.cpp:137] Memory required for data: 3829600
I0503 21:27:34.560849 31218 layer_factory.hpp:77] Creating layer ip3
I0503 21:27:34.560868 31218 net.cpp:84] Creating Layer ip3
I0503 21:27:34.560879 31218 net.cpp:406] ip3 <- ip2
I0503 21:27:34.560895 31218 net.cpp:380] ip3 -> ip3
I0503 21:27:34.561187 31218 net.cpp:122] Setting up ip3
I0503 21:27:34.561209 31218 net.cpp:129] Top shape: 100 10 (1000)
I0503 21:27:34.561220 31218 net.cpp:137] Memory required for data: 3837600
I0503 21:27:34.561239 31218 layer_factory.hpp:77] Creating layer ip3_ip3_0_split
I0503 21:27:34.561254 31218 net.cpp:84] Creating Layer ip3_ip3_0_split
I0503 21:27:34.561265 31218 net.cpp:406] ip3_ip3_0_split <- ip3
I0503 21:27:34.561278 31218 net.cpp:380] ip3_ip3_0_split -> ip3_ip3_0_split_0
I0503 21:27:34.561295 31218 net.cpp:380] ip3_ip3_0_split -> ip3_ip3_0_split_1
I0503 21:27:34.561312 31218 net.cpp:122] Setting up ip3_ip3_0_split
I0503 21:27:34.561326 31218 net.cpp:129] Top shape: 100 10 (1000)
I0503 21:27:34.561338 31218 net.cpp:129] Top shape: 100 10 (1000)
I0503 21:27:34.561348 31218 net.cpp:137] Memory required for data: 3853600
I0503 21:27:34.561365 31218 layer_factory.hpp:77] Creating layer accuracy
I0503 21:27:34.561391 31218 net.cpp:84] Creating Layer accuracy
I0503 21:27:34.561404 31218 net.cpp:406] accuracy <- ip3_ip3_0_split_0
I0503 21:27:34.561417 31218 net.cpp:406] accuracy <- label_mnist_1_split_0
I0503 21:27:34.561430 31218 net.cpp:380] accuracy -> accuracy
…
