…
  layer {
    name: "mnist"
    type: "Data"
    top: "data"
    top: "label"
    include {
      phase: TRAIN
    }
    transform_param {
      scale: 0.00390625
    }
    data_param {
      source: "data/mnist_train_lmdb"
      batch_size: 100
      backend: LMDB
    }
  }
  layer {
    name: "mnist"
    type: "Data"
    top: "data"
    top: "label"
    include {
      phase: TEST
    }
    transform_param {
      scale: 0.00390625
    }
    data_param {
      source: "data/mnist_test_lmdb"
      batch_size: 100
      backend: LMDB
    }
  }
  layer {
    name: "ip1"
    type: "InnerProduct"
    bottom: "data"
    top: "ip1"
    inner_product_param {
      num_output: 1000
      weight_filler {
        type: "gaussian"
        mean: 0
        std: 0.01
      }
    }
    bias_param {
      filler {
        value: 0
      }
    }
    fixed_precision: true
    precision {
      enter: 2
      fraccio: 14
      rounding: "withProb"
      prob: 0.1
    }
  }
  layer {
    name: "relu1"
    type: "ReLU"
    bottom: "ip1"
    top: "ip1"
    fixed_precision: true
    precision {
      enter: 2
      fraccio: 14
      rounding: "withProb"
      prob: 0.1
    }
  }
  layer {
    name: "ip2"
    type: "InnerProduct"
    bottom: "ip1"
    top: "ip2"
    inner_product_param {
      num_output: 1000
      weight_filler {
        type: "gaussian"
        mean: 0
        std: 0.01
      }
    }
    bias_param {
      filler {
        value: 0
      }
    }
    fixed_precision: true
    precision {
      enter: 2
      fraccio: 14
      rounding: "withProb"
      prob: 0.1
    }
  }
  layer {
    name: "relu2"
    type: "ReLU"
    bottom: "ip2"
    top: "ip2"
    bias_param {
      filler {
        value: 0
      }
    }
    fixed_precision: true
    precision {
      enter: 2
      fraccio: 14
      rounding: "withProb"
      prob: 0.1
    }
  }
  layer {
    name: "ip3"
    type: "InnerProduct"
    bottom: "ip2"
    top: "ip3"
    inner_product_param {
      num_output: 10
      weight_filler {
        type: "gaussian"
        mean: 0
        std: 0.01
      }
    }
    bias_param {
      filler {
        value: 0
      }
    }
    fixed_precision: true
    precision {
      enter: 2
      fraccio: 14
      rounding: "withProb"
      prob: 0.1
    }
  }
  layer {
    name: "accuracy"
    type: "Accuracy"
    bottom: "ip3"
    bottom: "label"
    top: "accuracy"
  }
  layer {
    name: "loss"
    type: "SoftmaxWithLoss"
    bottom: "ip3"
    bottom: "label"
    top: "loss"
    fixed_precision: true
    precision {
      enter: 2
      fraccio: 14
      rounding: "withProb"
      prob: 0.1
    }
  }
}
train_state {
  level: 0
  stage: ""
}
fixed_precision: true
precision {
  enter: 2
  fraccio: 14
  rounding: "withProb"
  prob: 0.1
}
I0502 17:27:12.674139  2480 solver.cpp:82] Creating training net specified in net_param.
I0502 17:27:12.674207  2480 net.cpp:294] The NetState phase (0) differed from the phase (1) specified by a rule in layer mnist
I0502 17:27:12.674350  2480 net.cpp:51] Initializing net from parameters: 
name: "LeNet"
state {
  phase: TRAIN
  level: 0
  stage: ""
}
layer {
  name: "mnist"
  type: "Data"
  top: "data"
  top: "label"
  include {
    phase: TRAIN
  }
  transform_param {
    scale: 0.00390625
  }
  data_param {
    source: "data/mnist_train_lmdb"
    batch_size: 100
    backend: LMDB
  }
}
layer {
  name: "ip1"
  type: "InnerProduct"
  bottom: "data"
  top: "ip1"
  inner_product_param {
    num_output: 1000
    weight_filler {
      type: "gaussian"
      mean: 0
      std: 0.01
    }
  }
  bias_param {
    filler {
      value: 0
    }
  }
  fixed_precision: true
  precision {
    enter: 2
    fraccio: 14
    rounding: "withProb"
    prob: 0.1
  }
}
layer {
  name: "relu1"
  type: "ReLU"
  bottom: "ip1"
  top: "ip1"
  fixed_precision: true
  precision {
    enter: 2
    fraccio: 14
    rounding: "withProb"
    prob: 0.1
  }
}
layer {
  name: "ip2"
  type: "InnerProduct"
  bottom: "ip1"
  top: "ip2"
  inner_product_param {
    num_output: 1000
    weight_filler {
      type: "gaussian"
      mean: 0
      std: 0.01
    }
  }
  bias_param {
    filler {
      value: 0
    }
  }
  fixed_precision: true
  precision {
    enter: 2
    fraccio: 14
    rounding: "withProb"
    prob: 0.1
  }
}
layer {
  name: "relu2"
  type: "ReLU"
  bottom: "ip2"
  top: "ip2"
  bias_param {
    filler {
      value: 0
    }
  }
  fixed_precision: true
  precision {
    enter: 2
    fraccio: 14
    rounding: "withProb"
    prob: 0.1
  }
}
layer {
  name: "ip3"
  type: "InnerProduct"
  bottom: "ip2"
  top: "ip3"
  inner_product_param {
    num_output: 10
    weight_filler {
      type: "gaussian"
      mean: 0
      std: 0.01
    }
  }
  bias_param {
    filler {
      value: 0
    }
  }
  fixed_precision: true
  precision {
    enter: 2
    fraccio: 14
    rounding: "withProb"
    prob: 0.1
  }
}
layer {
  name: "accuracy"
  type: "Accuracy"
  bottom: "ip3"
  bottom: "label"
  top: "accuracy"
}
layer {
  name: "loss"
  type: "SoftmaxWithLoss"
  bottom: "ip3"
  bottom: "label"
  top: "loss"
  fixed_precision: true
  precision {
    enter: 2
    fraccio: 14
    rounding: "withProb"
    prob: 0.1
  }
}
I0502 17:27:12.674875  2480 layer_factory.hpp:77] Creating layer mnist
I0502 17:27:12.675937  2480 db_lmdb.cpp:35] Opened lmdb data/mnist_train_lmdb
I0502 17:27:12.677175  2480 net.cpp:84] Creating Layer mnist
I0502 17:27:12.677209  2480 net.cpp:380] mnist -> data
I0502 17:27:12.677258  2480 net.cpp:380] mnist -> label
I0502 17:27:12.677322  2480 data_layer.cpp:45] output data size: 100,1,28,28
I0502 17:27:12.679052  2480 net.cpp:122] Setting up mnist
I0502 17:27:12.679105  2480 net.cpp:129] Top shape: 100 1 28 28 (78400)
I0502 17:27:12.679119  2480 net.cpp:129] Top shape: 100 (100)
I0502 17:27:12.679131  2480 net.cpp:137] Memory required for data: 628000
I0502 17:27:12.679147  2480 layer_factory.hpp:77] Creating layer label_mnist_1_split
I0502 17:27:12.679169  2480 net.cpp:84] Creating Layer label_mnist_1_split
I0502 17:27:12.679183  2480 net.cpp:406] label_mnist_1_split <- label
I0502 17:27:12.679205  2480 net.cpp:380] label_mnist_1_split -> label_mnist_1_split_0
I0502 17:27:12.679224  2480 net.cpp:380] label_mnist_1_split -> label_mnist_1_split_1
I0502 17:27:12.679244  2480 net.cpp:122] Setting up label_mnist_1_split
I0502 17:27:12.679257  2480 net.cpp:129] Top shape: 100 (100)
I0502 17:27:12.679270  2480 net.cpp:129] Top shape: 100 (100)
I0502 17:27:12.679280  2480 net.cpp:137] Memory required for data: 629600
I0502 17:27:12.679289  2480 layer_factory.hpp:77] Creating layer ip1
I0502 17:27:12.679311  2480 net.cpp:84] Creating Layer ip1
I0502 17:27:12.679323  2480 net.cpp:406] ip1 <- data
I0502 17:27:12.679338  2480 net.cpp:380] ip1 -> ip1
I0502 17:27:12.723758  2480 net.cpp:122] Setting up ip1
I0502 17:27:12.723844  2480 net.cpp:129] Top shape: 100 1000 (100000)
I0502 17:27:12.723855  2480 net.cpp:137] Memory required for data: 1429600
I0502 17:27:12.723886  2480 layer_factory.hpp:77] Creating layer relu1
I0502 17:27:12.723914  2480 net.cpp:84] Creating Layer relu1
I0502 17:27:12.723928  2480 net.cpp:406] relu1 <- ip1
I0502 17:27:12.723943  2480 net.cpp:367] relu1 -> ip1 (in-place)
I0502 17:27:12.723963  2480 net.cpp:122] Setting up relu1
I0502 17:27:12.723976  2480 net.cpp:129] Top shape: 100 1000 (100000)
I0502 17:27:12.723987  2480 net.cpp:137] Memory required for data: 2229600
I0502 17:27:12.723996  2480 layer_factory.hpp:77] Creating layer ip2
I0502 17:27:12.724016  2480 net.cpp:84] Creating Layer ip2
I0502 17:27:12.724027  2480 net.cpp:406] ip2 <- ip1
I0502 17:27:12.724041  2480 net.cpp:380] ip2 -> ip2
I0502 17:27:12.777072  2480 net.cpp:122] Setting up ip2
I0502 17:27:12.777155  2480 net.cpp:129] Top shape: 100 1000 (100000)
I0502 17:27:12.777166  2480 net.cpp:137] Memory required for data: 3029600
I0502 17:27:12.777189  2480 layer_factory.hpp:77] Creating layer relu2
I0502 17:27:12.777215  2480 net.cpp:84] Creating Layer relu2
I0502 17:27:12.777268  2480 net.cpp:406] relu2 <- ip2
I0502 17:27:12.777287  2480 net.cpp:367] relu2 -> ip2 (in-place)
I0502 17:27:12.777307  2480 net.cpp:122] Setting up relu2
I0502 17:27:12.777321  2480 net.cpp:129] Top shape: 100 1000 (100000)
I0502 17:27:12.777331  2480 net.cpp:137] Memory required for data: 3829600
I0502 17:27:12.777341  2480 layer_factory.hpp:77] Creating layer ip3
I0502 17:27:12.777357  2480 net.cpp:84] Creating Layer ip3
I0502 17:27:12.777369  2480 net.cpp:406] ip3 <- ip2
I0502 17:27:12.777382  2480 net.cpp:380] ip3 -> ip3
I0502 17:27:12.777961  2480 net.cpp:122] Setting up ip3
I0502 17:27:12.777984  2480 net.cpp:129] Top shape: 100 10 (1000)
I0502 17:27:12.777994  2480 net.cpp:137] Memory required for data: 3837600
I0502 17:27:12.778012  2480 layer_factory.hpp:77] Creating layer ip3_ip3_0_split
I0502 17:27:12.778028  2480 net.cpp:84] Creating Layer ip3_ip3_0_split
I0502 17:27:12.778038  2480 net.cpp:406] ip3_ip3_0_split <- ip3
I0502 17:27:12.778051  2480 net.cpp:380] ip3_ip3_0_split -> ip3_ip3_0_split_0
I0502 17:27:12.778066  2480 net.cpp:380] ip3_ip3_0_split -> ip3_ip3_0_split_1
I0502 17:27:12.778085  2480 net.cpp:122] Setting up ip3_ip3_0_split
I0502 17:27:12.778098  2480 net.cpp:129] Top shape: 100 10 (1000)
I0502 17:27:12.778111  2480 net.cpp:129] Top shape: 100 10 (1000)
I0502 17:27:12.778121  2480 net.cpp:137] Memory required for data: 3853600
I0502 17:27:12.778131  2480 layer_factory.hpp:77] Creating layer accuracy
I0502 17:27:12.778156  2480 net.cpp:84] Creating Layer accuracy
I0502 17:27:12.778169  2480 net.cpp:406] accuracy <- ip3_ip3_0_split_0
I0502 17:27:12.778182  2480 net.cpp:406] accuracy <- label_mnist_1_split_0
I0502 17:27:12.778194  2480 net.cpp:380] accuracy -> accuracy
…
