…
  layer {
    name: "mnist"
    type: "Data"
    top: "data"
    top: "label"
    include {
      phase: TRAIN
    }
    transform_param {
      scale: 0.00390625
    }
    data_param {
      source: "data/mnist_train_lmdb"
      batch_size: 100
      backend: LMDB
    }
  }
  layer {
    name: "mnist"
    type: "Data"
    top: "data"
    top: "label"
    include {
      phase: TEST
    }
    transform_param {
      scale: 0.00390625
    }
    data_param {
      source: "data/mnist_test_lmdb"
      batch_size: 100
      backend: LMDB
    }
  }
  layer {
    name: "ip1"
    type: "InnerProduct"
    bottom: "data"
    top: "ip1"
    inner_product_param {
      num_output: 1000
      weight_filler {
        type: "gaussian"
        mean: 0
        std: 0.01
      }
    }
    bias_param {
      filler {
        value: 0
      }
    }
    fixed_precision: true
    precision {
      enter: 2
      fraccio: 14
      rounding: "withProb"
      prob: 0.1
    }
  }
  layer {
    name: "relu1"
    type: "ReLU"
    bottom: "ip1"
    top: "ip1"
    fixed_precision: true
    precision {
      enter: 2
      fraccio: 14
      rounding: "withProb"
      prob: 0.1
    }
  }
  layer {
    name: "ip2"
    type: "InnerProduct"
    bottom: "ip1"
    top: "ip2"
    inner_product_param {
      num_output: 1000
      weight_filler {
        type: "gaussian"
        mean: 0
        std: 0.01
      }
    }
    bias_param {
      filler {
        value: 0
      }
    }
    fixed_precision: true
    precision {
      enter: 2
      fraccio: 14
      rounding: "withProb"
      prob: 0.1
    }
  }
  layer {
    name: "relu2"
    type: "ReLU"
    bottom: "ip2"
    top: "ip2"
    bias_param {
      filler {
        value: 0
      }
    }
    fixed_precision: true
    precision {
      enter: 2
      fraccio: 14
      rounding: "withProb"
      prob: 0.1
    }
  }
  layer {
    name: "ip3"
    type: "InnerProduct"
    bottom: "ip2"
    top: "ip3"
    inner_product_param {
      num_output: 10
      weight_filler {
        type: "gaussian"
        mean: 0
        std: 0.01
      }
    }
    bias_param {
      filler {
        value: 0
      }
    }
    fixed_precision: true
    precision {
      enter: 2
      fraccio: 14
      rounding: "withProb"
      prob: 0.1
    }
  }
  layer {
    name: "accuracy"
    type: "Accuracy"
    bottom: "ip3"
    bottom: "label"
    top: "accuracy"
  }
  layer {
    name: "loss"
    type: "SoftmaxWithLoss"
    bottom: "ip3"
    bottom: "label"
    top: "loss"
    fixed_precision: true
    precision {
      enter: 2
      fraccio: 14
      rounding: "withProb"
      prob: 0.1
    }
  }
}
train_state {
  level: 0
  stage: ""
}
fixed_precision: true
precision {
  enter: 2
  fraccio: 14
  rounding: "withProb"
  prob: 0.1
}
I0502 17:27:28.535909 20489 solver.cpp:82] Creating training net specified in net_param.
I0502 17:27:28.535975 20489 net.cpp:294] The NetState phase (0) differed from the phase (1) specified by a rule in layer mnist
I0502 17:27:28.536114 20489 net.cpp:51] Initializing net from parameters: 
name: "LeNet"
state {
  phase: TRAIN
  level: 0
  stage: ""
}
layer {
  name: "mnist"
  type: "Data"
  top: "data"
  top: "label"
  include {
    phase: TRAIN
  }
  transform_param {
    scale: 0.00390625
  }
  data_param {
    source: "data/mnist_train_lmdb"
    batch_size: 100
    backend: LMDB
  }
}
layer {
  name: "ip1"
  type: "InnerProduct"
  bottom: "data"
  top: "ip1"
  inner_product_param {
    num_output: 1000
    weight_filler {
      type: "gaussian"
      mean: 0
      std: 0.01
    }
  }
  bias_param {
    filler {
      value: 0
    }
  }
  fixed_precision: true
  precision {
    enter: 2
    fraccio: 14
    rounding: "withProb"
    prob: 0.1
  }
}
layer {
  name: "relu1"
  type: "ReLU"
  bottom: "ip1"
  top: "ip1"
  fixed_precision: true
  precision {
    enter: 2
    fraccio: 14
    rounding: "withProb"
    prob: 0.1
  }
}
layer {
  name: "ip2"
  type: "InnerProduct"
  bottom: "ip1"
  top: "ip2"
  inner_product_param {
    num_output: 1000
    weight_filler {
      type: "gaussian"
      mean: 0
      std: 0.01
    }
  }
  bias_param {
    filler {
      value: 0
    }
  }
  fixed_precision: true
  precision {
    enter: 2
    fraccio: 14
    rounding: "withProb"
    prob: 0.1
  }
}
layer {
  name: "relu2"
  type: "ReLU"
  bottom: "ip2"
  top: "ip2"
  bias_param {
    filler {
      value: 0
    }
  }
  fixed_precision: true
  precision {
    enter: 2
    fraccio: 14
    rounding: "withProb"
    prob: 0.1
  }
}
layer {
  name: "ip3"
  type: "InnerProduct"
  bottom: "ip2"
  top: "ip3"
  inner_product_param {
    num_output: 10
    weight_filler {
      type: "gaussian"
      mean: 0
      std: 0.01
    }
  }
  bias_param {
    filler {
      value: 0
    }
  }
  fixed_precision: true
  precision {
    enter: 2
    fraccio: 14
    rounding: "withProb"
    prob: 0.1
  }
}
layer {
  name: "accuracy"
  type: "Accuracy"
  bottom: "ip3"
  bottom: "label"
  top: "accuracy"
}
layer {
  name: "loss"
  type: "SoftmaxWithLoss"
  bottom: "ip3"
  bottom: "label"
  top: "loss"
  fixed_precision: true
  precision {
    enter: 2
    fraccio: 14
    rounding: "withProb"
    prob: 0.1
  }
}
I0502 17:27:28.537524 20489 layer_factory.hpp:77] Creating layer mnist
I0502 17:27:28.538663 20489 db_lmdb.cpp:35] Opened lmdb data/mnist_train_lmdb
I0502 17:27:28.539794 20489 net.cpp:84] Creating Layer mnist
I0502 17:27:28.539825 20489 net.cpp:380] mnist -> data
I0502 17:27:28.539872 20489 net.cpp:380] mnist -> label
I0502 17:27:28.539938 20489 data_layer.cpp:45] output data size: 100,1,28,28
I0502 17:27:28.541635 20489 net.cpp:122] Setting up mnist
I0502 17:27:28.541676 20489 net.cpp:129] Top shape: 100 1 28 28 (78400)
I0502 17:27:28.541692 20489 net.cpp:129] Top shape: 100 (100)
I0502 17:27:28.541702 20489 net.cpp:137] Memory required for data: 628000
I0502 17:27:28.541718 20489 layer_factory.hpp:77] Creating layer label_mnist_1_split
I0502 17:27:28.541738 20489 net.cpp:84] Creating Layer label_mnist_1_split
I0502 17:27:28.541751 20489 net.cpp:406] label_mnist_1_split <- label
I0502 17:27:28.541771 20489 net.cpp:380] label_mnist_1_split -> label_mnist_1_split_0
I0502 17:27:28.541790 20489 net.cpp:380] label_mnist_1_split -> label_mnist_1_split_1
I0502 17:27:28.541808 20489 net.cpp:122] Setting up label_mnist_1_split
I0502 17:27:28.541823 20489 net.cpp:129] Top shape: 100 (100)
I0502 17:27:28.541836 20489 net.cpp:129] Top shape: 100 (100)
I0502 17:27:28.541844 20489 net.cpp:137] Memory required for data: 629600
I0502 17:27:28.541856 20489 layer_factory.hpp:77] Creating layer ip1
I0502 17:27:28.541875 20489 net.cpp:84] Creating Layer ip1
I0502 17:27:28.541887 20489 net.cpp:406] ip1 <- data
I0502 17:27:28.541908 20489 net.cpp:380] ip1 -> ip1
I0502 17:27:28.586138 20489 net.cpp:122] Setting up ip1
I0502 17:27:28.586217 20489 net.cpp:129] Top shape: 100 1000 (100000)
I0502 17:27:28.586230 20489 net.cpp:137] Memory required for data: 1429600
I0502 17:27:28.586261 20489 layer_factory.hpp:77] Creating layer relu1
I0502 17:27:28.586288 20489 net.cpp:84] Creating Layer relu1
I0502 17:27:28.586302 20489 net.cpp:406] relu1 <- ip1
I0502 17:27:28.586318 20489 net.cpp:367] relu1 -> ip1 (in-place)
I0502 17:27:28.586338 20489 net.cpp:122] Setting up relu1
I0502 17:27:28.586351 20489 net.cpp:129] Top shape: 100 1000 (100000)
I0502 17:27:28.586361 20489 net.cpp:137] Memory required for data: 2229600
I0502 17:27:28.586371 20489 layer_factory.hpp:77] Creating layer ip2
I0502 17:27:28.586391 20489 net.cpp:84] Creating Layer ip2
I0502 17:27:28.586403 20489 net.cpp:406] ip2 <- ip1
I0502 17:27:28.586417 20489 net.cpp:380] ip2 -> ip2
I0502 17:27:28.639262 20489 net.cpp:122] Setting up ip2
I0502 17:27:28.639340 20489 net.cpp:129] Top shape: 100 1000 (100000)
I0502 17:27:28.639351 20489 net.cpp:137] Memory required for data: 3029600
I0502 17:27:28.639375 20489 layer_factory.hpp:77] Creating layer relu2
I0502 17:27:28.639400 20489 net.cpp:84] Creating Layer relu2
I0502 17:27:28.639451 20489 net.cpp:406] relu2 <- ip2
I0502 17:27:28.639468 20489 net.cpp:367] relu2 -> ip2 (in-place)
I0502 17:27:28.639490 20489 net.cpp:122] Setting up relu2
I0502 17:27:28.639503 20489 net.cpp:129] Top shape: 100 1000 (100000)
I0502 17:27:28.639513 20489 net.cpp:137] Memory required for data: 3829600
I0502 17:27:28.639523 20489 layer_factory.hpp:77] Creating layer ip3
I0502 17:27:28.639540 20489 net.cpp:84] Creating Layer ip3
I0502 17:27:28.639550 20489 net.cpp:406] ip3 <- ip2
I0502 17:27:28.639565 20489 net.cpp:380] ip3 -> ip3
I0502 17:27:28.640151 20489 net.cpp:122] Setting up ip3
I0502 17:27:28.640173 20489 net.cpp:129] Top shape: 100 10 (1000)
I0502 17:27:28.640184 20489 net.cpp:137] Memory required for data: 3837600
I0502 17:27:28.640202 20489 layer_factory.hpp:77] Creating layer ip3_ip3_0_split
I0502 17:27:28.640218 20489 net.cpp:84] Creating Layer ip3_ip3_0_split
I0502 17:27:28.640228 20489 net.cpp:406] ip3_ip3_0_split <- ip3
I0502 17:27:28.640241 20489 net.cpp:380] ip3_ip3_0_split -> ip3_ip3_0_split_0
I0502 17:27:28.640256 20489 net.cpp:380] ip3_ip3_0_split -> ip3_ip3_0_split_1
I0502 17:27:28.640275 20489 net.cpp:122] Setting up ip3_ip3_0_split
I0502 17:27:28.640287 20489 net.cpp:129] Top shape: 100 10 (1000)
I0502 17:27:28.640300 20489 net.cpp:129] Top shape: 100 10 (1000)
I0502 17:27:28.640310 20489 net.cpp:137] Memory required for data: 3853600
I0502 17:27:28.640319 20489 layer_factory.hpp:77] Creating layer accuracy
I0502 17:27:28.640347 20489 net.cpp:84] Creating Layer accuracy
I0502 17:27:28.640360 20489 net.cpp:406] accuracy <- ip3_ip3_0_split_0
I0502 17:27:28.640372 20489 net.cpp:406] accuracy <- label_mnist_1_split_0
I0502 17:27:28.640384 20489 net.cpp:380] accuracy -> accuracy
…
