…
  layer {
    name: "mnist"
    type: "Data"
    top: "data"
    top: "label"
    include {
      phase: TRAIN
    }
    transform_param {
      scale: 0.00390625
    }
    data_param {
      source: "data/mnist_train_lmdb"
      batch_size: 100
      backend: LMDB
    }
  }
  layer {
    name: "mnist"
    type: "Data"
    top: "data"
    top: "label"
    include {
      phase: TEST
    }
    transform_param {
      scale: 0.00390625
    }
    data_param {
      source: "data/mnist_test_lmdb"
      batch_size: 100
      backend: LMDB
    }
  }
  layer {
    name: "ip1"
    type: "InnerProduct"
    bottom: "data"
    top: "ip1"
    inner_product_param {
      num_output: 1000
      weight_filler {
        type: "gaussian"
        mean: 0
        std: 0.01
      }
    }
    bias_param {
      filler {
        value: 0
      }
    }
    fixed_precision: true
    precision {
      enter: 1
      fraccio: 10
      rounding: "stochastic"
    }
  }
  layer {
    name: "relu1"
    type: "ReLU"
    bottom: "ip1"
    top: "ip1"
    fixed_precision: true
    precision {
      enter: 1
      fraccio: 10
      rounding: "stochastic"
    }
  }
  layer {
    name: "ip2"
    type: "InnerProduct"
    bottom: "ip1"
    top: "ip2"
    inner_product_param {
      num_output: 1000
      weight_filler {
        type: "gaussian"
        mean: 0
        std: 0.01
      }
    }
    bias_param {
      filler {
        value: 0
      }
    }
    fixed_precision: true
    precision {
      enter: 1
      fraccio: 10
      rounding: "stochastic"
    }
  }
  layer {
    name: "relu2"
    type: "ReLU"
    bottom: "ip2"
    top: "ip2"
    bias_param {
      filler {
        value: 0
      }
    }
    fixed_precision: true
    precision {
      enter: 1
      fraccio: 10
      rounding: "stochastic"
    }
  }
  layer {
    name: "ip3"
    type: "InnerProduct"
    bottom: "ip2"
    top: "ip3"
    inner_product_param {
      num_output: 10
      weight_filler {
        type: "gaussian"
        mean: 0
        std: 0.01
      }
    }
    bias_param {
      filler {
        value: 0
      }
    }
    fixed_precision: true
    precision {
      enter: 1
      fraccio: 10
      rounding: "stochastic"
    }
  }
  layer {
    name: "accuracy"
    type: "Accuracy"
    bottom: "ip3"
    bottom: "label"
    top: "accuracy"
  }
  layer {
    name: "loss"
    type: "SoftmaxWithLoss"
    bottom: "ip3"
    bottom: "label"
    top: "loss"
    fixed_precision: true
    precision {
      enter: 1
      fraccio: 10
      rounding: "stochastic"
    }
  }
}
train_state {
  level: 0
  stage: ""
}
fixed_precision: true
precision {
  enter: 1
  fraccio: 10
  rounding: "stochastic"
}
I0404 03:48:27.192395 20048 solver.cpp:82] Creating training net specified in net_param.
I0404 03:48:27.192453 20048 net.cpp:294] The NetState phase (0) differed from the phase (1) specified by a rule in layer mnist
I0404 03:48:27.192616 20048 net.cpp:51] Initializing net from parameters: 
name: "LeNet"
state {
  phase: TRAIN
  level: 0
  stage: ""
}
layer {
  name: "mnist"
  type: "Data"
  top: "data"
  top: "label"
  include {
    phase: TRAIN
  }
  transform_param {
    scale: 0.00390625
  }
  data_param {
    source: "data/mnist_train_lmdb"
    batch_size: 100
    backend: LMDB
  }
}
layer {
  name: "ip1"
  type: "InnerProduct"
  bottom: "data"
  top: "ip1"
  inner_product_param {
    num_output: 1000
    weight_filler {
      type: "gaussian"
      mean: 0
      std: 0.01
    }
  }
  bias_param {
    filler {
      value: 0
    }
  }
  fixed_precision: true
  precision {
    enter: 1
    fraccio: 10
    rounding: "stochastic"
  }
}
layer {
  name: "relu1"
  type: "ReLU"
  bottom: "ip1"
  top: "ip1"
  fixed_precision: true
  precision {
    enter: 1
    fraccio: 10
    rounding: "stochastic"
  }
}
layer {
  name: "ip2"
  type: "InnerProduct"
  bottom: "ip1"
  top: "ip2"
  inner_product_param {
    num_output: 1000
    weight_filler {
      type: "gaussian"
      mean: 0
      std: 0.01
    }
  }
  bias_param {
    filler {
      value: 0
    }
  }
  fixed_precision: true
  precision {
    enter: 1
    fraccio: 10
    rounding: "stochastic"
  }
}
layer {
  name: "relu2"
  type: "ReLU"
  bottom: "ip2"
  top: "ip2"
  bias_param {
    filler {
      value: 0
    }
  }
  fixed_precision: true
  precision {
    enter: 1
    fraccio: 10
    rounding: "stochastic"
  }
}
layer {
  name: "ip3"
  type: "InnerProduct"
  bottom: "ip2"
  top: "ip3"
  inner_product_param {
    num_output: 10
    weight_filler {
      type: "gaussian"
      mean: 0
      std: 0.01
    }
  }
  bias_param {
    filler {
      value: 0
    }
  }
  fixed_precision: true
  precision {
    enter: 1
    fraccio: 10
    rounding: "stochastic"
  }
}
layer {
  name: "accuracy"
  type: "Accuracy"
  bottom: "ip3"
  bottom: "label"
  top: "accuracy"
}
layer {
  name: "loss"
  type: "SoftmaxWithLoss"
  bottom: "ip3"
  bottom: "label"
  top: "loss"
  fixed_precision: true
  precision {
    enter: 1
    fraccio: 10
    rounding: "stochastic"
  }
}
I0404 03:48:27.192739 20048 layer_factory.hpp:77] Creating layer mnist
I0404 03:48:27.192857 20048 db_lmdb.cpp:35] Opened lmdb data/mnist_train_lmdb
I0404 03:48:27.192886 20048 net.cpp:84] Creating Layer mnist
I0404 03:48:27.192898 20048 net.cpp:380] mnist -> data
I0404 03:48:27.192926 20048 net.cpp:380] mnist -> label
I0404 03:48:27.192965 20048 data_layer.cpp:45] output data size: 100,1,28,28
I0404 03:48:27.194671 20048 net.cpp:122] Setting up mnist
I0404 03:48:27.194696 20048 net.cpp:129] Top shape: 100 1 28 28 (78400)
I0404 03:48:27.194706 20048 net.cpp:129] Top shape: 100 (100)
I0404 03:48:27.194713 20048 net.cpp:137] Memory required for data: 628000
I0404 03:48:27.194723 20048 layer_factory.hpp:77] Creating layer label_mnist_1_split
I0404 03:48:27.194739 20048 net.cpp:84] Creating Layer label_mnist_1_split
I0404 03:48:27.194748 20048 net.cpp:406] label_mnist_1_split <- label
I0404 03:48:27.194761 20048 net.cpp:380] label_mnist_1_split -> label_mnist_1_split_0
I0404 03:48:27.194773 20048 net.cpp:380] label_mnist_1_split -> label_mnist_1_split_1
I0404 03:48:27.194787 20048 net.cpp:122] Setting up label_mnist_1_split
I0404 03:48:27.194795 20048 net.cpp:129] Top shape: 100 (100)
I0404 03:48:27.194803 20048 net.cpp:129] Top shape: 100 (100)
I0404 03:48:27.194809 20048 net.cpp:137] Memory required for data: 629600
I0404 03:48:27.194816 20048 layer_factory.hpp:77] Creating layer ip1
I0404 03:48:27.194828 20048 net.cpp:84] Creating Layer ip1
I0404 03:48:27.194835 20048 net.cpp:406] ip1 <- data
I0404 03:48:27.194844 20048 net.cpp:380] ip1 -> ip1
I0404 03:48:27.314139 20048 net.cpp:122] Setting up ip1
I0404 03:48:27.314177 20048 net.cpp:129] Top shape: 100 1000 (100000)
I0404 03:48:27.314187 20048 net.cpp:137] Memory required for data: 1429600
I0404 03:48:27.314209 20048 layer_factory.hpp:77] Creating layer relu1
I0404 03:48:27.314229 20048 net.cpp:84] Creating Layer relu1
I0404 03:48:27.314240 20048 net.cpp:406] relu1 <- ip1
I0404 03:48:27.314251 20048 net.cpp:367] relu1 -> ip1 (in-place)
I0404 03:48:27.314275 20048 net.cpp:122] Setting up relu1
I0404 03:48:27.314283 20048 net.cpp:129] Top shape: 100 1000 (100000)
I0404 03:48:27.314291 20048 net.cpp:137] Memory required for data: 2229600
I0404 03:48:27.314298 20048 layer_factory.hpp:77] Creating layer ip2
I0404 03:48:27.314313 20048 net.cpp:84] Creating Layer ip2
I0404 03:48:27.314321 20048 net.cpp:406] ip2 <- ip1
I0404 03:48:27.314332 20048 net.cpp:380] ip2 -> ip2
I0404 03:48:27.413925 20048 net.cpp:122] Setting up ip2
I0404 03:48:27.413959 20048 net.cpp:129] Top shape: 100 1000 (100000)
I0404 03:48:27.413966 20048 net.cpp:137] Memory required for data: 3029600
I0404 03:48:27.413983 20048 layer_factory.hpp:77] Creating layer relu2
I0404 03:48:27.414000 20048 net.cpp:84] Creating Layer relu2
I0404 03:48:27.414008 20048 net.cpp:406] relu2 <- ip2
I0404 03:48:27.414021 20048 net.cpp:367] relu2 -> ip2 (in-place)
I0404 03:48:27.414044 20048 net.cpp:122] Setting up relu2
I0404 03:48:27.414067 20048 net.cpp:129] Top shape: 100 1000 (100000)
I0404 03:48:27.414074 20048 net.cpp:137] Memory required for data: 3829600
I0404 03:48:27.414080 20048 layer_factory.hpp:77] Creating layer ip3
I0404 03:48:27.414093 20048 net.cpp:84] Creating Layer ip3
I0404 03:48:27.414101 20048 net.cpp:406] ip3 <- ip2
I0404 03:48:27.414111 20048 net.cpp:380] ip3 -> ip3
I0404 03:48:27.415127 20048 net.cpp:122] Setting up ip3
I0404 03:48:27.415138 20048 net.cpp:129] Top shape: 100 10 (1000)
I0404 03:48:27.415144 20048 net.cpp:137] Memory required for data: 3837600
I0404 03:48:27.415158 20048 layer_factory.hpp:77] Creating layer ip3_ip3_0_split
I0404 03:48:27.415169 20048 net.cpp:84] Creating Layer ip3_ip3_0_split
I0404 03:48:27.415176 20048 net.cpp:406] ip3_ip3_0_split <- ip3
I0404 03:48:27.415186 20048 net.cpp:380] ip3_ip3_0_split -> ip3_ip3_0_split_0
I0404 03:48:27.415199 20048 net.cpp:380] ip3_ip3_0_split -> ip3_ip3_0_split_1
I0404 03:48:27.415215 20048 net.cpp:122] Setting up ip3_ip3_0_split
I0404 03:48:27.415223 20048 net.cpp:129] Top shape: 100 10 (1000)
I0404 03:48:27.415232 20048 net.cpp:129] Top shape: 100 10 (1000)
I0404 03:48:27.415241 20048 net.cpp:137] Memory required for data: 3853600
I0404 03:48:27.415247 20048 layer_factory.hpp:77] Creating layer accuracy
I0404 03:48:27.415258 20048 net.cpp:84] Creating Layer accuracy
I0404 03:48:27.415266 20048 net.cpp:406] accuracy <- ip3_ip3_0_split_0
I0404 03:48:27.415273 20048 net.cpp:406] accuracy <- label_mnist_1_split_0
I0404 03:48:27.415287 20048 net.cpp:380] accuracy -> accuracy
…
