…
  layer {
    name: "mnist"
    type: "Data"
    top: "data"
    top: "label"
    include {
      phase: TRAIN
    }
    transform_param {
      scale: 0.00390625
    }
    data_param {
      source: "data/mnist_train_lmdb"
      batch_size: 100
      backend: LMDB
    }
  }
  layer {
    name: "mnist"
    type: "Data"
    top: "data"
    top: "label"
    include {
      phase: TEST
    }
    transform_param {
      scale: 0.00390625
    }
    data_param {
      source: "data/mnist_test_lmdb"
      batch_size: 100
      backend: LMDB
    }
  }
  layer {
    name: "ip1"
    type: "InnerProduct"
    bottom: "data"
    top: "ip1"
    inner_product_param {
      num_output: 1000
      weight_filler {
        type: "gaussian"
        mean: 0
        std: 0.01
      }
    }
    bias_param {
      filler {
        value: 0
      }
    }
    fixed_precision: true
    precision {
      enter: 1
      fraccio: 10
      rounding: "stochastic"
    }
  }
  layer {
    name: "relu1"
    type: "ReLU"
    bottom: "ip1"
    top: "ip1"
    fixed_precision: true
    precision {
      enter: 1
      fraccio: 10
      rounding: "stochastic"
    }
  }
  layer {
    name: "ip2"
    type: "InnerProduct"
    bottom: "ip1"
    top: "ip2"
    inner_product_param {
      num_output: 1000
      weight_filler {
        type: "gaussian"
        mean: 0
        std: 0.01
      }
    }
    bias_param {
      filler {
        value: 0
      }
    }
    fixed_precision: true
    precision {
      enter: 1
      fraccio: 10
      rounding: "stochastic"
    }
  }
  layer {
    name: "relu2"
    type: "ReLU"
    bottom: "ip2"
    top: "ip2"
    bias_param {
      filler {
        value: 0
      }
    }
    fixed_precision: true
    precision {
      enter: 1
      fraccio: 10
      rounding: "stochastic"
    }
  }
  layer {
    name: "ip3"
    type: "InnerProduct"
    bottom: "ip2"
    top: "ip3"
    inner_product_param {
      num_output: 10
      weight_filler {
        type: "gaussian"
        mean: 0
        std: 0.01
      }
    }
    bias_param {
      filler {
        value: 0
      }
    }
    fixed_precision: true
    precision {
      enter: 1
      fraccio: 10
      rounding: "stochastic"
    }
  }
  layer {
    name: "accuracy"
    type: "Accuracy"
    bottom: "ip3"
    bottom: "label"
    top: "accuracy"
  }
  layer {
    name: "loss"
    type: "SoftmaxWithLoss"
    bottom: "ip3"
    bottom: "label"
    top: "loss"
    fixed_precision: true
    precision {
      enter: 1
      fraccio: 10
      rounding: "stochastic"
    }
  }
}
train_state {
  level: 0
  stage: ""
}
fixed_precision: true
precision {
  enter: 1
  fraccio: 10
  rounding: "stochastic"
}
I0404 04:42:57.622012 23140 solver.cpp:82] Creating training net specified in net_param.
I0404 04:42:57.622071 23140 net.cpp:294] The NetState phase (0) differed from the phase (1) specified by a rule in layer mnist
I0404 04:42:57.622234 23140 net.cpp:51] Initializing net from parameters: 
name: "LeNet"
state {
  phase: TRAIN
  level: 0
  stage: ""
}
layer {
  name: "mnist"
  type: "Data"
  top: "data"
  top: "label"
  include {
    phase: TRAIN
  }
  transform_param {
    scale: 0.00390625
  }
  data_param {
    source: "data/mnist_train_lmdb"
    batch_size: 100
    backend: LMDB
  }
}
layer {
  name: "ip1"
  type: "InnerProduct"
  bottom: "data"
  top: "ip1"
  inner_product_param {
    num_output: 1000
    weight_filler {
      type: "gaussian"
      mean: 0
      std: 0.01
    }
  }
  bias_param {
    filler {
      value: 0
    }
  }
  fixed_precision: true
  precision {
    enter: 1
    fraccio: 10
    rounding: "stochastic"
  }
}
layer {
  name: "relu1"
  type: "ReLU"
  bottom: "ip1"
  top: "ip1"
  fixed_precision: true
  precision {
    enter: 1
    fraccio: 10
    rounding: "stochastic"
  }
}
layer {
  name: "ip2"
  type: "InnerProduct"
  bottom: "ip1"
  top: "ip2"
  inner_product_param {
    num_output: 1000
    weight_filler {
      type: "gaussian"
      mean: 0
      std: 0.01
    }
  }
  bias_param {
    filler {
      value: 0
    }
  }
  fixed_precision: true
  precision {
    enter: 1
    fraccio: 10
    rounding: "stochastic"
  }
}
layer {
  name: "relu2"
  type: "ReLU"
  bottom: "ip2"
  top: "ip2"
  bias_param {
    filler {
      value: 0
    }
  }
  fixed_precision: true
  precision {
    enter: 1
    fraccio: 10
    rounding: "stochastic"
  }
}
layer {
  name: "ip3"
  type: "InnerProduct"
  bottom: "ip2"
  top: "ip3"
  inner_product_param {
    num_output: 10
    weight_filler {
      type: "gaussian"
      mean: 0
      std: 0.01
    }
  }
  bias_param {
    filler {
      value: 0
    }
  }
  fixed_precision: true
  precision {
    enter: 1
    fraccio: 10
    rounding: "stochastic"
  }
}
layer {
  name: "accuracy"
  type: "Accuracy"
  bottom: "ip3"
  bottom: "label"
  top: "accuracy"
}
layer {
  name: "loss"
  type: "SoftmaxWithLoss"
  bottom: "ip3"
  bottom: "label"
  top: "loss"
  fixed_precision: true
  precision {
    enter: 1
    fraccio: 10
    rounding: "stochastic"
  }
}
I0404 04:42:57.622356 23140 layer_factory.hpp:77] Creating layer mnist
I0404 04:42:57.622473 23140 db_lmdb.cpp:35] Opened lmdb data/mnist_train_lmdb
I0404 04:42:57.622503 23140 net.cpp:84] Creating Layer mnist
I0404 04:42:57.622515 23140 net.cpp:380] mnist -> data
I0404 04:42:57.622545 23140 net.cpp:380] mnist -> label
I0404 04:42:57.622581 23140 data_layer.cpp:45] output data size: 100,1,28,28
I0404 04:42:57.624260 23140 net.cpp:122] Setting up mnist
I0404 04:42:57.624284 23140 net.cpp:129] Top shape: 100 1 28 28 (78400)
I0404 04:42:57.624294 23140 net.cpp:129] Top shape: 100 (100)
I0404 04:42:57.624300 23140 net.cpp:137] Memory required for data: 628000
I0404 04:42:57.624311 23140 layer_factory.hpp:77] Creating layer label_mnist_1_split
I0404 04:42:57.624327 23140 net.cpp:84] Creating Layer label_mnist_1_split
I0404 04:42:57.624336 23140 net.cpp:406] label_mnist_1_split <- label
I0404 04:42:57.624351 23140 net.cpp:380] label_mnist_1_split -> label_mnist_1_split_0
I0404 04:42:57.624364 23140 net.cpp:380] label_mnist_1_split -> label_mnist_1_split_1
I0404 04:42:57.624377 23140 net.cpp:122] Setting up label_mnist_1_split
I0404 04:42:57.624387 23140 net.cpp:129] Top shape: 100 (100)
I0404 04:42:57.624395 23140 net.cpp:129] Top shape: 100 (100)
I0404 04:42:57.624402 23140 net.cpp:137] Memory required for data: 629600
I0404 04:42:57.624409 23140 layer_factory.hpp:77] Creating layer ip1
I0404 04:42:57.624425 23140 net.cpp:84] Creating Layer ip1
I0404 04:42:57.624433 23140 net.cpp:406] ip1 <- data
I0404 04:42:57.624444 23140 net.cpp:380] ip1 -> ip1
I0404 04:42:57.748160 23140 net.cpp:122] Setting up ip1
I0404 04:42:57.748199 23140 net.cpp:129] Top shape: 100 1000 (100000)
I0404 04:42:57.748208 23140 net.cpp:137] Memory required for data: 1429600
I0404 04:42:57.748229 23140 layer_factory.hpp:77] Creating layer relu1
I0404 04:42:57.748246 23140 net.cpp:84] Creating Layer relu1
I0404 04:42:57.748256 23140 net.cpp:406] relu1 <- ip1
I0404 04:42:57.748268 23140 net.cpp:367] relu1 -> ip1 (in-place)
I0404 04:42:57.748288 23140 net.cpp:122] Setting up relu1
I0404 04:42:57.748297 23140 net.cpp:129] Top shape: 100 1000 (100000)
I0404 04:42:57.748306 23140 net.cpp:137] Memory required for data: 2229600
I0404 04:42:57.748313 23140 layer_factory.hpp:77] Creating layer ip2
I0404 04:42:57.748328 23140 net.cpp:84] Creating Layer ip2
I0404 04:42:57.748335 23140 net.cpp:406] ip2 <- ip1
I0404 04:42:57.748347 23140 net.cpp:380] ip2 -> ip2
I0404 04:42:57.847833 23140 net.cpp:122] Setting up ip2
I0404 04:42:57.847870 23140 net.cpp:129] Top shape: 100 1000 (100000)
I0404 04:42:57.847892 23140 net.cpp:137] Memory required for data: 3029600
I0404 04:42:57.847913 23140 layer_factory.hpp:77] Creating layer relu2
I0404 04:42:57.847930 23140 net.cpp:84] Creating Layer relu2
I0404 04:42:57.847944 23140 net.cpp:406] relu2 <- ip2
I0404 04:42:57.847956 23140 net.cpp:367] relu2 -> ip2 (in-place)
I0404 04:42:57.847981 23140 net.cpp:122] Setting up relu2
I0404 04:42:57.848001 23140 net.cpp:129] Top shape: 100 1000 (100000)
I0404 04:42:57.848008 23140 net.cpp:137] Memory required for data: 3829600
I0404 04:42:57.848016 23140 layer_factory.hpp:77] Creating layer ip3
I0404 04:42:57.848028 23140 net.cpp:84] Creating Layer ip3
I0404 04:42:57.848037 23140 net.cpp:406] ip3 <- ip2
I0404 04:42:57.848047 23140 net.cpp:380] ip3 -> ip3
I0404 04:42:57.849110 23140 net.cpp:122] Setting up ip3
I0404 04:42:57.849124 23140 net.cpp:129] Top shape: 100 10 (1000)
I0404 04:42:57.849133 23140 net.cpp:137] Memory required for data: 3837600
I0404 04:42:57.849146 23140 layer_factory.hpp:77] Creating layer ip3_ip3_0_split
I0404 04:42:57.849159 23140 net.cpp:84] Creating Layer ip3_ip3_0_split
I0404 04:42:57.849166 23140 net.cpp:406] ip3_ip3_0_split <- ip3
I0404 04:42:57.849176 23140 net.cpp:380] ip3_ip3_0_split -> ip3_ip3_0_split_0
I0404 04:42:57.849189 23140 net.cpp:380] ip3_ip3_0_split -> ip3_ip3_0_split_1
I0404 04:42:57.849206 23140 net.cpp:122] Setting up ip3_ip3_0_split
I0404 04:42:57.849215 23140 net.cpp:129] Top shape: 100 10 (1000)
I0404 04:42:57.849226 23140 net.cpp:129] Top shape: 100 10 (1000)
I0404 04:42:57.849234 23140 net.cpp:137] Memory required for data: 3853600
I0404 04:42:57.849258 23140 layer_factory.hpp:77] Creating layer accuracy
I0404 04:42:57.849273 23140 net.cpp:84] Creating Layer accuracy
I0404 04:42:57.849280 23140 net.cpp:406] accuracy <- ip3_ip3_0_split_0
I0404 04:42:57.849289 23140 net.cpp:406] accuracy <- label_mnist_1_split_0
I0404 04:42:57.849303 23140 net.cpp:380] accuracy -> accuracy
…
