…
  layer {
    name: "mnist"
    type: "Data"
    top: "data"
    top: "label"
    include {
      phase: TRAIN
    }
    transform_param {
      scale: 0.00390625
    }
    data_param {
      source: "data/mnist_train_lmdb"
      batch_size: 100
      backend: LMDB
    }
  }
  layer {
    name: "mnist"
    type: "Data"
    top: "data"
    top: "label"
    include {
      phase: TEST
    }
    transform_param {
      scale: 0.00390625
    }
    data_param {
      source: "data/mnist_test_lmdb"
      batch_size: 100
      backend: LMDB
    }
  }
  layer {
    name: "ip1"
    type: "InnerProduct"
    bottom: "data"
    top: "ip1"
    inner_product_param {
      num_output: 1000
      weight_filler {
        type: "gaussian"
        mean: 0
        std: 0.01
      }
    }
    bias_param {
      filler {
        value: 0
      }
    }
    fixed_precision: true
    precision {
      enter: 1
      fraccio: 10
      rounding: "stochastic"
    }
  }
  layer {
    name: "relu1"
    type: "ReLU"
    bottom: "ip1"
    top: "ip1"
    fixed_precision: true
    precision {
      enter: 1
      fraccio: 10
      rounding: "stochastic"
    }
  }
  layer {
    name: "ip2"
    type: "InnerProduct"
    bottom: "ip1"
    top: "ip2"
    inner_product_param {
      num_output: 1000
      weight_filler {
        type: "gaussian"
        mean: 0
        std: 0.01
      }
    }
    bias_param {
      filler {
        value: 0
      }
    }
    fixed_precision: true
    precision {
      enter: 1
      fraccio: 10
      rounding: "stochastic"
    }
  }
  layer {
    name: "relu2"
    type: "ReLU"
    bottom: "ip2"
    top: "ip2"
    bias_param {
      filler {
        value: 0
      }
    }
    fixed_precision: true
    precision {
      enter: 1
      fraccio: 10
      rounding: "stochastic"
    }
  }
  layer {
    name: "ip3"
    type: "InnerProduct"
    bottom: "ip2"
    top: "ip3"
    inner_product_param {
      num_output: 10
      weight_filler {
        type: "gaussian"
        mean: 0
        std: 0.01
      }
    }
    bias_param {
      filler {
        value: 0
      }
    }
    fixed_precision: true
    precision {
      enter: 1
      fraccio: 10
      rounding: "stochastic"
    }
  }
  layer {
    name: "accuracy"
    type: "Accuracy"
    bottom: "ip3"
    bottom: "label"
    top: "accuracy"
  }
  layer {
    name: "loss"
    type: "SoftmaxWithLoss"
    bottom: "ip3"
    bottom: "label"
    top: "loss"
    fixed_precision: true
    precision {
      enter: 1
      fraccio: 10
      rounding: "stochastic"
    }
  }
}
train_state {
  level: 0
  stage: ""
}
fixed_precision: true
precision {
  enter: 1
  fraccio: 10
  rounding: "stochastic"
}
I0404 06:31:06.552809 29376 solver.cpp:82] Creating training net specified in net_param.
I0404 06:31:06.552870 29376 net.cpp:294] The NetState phase (0) differed from the phase (1) specified by a rule in layer mnist
I0404 06:31:06.553055 29376 net.cpp:51] Initializing net from parameters: 
name: "LeNet"
state {
  phase: TRAIN
  level: 0
  stage: ""
}
layer {
  name: "mnist"
  type: "Data"
  top: "data"
  top: "label"
  include {
    phase: TRAIN
  }
  transform_param {
    scale: 0.00390625
  }
  data_param {
    source: "data/mnist_train_lmdb"
    batch_size: 100
    backend: LMDB
  }
}
layer {
  name: "ip1"
  type: "InnerProduct"
  bottom: "data"
  top: "ip1"
  inner_product_param {
    num_output: 1000
    weight_filler {
      type: "gaussian"
      mean: 0
      std: 0.01
    }
  }
  bias_param {
    filler {
      value: 0
    }
  }
  fixed_precision: true
  precision {
    enter: 1
    fraccio: 10
    rounding: "stochastic"
  }
}
layer {
  name: "relu1"
  type: "ReLU"
  bottom: "ip1"
  top: "ip1"
  fixed_precision: true
  precision {
    enter: 1
    fraccio: 10
    rounding: "stochastic"
  }
}
layer {
  name: "ip2"
  type: "InnerProduct"
  bottom: "ip1"
  top: "ip2"
  inner_product_param {
    num_output: 1000
    weight_filler {
      type: "gaussian"
      mean: 0
      std: 0.01
    }
  }
  bias_param {
    filler {
      value: 0
    }
  }
  fixed_precision: true
  precision {
    enter: 1
    fraccio: 10
    rounding: "stochastic"
  }
}
layer {
  name: "relu2"
  type: "ReLU"
  bottom: "ip2"
  top: "ip2"
  bias_param {
    filler {
      value: 0
    }
  }
  fixed_precision: true
  precision {
    enter: 1
    fraccio: 10
    rounding: "stochastic"
  }
}
layer {
  name: "ip3"
  type: "InnerProduct"
  bottom: "ip2"
  top: "ip3"
  inner_product_param {
    num_output: 10
    weight_filler {
      type: "gaussian"
      mean: 0
      std: 0.01
    }
  }
  bias_param {
    filler {
      value: 0
    }
  }
  fixed_precision: true
  precision {
    enter: 1
    fraccio: 10
    rounding: "stochastic"
  }
}
layer {
  name: "accuracy"
  type: "Accuracy"
  bottom: "ip3"
  bottom: "label"
  top: "accuracy"
}
layer {
  name: "loss"
  type: "SoftmaxWithLoss"
  bottom: "ip3"
  bottom: "label"
  top: "loss"
  fixed_precision: true
  precision {
    enter: 1
    fraccio: 10
    rounding: "stochastic"
  }
}
I0404 06:31:06.553186 29376 layer_factory.hpp:77] Creating layer mnist
I0404 06:31:06.553314 29376 db_lmdb.cpp:35] Opened lmdb data/mnist_train_lmdb
I0404 06:31:06.553345 29376 net.cpp:84] Creating Layer mnist
I0404 06:31:06.553357 29376 net.cpp:380] mnist -> data
I0404 06:31:06.553386 29376 net.cpp:380] mnist -> label
I0404 06:31:06.553424 29376 data_layer.cpp:45] output data size: 100,1,28,28
I0404 06:31:06.555163 29376 net.cpp:122] Setting up mnist
I0404 06:31:06.555188 29376 net.cpp:129] Top shape: 100 1 28 28 (78400)
I0404 06:31:06.555198 29376 net.cpp:129] Top shape: 100 (100)
I0404 06:31:06.555207 29376 net.cpp:137] Memory required for data: 628000
I0404 06:31:06.555217 29376 layer_factory.hpp:77] Creating layer label_mnist_1_split
I0404 06:31:06.555234 29376 net.cpp:84] Creating Layer label_mnist_1_split
I0404 06:31:06.555243 29376 net.cpp:406] label_mnist_1_split <- label
I0404 06:31:06.555258 29376 net.cpp:380] label_mnist_1_split -> label_mnist_1_split_0
I0404 06:31:06.555270 29376 net.cpp:380] label_mnist_1_split -> label_mnist_1_split_1
I0404 06:31:06.555289 29376 net.cpp:122] Setting up label_mnist_1_split
I0404 06:31:06.555299 29376 net.cpp:129] Top shape: 100 (100)
I0404 06:31:06.555307 29376 net.cpp:129] Top shape: 100 (100)
I0404 06:31:06.555315 29376 net.cpp:137] Memory required for data: 629600
I0404 06:31:06.555321 29376 layer_factory.hpp:77] Creating layer ip1
I0404 06:31:06.555333 29376 net.cpp:84] Creating Layer ip1
I0404 06:31:06.555341 29376 net.cpp:406] ip1 <- data
I0404 06:31:06.555351 29376 net.cpp:380] ip1 -> ip1
I0404 06:31:06.666178 29376 net.cpp:122] Setting up ip1
I0404 06:31:06.666218 29376 net.cpp:129] Top shape: 100 1000 (100000)
I0404 06:31:06.666226 29376 net.cpp:137] Memory required for data: 1429600
I0404 06:31:06.666249 29376 layer_factory.hpp:77] Creating layer relu1
I0404 06:31:06.666266 29376 net.cpp:84] Creating Layer relu1
I0404 06:31:06.666276 29376 net.cpp:406] relu1 <- ip1
I0404 06:31:06.666290 29376 net.cpp:367] relu1 -> ip1 (in-place)
I0404 06:31:06.666312 29376 net.cpp:122] Setting up relu1
I0404 06:31:06.666322 29376 net.cpp:129] Top shape: 100 1000 (100000)
I0404 06:31:06.666330 29376 net.cpp:137] Memory required for data: 2229600
I0404 06:31:06.666338 29376 layer_factory.hpp:77] Creating layer ip2
I0404 06:31:06.666353 29376 net.cpp:84] Creating Layer ip2
I0404 06:31:06.666360 29376 net.cpp:406] ip2 <- ip1
I0404 06:31:06.666371 29376 net.cpp:380] ip2 -> ip2
I0404 06:31:06.770965 29376 net.cpp:122] Setting up ip2
I0404 06:31:06.771001 29376 net.cpp:129] Top shape: 100 1000 (100000)
I0404 06:31:06.771009 29376 net.cpp:137] Memory required for data: 3029600
I0404 06:31:06.771026 29376 layer_factory.hpp:77] Creating layer relu2
I0404 06:31:06.771044 29376 net.cpp:84] Creating Layer relu2
I0404 06:31:06.771054 29376 net.cpp:406] relu2 <- ip2
I0404 06:31:06.771067 29376 net.cpp:367] relu2 -> ip2 (in-place)
I0404 06:31:06.771091 29376 net.cpp:122] Setting up relu2
I0404 06:31:06.771111 29376 net.cpp:129] Top shape: 100 1000 (100000)
I0404 06:31:06.771119 29376 net.cpp:137] Memory required for data: 3829600
I0404 06:31:06.771126 29376 layer_factory.hpp:77] Creating layer ip3
I0404 06:31:06.771140 29376 net.cpp:84] Creating Layer ip3
I0404 06:31:06.771148 29376 net.cpp:406] ip3 <- ip2
I0404 06:31:06.771159 29376 net.cpp:380] ip3 -> ip3
I0404 06:31:06.772217 29376 net.cpp:122] Setting up ip3
I0404 06:31:06.772244 29376 net.cpp:129] Top shape: 100 10 (1000)
I0404 06:31:06.772255 29376 net.cpp:137] Memory required for data: 3837600
I0404 06:31:06.772270 29376 layer_factory.hpp:77] Creating layer ip3_ip3_0_split
I0404 06:31:06.772282 29376 net.cpp:84] Creating Layer ip3_ip3_0_split
I0404 06:31:06.772290 29376 net.cpp:406] ip3_ip3_0_split <- ip3
I0404 06:31:06.772301 29376 net.cpp:380] ip3_ip3_0_split -> ip3_ip3_0_split_0
I0404 06:31:06.772315 29376 net.cpp:380] ip3_ip3_0_split -> ip3_ip3_0_split_1
I0404 06:31:06.772330 29376 net.cpp:122] Setting up ip3_ip3_0_split
I0404 06:31:06.772341 29376 net.cpp:129] Top shape: 100 10 (1000)
I0404 06:31:06.772351 29376 net.cpp:129] Top shape: 100 10 (1000)
I0404 06:31:06.772359 29376 net.cpp:137] Memory required for data: 3853600
I0404 06:31:06.772367 29376 layer_factory.hpp:77] Creating layer accuracy
I0404 06:31:06.772378 29376 net.cpp:84] Creating Layer accuracy
I0404 06:31:06.772387 29376 net.cpp:406] accuracy <- ip3_ip3_0_split_0
I0404 06:31:06.772395 29376 net.cpp:406] accuracy <- label_mnist_1_split_0
I0404 06:31:06.772408 29376 net.cpp:380] accuracy -> accuracy
…
