…
  layer {
    name: "mnist"
    type: "Data"
    top: "data"
    top: "label"
    include {
      phase: TRAIN
    }
    transform_param {
      scale: 0.00390625
    }
    data_param {
      source: "data/mnist_train_lmdb"
      batch_size: 100
      backend: LMDB
    }
  }
  layer {
    name: "mnist"
    type: "Data"
    top: "data"
    top: "label"
    include {
      phase: TEST
    }
    transform_param {
      scale: 0.00390625
    }
    data_param {
      source: "data/mnist_test_lmdb"
      batch_size: 100
      backend: LMDB
    }
  }
  layer {
    name: "ip1"
    type: "InnerProduct"
    bottom: "data"
    top: "ip1"
    inner_product_param {
      num_output: 1000
      weight_filler {
        type: "gaussian"
        mean: 0
        std: 0.01
      }
    }
    bias_param {
      filler {
        value: 0
      }
    }
    fixed_precision: true
    precision {
      enter: 1
      fraccio: 10
      rounding: "stochastic"
    }
  }
  layer {
    name: "relu1"
    type: "ReLU"
    bottom: "ip1"
    top: "ip1"
    fixed_precision: true
    precision {
      enter: 1
      fraccio: 10
      rounding: "stochastic"
    }
  }
  layer {
    name: "ip2"
    type: "InnerProduct"
    bottom: "ip1"
    top: "ip2"
    inner_product_param {
      num_output: 1000
      weight_filler {
        type: "gaussian"
        mean: 0
        std: 0.01
      }
    }
    bias_param {
      filler {
        value: 0
      }
    }
    fixed_precision: true
    precision {
      enter: 1
      fraccio: 10
      rounding: "stochastic"
    }
  }
  layer {
    name: "relu2"
    type: "ReLU"
    bottom: "ip2"
    top: "ip2"
    bias_param {
      filler {
        value: 0
      }
    }
    fixed_precision: true
    precision {
      enter: 1
      fraccio: 10
      rounding: "stochastic"
    }
  }
  layer {
    name: "ip3"
    type: "InnerProduct"
    bottom: "ip2"
    top: "ip3"
    inner_product_param {
      num_output: 10
      weight_filler {
        type: "gaussian"
        mean: 0
        std: 0.01
      }
    }
    bias_param {
      filler {
        value: 0
      }
    }
    fixed_precision: true
    precision {
      enter: 1
      fraccio: 10
      rounding: "stochastic"
    }
  }
  layer {
    name: "accuracy"
    type: "Accuracy"
    bottom: "ip3"
    bottom: "label"
    top: "accuracy"
  }
  layer {
    name: "loss"
    type: "SoftmaxWithLoss"
    bottom: "ip3"
    bottom: "label"
    top: "loss"
    fixed_precision: true
    precision {
      enter: 1
      fraccio: 10
      rounding: "stochastic"
    }
  }
}
train_state {
  level: 0
  stage: ""
}
fixed_precision: true
precision {
  enter: 1
  fraccio: 10
  rounding: "stochastic"
}
I0404 02:53:39.063496 16895 solver.cpp:82] Creating training net specified in net_param.
I0404 02:53:39.063558 16895 net.cpp:294] The NetState phase (0) differed from the phase (1) specified by a rule in layer mnist
I0404 02:53:39.063724 16895 net.cpp:51] Initializing net from parameters: 
name: "LeNet"
state {
  phase: TRAIN
  level: 0
  stage: ""
}
layer {
  name: "mnist"
  type: "Data"
  top: "data"
  top: "label"
  include {
    phase: TRAIN
  }
  transform_param {
    scale: 0.00390625
  }
  data_param {
    source: "data/mnist_train_lmdb"
    batch_size: 100
    backend: LMDB
  }
}
layer {
  name: "ip1"
  type: "InnerProduct"
  bottom: "data"
  top: "ip1"
  inner_product_param {
    num_output: 1000
    weight_filler {
      type: "gaussian"
      mean: 0
      std: 0.01
    }
  }
  bias_param {
    filler {
      value: 0
    }
  }
  fixed_precision: true
  precision {
    enter: 1
    fraccio: 10
    rounding: "stochastic"
  }
}
layer {
  name: "relu1"
  type: "ReLU"
  bottom: "ip1"
  top: "ip1"
  fixed_precision: true
  precision {
    enter: 1
    fraccio: 10
    rounding: "stochastic"
  }
}
layer {
  name: "ip2"
  type: "InnerProduct"
  bottom: "ip1"
  top: "ip2"
  inner_product_param {
    num_output: 1000
    weight_filler {
      type: "gaussian"
      mean: 0
      std: 0.01
    }
  }
  bias_param {
    filler {
      value: 0
    }
  }
  fixed_precision: true
  precision {
    enter: 1
    fraccio: 10
    rounding: "stochastic"
  }
}
layer {
  name: "relu2"
  type: "ReLU"
  bottom: "ip2"
  top: "ip2"
  bias_param {
    filler {
      value: 0
    }
  }
  fixed_precision: true
  precision {
    enter: 1
    fraccio: 10
    rounding: "stochastic"
  }
}
layer {
  name: "ip3"
  type: "InnerProduct"
  bottom: "ip2"
  top: "ip3"
  inner_product_param {
    num_output: 10
    weight_filler {
      type: "gaussian"
      mean: 0
      std: 0.01
    }
  }
  bias_param {
    filler {
      value: 0
    }
  }
  fixed_precision: true
  precision {
    enter: 1
    fraccio: 10
    rounding: "stochastic"
  }
}
layer {
  name: "accuracy"
  type: "Accuracy"
  bottom: "ip3"
  bottom: "label"
  top: "accuracy"
}
layer {
  name: "loss"
  type: "SoftmaxWithLoss"
  bottom: "ip3"
  bottom: "label"
  top: "loss"
  fixed_precision: true
  precision {
    enter: 1
    fraccio: 10
    rounding: "stochastic"
  }
}
I0404 02:53:39.063855 16895 layer_factory.hpp:77] Creating layer mnist
I0404 02:53:39.063982 16895 db_lmdb.cpp:35] Opened lmdb data/mnist_train_lmdb
I0404 02:53:39.064014 16895 net.cpp:84] Creating Layer mnist
I0404 02:53:39.064028 16895 net.cpp:380] mnist -> data
I0404 02:53:39.064059 16895 net.cpp:380] mnist -> label
I0404 02:53:39.064103 16895 data_layer.cpp:45] output data size: 100,1,28,28
I0404 02:53:39.067432 16895 net.cpp:122] Setting up mnist
I0404 02:53:39.067469 16895 net.cpp:129] Top shape: 100 1 28 28 (78400)
I0404 02:53:39.067481 16895 net.cpp:129] Top shape: 100 (100)
I0404 02:53:39.067488 16895 net.cpp:137] Memory required for data: 628000
I0404 02:53:39.067500 16895 layer_factory.hpp:77] Creating layer label_mnist_1_split
I0404 02:53:39.067519 16895 net.cpp:84] Creating Layer label_mnist_1_split
I0404 02:53:39.067529 16895 net.cpp:406] label_mnist_1_split <- label
I0404 02:53:39.067543 16895 net.cpp:380] label_mnist_1_split -> label_mnist_1_split_0
I0404 02:53:39.067558 16895 net.cpp:380] label_mnist_1_split -> label_mnist_1_split_1
I0404 02:53:39.067571 16895 net.cpp:122] Setting up label_mnist_1_split
I0404 02:53:39.067581 16895 net.cpp:129] Top shape: 100 (100)
I0404 02:53:39.067590 16895 net.cpp:129] Top shape: 100 (100)
I0404 02:53:39.067597 16895 net.cpp:137] Memory required for data: 629600
I0404 02:53:39.067605 16895 layer_factory.hpp:77] Creating layer ip1
I0404 02:53:39.067618 16895 net.cpp:84] Creating Layer ip1
I0404 02:53:39.067626 16895 net.cpp:406] ip1 <- data
I0404 02:53:39.067636 16895 net.cpp:380] ip1 -> ip1
I0404 02:53:39.208195 16895 net.cpp:122] Setting up ip1
I0404 02:53:39.208241 16895 net.cpp:129] Top shape: 100 1000 (100000)
I0404 02:53:39.208247 16895 net.cpp:137] Memory required for data: 1429600
I0404 02:53:39.208266 16895 layer_factory.hpp:77] Creating layer relu1
I0404 02:53:39.208277 16895 net.cpp:84] Creating Layer relu1
I0404 02:53:39.208283 16895 net.cpp:406] relu1 <- ip1
I0404 02:53:39.208292 16895 net.cpp:367] relu1 -> ip1 (in-place)
I0404 02:53:39.208308 16895 net.cpp:122] Setting up relu1
I0404 02:53:39.208315 16895 net.cpp:129] Top shape: 100 1000 (100000)
I0404 02:53:39.208320 16895 net.cpp:137] Memory required for data: 2229600
I0404 02:53:39.208324 16895 layer_factory.hpp:77] Creating layer ip2
I0404 02:53:39.208334 16895 net.cpp:84] Creating Layer ip2
I0404 02:53:39.208338 16895 net.cpp:406] ip2 <- ip1
I0404 02:53:39.208345 16895 net.cpp:380] ip2 -> ip2
I0404 02:53:39.301209 16895 net.cpp:122] Setting up ip2
I0404 02:53:39.301254 16895 net.cpp:129] Top shape: 100 1000 (100000)
I0404 02:53:39.301270 16895 net.cpp:137] Memory required for data: 3029600
I0404 02:53:39.301286 16895 layer_factory.hpp:77] Creating layer relu2
I0404 02:53:39.301298 16895 net.cpp:84] Creating Layer relu2
I0404 02:53:39.301306 16895 net.cpp:406] relu2 <- ip2
I0404 02:53:39.301313 16895 net.cpp:367] relu2 -> ip2 (in-place)
I0404 02:53:39.301340 16895 net.cpp:122] Setting up relu2
I0404 02:53:39.301363 16895 net.cpp:129] Top shape: 100 1000 (100000)
I0404 02:53:39.301367 16895 net.cpp:137] Memory required for data: 3829600
I0404 02:53:39.301372 16895 layer_factory.hpp:77] Creating layer ip3
I0404 02:53:39.301378 16895 net.cpp:84] Creating Layer ip3
I0404 02:53:39.301383 16895 net.cpp:406] ip3 <- ip2
I0404 02:53:39.301388 16895 net.cpp:380] ip3 -> ip3
I0404 02:53:39.302292 16895 net.cpp:122] Setting up ip3
I0404 02:53:39.302302 16895 net.cpp:129] Top shape: 100 10 (1000)
I0404 02:53:39.302316 16895 net.cpp:137] Memory required for data: 3837600
I0404 02:53:39.302325 16895 layer_factory.hpp:77] Creating layer ip3_ip3_0_split
I0404 02:53:39.302331 16895 net.cpp:84] Creating Layer ip3_ip3_0_split
I0404 02:53:39.302335 16895 net.cpp:406] ip3_ip3_0_split <- ip3
I0404 02:53:39.302345 16895 net.cpp:380] ip3_ip3_0_split -> ip3_ip3_0_split_0
I0404 02:53:39.302351 16895 net.cpp:380] ip3_ip3_0_split -> ip3_ip3_0_split_1
I0404 02:53:39.302359 16895 net.cpp:122] Setting up ip3_ip3_0_split
I0404 02:53:39.302364 16895 net.cpp:129] Top shape: 100 10 (1000)
I0404 02:53:39.302369 16895 net.cpp:129] Top shape: 100 10 (1000)
I0404 02:53:39.302373 16895 net.cpp:137] Memory required for data: 3853600
I0404 02:53:39.302376 16895 layer_factory.hpp:77] Creating layer accuracy
I0404 02:53:39.302383 16895 net.cpp:84] Creating Layer accuracy
I0404 02:53:39.302387 16895 net.cpp:406] accuracy <- ip3_ip3_0_split_0
I0404 02:53:39.302392 16895 net.cpp:406] accuracy <- label_mnist_1_split_0
I0404 02:53:39.302398 16895 net.cpp:380] accuracy -> accuracy
…
