…
  layer {
    name: "mnist"
    type: "Data"
    top: "data"
    top: "label"
    include {
      phase: TRAIN
    }
    transform_param {
      scale: 0.00390625
    }
    data_param {
      source: "data/mnist_train_lmdb"
      batch_size: 100
      backend: LMDB
    }
  }
  layer {
    name: "mnist"
    type: "Data"
    top: "data"
    top: "label"
    include {
      phase: TEST
    }
    transform_param {
      scale: 0.00390625
    }
    data_param {
      source: "data/mnist_test_lmdb"
      batch_size: 100
      backend: LMDB
    }
  }
  layer {
    name: "ip1"
    type: "InnerProduct"
    bottom: "data"
    top: "ip1"
    inner_product_param {
      num_output: 1000
      weight_filler {
        type: "gaussian"
        mean: 0
        std: 0.01
      }
    }
    bias_param {
      filler {
        value: 0
      }
    }
    fixed_precision: true
    precision {
      enter: 1
      fraccio: 10
      rounding: "stochastic"
    }
  }
  layer {
    name: "relu1"
    type: "ReLU"
    bottom: "ip1"
    top: "ip1"
    fixed_precision: true
    precision {
      enter: 1
      fraccio: 10
      rounding: "stochastic"
    }
  }
  layer {
    name: "ip2"
    type: "InnerProduct"
    bottom: "ip1"
    top: "ip2"
    inner_product_param {
      num_output: 1000
      weight_filler {
        type: "gaussian"
        mean: 0
        std: 0.01
      }
    }
    bias_param {
      filler {
        value: 0
      }
    }
    fixed_precision: true
    precision {
      enter: 1
      fraccio: 10
      rounding: "stochastic"
    }
  }
  layer {
    name: "relu2"
    type: "ReLU"
    bottom: "ip2"
    top: "ip2"
    bias_param {
      filler {
        value: 0
      }
    }
    fixed_precision: true
    precision {
      enter: 1
      fraccio: 10
      rounding: "stochastic"
    }
  }
  layer {
    name: "ip3"
    type: "InnerProduct"
    bottom: "ip2"
    top: "ip3"
    inner_product_param {
      num_output: 10
      weight_filler {
        type: "gaussian"
        mean: 0
        std: 0.01
      }
    }
    bias_param {
      filler {
        value: 0
      }
    }
    fixed_precision: true
    precision {
      enter: 1
      fraccio: 10
      rounding: "stochastic"
    }
  }
  layer {
    name: "accuracy"
    type: "Accuracy"
    bottom: "ip3"
    bottom: "label"
    top: "accuracy"
  }
  layer {
    name: "loss"
    type: "SoftmaxWithLoss"
    bottom: "ip3"
    bottom: "label"
    top: "loss"
    fixed_precision: true
    precision {
      enter: 1
      fraccio: 10
      rounding: "stochastic"
    }
  }
}
train_state {
  level: 0
  stage: ""
}
fixed_precision: true
precision {
  enter: 1
  fraccio: 10
  rounding: "stochastic"
}
I0404 05:37:10.053798 26267 solver.cpp:82] Creating training net specified in net_param.
I0404 05:37:10.053858 26267 net.cpp:294] The NetState phase (0) differed from the phase (1) specified by a rule in layer mnist
I0404 05:37:10.054025 26267 net.cpp:51] Initializing net from parameters: 
name: "LeNet"
state {
  phase: TRAIN
  level: 0
  stage: ""
}
layer {
  name: "mnist"
  type: "Data"
  top: "data"
  top: "label"
  include {
    phase: TRAIN
  }
  transform_param {
    scale: 0.00390625
  }
  data_param {
    source: "data/mnist_train_lmdb"
    batch_size: 100
    backend: LMDB
  }
}
layer {
  name: "ip1"
  type: "InnerProduct"
  bottom: "data"
  top: "ip1"
  inner_product_param {
    num_output: 1000
    weight_filler {
      type: "gaussian"
      mean: 0
      std: 0.01
    }
  }
  bias_param {
    filler {
      value: 0
    }
  }
  fixed_precision: true
  precision {
    enter: 1
    fraccio: 10
    rounding: "stochastic"
  }
}
layer {
  name: "relu1"
  type: "ReLU"
  bottom: "ip1"
  top: "ip1"
  fixed_precision: true
  precision {
    enter: 1
    fraccio: 10
    rounding: "stochastic"
  }
}
layer {
  name: "ip2"
  type: "InnerProduct"
  bottom: "ip1"
  top: "ip2"
  inner_product_param {
    num_output: 1000
    weight_filler {
      type: "gaussian"
      mean: 0
      std: 0.01
    }
  }
  bias_param {
    filler {
      value: 0
    }
  }
  fixed_precision: true
  precision {
    enter: 1
    fraccio: 10
    rounding: "stochastic"
  }
}
layer {
  name: "relu2"
  type: "ReLU"
  bottom: "ip2"
  top: "ip2"
  bias_param {
    filler {
      value: 0
    }
  }
  fixed_precision: true
  precision {
    enter: 1
    fraccio: 10
    rounding: "stochastic"
  }
}
layer {
  name: "ip3"
  type: "InnerProduct"
  bottom: "ip2"
  top: "ip3"
  inner_product_param {
    num_output: 10
    weight_filler {
      type: "gaussian"
      mean: 0
      std: 0.01
    }
  }
  bias_param {
    filler {
      value: 0
    }
  }
  fixed_precision: true
  precision {
    enter: 1
    fraccio: 10
    rounding: "stochastic"
  }
}
layer {
  name: "accuracy"
  type: "Accuracy"
  bottom: "ip3"
  bottom: "label"
  top: "accuracy"
}
layer {
  name: "loss"
  type: "SoftmaxWithLoss"
  bottom: "ip3"
  bottom: "label"
  top: "loss"
  fixed_precision: true
  precision {
    enter: 1
    fraccio: 10
    rounding: "stochastic"
  }
}
I0404 05:37:10.054150 26267 layer_factory.hpp:77] Creating layer mnist
I0404 05:37:10.054270 26267 db_lmdb.cpp:35] Opened lmdb data/mnist_train_lmdb
I0404 05:37:10.054298 26267 net.cpp:84] Creating Layer mnist
I0404 05:37:10.054311 26267 net.cpp:380] mnist -> data
I0404 05:37:10.054338 26267 net.cpp:380] mnist -> label
I0404 05:37:10.054379 26267 data_layer.cpp:45] output data size: 100,1,28,28
I0404 05:37:10.056125 26267 net.cpp:122] Setting up mnist
I0404 05:37:10.056149 26267 net.cpp:129] Top shape: 100 1 28 28 (78400)
I0404 05:37:10.056159 26267 net.cpp:129] Top shape: 100 (100)
I0404 05:37:10.056165 26267 net.cpp:137] Memory required for data: 628000
I0404 05:37:10.056176 26267 layer_factory.hpp:77] Creating layer label_mnist_1_split
I0404 05:37:10.056192 26267 net.cpp:84] Creating Layer label_mnist_1_split
I0404 05:37:10.056201 26267 net.cpp:406] label_mnist_1_split <- label
I0404 05:37:10.056216 26267 net.cpp:380] label_mnist_1_split -> label_mnist_1_split_0
I0404 05:37:10.056228 26267 net.cpp:380] label_mnist_1_split -> label_mnist_1_split_1
I0404 05:37:10.056241 26267 net.cpp:122] Setting up label_mnist_1_split
I0404 05:37:10.056251 26267 net.cpp:129] Top shape: 100 (100)
I0404 05:37:10.056259 26267 net.cpp:129] Top shape: 100 (100)
I0404 05:37:10.056267 26267 net.cpp:137] Memory required for data: 629600
I0404 05:37:10.056273 26267 layer_factory.hpp:77] Creating layer ip1
I0404 05:37:10.056284 26267 net.cpp:84] Creating Layer ip1
I0404 05:37:10.056293 26267 net.cpp:406] ip1 <- data
I0404 05:37:10.056303 26267 net.cpp:380] ip1 -> ip1
I0404 05:37:10.168303 26267 net.cpp:122] Setting up ip1
I0404 05:37:10.168349 26267 net.cpp:129] Top shape: 100 1000 (100000)
I0404 05:37:10.168357 26267 net.cpp:137] Memory required for data: 1429600
I0404 05:37:10.168382 26267 layer_factory.hpp:77] Creating layer relu1
I0404 05:37:10.168400 26267 net.cpp:84] Creating Layer relu1
I0404 05:37:10.168411 26267 net.cpp:406] relu1 <- ip1
I0404 05:37:10.168422 26267 net.cpp:367] relu1 -> ip1 (in-place)
I0404 05:37:10.168447 26267 net.cpp:122] Setting up relu1
I0404 05:37:10.168457 26267 net.cpp:129] Top shape: 100 1000 (100000)
I0404 05:37:10.168463 26267 net.cpp:137] Memory required for data: 2229600
I0404 05:37:10.168472 26267 layer_factory.hpp:77] Creating layer ip2
I0404 05:37:10.168488 26267 net.cpp:84] Creating Layer ip2
I0404 05:37:10.168494 26267 net.cpp:406] ip2 <- ip1
I0404 05:37:10.168505 26267 net.cpp:380] ip2 -> ip2
I0404 05:37:10.270339 26267 net.cpp:122] Setting up ip2
I0404 05:37:10.270375 26267 net.cpp:129] Top shape: 100 1000 (100000)
I0404 05:37:10.270382 26267 net.cpp:137] Memory required for data: 3029600
I0404 05:37:10.270401 26267 layer_factory.hpp:77] Creating layer relu2
I0404 05:37:10.270433 26267 net.cpp:84] Creating Layer relu2
I0404 05:37:10.270445 26267 net.cpp:406] relu2 <- ip2
I0404 05:37:10.270457 26267 net.cpp:367] relu2 -> ip2 (in-place)
I0404 05:37:10.270481 26267 net.cpp:122] Setting up relu2
I0404 05:37:10.270503 26267 net.cpp:129] Top shape: 100 1000 (100000)
I0404 05:37:10.270514 26267 net.cpp:137] Memory required for data: 3829600
I0404 05:37:10.270520 26267 layer_factory.hpp:77] Creating layer ip3
I0404 05:37:10.270534 26267 net.cpp:84] Creating Layer ip3
I0404 05:37:10.270543 26267 net.cpp:406] ip3 <- ip2
I0404 05:37:10.270553 26267 net.cpp:380] ip3 -> ip3
I0404 05:37:10.271648 26267 net.cpp:122] Setting up ip3
I0404 05:37:10.271662 26267 net.cpp:129] Top shape: 100 10 (1000)
I0404 05:37:10.271669 26267 net.cpp:137] Memory required for data: 3837600
I0404 05:37:10.271684 26267 layer_factory.hpp:77] Creating layer ip3_ip3_0_split
I0404 05:37:10.271697 26267 net.cpp:84] Creating Layer ip3_ip3_0_split
I0404 05:37:10.271704 26267 net.cpp:406] ip3_ip3_0_split <- ip3
I0404 05:37:10.271715 26267 net.cpp:380] ip3_ip3_0_split -> ip3_ip3_0_split_0
I0404 05:37:10.271744 26267 net.cpp:380] ip3_ip3_0_split -> ip3_ip3_0_split_1
I0404 05:37:10.271760 26267 net.cpp:122] Setting up ip3_ip3_0_split
I0404 05:37:10.271771 26267 net.cpp:129] Top shape: 100 10 (1000)
I0404 05:37:10.271781 26267 net.cpp:129] Top shape: 100 10 (1000)
I0404 05:37:10.271790 26267 net.cpp:137] Memory required for data: 3853600
I0404 05:37:10.271796 26267 layer_factory.hpp:77] Creating layer accuracy
I0404 05:37:10.271809 26267 net.cpp:84] Creating Layer accuracy
I0404 05:37:10.271816 26267 net.cpp:406] accuracy <- ip3_ip3_0_split_0
I0404 05:37:10.271826 26267 net.cpp:406] accuracy <- label_mnist_1_split_0
I0404 05:37:10.271838 26267 net.cpp:380] accuracy -> accuracy
…
