…
  layer {
    name: "mnist"
    type: "Data"
    top: "data"
    top: "label"
    include {
      phase: TRAIN
    }
    transform_param {
      scale: 0.00390625
    }
    data_param {
      source: "data/mnist_train_lmdb"
      batch_size: 100
      backend: LMDB
    }
  }
  layer {
    name: "mnist"
    type: "Data"
    top: "data"
    top: "label"
    include {
      phase: TEST
    }
    transform_param {
      scale: 0.00390625
    }
    data_param {
      source: "data/mnist_test_lmdb"
      batch_size: 100
      backend: LMDB
    }
  }
  layer {
    name: "ip1"
    type: "InnerProduct"
    bottom: "data"
    top: "ip1"
    inner_product_param {
      num_output: 1000
      weight_filler {
        type: "gaussian"
        mean: 0
        std: 0.1
      }
    }
    bias_param {
      filler {
        value: 0
      }
    }
    floating_point: true
    fpoint {
      exp: 2
      mant: 5
      rounding: "stochastic"
    }
  }
  layer {
    name: "relu1"
    type: "ReLU"
    bottom: "ip1"
    top: "ip1"
    floating_point: true
    fpoint {
      exp: 2
      mant: 5
      rounding: "stochastic"
    }
  }
  layer {
    name: "ip2"
    type: "InnerProduct"
    bottom: "ip1"
    top: "ip2"
    inner_product_param {
      num_output: 1000
      weight_filler {
        type: "gaussian"
        mean: 0
        std: 0.1
      }
    }
    bias_param {
      filler {
        value: 0
      }
    }
    floating_point: true
    fpoint {
      exp: 2
      mant: 5
      rounding: "stochastic"
    }
  }
  layer {
    name: "relu2"
    type: "ReLU"
    bottom: "ip2"
    top: "ip2"
    bias_param {
      filler {
        value: 0
      }
    }
    floating_point: true
    fpoint {
      exp: 2
      mant: 5
      rounding: "stochastic"
    }
  }
  layer {
    name: "ip3"
    type: "InnerProduct"
    bottom: "ip2"
    top: "ip3"
    inner_product_param {
      num_output: 10
      weight_filler {
        type: "gaussian"
        mean: 0
        std: 0.1
      }
    }
    bias_param {
      filler {
        value: 0
      }
    }
    floating_point: true
    fpoint {
      exp: 2
      mant: 5
      rounding: "stochastic"
    }
  }
  layer {
    name: "accuracy"
    type: "Accuracy"
    bottom: "ip3"
    bottom: "label"
    top: "accuracy"
  }
  layer {
    name: "loss"
    type: "SoftmaxWithLoss"
    bottom: "ip3"
    bottom: "label"
    top: "loss"
    floating_point: true
    fpoint {
      exp: 2
      mant: 5
      rounding: "stochastic"
    }
  }
}
train_state {
  level: 0
  stage: ""
}
floating_point: true
fpoint {
  exp: 2
  mant: 5
  rounding: "stochastic"
}
I0503 20:51:08.098562 26062 solver.cpp:82] Creating training net specified in net_param.
I0503 20:51:08.098629 26062 net.cpp:294] The NetState phase (0) differed from the phase (1) specified by a rule in layer mnist
I0503 20:51:08.098759 26062 net.cpp:51] Initializing net from parameters: 
name: "LeNet"
state {
  phase: TRAIN
  level: 0
  stage: ""
}
layer {
  name: "mnist"
  type: "Data"
  top: "data"
  top: "label"
  include {
    phase: TRAIN
  }
  transform_param {
    scale: 0.00390625
  }
  data_param {
    source: "data/mnist_train_lmdb"
    batch_size: 100
    backend: LMDB
  }
}
layer {
  name: "ip1"
  type: "InnerProduct"
  bottom: "data"
  top: "ip1"
  inner_product_param {
    num_output: 1000
    weight_filler {
      type: "gaussian"
      mean: 0
      std: 0.1
    }
  }
  bias_param {
    filler {
      value: 0
    }
  }
  floating_point: true
  fpoint {
    exp: 2
    mant: 5
    rounding: "stochastic"
  }
}
layer {
  name: "relu1"
  type: "ReLU"
  bottom: "ip1"
  top: "ip1"
  floating_point: true
  fpoint {
    exp: 2
    mant: 5
    rounding: "stochastic"
  }
}
layer {
  name: "ip2"
  type: "InnerProduct"
  bottom: "ip1"
  top: "ip2"
  inner_product_param {
    num_output: 1000
    weight_filler {
      type: "gaussian"
      mean: 0
      std: 0.1
    }
  }
  bias_param {
    filler {
      value: 0
    }
  }
  floating_point: true
  fpoint {
    exp: 2
    mant: 5
    rounding: "stochastic"
  }
}
layer {
  name: "relu2"
  type: "ReLU"
  bottom: "ip2"
  top: "ip2"
  bias_param {
    filler {
      value: 0
    }
  }
  floating_point: true
  fpoint {
    exp: 2
    mant: 5
    rounding: "stochastic"
  }
}
layer {
  name: "ip3"
  type: "InnerProduct"
  bottom: "ip2"
  top: "ip3"
  inner_product_param {
    num_output: 10
    weight_filler {
      type: "gaussian"
      mean: 0
      std: 0.1
    }
  }
  bias_param {
    filler {
      value: 0
    }
  }
  floating_point: true
  fpoint {
    exp: 2
    mant: 5
    rounding: "stochastic"
  }
}
layer {
  name: "accuracy"
  type: "Accuracy"
  bottom: "ip3"
  bottom: "label"
  top: "accuracy"
}
layer {
  name: "loss"
  type: "SoftmaxWithLoss"
  bottom: "ip3"
  bottom: "label"
  top: "loss"
  floating_point: true
  fpoint {
    exp: 2
    mant: 5
    rounding: "stochastic"
  }
}
I0503 20:51:08.100344 26062 layer_factory.hpp:77] Creating layer mnist
I0503 20:51:08.103094 26062 db_lmdb.cpp:35] Opened lmdb data/mnist_train_lmdb
I0503 20:51:08.103610 26062 net.cpp:84] Creating Layer mnist
I0503 20:51:08.103647 26062 net.cpp:380] mnist -> data
I0503 20:51:08.103698 26062 net.cpp:380] mnist -> label
I0503 20:51:08.103766 26062 data_layer.cpp:45] output data size: 100,1,28,28
I0503 20:51:08.105621 26062 net.cpp:122] Setting up mnist
I0503 20:51:08.105681 26062 net.cpp:129] Top shape: 100 1 28 28 (78400)
I0503 20:51:08.105697 26062 net.cpp:129] Top shape: 100 (100)
I0503 20:51:08.105708 26062 net.cpp:137] Memory required for data: 628000
I0503 20:51:08.105726 26062 layer_factory.hpp:77] Creating layer label_mnist_1_split
I0503 20:51:08.105749 26062 net.cpp:84] Creating Layer label_mnist_1_split
I0503 20:51:08.105763 26062 net.cpp:406] label_mnist_1_split <- label
I0503 20:51:08.105787 26062 net.cpp:380] label_mnist_1_split -> label_mnist_1_split_0
I0503 20:51:08.105806 26062 net.cpp:380] label_mnist_1_split -> label_mnist_1_split_1
I0503 20:51:08.105826 26062 net.cpp:122] Setting up label_mnist_1_split
I0503 20:51:08.105840 26062 net.cpp:129] Top shape: 100 (100)
I0503 20:51:08.105852 26062 net.cpp:129] Top shape: 100 (100)
I0503 20:51:08.105862 26062 net.cpp:137] Memory required for data: 629600
I0503 20:51:08.105873 26062 layer_factory.hpp:77] Creating layer ip1
I0503 20:51:08.105896 26062 net.cpp:84] Creating Layer ip1
I0503 20:51:08.105909 26062 net.cpp:406] ip1 <- data
I0503 20:51:08.105924 26062 net.cpp:380] ip1 -> ip1
I0503 20:51:08.128800 26062 net.cpp:122] Setting up ip1
I0503 20:51:08.128878 26062 net.cpp:129] Top shape: 100 1000 (100000)
I0503 20:51:08.128890 26062 net.cpp:137] Memory required for data: 1429600
I0503 20:51:08.128921 26062 layer_factory.hpp:77] Creating layer relu1
I0503 20:51:08.128947 26062 net.cpp:84] Creating Layer relu1
I0503 20:51:08.128962 26062 net.cpp:406] relu1 <- ip1
I0503 20:51:08.128978 26062 net.cpp:367] relu1 -> ip1 (in-place)
I0503 20:51:08.128996 26062 net.cpp:122] Setting up relu1
I0503 20:51:08.129009 26062 net.cpp:129] Top shape: 100 1000 (100000)
I0503 20:51:08.129020 26062 net.cpp:137] Memory required for data: 2229600
I0503 20:51:08.129030 26062 layer_factory.hpp:77] Creating layer ip2
I0503 20:51:08.129050 26062 net.cpp:84] Creating Layer ip2
I0503 20:51:08.129062 26062 net.cpp:406] ip2 <- ip1
I0503 20:51:08.129077 26062 net.cpp:380] ip2 -> ip2
I0503 20:51:08.154631 26062 net.cpp:122] Setting up ip2
I0503 20:51:08.154719 26062 net.cpp:129] Top shape: 100 1000 (100000)
I0503 20:51:08.154731 26062 net.cpp:137] Memory required for data: 3029600
I0503 20:51:08.154755 26062 layer_factory.hpp:77] Creating layer relu2
I0503 20:51:08.154781 26062 net.cpp:84] Creating Layer relu2
I0503 20:51:08.154794 26062 net.cpp:406] relu2 <- ip2
I0503 20:51:08.154813 26062 net.cpp:367] relu2 -> ip2 (in-place)
I0503 20:51:08.154834 26062 net.cpp:122] Setting up relu2
I0503 20:51:08.154847 26062 net.cpp:129] Top shape: 100 1000 (100000)
I0503 20:51:08.154901 26062 net.cpp:137] Memory required for data: 3829600
I0503 20:51:08.154913 26062 layer_factory.hpp:77] Creating layer ip3
I0503 20:51:08.154932 26062 net.cpp:84] Creating Layer ip3
I0503 20:51:08.154943 26062 net.cpp:406] ip3 <- ip2
I0503 20:51:08.154958 26062 net.cpp:380] ip3 -> ip3
I0503 20:51:08.155256 26062 net.cpp:122] Setting up ip3
I0503 20:51:08.155280 26062 net.cpp:129] Top shape: 100 10 (1000)
I0503 20:51:08.155292 26062 net.cpp:137] Memory required for data: 3837600
I0503 20:51:08.155308 26062 layer_factory.hpp:77] Creating layer ip3_ip3_0_split
I0503 20:51:08.155324 26062 net.cpp:84] Creating Layer ip3_ip3_0_split
I0503 20:51:08.155336 26062 net.cpp:406] ip3_ip3_0_split <- ip3
I0503 20:51:08.155350 26062 net.cpp:380] ip3_ip3_0_split -> ip3_ip3_0_split_0
I0503 20:51:08.155372 26062 net.cpp:380] ip3_ip3_0_split -> ip3_ip3_0_split_1
I0503 20:51:08.155391 26062 net.cpp:122] Setting up ip3_ip3_0_split
I0503 20:51:08.155406 26062 net.cpp:129] Top shape: 100 10 (1000)
I0503 20:51:08.155418 26062 net.cpp:129] Top shape: 100 10 (1000)
I0503 20:51:08.155428 26062 net.cpp:137] Memory required for data: 3853600
I0503 20:51:08.155439 26062 layer_factory.hpp:77] Creating layer accuracy
I0503 20:51:08.155467 26062 net.cpp:84] Creating Layer accuracy
I0503 20:51:08.155478 26062 net.cpp:406] accuracy <- ip3_ip3_0_split_0
I0503 20:51:08.155491 26062 net.cpp:406] accuracy <- label_mnist_1_split_0
I0503 20:51:08.155504 26062 net.cpp:380] accuracy -> accuracy
…
