…
  layer {
    name: "mnist"
    type: "Data"
    top: "data"
    top: "label"
    include {
      phase: TRAIN
    }
    transform_param {
      scale: 0.00390625
    }
    data_param {
      source: "data/mnist_train_lmdb"
      batch_size: 100
      backend: LMDB
    }
  }
  layer {
    name: "mnist"
    type: "Data"
    top: "data"
    top: "label"
    include {
      phase: TEST
    }
    transform_param {
      scale: 0.00390625
    }
    data_param {
      source: "data/mnist_test_lmdb"
      batch_size: 100
      backend: LMDB
    }
  }
  layer {
    name: "ip1"
    type: "InnerProduct"
    bottom: "data"
    top: "ip1"
    inner_product_param {
      num_output: 1000
      weight_filler {
        type: "gaussian"
        mean: 0
        std: 0.01
      }
    }
    bias_param {
      filler {
        value: 0
      }
    }
    fixed_precision: true
    precision {
      enter: 0
      fraccio: 10
      rounding: "stochastic"
    }
  }
  layer {
    name: "relu1"
    type: "ReLU"
    bottom: "ip1"
    top: "ip1"
    fixed_precision: true
    precision {
      enter: 0
      fraccio: 10
      rounding: "stochastic"
    }
  }
  layer {
    name: "ip2"
    type: "InnerProduct"
    bottom: "ip1"
    top: "ip2"
    inner_product_param {
      num_output: 1000
      weight_filler {
        type: "gaussian"
        mean: 0
        std: 0.01
      }
    }
    bias_param {
      filler {
        value: 0
      }
    }
    fixed_precision: true
    precision {
      enter: 0
      fraccio: 10
      rounding: "stochastic"
    }
  }
  layer {
    name: "relu2"
    type: "ReLU"
    bottom: "ip2"
    top: "ip2"
    bias_param {
      filler {
        value: 0
      }
    }
    fixed_precision: true
    precision {
      enter: 0
      fraccio: 10
      rounding: "stochastic"
    }
  }
  layer {
    name: "ip3"
    type: "InnerProduct"
    bottom: "ip2"
    top: "ip3"
    inner_product_param {
      num_output: 10
      weight_filler {
        type: "gaussian"
        mean: 0
        std: 0.01
      }
    }
    bias_param {
      filler {
        value: 0
      }
    }
    fixed_precision: true
    precision {
      enter: 0
      fraccio: 10
      rounding: "stochastic"
    }
  }
  layer {
    name: "accuracy"
    type: "Accuracy"
    bottom: "ip3"
    bottom: "label"
    top: "accuracy"
  }
  layer {
    name: "loss"
    type: "SoftmaxWithLoss"
    bottom: "ip3"
    bottom: "label"
    top: "loss"
    fixed_precision: true
    precision {
      enter: 0
      fraccio: 10
      rounding: "stochastic"
    }
  }
}
train_state {
  level: 0
  stage: ""
}
fixed_precision: true
precision {
  enter: 1
  fraccio: 10
  rounding: "stochastic"
}
I0405 20:13:38.648476 29587 solver.cpp:82] Creating training net specified in net_param.
I0405 20:13:38.648538 29587 net.cpp:294] The NetState phase (0) differed from the phase (1) specified by a rule in layer mnist
I0405 20:13:38.648690 29587 net.cpp:51] Initializing net from parameters: 
name: "LeNet"
state {
  phase: TRAIN
  level: 0
  stage: ""
}
layer {
  name: "mnist"
  type: "Data"
  top: "data"
  top: "label"
  include {
    phase: TRAIN
  }
  transform_param {
    scale: 0.00390625
  }
  data_param {
    source: "data/mnist_train_lmdb"
    batch_size: 100
    backend: LMDB
  }
}
layer {
  name: "ip1"
  type: "InnerProduct"
  bottom: "data"
  top: "ip1"
  inner_product_param {
    num_output: 1000
    weight_filler {
      type: "gaussian"
      mean: 0
      std: 0.01
    }
  }
  bias_param {
    filler {
      value: 0
    }
  }
  fixed_precision: true
  precision {
    enter: 0
    fraccio: 10
    rounding: "stochastic"
  }
}
layer {
  name: "relu1"
  type: "ReLU"
  bottom: "ip1"
  top: "ip1"
  fixed_precision: true
  precision {
    enter: 0
    fraccio: 10
    rounding: "stochastic"
  }
}
layer {
  name: "ip2"
  type: "InnerProduct"
  bottom: "ip1"
  top: "ip2"
  inner_product_param {
    num_output: 1000
    weight_filler {
      type: "gaussian"
      mean: 0
      std: 0.01
    }
  }
  bias_param {
    filler {
      value: 0
    }
  }
  fixed_precision: true
  precision {
    enter: 0
    fraccio: 10
    rounding: "stochastic"
  }
}
layer {
  name: "relu2"
  type: "ReLU"
  bottom: "ip2"
  top: "ip2"
  bias_param {
    filler {
      value: 0
    }
  }
  fixed_precision: true
  precision {
    enter: 0
    fraccio: 10
    rounding: "stochastic"
  }
}
layer {
  name: "ip3"
  type: "InnerProduct"
  bottom: "ip2"
  top: "ip3"
  inner_product_param {
    num_output: 10
    weight_filler {
      type: "gaussian"
      mean: 0
      std: 0.01
    }
  }
  bias_param {
    filler {
      value: 0
    }
  }
  fixed_precision: true
  precision {
    enter: 0
    fraccio: 10
    rounding: "stochastic"
  }
}
layer {
  name: "accuracy"
  type: "Accuracy"
  bottom: "ip3"
  bottom: "label"
  top: "accuracy"
}
layer {
  name: "loss"
  type: "SoftmaxWithLoss"
  bottom: "ip3"
  bottom: "label"
  top: "loss"
  fixed_precision: true
  precision {
    enter: 0
    fraccio: 10
    rounding: "stochastic"
  }
}
I0405 20:13:38.648802 29587 layer_factory.hpp:77] Creating layer mnist
I0405 20:13:38.648977 29587 db_lmdb.cpp:35] Opened lmdb data/mnist_train_lmdb
I0405 20:13:38.649021 29587 net.cpp:84] Creating Layer mnist
I0405 20:13:38.649039 29587 net.cpp:380] mnist -> data
I0405 20:13:38.649076 29587 net.cpp:380] mnist -> label
I0405 20:13:38.649129 29587 data_layer.cpp:45] output data size: 100,1,28,28
I0405 20:13:38.650846 29587 net.cpp:122] Setting up mnist
I0405 20:13:38.650874 29587 net.cpp:129] Top shape: 100 1 28 28 (78400)
I0405 20:13:38.650884 29587 net.cpp:129] Top shape: 100 (100)
I0405 20:13:38.650892 29587 net.cpp:137] Memory required for data: 628000
I0405 20:13:38.650903 29587 layer_factory.hpp:77] Creating layer label_mnist_1_split
I0405 20:13:38.650921 29587 net.cpp:84] Creating Layer label_mnist_1_split
I0405 20:13:38.650930 29587 net.cpp:406] label_mnist_1_split <- label
I0405 20:13:38.650944 29587 net.cpp:380] label_mnist_1_split -> label_mnist_1_split_0
I0405 20:13:38.650957 29587 net.cpp:380] label_mnist_1_split -> label_mnist_1_split_1
I0405 20:13:38.650970 29587 net.cpp:122] Setting up label_mnist_1_split
I0405 20:13:38.650980 29587 net.cpp:129] Top shape: 100 (100)
I0405 20:13:38.650988 29587 net.cpp:129] Top shape: 100 (100)
I0405 20:13:38.650995 29587 net.cpp:137] Memory required for data: 629600
I0405 20:13:38.651001 29587 layer_factory.hpp:77] Creating layer ip1
I0405 20:13:38.651017 29587 net.cpp:84] Creating Layer ip1
I0405 20:13:38.651026 29587 net.cpp:406] ip1 <- data
I0405 20:13:38.651034 29587 net.cpp:380] ip1 -> ip1
I0405 20:13:38.766340 29587 net.cpp:122] Setting up ip1
I0405 20:13:38.766382 29587 net.cpp:129] Top shape: 100 1000 (100000)
I0405 20:13:38.766392 29587 net.cpp:137] Memory required for data: 1429600
I0405 20:13:38.766414 29587 layer_factory.hpp:77] Creating layer relu1
I0405 20:13:38.766430 29587 net.cpp:84] Creating Layer relu1
I0405 20:13:38.766440 29587 net.cpp:406] relu1 <- ip1
I0405 20:13:38.766449 29587 net.cpp:367] relu1 -> ip1 (in-place)
I0405 20:13:38.766468 29587 net.cpp:122] Setting up relu1
I0405 20:13:38.766476 29587 net.cpp:129] Top shape: 100 1000 (100000)
I0405 20:13:38.766480 29587 net.cpp:137] Memory required for data: 2229600
I0405 20:13:38.766486 29587 layer_factory.hpp:77] Creating layer ip2
I0405 20:13:38.766497 29587 net.cpp:84] Creating Layer ip2
I0405 20:13:38.766504 29587 net.cpp:406] ip2 <- ip1
I0405 20:13:38.766511 29587 net.cpp:380] ip2 -> ip2
I0405 20:13:38.863993 29587 net.cpp:122] Setting up ip2
I0405 20:13:38.864034 29587 net.cpp:129] Top shape: 100 1000 (100000)
I0405 20:13:38.864040 29587 net.cpp:137] Memory required for data: 3029600
I0405 20:13:38.864054 29587 layer_factory.hpp:77] Creating layer relu2
I0405 20:13:38.864068 29587 net.cpp:84] Creating Layer relu2
I0405 20:13:38.864074 29587 net.cpp:406] relu2 <- ip2
I0405 20:13:38.864091 29587 net.cpp:367] relu2 -> ip2 (in-place)
I0405 20:13:38.864112 29587 net.cpp:122] Setting up relu2
I0405 20:13:38.864118 29587 net.cpp:129] Top shape: 100 1000 (100000)
I0405 20:13:38.864122 29587 net.cpp:137] Memory required for data: 3829600
I0405 20:13:38.864126 29587 layer_factory.hpp:77] Creating layer ip3
I0405 20:13:38.864133 29587 net.cpp:84] Creating Layer ip3
I0405 20:13:38.864138 29587 net.cpp:406] ip3 <- ip2
I0405 20:13:38.864143 29587 net.cpp:380] ip3 -> ip3
I0405 20:13:38.865120 29587 net.cpp:122] Setting up ip3
I0405 20:13:38.865129 29587 net.cpp:129] Top shape: 100 10 (1000)
I0405 20:13:38.865134 29587 net.cpp:137] Memory required for data: 3837600
I0405 20:13:38.865141 29587 layer_factory.hpp:77] Creating layer ip3_ip3_0_split
I0405 20:13:38.865147 29587 net.cpp:84] Creating Layer ip3_ip3_0_split
I0405 20:13:38.865151 29587 net.cpp:406] ip3_ip3_0_split <- ip3
I0405 20:13:38.865157 29587 net.cpp:380] ip3_ip3_0_split -> ip3_ip3_0_split_0
I0405 20:13:38.865164 29587 net.cpp:380] ip3_ip3_0_split -> ip3_ip3_0_split_1
I0405 20:13:38.865173 29587 net.cpp:122] Setting up ip3_ip3_0_split
I0405 20:13:38.865178 29587 net.cpp:129] Top shape: 100 10 (1000)
I0405 20:13:38.865183 29587 net.cpp:129] Top shape: 100 10 (1000)
I0405 20:13:38.865186 29587 net.cpp:137] Memory required for data: 3853600
I0405 20:13:38.865190 29587 layer_factory.hpp:77] Creating layer accuracy
I0405 20:13:38.865197 29587 net.cpp:84] Creating Layer accuracy
I0405 20:13:38.865201 29587 net.cpp:406] accuracy <- ip3_ip3_0_split_0
I0405 20:13:38.865206 29587 net.cpp:406] accuracy <- label_mnist_1_split_0
I0405 20:13:38.865212 29587 net.cpp:380] accuracy -> accuracy
…
