…
  layer {
    name: "mnist"
    type: "Data"
    top: "data"
    top: "label"
    include {
      phase: TRAIN
    }
    transform_param {
      scale: 0.00390625
    }
    data_param {
      source: "data/mnist_train_lmdb"
      batch_size: 100
      backend: LMDB
    }
  }
  layer {
    name: "mnist"
    type: "Data"
    top: "data"
    top: "label"
    include {
      phase: TEST
    }
    transform_param {
      scale: 0.00390625
    }
    data_param {
      source: "data/mnist_test_lmdb"
      batch_size: 100
      backend: LMDB
    }
  }
  layer {
    name: "ip1"
    type: "InnerProduct"
    bottom: "data"
    top: "ip1"
    inner_product_param {
      num_output: 1000
      weight_filler {
        type: "gaussian"
        mean: 0
        std: 0.01
      }
    }
    bias_param {
      filler {
        value: 0
      }
    }
    fixed_precision: true
    precision {
      enter: 1
      fraccio: 9
      rounding: "stochastic"
    }
  }
  layer {
    name: "relu1"
    type: "ReLU"
    bottom: "ip1"
    top: "ip1"
    fixed_precision: true
    precision {
      enter: 1
      fraccio: 9
      rounding: "stochastic"
    }
  }
  layer {
    name: "ip2"
    type: "InnerProduct"
    bottom: "ip1"
    top: "ip2"
    inner_product_param {
      num_output: 1000
      weight_filler {
        type: "gaussian"
        mean: 0
        std: 0.01
      }
    }
    bias_param {
      filler {
        value: 0
      }
    }
    fixed_precision: true
    precision {
      enter: 1
      fraccio: 9
      rounding: "stochastic"
    }
  }
  layer {
    name: "relu2"
    type: "ReLU"
    bottom: "ip2"
    top: "ip2"
    bias_param {
      filler {
        value: 0
      }
    }
    fixed_precision: true
    precision {
      enter: 1
      fraccio: 9
      rounding: "stochastic"
    }
  }
  layer {
    name: "ip3"
    type: "InnerProduct"
    bottom: "ip2"
    top: "ip3"
    inner_product_param {
      num_output: 10
      weight_filler {
        type: "gaussian"
        mean: 0
        std: 0.01
      }
    }
    bias_param {
      filler {
        value: 0
      }
    }
    fixed_precision: true
    precision {
      enter: 1
      fraccio: 9
      rounding: "stochastic"
    }
  }
  layer {
    name: "accuracy"
    type: "Accuracy"
    bottom: "ip3"
    bottom: "label"
    top: "accuracy"
  }
  layer {
    name: "loss"
    type: "SoftmaxWithLoss"
    bottom: "ip3"
    bottom: "label"
    top: "loss"
    fixed_precision: true
    precision {
      enter: 1
      fraccio: 9
      rounding: "stochastic"
    }
  }
}
train_state {
  level: 0
  stage: ""
}
fixed_precision: true
precision {
  enter: 1
  fraccio: 9
  rounding: "stochastic"
}
I0406 05:09:02.938673 25856 solver.cpp:82] Creating training net specified in net_param.
I0406 05:09:02.938740 25856 net.cpp:294] The NetState phase (0) differed from the phase (1) specified by a rule in layer mnist
I0406 05:09:02.938915 25856 net.cpp:51] Initializing net from parameters: 
name: "LeNet"
state {
  phase: TRAIN
  level: 0
  stage: ""
}
layer {
  name: "mnist"
  type: "Data"
  top: "data"
  top: "label"
  include {
    phase: TRAIN
  }
  transform_param {
    scale: 0.00390625
  }
  data_param {
    source: "data/mnist_train_lmdb"
    batch_size: 100
    backend: LMDB
  }
}
layer {
  name: "ip1"
  type: "InnerProduct"
  bottom: "data"
  top: "ip1"
  inner_product_param {
    num_output: 1000
    weight_filler {
      type: "gaussian"
      mean: 0
      std: 0.01
    }
  }
  bias_param {
    filler {
      value: 0
    }
  }
  fixed_precision: true
  precision {
    enter: 1
    fraccio: 9
    rounding: "stochastic"
  }
}
layer {
  name: "relu1"
  type: "ReLU"
  bottom: "ip1"
  top: "ip1"
  fixed_precision: true
  precision {
    enter: 1
    fraccio: 9
    rounding: "stochastic"
  }
}
layer {
  name: "ip2"
  type: "InnerProduct"
  bottom: "ip1"
  top: "ip2"
  inner_product_param {
    num_output: 1000
    weight_filler {
      type: "gaussian"
      mean: 0
      std: 0.01
    }
  }
  bias_param {
    filler {
      value: 0
    }
  }
  fixed_precision: true
  precision {
    enter: 1
    fraccio: 9
    rounding: "stochastic"
  }
}
layer {
  name: "relu2"
  type: "ReLU"
  bottom: "ip2"
  top: "ip2"
  bias_param {
    filler {
      value: 0
    }
  }
  fixed_precision: true
  precision {
    enter: 1
    fraccio: 9
    rounding: "stochastic"
  }
}
layer {
  name: "ip3"
  type: "InnerProduct"
  bottom: "ip2"
  top: "ip3"
  inner_product_param {
    num_output: 10
    weight_filler {
      type: "gaussian"
      mean: 0
      std: 0.01
    }
  }
  bias_param {
    filler {
      value: 0
    }
  }
  fixed_precision: true
  precision {
    enter: 1
    fraccio: 9
    rounding: "stochastic"
  }
}
layer {
  name: "accuracy"
  type: "Accuracy"
  bottom: "ip3"
  bottom: "label"
  top: "accuracy"
}
layer {
  name: "loss"
  type: "SoftmaxWithLoss"
  bottom: "ip3"
  bottom: "label"
  top: "loss"
  fixed_precision: true
  precision {
    enter: 1
    fraccio: 9
    rounding: "stochastic"
  }
}
I0406 05:09:02.939052 25856 layer_factory.hpp:77] Creating layer mnist
I0406 05:09:02.939182 25856 db_lmdb.cpp:35] Opened lmdb data/mnist_train_lmdb
I0406 05:09:02.939215 25856 net.cpp:84] Creating Layer mnist
I0406 05:09:02.939232 25856 net.cpp:380] mnist -> data
I0406 05:09:02.939266 25856 net.cpp:380] mnist -> label
I0406 05:09:02.939312 25856 data_layer.cpp:45] output data size: 100,1,28,28
I0406 05:09:02.941071 25856 net.cpp:122] Setting up mnist
I0406 05:09:02.941107 25856 net.cpp:129] Top shape: 100 1 28 28 (78400)
I0406 05:09:02.941118 25856 net.cpp:129] Top shape: 100 (100)
I0406 05:09:02.941126 25856 net.cpp:137] Memory required for data: 628000
I0406 05:09:02.941141 25856 layer_factory.hpp:77] Creating layer label_mnist_1_split
I0406 05:09:02.941164 25856 net.cpp:84] Creating Layer label_mnist_1_split
I0406 05:09:02.941177 25856 net.cpp:406] label_mnist_1_split <- label
I0406 05:09:02.941195 25856 net.cpp:380] label_mnist_1_split -> label_mnist_1_split_0
I0406 05:09:02.941213 25856 net.cpp:380] label_mnist_1_split -> label_mnist_1_split_1
I0406 05:09:02.941228 25856 net.cpp:122] Setting up label_mnist_1_split
I0406 05:09:02.941239 25856 net.cpp:129] Top shape: 100 (100)
I0406 05:09:02.941248 25856 net.cpp:129] Top shape: 100 (100)
I0406 05:09:02.941256 25856 net.cpp:137] Memory required for data: 629600
I0406 05:09:02.941262 25856 layer_factory.hpp:77] Creating layer ip1
I0406 05:09:02.941280 25856 net.cpp:84] Creating Layer ip1
I0406 05:09:02.941289 25856 net.cpp:406] ip1 <- data
I0406 05:09:02.941299 25856 net.cpp:380] ip1 -> ip1
I0406 05:09:03.077901 25856 net.cpp:122] Setting up ip1
I0406 05:09:03.077937 25856 net.cpp:129] Top shape: 100 1000 (100000)
I0406 05:09:03.077944 25856 net.cpp:137] Memory required for data: 1429600
I0406 05:09:03.077960 25856 layer_factory.hpp:77] Creating layer relu1
I0406 05:09:03.077972 25856 net.cpp:84] Creating Layer relu1
I0406 05:09:03.077980 25856 net.cpp:406] relu1 <- ip1
I0406 05:09:03.077987 25856 net.cpp:367] relu1 -> ip1 (in-place)
I0406 05:09:03.078004 25856 net.cpp:122] Setting up relu1
I0406 05:09:03.078011 25856 net.cpp:129] Top shape: 100 1000 (100000)
I0406 05:09:03.078016 25856 net.cpp:137] Memory required for data: 2229600
I0406 05:09:03.078021 25856 layer_factory.hpp:77] Creating layer ip2
I0406 05:09:03.078030 25856 net.cpp:84] Creating Layer ip2
I0406 05:09:03.078035 25856 net.cpp:406] ip2 <- ip1
I0406 05:09:03.078042 25856 net.cpp:380] ip2 -> ip2
I0406 05:09:03.175421 25856 net.cpp:122] Setting up ip2
I0406 05:09:03.175459 25856 net.cpp:129] Top shape: 100 1000 (100000)
I0406 05:09:03.175467 25856 net.cpp:137] Memory required for data: 3029600
I0406 05:09:03.175483 25856 layer_factory.hpp:77] Creating layer relu2
I0406 05:09:03.175506 25856 net.cpp:84] Creating Layer relu2
I0406 05:09:03.175515 25856 net.cpp:406] relu2 <- ip2
I0406 05:09:03.175523 25856 net.cpp:367] relu2 -> ip2 (in-place)
I0406 05:09:03.175544 25856 net.cpp:122] Setting up relu2
I0406 05:09:03.175561 25856 net.cpp:129] Top shape: 100 1000 (100000)
I0406 05:09:03.175567 25856 net.cpp:137] Memory required for data: 3829600
I0406 05:09:03.175571 25856 layer_factory.hpp:77] Creating layer ip3
I0406 05:09:03.175580 25856 net.cpp:84] Creating Layer ip3
I0406 05:09:03.175585 25856 net.cpp:406] ip3 <- ip2
I0406 05:09:03.175591 25856 net.cpp:380] ip3 -> ip3
I0406 05:09:03.176573 25856 net.cpp:122] Setting up ip3
I0406 05:09:03.176584 25856 net.cpp:129] Top shape: 100 10 (1000)
I0406 05:09:03.176589 25856 net.cpp:137] Memory required for data: 3837600
I0406 05:09:03.176597 25856 layer_factory.hpp:77] Creating layer ip3_ip3_0_split
I0406 05:09:03.176604 25856 net.cpp:84] Creating Layer ip3_ip3_0_split
I0406 05:09:03.176609 25856 net.cpp:406] ip3_ip3_0_split <- ip3
I0406 05:09:03.176614 25856 net.cpp:380] ip3_ip3_0_split -> ip3_ip3_0_split_0
I0406 05:09:03.176622 25856 net.cpp:380] ip3_ip3_0_split -> ip3_ip3_0_split_1
I0406 05:09:03.176631 25856 net.cpp:122] Setting up ip3_ip3_0_split
I0406 05:09:03.176651 25856 net.cpp:129] Top shape: 100 10 (1000)
I0406 05:09:03.176656 25856 net.cpp:129] Top shape: 100 10 (1000)
I0406 05:09:03.176659 25856 net.cpp:137] Memory required for data: 3853600
I0406 05:09:03.176663 25856 layer_factory.hpp:77] Creating layer accuracy
I0406 05:09:03.176674 25856 net.cpp:84] Creating Layer accuracy
I0406 05:09:03.176679 25856 net.cpp:406] accuracy <- ip3_ip3_0_split_0
I0406 05:09:03.176683 25856 net.cpp:406] accuracy <- label_mnist_1_split_0
I0406 05:09:03.176689 25856 net.cpp:380] accuracy -> accuracy
…
