…
  layer {
    name: "mnist"
    type: "Data"
    top: "data"
    top: "label"
    include {
      phase: TRAIN
    }
    transform_param {
      scale: 0.00390625
    }
    data_param {
      source: "data/mnist_train_lmdb"
      batch_size: 100
      backend: LMDB
    }
  }
  layer {
    name: "mnist"
    type: "Data"
    top: "data"
    top: "label"
    include {
      phase: TEST
    }
    transform_param {
      scale: 0.00390625
    }
    data_param {
      source: "data/mnist_test_lmdb"
      batch_size: 100
      backend: LMDB
    }
  }
  layer {
    name: "ip1"
    type: "InnerProduct"
    bottom: "data"
    top: "ip1"
    inner_product_param {
      num_output: 1000
      weight_filler {
        type: "gaussian"
        mean: 0
        std: 0.01
      }
    }
    bias_param {
      filler {
        value: 0
      }
    }
    fixed_precision: true
    precision {
      enter: 2
      fraccio: 10
      rounding: "stochastic"
    }
  }
  layer {
    name: "relu1"
    type: "ReLU"
    bottom: "ip1"
    top: "ip1"
    fixed_precision: true
    precision {
      enter: 2
      fraccio: 10
      rounding: "stochastic"
    }
  }
  layer {
    name: "ip2"
    type: "InnerProduct"
    bottom: "ip1"
    top: "ip2"
    inner_product_param {
      num_output: 1000
      weight_filler {
        type: "gaussian"
        mean: 0
        std: 0.01
      }
    }
    bias_param {
      filler {
        value: 0
      }
    }
    fixed_precision: true
    precision {
      enter: 2
      fraccio: 10
      rounding: "stochastic"
    }
  }
  layer {
    name: "relu2"
    type: "ReLU"
    bottom: "ip2"
    top: "ip2"
    bias_param {
      filler {
        value: 0
      }
    }
    fixed_precision: true
    precision {
      enter: 2
      fraccio: 10
      rounding: "stochastic"
    }
  }
  layer {
    name: "ip3"
    type: "InnerProduct"
    bottom: "ip2"
    top: "ip3"
    inner_product_param {
      num_output: 10
      weight_filler {
        type: "gaussian"
        mean: 0
        std: 0.01
      }
    }
    bias_param {
      filler {
        value: 0
      }
    }
    fixed_precision: true
    precision {
      enter: 2
      fraccio: 10
      rounding: "stochastic"
    }
  }
  layer {
    name: "accuracy"
    type: "Accuracy"
    bottom: "ip3"
    bottom: "label"
    top: "accuracy"
  }
  layer {
    name: "loss"
    type: "SoftmaxWithLoss"
    bottom: "ip3"
    bottom: "label"
    top: "loss"
    fixed_precision: true
    precision {
      enter: 2
      fraccio: 10
      rounding: "stochastic"
    }
  }
}
train_state {
  level: 0
  stage: ""
}
fixed_precision: true
precision {
  enter: 2
  fraccio: 10
  rounding: "stochastic"
}
I0404 01:03:54.910264 10267 solver.cpp:82] Creating training net specified in net_param.
I0404 01:03:54.910325 10267 net.cpp:294] The NetState phase (0) differed from the phase (1) specified by a rule in layer mnist
I0404 01:03:54.910492 10267 net.cpp:51] Initializing net from parameters: 
name: "LeNet"
state {
  phase: TRAIN
  level: 0
  stage: ""
}
layer {
  name: "mnist"
  type: "Data"
  top: "data"
  top: "label"
  include {
    phase: TRAIN
  }
  transform_param {
    scale: 0.00390625
  }
  data_param {
    source: "data/mnist_train_lmdb"
    batch_size: 100
    backend: LMDB
  }
}
layer {
  name: "ip1"
  type: "InnerProduct"
  bottom: "data"
  top: "ip1"
  inner_product_param {
    num_output: 1000
    weight_filler {
      type: "gaussian"
      mean: 0
      std: 0.01
    }
  }
  bias_param {
    filler {
      value: 0
    }
  }
  fixed_precision: true
  precision {
    enter: 2
    fraccio: 10
    rounding: "stochastic"
  }
}
layer {
  name: "relu1"
  type: "ReLU"
  bottom: "ip1"
  top: "ip1"
  fixed_precision: true
  precision {
    enter: 2
    fraccio: 10
    rounding: "stochastic"
  }
}
layer {
  name: "ip2"
  type: "InnerProduct"
  bottom: "ip1"
  top: "ip2"
  inner_product_param {
    num_output: 1000
    weight_filler {
      type: "gaussian"
      mean: 0
      std: 0.01
    }
  }
  bias_param {
    filler {
      value: 0
    }
  }
  fixed_precision: true
  precision {
    enter: 2
    fraccio: 10
    rounding: "stochastic"
  }
}
layer {
  name: "relu2"
  type: "ReLU"
  bottom: "ip2"
  top: "ip2"
  bias_param {
    filler {
      value: 0
    }
  }
  fixed_precision: true
  precision {
    enter: 2
    fraccio: 10
    rounding: "stochastic"
  }
}
layer {
  name: "ip3"
  type: "InnerProduct"
  bottom: "ip2"
  top: "ip3"
  inner_product_param {
    num_output: 10
    weight_filler {
      type: "gaussian"
      mean: 0
      std: 0.01
    }
  }
  bias_param {
    filler {
      value: 0
    }
  }
  fixed_precision: true
  precision {
    enter: 2
    fraccio: 10
    rounding: "stochastic"
  }
}
layer {
  name: "accuracy"
  type: "Accuracy"
  bottom: "ip3"
  bottom: "label"
  top: "accuracy"
}
layer {
  name: "loss"
  type: "SoftmaxWithLoss"
  bottom: "ip3"
  bottom: "label"
  top: "loss"
  fixed_precision: true
  precision {
    enter: 2
    fraccio: 10
    rounding: "stochastic"
  }
}
I0404 01:03:54.910619 10267 layer_factory.hpp:77] Creating layer mnist
I0404 01:03:54.910743 10267 db_lmdb.cpp:35] Opened lmdb data/mnist_train_lmdb
I0404 01:03:54.910774 10267 net.cpp:84] Creating Layer mnist
I0404 01:03:54.910787 10267 net.cpp:380] mnist -> data
I0404 01:03:54.910817 10267 net.cpp:380] mnist -> label
I0404 01:03:54.910861 10267 data_layer.cpp:45] output data size: 100,1,28,28
I0404 01:03:54.912605 10267 net.cpp:122] Setting up mnist
I0404 01:03:54.912637 10267 net.cpp:129] Top shape: 100 1 28 28 (78400)
I0404 01:03:54.912647 10267 net.cpp:129] Top shape: 100 (100)
I0404 01:03:54.912655 10267 net.cpp:137] Memory required for data: 628000
I0404 01:03:54.912668 10267 layer_factory.hpp:77] Creating layer label_mnist_1_split
I0404 01:03:54.912690 10267 net.cpp:84] Creating Layer label_mnist_1_split
I0404 01:03:54.912699 10267 net.cpp:406] label_mnist_1_split <- label
I0404 01:03:54.912715 10267 net.cpp:380] label_mnist_1_split -> label_mnist_1_split_0
I0404 01:03:54.912730 10267 net.cpp:380] label_mnist_1_split -> label_mnist_1_split_1
I0404 01:03:54.912744 10267 net.cpp:122] Setting up label_mnist_1_split
I0404 01:03:54.912753 10267 net.cpp:129] Top shape: 100 (100)
I0404 01:03:54.912761 10267 net.cpp:129] Top shape: 100 (100)
I0404 01:03:54.912768 10267 net.cpp:137] Memory required for data: 629600
I0404 01:03:54.912775 10267 layer_factory.hpp:77] Creating layer ip1
I0404 01:03:54.912791 10267 net.cpp:84] Creating Layer ip1
I0404 01:03:54.912797 10267 net.cpp:406] ip1 <- data
I0404 01:03:54.912807 10267 net.cpp:380] ip1 -> ip1
I0404 01:03:55.023670 10267 net.cpp:122] Setting up ip1
I0404 01:03:55.023710 10267 net.cpp:129] Top shape: 100 1000 (100000)
I0404 01:03:55.023715 10267 net.cpp:137] Memory required for data: 1429600
I0404 01:03:55.023732 10267 layer_factory.hpp:77] Creating layer relu1
I0404 01:03:55.023746 10267 net.cpp:84] Creating Layer relu1
I0404 01:03:55.023751 10267 net.cpp:406] relu1 <- ip1
I0404 01:03:55.023758 10267 net.cpp:367] relu1 -> ip1 (in-place)
I0404 01:03:55.023774 10267 net.cpp:122] Setting up relu1
I0404 01:03:55.023780 10267 net.cpp:129] Top shape: 100 1000 (100000)
I0404 01:03:55.023785 10267 net.cpp:137] Memory required for data: 2229600
I0404 01:03:55.023789 10267 layer_factory.hpp:77] Creating layer ip2
I0404 01:03:55.023799 10267 net.cpp:84] Creating Layer ip2
I0404 01:03:55.023803 10267 net.cpp:406] ip2 <- ip1
I0404 01:03:55.023810 10267 net.cpp:380] ip2 -> ip2
I0404 01:03:55.122301 10267 net.cpp:122] Setting up ip2
I0404 01:03:55.122339 10267 net.cpp:129] Top shape: 100 1000 (100000)
I0404 01:03:55.122344 10267 net.cpp:137] Memory required for data: 3029600
I0404 01:03:55.122356 10267 layer_factory.hpp:77] Creating layer relu2
I0404 01:03:55.122369 10267 net.cpp:84] Creating Layer relu2
I0404 01:03:55.122375 10267 net.cpp:406] relu2 <- ip2
I0404 01:03:55.122381 10267 net.cpp:367] relu2 -> ip2 (in-place)
I0404 01:03:55.122401 10267 net.cpp:122] Setting up relu2
I0404 01:03:55.122416 10267 net.cpp:129] Top shape: 100 1000 (100000)
I0404 01:03:55.122419 10267 net.cpp:137] Memory required for data: 3829600
I0404 01:03:55.122422 10267 layer_factory.hpp:77] Creating layer ip3
I0404 01:03:55.122429 10267 net.cpp:84] Creating Layer ip3
I0404 01:03:55.122433 10267 net.cpp:406] ip3 <- ip2
I0404 01:03:55.122438 10267 net.cpp:380] ip3 -> ip3
I0404 01:03:55.123390 10267 net.cpp:122] Setting up ip3
I0404 01:03:55.123400 10267 net.cpp:129] Top shape: 100 10 (1000)
I0404 01:03:55.123404 10267 net.cpp:137] Memory required for data: 3837600
I0404 01:03:55.123412 10267 layer_factory.hpp:77] Creating layer ip3_ip3_0_split
I0404 01:03:55.123419 10267 net.cpp:84] Creating Layer ip3_ip3_0_split
I0404 01:03:55.123422 10267 net.cpp:406] ip3_ip3_0_split <- ip3
I0404 01:03:55.123430 10267 net.cpp:380] ip3_ip3_0_split -> ip3_ip3_0_split_0
I0404 01:03:55.123437 10267 net.cpp:380] ip3_ip3_0_split -> ip3_ip3_0_split_1
I0404 01:03:55.123446 10267 net.cpp:122] Setting up ip3_ip3_0_split
I0404 01:03:55.123452 10267 net.cpp:129] Top shape: 100 10 (1000)
I0404 01:03:55.123457 10267 net.cpp:129] Top shape: 100 10 (1000)
I0404 01:03:55.123461 10267 net.cpp:137] Memory required for data: 3853600
I0404 01:03:55.123463 10267 layer_factory.hpp:77] Creating layer accuracy
I0404 01:03:55.123471 10267 net.cpp:84] Creating Layer accuracy
I0404 01:03:55.123476 10267 net.cpp:406] accuracy <- ip3_ip3_0_split_0
I0404 01:03:55.123479 10267 net.cpp:406] accuracy <- label_mnist_1_split_0
I0404 01:03:55.123486 10267 net.cpp:380] accuracy -> accuracy
…
