…
  layer {
    name: "mnist"
    type: "Data"
    top: "data"
    top: "label"
    include {
      phase: TRAIN
    }
    transform_param {
      scale: 0.00390625
    }
    data_param {
      source: "data/mnist_train_lmdb"
      batch_size: 100
      backend: LMDB
    }
  }
  layer {
    name: "mnist"
    type: "Data"
    top: "data"
    top: "label"
    include {
      phase: TEST
    }
    transform_param {
      scale: 0.00390625
    }
    data_param {
      source: "data/mnist_test_lmdb"
      batch_size: 100
      backend: LMDB
    }
  }
  layer {
    name: "ip1"
    type: "InnerProduct"
    bottom: "data"
    top: "ip1"
    inner_product_param {
      num_output: 1000
      weight_filler {
        type: "gaussian"
        mean: 0
        std: 0.01
      }
    }
    bias_param {
      filler {
        value: 0
      }
    }
    fixed_precision: true
    precision {
      enter: 2
      fraccio: 10
      rounding: "stochastic"
    }
  }
  layer {
    name: "relu1"
    type: "ReLU"
    bottom: "ip1"
    top: "ip1"
    fixed_precision: true
    precision {
      enter: 2
      fraccio: 10
      rounding: "stochastic"
    }
  }
  layer {
    name: "ip2"
    type: "InnerProduct"
    bottom: "ip1"
    top: "ip2"
    inner_product_param {
      num_output: 1000
      weight_filler {
        type: "gaussian"
        mean: 0
        std: 0.01
      }
    }
    bias_param {
      filler {
        value: 0
      }
    }
    fixed_precision: true
    precision {
      enter: 2
      fraccio: 10
      rounding: "stochastic"
    }
  }
  layer {
    name: "relu2"
    type: "ReLU"
    bottom: "ip2"
    top: "ip2"
    bias_param {
      filler {
        value: 0
      }
    }
    fixed_precision: true
    precision {
      enter: 2
      fraccio: 10
      rounding: "stochastic"
    }
  }
  layer {
    name: "ip3"
    type: "InnerProduct"
    bottom: "ip2"
    top: "ip3"
    inner_product_param {
      num_output: 10
      weight_filler {
        type: "gaussian"
        mean: 0
        std: 0.01
      }
    }
    bias_param {
      filler {
        value: 0
      }
    }
    fixed_precision: true
    precision {
      enter: 2
      fraccio: 10
      rounding: "stochastic"
    }
  }
  layer {
    name: "accuracy"
    type: "Accuracy"
    bottom: "ip3"
    bottom: "label"
    top: "accuracy"
  }
  layer {
    name: "loss"
    type: "SoftmaxWithLoss"
    bottom: "ip3"
    bottom: "label"
    top: "loss"
    fixed_precision: true
    precision {
      enter: 2
      fraccio: 10
      rounding: "stochastic"
    }
  }
}
train_state {
  level: 0
  stage: ""
}
fixed_precision: true
precision {
  enter: 2
  fraccio: 10
  rounding: "stochastic"
}
I0403 23:16:14.474169  3743 solver.cpp:82] Creating training net specified in net_param.
I0403 23:16:14.474228  3743 net.cpp:294] The NetState phase (0) differed from the phase (1) specified by a rule in layer mnist
I0403 23:16:14.474400  3743 net.cpp:51] Initializing net from parameters: 
name: "LeNet"
state {
  phase: TRAIN
  level: 0
  stage: ""
}
layer {
  name: "mnist"
  type: "Data"
  top: "data"
  top: "label"
  include {
    phase: TRAIN
  }
  transform_param {
    scale: 0.00390625
  }
  data_param {
    source: "data/mnist_train_lmdb"
    batch_size: 100
    backend: LMDB
  }
}
layer {
  name: "ip1"
  type: "InnerProduct"
  bottom: "data"
  top: "ip1"
  inner_product_param {
    num_output: 1000
    weight_filler {
      type: "gaussian"
      mean: 0
      std: 0.01
    }
  }
  bias_param {
    filler {
      value: 0
    }
  }
  fixed_precision: true
  precision {
    enter: 2
    fraccio: 10
    rounding: "stochastic"
  }
}
layer {
  name: "relu1"
  type: "ReLU"
  bottom: "ip1"
  top: "ip1"
  fixed_precision: true
  precision {
    enter: 2
    fraccio: 10
    rounding: "stochastic"
  }
}
layer {
  name: "ip2"
  type: "InnerProduct"
  bottom: "ip1"
  top: "ip2"
  inner_product_param {
    num_output: 1000
    weight_filler {
      type: "gaussian"
      mean: 0
      std: 0.01
    }
  }
  bias_param {
    filler {
      value: 0
    }
  }
  fixed_precision: true
  precision {
    enter: 2
    fraccio: 10
    rounding: "stochastic"
  }
}
layer {
  name: "relu2"
  type: "ReLU"
  bottom: "ip2"
  top: "ip2"
  bias_param {
    filler {
      value: 0
    }
  }
  fixed_precision: true
  precision {
    enter: 2
    fraccio: 10
    rounding: "stochastic"
  }
}
layer {
  name: "ip3"
  type: "InnerProduct"
  bottom: "ip2"
  top: "ip3"
  inner_product_param {
    num_output: 10
    weight_filler {
      type: "gaussian"
      mean: 0
      std: 0.01
    }
  }
  bias_param {
    filler {
      value: 0
    }
  }
  fixed_precision: true
  precision {
    enter: 2
    fraccio: 10
    rounding: "stochastic"
  }
}
layer {
  name: "accuracy"
  type: "Accuracy"
  bottom: "ip3"
  bottom: "label"
  top: "accuracy"
}
layer {
  name: "loss"
  type: "SoftmaxWithLoss"
  bottom: "ip3"
  bottom: "label"
  top: "loss"
  fixed_precision: true
  precision {
    enter: 2
    fraccio: 10
    rounding: "stochastic"
  }
}
I0403 23:16:14.474524  3743 layer_factory.hpp:77] Creating layer mnist
I0403 23:16:14.474642  3743 db_lmdb.cpp:35] Opened lmdb data/mnist_train_lmdb
I0403 23:16:14.474670  3743 net.cpp:84] Creating Layer mnist
I0403 23:16:14.474683  3743 net.cpp:380] mnist -> data
I0403 23:16:14.474710  3743 net.cpp:380] mnist -> label
I0403 23:16:14.474747  3743 data_layer.cpp:45] output data size: 100,1,28,28
I0403 23:16:14.476431  3743 net.cpp:122] Setting up mnist
I0403 23:16:14.476455  3743 net.cpp:129] Top shape: 100 1 28 28 (78400)
I0403 23:16:14.476465  3743 net.cpp:129] Top shape: 100 (100)
I0403 23:16:14.476472  3743 net.cpp:137] Memory required for data: 628000
I0403 23:16:14.476483  3743 layer_factory.hpp:77] Creating layer label_mnist_1_split
I0403 23:16:14.476500  3743 net.cpp:84] Creating Layer label_mnist_1_split
I0403 23:16:14.476508  3743 net.cpp:406] label_mnist_1_split <- label
I0403 23:16:14.476522  3743 net.cpp:380] label_mnist_1_split -> label_mnist_1_split_0
I0403 23:16:14.476534  3743 net.cpp:380] label_mnist_1_split -> label_mnist_1_split_1
I0403 23:16:14.476547  3743 net.cpp:122] Setting up label_mnist_1_split
I0403 23:16:14.476557  3743 net.cpp:129] Top shape: 100 (100)
I0403 23:16:14.476565  3743 net.cpp:129] Top shape: 100 (100)
I0403 23:16:14.476572  3743 net.cpp:137] Memory required for data: 629600
I0403 23:16:14.476578  3743 layer_factory.hpp:77] Creating layer ip1
I0403 23:16:14.476594  3743 net.cpp:84] Creating Layer ip1
I0403 23:16:14.476603  3743 net.cpp:406] ip1 <- data
I0403 23:16:14.476613  3743 net.cpp:380] ip1 -> ip1
I0403 23:16:14.588973  3743 net.cpp:122] Setting up ip1
I0403 23:16:14.589012  3743 net.cpp:129] Top shape: 100 1000 (100000)
I0403 23:16:14.589025  3743 net.cpp:137] Memory required for data: 1429600
I0403 23:16:14.589048  3743 layer_factory.hpp:77] Creating layer relu1
I0403 23:16:14.589066  3743 net.cpp:84] Creating Layer relu1
I0403 23:16:14.589077  3743 net.cpp:406] relu1 <- ip1
I0403 23:16:14.589089  3743 net.cpp:367] relu1 -> ip1 (in-place)
I0403 23:16:14.589114  3743 net.cpp:122] Setting up relu1
I0403 23:16:14.589125  3743 net.cpp:129] Top shape: 100 1000 (100000)
I0403 23:16:14.589133  3743 net.cpp:137] Memory required for data: 2229600
I0403 23:16:14.589140  3743 layer_factory.hpp:77] Creating layer ip2
I0403 23:16:14.589155  3743 net.cpp:84] Creating Layer ip2
I0403 23:16:14.589164  3743 net.cpp:406] ip2 <- ip1
I0403 23:16:14.589175  3743 net.cpp:380] ip2 -> ip2
I0403 23:16:14.693001  3743 net.cpp:122] Setting up ip2
I0403 23:16:14.693047  3743 net.cpp:129] Top shape: 100 1000 (100000)
I0403 23:16:14.693058  3743 net.cpp:137] Memory required for data: 3029600
I0403 23:16:14.693078  3743 layer_factory.hpp:77] Creating layer relu2
I0403 23:16:14.693095  3743 net.cpp:84] Creating Layer relu2
I0403 23:16:14.693121  3743 net.cpp:406] relu2 <- ip2
I0403 23:16:14.693136  3743 net.cpp:367] relu2 -> ip2 (in-place)
I0403 23:16:14.693162  3743 net.cpp:122] Setting up relu2
I0403 23:16:14.693183  3743 net.cpp:129] Top shape: 100 1000 (100000)
I0403 23:16:14.693192  3743 net.cpp:137] Memory required for data: 3829600
I0403 23:16:14.693198  3743 layer_factory.hpp:77] Creating layer ip3
I0403 23:16:14.693212  3743 net.cpp:84] Creating Layer ip3
I0403 23:16:14.693220  3743 net.cpp:406] ip3 <- ip2
I0403 23:16:14.693231  3743 net.cpp:380] ip3 -> ip3
I0403 23:16:14.694344  3743 net.cpp:122] Setting up ip3
I0403 23:16:14.694357  3743 net.cpp:129] Top shape: 100 10 (1000)
I0403 23:16:14.694365  3743 net.cpp:137] Memory required for data: 3837600
I0403 23:16:14.694380  3743 layer_factory.hpp:77] Creating layer ip3_ip3_0_split
I0403 23:16:14.694392  3743 net.cpp:84] Creating Layer ip3_ip3_0_split
I0403 23:16:14.694416  3743 net.cpp:406] ip3_ip3_0_split <- ip3
I0403 23:16:14.694428  3743 net.cpp:380] ip3_ip3_0_split -> ip3_ip3_0_split_0
I0403 23:16:14.694442  3743 net.cpp:380] ip3_ip3_0_split -> ip3_ip3_0_split_1
I0403 23:16:14.694458  3743 net.cpp:122] Setting up ip3_ip3_0_split
I0403 23:16:14.694468  3743 net.cpp:129] Top shape: 100 10 (1000)
I0403 23:16:14.694478  3743 net.cpp:129] Top shape: 100 10 (1000)
I0403 23:16:14.694486  3743 net.cpp:137] Memory required for data: 3853600
I0403 23:16:14.694494  3743 layer_factory.hpp:77] Creating layer accuracy
I0403 23:16:14.694507  3743 net.cpp:84] Creating Layer accuracy
I0403 23:16:14.694528  3743 net.cpp:406] accuracy <- ip3_ip3_0_split_0
I0403 23:16:14.694540  3743 net.cpp:406] accuracy <- label_mnist_1_split_0
I0403 23:16:14.694553  3743 net.cpp:380] accuracy -> accuracy
…
