…
  layer {
    name: "mnist"
    type: "Data"
    top: "data"
    top: "label"
    include {
      phase: TRAIN
    }
    transform_param {
      scale: 0.00390625
    }
    data_param {
      source: "data/mnist_train_lmdb"
      batch_size: 100
      backend: LMDB
    }
  }
  layer {
    name: "mnist"
    type: "Data"
    top: "data"
    top: "label"
    include {
      phase: TEST
    }
    transform_param {
      scale: 0.00390625
    }
    data_param {
      source: "data/mnist_test_lmdb"
      batch_size: 100
      backend: LMDB
    }
  }
  layer {
    name: "ip1"
    type: "InnerProduct"
    bottom: "data"
    top: "ip1"
    inner_product_param {
      num_output: 1000
      weight_filler {
        type: "gaussian"
        mean: 0
        std: 0.01
      }
    }
    bias_param {
      filler {
        value: 0
      }
    }
    fixed_precision: true
    precision {
      enter: 2
      fraccio: 10
      rounding: "stochastic"
    }
  }
  layer {
    name: "relu1"
    type: "ReLU"
    bottom: "ip1"
    top: "ip1"
    fixed_precision: true
    precision {
      enter: 2
      fraccio: 10
      rounding: "stochastic"
    }
  }
  layer {
    name: "ip2"
    type: "InnerProduct"
    bottom: "ip1"
    top: "ip2"
    inner_product_param {
      num_output: 1000
      weight_filler {
        type: "gaussian"
        mean: 0
        std: 0.01
      }
    }
    bias_param {
      filler {
        value: 0
      }
    }
    fixed_precision: true
    precision {
      enter: 2
      fraccio: 10
      rounding: "stochastic"
    }
  }
  layer {
    name: "relu2"
    type: "ReLU"
    bottom: "ip2"
    top: "ip2"
    bias_param {
      filler {
        value: 0
      }
    }
    fixed_precision: true
    precision {
      enter: 2
      fraccio: 10
      rounding: "stochastic"
    }
  }
  layer {
    name: "ip3"
    type: "InnerProduct"
    bottom: "ip2"
    top: "ip3"
    inner_product_param {
      num_output: 10
      weight_filler {
        type: "gaussian"
        mean: 0
        std: 0.01
      }
    }
    bias_param {
      filler {
        value: 0
      }
    }
    fixed_precision: true
    precision {
      enter: 2
      fraccio: 10
      rounding: "stochastic"
    }
  }
  layer {
    name: "accuracy"
    type: "Accuracy"
    bottom: "ip3"
    bottom: "label"
    top: "accuracy"
  }
  layer {
    name: "loss"
    type: "SoftmaxWithLoss"
    bottom: "ip3"
    bottom: "label"
    top: "loss"
    fixed_precision: true
    precision {
      enter: 2
      fraccio: 10
      rounding: "stochastic"
    }
  }
}
train_state {
  level: 0
  stage: ""
}
fixed_precision: true
precision {
  enter: 2
  fraccio: 10
  rounding: "stochastic"
}
I0404 00:10:03.522833  6980 solver.cpp:82] Creating training net specified in net_param.
I0404 00:10:03.522892  6980 net.cpp:294] The NetState phase (0) differed from the phase (1) specified by a rule in layer mnist
I0404 00:10:03.523056  6980 net.cpp:51] Initializing net from parameters: 
name: "LeNet"
state {
  phase: TRAIN
  level: 0
  stage: ""
}
layer {
  name: "mnist"
  type: "Data"
  top: "data"
  top: "label"
  include {
    phase: TRAIN
  }
  transform_param {
    scale: 0.00390625
  }
  data_param {
    source: "data/mnist_train_lmdb"
    batch_size: 100
    backend: LMDB
  }
}
layer {
  name: "ip1"
  type: "InnerProduct"
  bottom: "data"
  top: "ip1"
  inner_product_param {
    num_output: 1000
    weight_filler {
      type: "gaussian"
      mean: 0
      std: 0.01
    }
  }
  bias_param {
    filler {
      value: 0
    }
  }
  fixed_precision: true
  precision {
    enter: 2
    fraccio: 10
    rounding: "stochastic"
  }
}
layer {
  name: "relu1"
  type: "ReLU"
  bottom: "ip1"
  top: "ip1"
  fixed_precision: true
  precision {
    enter: 2
    fraccio: 10
    rounding: "stochastic"
  }
}
layer {
  name: "ip2"
  type: "InnerProduct"
  bottom: "ip1"
  top: "ip2"
  inner_product_param {
    num_output: 1000
    weight_filler {
      type: "gaussian"
      mean: 0
      std: 0.01
    }
  }
  bias_param {
    filler {
      value: 0
    }
  }
  fixed_precision: true
  precision {
    enter: 2
    fraccio: 10
    rounding: "stochastic"
  }
}
layer {
  name: "relu2"
  type: "ReLU"
  bottom: "ip2"
  top: "ip2"
  bias_param {
    filler {
      value: 0
    }
  }
  fixed_precision: true
  precision {
    enter: 2
    fraccio: 10
    rounding: "stochastic"
  }
}
layer {
  name: "ip3"
  type: "InnerProduct"
  bottom: "ip2"
  top: "ip3"
  inner_product_param {
    num_output: 10
    weight_filler {
      type: "gaussian"
      mean: 0
      std: 0.01
    }
  }
  bias_param {
    filler {
      value: 0
    }
  }
  fixed_precision: true
  precision {
    enter: 2
    fraccio: 10
    rounding: "stochastic"
  }
}
layer {
  name: "accuracy"
  type: "Accuracy"
  bottom: "ip3"
  bottom: "label"
  top: "accuracy"
}
layer {
  name: "loss"
  type: "SoftmaxWithLoss"
  bottom: "ip3"
  bottom: "label"
  top: "loss"
  fixed_precision: true
  precision {
    enter: 2
    fraccio: 10
    rounding: "stochastic"
  }
}
I0404 00:10:03.523180  6980 layer_factory.hpp:77] Creating layer mnist
I0404 00:10:03.523298  6980 db_lmdb.cpp:35] Opened lmdb data/mnist_train_lmdb
I0404 00:10:03.523326  6980 net.cpp:84] Creating Layer mnist
I0404 00:10:03.523339  6980 net.cpp:380] mnist -> data
I0404 00:10:03.523367  6980 net.cpp:380] mnist -> label
I0404 00:10:03.523403  6980 data_layer.cpp:45] output data size: 100,1,28,28
I0404 00:10:03.525100  6980 net.cpp:122] Setting up mnist
I0404 00:10:03.525125  6980 net.cpp:129] Top shape: 100 1 28 28 (78400)
I0404 00:10:03.525135  6980 net.cpp:129] Top shape: 100 (100)
I0404 00:10:03.525143  6980 net.cpp:137] Memory required for data: 628000
I0404 00:10:03.525154  6980 layer_factory.hpp:77] Creating layer label_mnist_1_split
I0404 00:10:03.525171  6980 net.cpp:84] Creating Layer label_mnist_1_split
I0404 00:10:03.525180  6980 net.cpp:406] label_mnist_1_split <- label
I0404 00:10:03.525195  6980 net.cpp:380] label_mnist_1_split -> label_mnist_1_split_0
I0404 00:10:03.525207  6980 net.cpp:380] label_mnist_1_split -> label_mnist_1_split_1
I0404 00:10:03.525220  6980 net.cpp:122] Setting up label_mnist_1_split
I0404 00:10:03.525230  6980 net.cpp:129] Top shape: 100 (100)
I0404 00:10:03.525238  6980 net.cpp:129] Top shape: 100 (100)
I0404 00:10:03.525246  6980 net.cpp:137] Memory required for data: 629600
I0404 00:10:03.525254  6980 layer_factory.hpp:77] Creating layer ip1
I0404 00:10:03.525269  6980 net.cpp:84] Creating Layer ip1
I0404 00:10:03.525276  6980 net.cpp:406] ip1 <- data
I0404 00:10:03.525286  6980 net.cpp:380] ip1 -> ip1
I0404 00:10:03.635083  6980 net.cpp:122] Setting up ip1
I0404 00:10:03.635123  6980 net.cpp:129] Top shape: 100 1000 (100000)
I0404 00:10:03.635130  6980 net.cpp:137] Memory required for data: 1429600
I0404 00:10:03.635154  6980 layer_factory.hpp:77] Creating layer relu1
I0404 00:10:03.635172  6980 net.cpp:84] Creating Layer relu1
I0404 00:10:03.635185  6980 net.cpp:406] relu1 <- ip1
I0404 00:10:03.635197  6980 net.cpp:367] relu1 -> ip1 (in-place)
I0404 00:10:03.635221  6980 net.cpp:122] Setting up relu1
I0404 00:10:03.635231  6980 net.cpp:129] Top shape: 100 1000 (100000)
I0404 00:10:03.635239  6980 net.cpp:137] Memory required for data: 2229600
I0404 00:10:03.635247  6980 layer_factory.hpp:77] Creating layer ip2
I0404 00:10:03.635262  6980 net.cpp:84] Creating Layer ip2
I0404 00:10:03.635270  6980 net.cpp:406] ip2 <- ip1
I0404 00:10:03.635282  6980 net.cpp:380] ip2 -> ip2
I0404 00:10:03.736729  6980 net.cpp:122] Setting up ip2
I0404 00:10:03.736778  6980 net.cpp:129] Top shape: 100 1000 (100000)
I0404 00:10:03.736791  6980 net.cpp:137] Memory required for data: 3029600
I0404 00:10:03.736814  6980 layer_factory.hpp:77] Creating layer relu2
I0404 00:10:03.736835  6980 net.cpp:84] Creating Layer relu2
I0404 00:10:03.736846  6980 net.cpp:406] relu2 <- ip2
I0404 00:10:03.736860  6980 net.cpp:367] relu2 -> ip2 (in-place)
I0404 00:10:03.736889  6980 net.cpp:122] Setting up relu2
I0404 00:10:03.736912  6980 net.cpp:129] Top shape: 100 1000 (100000)
I0404 00:10:03.736920  6980 net.cpp:137] Memory required for data: 3829600
I0404 00:10:03.736928  6980 layer_factory.hpp:77] Creating layer ip3
I0404 00:10:03.736943  6980 net.cpp:84] Creating Layer ip3
I0404 00:10:03.736953  6980 net.cpp:406] ip3 <- ip2
I0404 00:10:03.736965  6980 net.cpp:380] ip3 -> ip3
I0404 00:10:03.738036  6980 net.cpp:122] Setting up ip3
I0404 00:10:03.738051  6980 net.cpp:129] Top shape: 100 10 (1000)
I0404 00:10:03.738059  6980 net.cpp:137] Memory required for data: 3837600
I0404 00:10:03.738075  6980 layer_factory.hpp:77] Creating layer ip3_ip3_0_split
I0404 00:10:03.738087  6980 net.cpp:84] Creating Layer ip3_ip3_0_split
I0404 00:10:03.738097  6980 net.cpp:406] ip3_ip3_0_split <- ip3
I0404 00:10:03.738108  6980 net.cpp:380] ip3_ip3_0_split -> ip3_ip3_0_split_0
I0404 00:10:03.738121  6980 net.cpp:380] ip3_ip3_0_split -> ip3_ip3_0_split_1
I0404 00:10:03.738137  6980 net.cpp:122] Setting up ip3_ip3_0_split
I0404 00:10:03.738147  6980 net.cpp:129] Top shape: 100 10 (1000)
I0404 00:10:03.738157  6980 net.cpp:129] Top shape: 100 10 (1000)
I0404 00:10:03.738167  6980 net.cpp:137] Memory required for data: 3853600
I0404 00:10:03.738174  6980 layer_factory.hpp:77] Creating layer accuracy
I0404 00:10:03.738188  6980 net.cpp:84] Creating Layer accuracy
I0404 00:10:03.738195  6980 net.cpp:406] accuracy <- ip3_ip3_0_split_0
I0404 00:10:03.738205  6980 net.cpp:406] accuracy <- label_mnist_1_split_0
I0404 00:10:03.738219  6980 net.cpp:380] accuracy -> accuracy
…
