…
  layer {
    name: "mnist"
    type: "Data"
    top: "data"
    top: "label"
    include {
      phase: TRAIN
    }
    transform_param {
      scale: 0.00390625
    }
    data_param {
      source: "data/mnist_train_lmdb"
      batch_size: 100
      backend: LMDB
    }
  }
  layer {
    name: "mnist"
    type: "Data"
    top: "data"
    top: "label"
    include {
      phase: TEST
    }
    transform_param {
      scale: 0.00390625
    }
    data_param {
      source: "data/mnist_test_lmdb"
      batch_size: 100
      backend: LMDB
    }
  }
  layer {
    name: "ip1"
    type: "InnerProduct"
    bottom: "data"
    top: "ip1"
    inner_product_param {
      num_output: 1000
      weight_filler {
        type: "gaussian"
        mean: 0
        std: 0.01
      }
    }
    bias_param {
      filler {
        value: 0
      }
    }
    fixed_precision: true
    precision {
      enter: 2
      fraccio: 10
      rounding: "stochastic"
    }
  }
  layer {
    name: "relu1"
    type: "ReLU"
    bottom: "ip1"
    top: "ip1"
    fixed_precision: true
    precision {
      enter: 2
      fraccio: 10
      rounding: "stochastic"
    }
  }
  layer {
    name: "ip2"
    type: "InnerProduct"
    bottom: "ip1"
    top: "ip2"
    inner_product_param {
      num_output: 1000
      weight_filler {
        type: "gaussian"
        mean: 0
        std: 0.01
      }
    }
    bias_param {
      filler {
        value: 0
      }
    }
    fixed_precision: true
    precision {
      enter: 2
      fraccio: 10
      rounding: "stochastic"
    }
  }
  layer {
    name: "relu2"
    type: "ReLU"
    bottom: "ip2"
    top: "ip2"
    bias_param {
      filler {
        value: 0
      }
    }
    fixed_precision: true
    precision {
      enter: 2
      fraccio: 10
      rounding: "stochastic"
    }
  }
  layer {
    name: "ip3"
    type: "InnerProduct"
    bottom: "ip2"
    top: "ip3"
    inner_product_param {
      num_output: 10
      weight_filler {
        type: "gaussian"
        mean: 0
        std: 0.01
      }
    }
    bias_param {
      filler {
        value: 0
      }
    }
    fixed_precision: true
    precision {
      enter: 2
      fraccio: 10
      rounding: "stochastic"
    }
  }
  layer {
    name: "accuracy"
    type: "Accuracy"
    bottom: "ip3"
    bottom: "label"
    top: "accuracy"
  }
  layer {
    name: "loss"
    type: "SoftmaxWithLoss"
    bottom: "ip3"
    bottom: "label"
    top: "loss"
    fixed_precision: true
    precision {
      enter: 2
      fraccio: 10
      rounding: "stochastic"
    }
  }
}
train_state {
  level: 0
  stage: ""
}
fixed_precision: true
precision {
  enter: 2
  fraccio: 10
  rounding: "stochastic"
}
I0404 01:58:59.150447 13585 solver.cpp:82] Creating training net specified in net_param.
I0404 01:58:59.150506 13585 net.cpp:294] The NetState phase (0) differed from the phase (1) specified by a rule in layer mnist
I0404 01:58:59.150673 13585 net.cpp:51] Initializing net from parameters: 
name: "LeNet"
state {
  phase: TRAIN
  level: 0
  stage: ""
}
layer {
  name: "mnist"
  type: "Data"
  top: "data"
  top: "label"
  include {
    phase: TRAIN
  }
  transform_param {
    scale: 0.00390625
  }
  data_param {
    source: "data/mnist_train_lmdb"
    batch_size: 100
    backend: LMDB
  }
}
layer {
  name: "ip1"
  type: "InnerProduct"
  bottom: "data"
  top: "ip1"
  inner_product_param {
    num_output: 1000
    weight_filler {
      type: "gaussian"
      mean: 0
      std: 0.01
    }
  }
  bias_param {
    filler {
      value: 0
    }
  }
  fixed_precision: true
  precision {
    enter: 2
    fraccio: 10
    rounding: "stochastic"
  }
}
layer {
  name: "relu1"
  type: "ReLU"
  bottom: "ip1"
  top: "ip1"
  fixed_precision: true
  precision {
    enter: 2
    fraccio: 10
    rounding: "stochastic"
  }
}
layer {
  name: "ip2"
  type: "InnerProduct"
  bottom: "ip1"
  top: "ip2"
  inner_product_param {
    num_output: 1000
    weight_filler {
      type: "gaussian"
      mean: 0
      std: 0.01
    }
  }
  bias_param {
    filler {
      value: 0
    }
  }
  fixed_precision: true
  precision {
    enter: 2
    fraccio: 10
    rounding: "stochastic"
  }
}
layer {
  name: "relu2"
  type: "ReLU"
  bottom: "ip2"
  top: "ip2"
  bias_param {
    filler {
      value: 0
    }
  }
  fixed_precision: true
  precision {
    enter: 2
    fraccio: 10
    rounding: "stochastic"
  }
}
layer {
  name: "ip3"
  type: "InnerProduct"
  bottom: "ip2"
  top: "ip3"
  inner_product_param {
    num_output: 10
    weight_filler {
      type: "gaussian"
      mean: 0
      std: 0.01
    }
  }
  bias_param {
    filler {
      value: 0
    }
  }
  fixed_precision: true
  precision {
    enter: 2
    fraccio: 10
    rounding: "stochastic"
  }
}
layer {
  name: "accuracy"
  type: "Accuracy"
  bottom: "ip3"
  bottom: "label"
  top: "accuracy"
}
layer {
  name: "loss"
  type: "SoftmaxWithLoss"
  bottom: "ip3"
  bottom: "label"
  top: "loss"
  fixed_precision: true
  precision {
    enter: 2
    fraccio: 10
    rounding: "stochastic"
  }
}
I0404 01:58:59.150796 13585 layer_factory.hpp:77] Creating layer mnist
I0404 01:58:59.150910 13585 db_lmdb.cpp:35] Opened lmdb data/mnist_train_lmdb
I0404 01:58:59.150939 13585 net.cpp:84] Creating Layer mnist
I0404 01:58:59.150951 13585 net.cpp:380] mnist -> data
I0404 01:58:59.150979 13585 net.cpp:380] mnist -> label
I0404 01:58:59.151021 13585 data_layer.cpp:45] output data size: 100,1,28,28
I0404 01:58:59.152763 13585 net.cpp:122] Setting up mnist
I0404 01:58:59.152791 13585 net.cpp:129] Top shape: 100 1 28 28 (78400)
I0404 01:58:59.152801 13585 net.cpp:129] Top shape: 100 (100)
I0404 01:58:59.152808 13585 net.cpp:137] Memory required for data: 628000
I0404 01:58:59.152820 13585 layer_factory.hpp:77] Creating layer label_mnist_1_split
I0404 01:58:59.152837 13585 net.cpp:84] Creating Layer label_mnist_1_split
I0404 01:58:59.152848 13585 net.cpp:406] label_mnist_1_split <- label
I0404 01:58:59.152863 13585 net.cpp:380] label_mnist_1_split -> label_mnist_1_split_0
I0404 01:58:59.152875 13585 net.cpp:380] label_mnist_1_split -> label_mnist_1_split_1
I0404 01:58:59.152889 13585 net.cpp:122] Setting up label_mnist_1_split
I0404 01:58:59.152899 13585 net.cpp:129] Top shape: 100 (100)
I0404 01:58:59.152907 13585 net.cpp:129] Top shape: 100 (100)
I0404 01:58:59.152915 13585 net.cpp:137] Memory required for data: 629600
I0404 01:58:59.152921 13585 layer_factory.hpp:77] Creating layer ip1
I0404 01:58:59.152933 13585 net.cpp:84] Creating Layer ip1
I0404 01:58:59.152941 13585 net.cpp:406] ip1 <- data
I0404 01:58:59.152951 13585 net.cpp:380] ip1 -> ip1
I0404 01:58:59.263880 13585 net.cpp:122] Setting up ip1
I0404 01:58:59.263921 13585 net.cpp:129] Top shape: 100 1000 (100000)
I0404 01:58:59.263929 13585 net.cpp:137] Memory required for data: 1429600
I0404 01:58:59.263952 13585 layer_factory.hpp:77] Creating layer relu1
I0404 01:58:59.263969 13585 net.cpp:84] Creating Layer relu1
I0404 01:58:59.263981 13585 net.cpp:406] relu1 <- ip1
I0404 01:58:59.263993 13585 net.cpp:367] relu1 -> ip1 (in-place)
I0404 01:58:59.264016 13585 net.cpp:122] Setting up relu1
I0404 01:58:59.264026 13585 net.cpp:129] Top shape: 100 1000 (100000)
I0404 01:58:59.264034 13585 net.cpp:137] Memory required for data: 2229600
I0404 01:58:59.264041 13585 layer_factory.hpp:77] Creating layer ip2
I0404 01:58:59.264057 13585 net.cpp:84] Creating Layer ip2
I0404 01:58:59.264065 13585 net.cpp:406] ip2 <- ip1
I0404 01:58:59.264077 13585 net.cpp:380] ip2 -> ip2
I0404 01:58:59.365006 13585 net.cpp:122] Setting up ip2
I0404 01:58:59.365047 13585 net.cpp:129] Top shape: 100 1000 (100000)
I0404 01:58:59.365056 13585 net.cpp:137] Memory required for data: 3029600
I0404 01:58:59.365074 13585 layer_factory.hpp:77] Creating layer relu2
I0404 01:58:59.365092 13585 net.cpp:84] Creating Layer relu2
I0404 01:58:59.365101 13585 net.cpp:406] relu2 <- ip2
I0404 01:58:59.365114 13585 net.cpp:367] relu2 -> ip2 (in-place)
I0404 01:58:59.365141 13585 net.cpp:122] Setting up relu2
I0404 01:58:59.365164 13585 net.cpp:129] Top shape: 100 1000 (100000)
I0404 01:58:59.365170 13585 net.cpp:137] Memory required for data: 3829600
I0404 01:58:59.365178 13585 layer_factory.hpp:77] Creating layer ip3
I0404 01:58:59.365190 13585 net.cpp:84] Creating Layer ip3
I0404 01:58:59.365200 13585 net.cpp:406] ip3 <- ip2
I0404 01:58:59.365211 13585 net.cpp:380] ip3 -> ip3
I0404 01:58:59.366263 13585 net.cpp:122] Setting up ip3
I0404 01:58:59.366276 13585 net.cpp:129] Top shape: 100 10 (1000)
I0404 01:58:59.366282 13585 net.cpp:137] Memory required for data: 3837600
I0404 01:58:59.366297 13585 layer_factory.hpp:77] Creating layer ip3_ip3_0_split
I0404 01:58:59.366308 13585 net.cpp:84] Creating Layer ip3_ip3_0_split
I0404 01:58:59.366317 13585 net.cpp:406] ip3_ip3_0_split <- ip3
I0404 01:58:59.366327 13585 net.cpp:380] ip3_ip3_0_split -> ip3_ip3_0_split_0
I0404 01:58:59.366340 13585 net.cpp:380] ip3_ip3_0_split -> ip3_ip3_0_split_1
I0404 01:58:59.366356 13585 net.cpp:122] Setting up ip3_ip3_0_split
I0404 01:58:59.366366 13585 net.cpp:129] Top shape: 100 10 (1000)
I0404 01:58:59.366375 13585 net.cpp:129] Top shape: 100 10 (1000)
I0404 01:58:59.366384 13585 net.cpp:137] Memory required for data: 3853600
I0404 01:58:59.366391 13585 layer_factory.hpp:77] Creating layer accuracy
I0404 01:58:59.366405 13585 net.cpp:84] Creating Layer accuracy
I0404 01:58:59.366412 13585 net.cpp:406] accuracy <- ip3_ip3_0_split_0
I0404 01:58:59.366421 13585 net.cpp:406] accuracy <- label_mnist_1_split_0
I0404 01:58:59.366435 13585 net.cpp:380] accuracy -> accuracy
…
