…
  layer {
    name: "mnist"
    type: "Data"
    top: "data"
    top: "label"
    include {
      phase: TRAIN
    }
    transform_param {
      scale: 0.00390625
    }
    data_param {
      source: "data/mnist_train_lmdb"
      batch_size: 100
      backend: LMDB
    }
  }
  layer {
    name: "mnist"
    type: "Data"
    top: "data"
    top: "label"
    include {
      phase: TEST
    }
    transform_param {
      scale: 0.00390625
    }
    data_param {
      source: "data/mnist_test_lmdb"
      batch_size: 100
      backend: LMDB
    }
  }
  layer {
    name: "ip1"
    type: "InnerProduct"
    bottom: "data"
    top: "ip1"
    inner_product_param {
      num_output: 1000
      weight_filler {
        type: "gaussian"
        mean: 0
        std: 0.01
      }
    }
    bias_param {
      filler {
        value: 0
      }
    }
    fixed_precision: true
    precision {
      enter: 2
      fraccio: 10
      rounding: "stochastic"
    }
  }
  layer {
    name: "relu1"
    type: "ReLU"
    bottom: "ip1"
    top: "ip1"
    fixed_precision: true
    precision {
      enter: 2
      fraccio: 10
      rounding: "stochastic"
    }
  }
  layer {
    name: "ip2"
    type: "InnerProduct"
    bottom: "ip1"
    top: "ip2"
    inner_product_param {
      num_output: 1000
      weight_filler {
        type: "gaussian"
        mean: 0
        std: 0.01
      }
    }
    bias_param {
      filler {
        value: 0
      }
    }
    fixed_precision: true
    precision {
      enter: 2
      fraccio: 10
      rounding: "stochastic"
    }
  }
  layer {
    name: "relu2"
    type: "ReLU"
    bottom: "ip2"
    top: "ip2"
    bias_param {
      filler {
        value: 0
      }
    }
    fixed_precision: true
    precision {
      enter: 2
      fraccio: 10
      rounding: "stochastic"
    }
  }
  layer {
    name: "ip3"
    type: "InnerProduct"
    bottom: "ip2"
    top: "ip3"
    inner_product_param {
      num_output: 10
      weight_filler {
        type: "gaussian"
        mean: 0
        std: 0.01
      }
    }
    bias_param {
      filler {
        value: 0
      }
    }
    fixed_precision: true
    precision {
      enter: 2
      fraccio: 10
      rounding: "stochastic"
    }
  }
  layer {
    name: "accuracy"
    type: "Accuracy"
    bottom: "ip3"
    bottom: "label"
    top: "accuracy"
  }
  layer {
    name: "loss"
    type: "SoftmaxWithLoss"
    bottom: "ip3"
    bottom: "label"
    top: "loss"
    fixed_precision: true
    precision {
      enter: 2
      fraccio: 10
      rounding: "stochastic"
    }
  }
}
train_state {
  level: 0
  stage: ""
}
fixed_precision: true
precision {
  enter: 2
  fraccio: 10
  rounding: "stochastic"
}
I0403 22:21:58.878763 32407 solver.cpp:82] Creating training net specified in net_param.
I0403 22:21:58.878813 32407 net.cpp:294] The NetState phase (0) differed from the phase (1) specified by a rule in layer mnist
I0403 22:21:58.878957 32407 net.cpp:51] Initializing net from parameters: 
name: "LeNet"
state {
  phase: TRAIN
  level: 0
  stage: ""
}
layer {
  name: "mnist"
  type: "Data"
  top: "data"
  top: "label"
  include {
    phase: TRAIN
  }
  transform_param {
    scale: 0.00390625
  }
  data_param {
    source: "data/mnist_train_lmdb"
    batch_size: 100
    backend: LMDB
  }
}
layer {
  name: "ip1"
  type: "InnerProduct"
  bottom: "data"
  top: "ip1"
  inner_product_param {
    num_output: 1000
    weight_filler {
      type: "gaussian"
      mean: 0
      std: 0.01
    }
  }
  bias_param {
    filler {
      value: 0
    }
  }
  fixed_precision: true
  precision {
    enter: 2
    fraccio: 10
    rounding: "stochastic"
  }
}
layer {
  name: "relu1"
  type: "ReLU"
  bottom: "ip1"
  top: "ip1"
  fixed_precision: true
  precision {
    enter: 2
    fraccio: 10
    rounding: "stochastic"
  }
}
layer {
  name: "ip2"
  type: "InnerProduct"
  bottom: "ip1"
  top: "ip2"
  inner_product_param {
    num_output: 1000
    weight_filler {
      type: "gaussian"
      mean: 0
      std: 0.01
    }
  }
  bias_param {
    filler {
      value: 0
    }
  }
  fixed_precision: true
  precision {
    enter: 2
    fraccio: 10
    rounding: "stochastic"
  }
}
layer {
  name: "relu2"
  type: "ReLU"
  bottom: "ip2"
  top: "ip2"
  bias_param {
    filler {
      value: 0
    }
  }
  fixed_precision: true
  precision {
    enter: 2
    fraccio: 10
    rounding: "stochastic"
  }
}
layer {
  name: "ip3"
  type: "InnerProduct"
  bottom: "ip2"
  top: "ip3"
  inner_product_param {
    num_output: 10
    weight_filler {
      type: "gaussian"
      mean: 0
      std: 0.01
    }
  }
  bias_param {
    filler {
      value: 0
    }
  }
  fixed_precision: true
  precision {
    enter: 2
    fraccio: 10
    rounding: "stochastic"
  }
}
layer {
  name: "accuracy"
  type: "Accuracy"
  bottom: "ip3"
  bottom: "label"
  top: "accuracy"
}
layer {
  name: "loss"
  type: "SoftmaxWithLoss"
  bottom: "ip3"
  bottom: "label"
  top: "loss"
  fixed_precision: true
  precision {
    enter: 2
    fraccio: 10
    rounding: "stochastic"
  }
}
I0403 22:21:58.879067 32407 layer_factory.hpp:77] Creating layer mnist
I0403 22:21:58.879170 32407 db_lmdb.cpp:35] Opened lmdb data/mnist_train_lmdb
I0403 22:21:58.879197 32407 net.cpp:84] Creating Layer mnist
I0403 22:21:58.879207 32407 net.cpp:380] mnist -> data
I0403 22:21:58.879230 32407 net.cpp:380] mnist -> label
I0403 22:21:58.879262 32407 data_layer.cpp:45] output data size: 100,1,28,28
I0403 22:21:58.880729 32407 net.cpp:122] Setting up mnist
I0403 22:21:58.880753 32407 net.cpp:129] Top shape: 100 1 28 28 (78400)
I0403 22:21:58.880760 32407 net.cpp:129] Top shape: 100 (100)
I0403 22:21:58.880766 32407 net.cpp:137] Memory required for data: 628000
I0403 22:21:58.880776 32407 layer_factory.hpp:77] Creating layer label_mnist_1_split
I0403 22:21:58.880791 32407 net.cpp:84] Creating Layer label_mnist_1_split
I0403 22:21:58.880798 32407 net.cpp:406] label_mnist_1_split <- label
I0403 22:21:58.880811 32407 net.cpp:380] label_mnist_1_split -> label_mnist_1_split_0
I0403 22:21:58.880821 32407 net.cpp:380] label_mnist_1_split -> label_mnist_1_split_1
I0403 22:21:58.880832 32407 net.cpp:122] Setting up label_mnist_1_split
I0403 22:21:58.880841 32407 net.cpp:129] Top shape: 100 (100)
I0403 22:21:58.880847 32407 net.cpp:129] Top shape: 100 (100)
I0403 22:21:58.880852 32407 net.cpp:137] Memory required for data: 629600
I0403 22:21:58.880858 32407 layer_factory.hpp:77] Creating layer ip1
I0403 22:21:58.880872 32407 net.cpp:84] Creating Layer ip1
I0403 22:21:58.880878 32407 net.cpp:406] ip1 <- data
I0403 22:21:58.880887 32407 net.cpp:380] ip1 -> ip1
I0403 22:21:58.980339 32407 net.cpp:122] Setting up ip1
I0403 22:21:58.980387 32407 net.cpp:129] Top shape: 100 1000 (100000)
I0403 22:21:58.980392 32407 net.cpp:137] Memory required for data: 1429600
I0403 22:21:58.980408 32407 layer_factory.hpp:77] Creating layer relu1
I0403 22:21:58.980420 32407 net.cpp:84] Creating Layer relu1
I0403 22:21:58.980427 32407 net.cpp:406] relu1 <- ip1
I0403 22:21:58.980433 32407 net.cpp:367] relu1 -> ip1 (in-place)
I0403 22:21:58.980451 32407 net.cpp:122] Setting up relu1
I0403 22:21:58.980456 32407 net.cpp:129] Top shape: 100 1000 (100000)
I0403 22:21:58.980469 32407 net.cpp:137] Memory required for data: 2229600
I0403 22:21:58.980473 32407 layer_factory.hpp:77] Creating layer ip2
I0403 22:21:58.980490 32407 net.cpp:84] Creating Layer ip2
I0403 22:21:58.980494 32407 net.cpp:406] ip2 <- ip1
I0403 22:21:58.980499 32407 net.cpp:380] ip2 -> ip2
I0403 22:21:59.062379 32407 net.cpp:122] Setting up ip2
I0403 22:21:59.062422 32407 net.cpp:129] Top shape: 100 1000 (100000)
I0403 22:21:59.062427 32407 net.cpp:137] Memory required for data: 3029600
I0403 22:21:59.062441 32407 layer_factory.hpp:77] Creating layer relu2
I0403 22:21:59.062454 32407 net.cpp:84] Creating Layer relu2
I0403 22:21:59.062459 32407 net.cpp:406] relu2 <- ip2
I0403 22:21:59.062466 32407 net.cpp:367] relu2 -> ip2 (in-place)
I0403 22:21:59.062486 32407 net.cpp:122] Setting up relu2
I0403 22:21:59.062510 32407 net.cpp:129] Top shape: 100 1000 (100000)
I0403 22:21:59.062512 32407 net.cpp:137] Memory required for data: 3829600
I0403 22:21:59.062515 32407 layer_factory.hpp:77] Creating layer ip3
I0403 22:21:59.062532 32407 net.cpp:84] Creating Layer ip3
I0403 22:21:59.062536 32407 net.cpp:406] ip3 <- ip2
I0403 22:21:59.062541 32407 net.cpp:380] ip3 -> ip3
I0403 22:21:59.063412 32407 net.cpp:122] Setting up ip3
I0403 22:21:59.063419 32407 net.cpp:129] Top shape: 100 10 (1000)
I0403 22:21:59.063433 32407 net.cpp:137] Memory required for data: 3837600
I0403 22:21:59.063441 32407 layer_factory.hpp:77] Creating layer ip3_ip3_0_split
I0403 22:21:59.063447 32407 net.cpp:84] Creating Layer ip3_ip3_0_split
I0403 22:21:59.063452 32407 net.cpp:406] ip3_ip3_0_split <- ip3
I0403 22:21:59.063457 32407 net.cpp:380] ip3_ip3_0_split -> ip3_ip3_0_split_0
I0403 22:21:59.063464 32407 net.cpp:380] ip3_ip3_0_split -> ip3_ip3_0_split_1
I0403 22:21:59.063472 32407 net.cpp:122] Setting up ip3_ip3_0_split
I0403 22:21:59.063477 32407 net.cpp:129] Top shape: 100 10 (1000)
I0403 22:21:59.063482 32407 net.cpp:129] Top shape: 100 10 (1000)
I0403 22:21:59.063485 32407 net.cpp:137] Memory required for data: 3853600
I0403 22:21:59.063488 32407 layer_factory.hpp:77] Creating layer accuracy
I0403 22:21:59.063495 32407 net.cpp:84] Creating Layer accuracy
I0403 22:21:59.063499 32407 net.cpp:406] accuracy <- ip3_ip3_0_split_0
I0403 22:21:59.063504 32407 net.cpp:406] accuracy <- label_mnist_1_split_0
I0403 22:21:59.063510 32407 net.cpp:380] accuracy -> accuracy
…
