…
  layer {
    name: "mnist"
    type: "Data"
    top: "data"
    top: "label"
    include {
      phase: TRAIN
    }
    transform_param {
      scale: 0.00390625
    }
    data_param {
      source: "data/mnist_train_lmdb"
      batch_size: 100
      backend: LMDB
    }
  }
  layer {
    name: "mnist"
    type: "Data"
    top: "data"
    top: "label"
    include {
      phase: TEST
    }
    transform_param {
      scale: 0.00390625
    }
    data_param {
      source: "data/mnist_test_lmdb"
      batch_size: 100
      backend: LMDB
    }
  }
  layer {
    name: "ip1"
    type: "InnerProduct"
    bottom: "data"
    top: "ip1"
    inner_product_param {
      num_output: 1000
      weight_filler {
        type: "gaussian"
        mean: 0
        std: 0.01
      }
    }
    bias_param {
      filler {
        value: 0
      }
    }
    fixed_precision: true
    precision {
      enter: 2
      fraccio: 14
      rounding: "nearest"
    }
  }
  layer {
    name: "relu1"
    type: "ReLU"
    bottom: "ip1"
    top: "ip1"
    fixed_precision: true
    precision {
      enter: 2
      fraccio: 14
      rounding: "nearest"
    }
  }
  layer {
    name: "ip2"
    type: "InnerProduct"
    bottom: "ip1"
    top: "ip2"
    inner_product_param {
      num_output: 1000
      weight_filler {
        type: "gaussian"
        mean: 0
        std: 0.01
      }
    }
    bias_param {
      filler {
        value: 0
      }
    }
    fixed_precision: true
    precision {
      enter: 2
      fraccio: 14
      rounding: "nearest"
    }
  }
  layer {
    name: "relu2"
    type: "ReLU"
    bottom: "ip2"
    top: "ip2"
    bias_param {
      filler {
        value: 0
      }
    }
    fixed_precision: true
    precision {
      enter: 2
      fraccio: 14
      rounding: "nearest"
    }
  }
  layer {
    name: "ip3"
    type: "InnerProduct"
    bottom: "ip2"
    top: "ip3"
    inner_product_param {
      num_output: 10
      weight_filler {
        type: "gaussian"
        mean: 0
        std: 0.01
      }
    }
    bias_param {
      filler {
        value: 0
      }
    }
    fixed_precision: true
    precision {
      enter: 2
      fraccio: 14
      rounding: "nearest"
    }
  }
  layer {
    name: "accuracy"
    type: "Accuracy"
    bottom: "ip3"
    bottom: "label"
    top: "accuracy"
  }
  layer {
    name: "loss"
    type: "SoftmaxWithLoss"
    bottom: "ip3"
    bottom: "label"
    top: "loss"
    fixed_precision: true
    precision {
      enter: 2
      fraccio: 14
      rounding: "nearest"
    }
  }
}
train_state {
  level: 0
  stage: ""
}
fixed_precision: true
precision {
  enter: 2
  fraccio: 14
  rounding: "nearest"
}
I0411 18:37:40.572732 31319 solver.cpp:82] Creating training net specified in net_param.
I0411 18:37:40.572782 31319 net.cpp:294] The NetState phase (0) differed from the phase (1) specified by a rule in layer mnist
I0411 18:37:40.572923 31319 net.cpp:51] Initializing net from parameters: 
name: "LeNet"
state {
  phase: TRAIN
  level: 0
  stage: ""
}
layer {
  name: "mnist"
  type: "Data"
  top: "data"
  top: "label"
  include {
    phase: TRAIN
  }
  transform_param {
    scale: 0.00390625
  }
  data_param {
    source: "data/mnist_train_lmdb"
    batch_size: 100
    backend: LMDB
  }
}
layer {
  name: "ip1"
  type: "InnerProduct"
  bottom: "data"
  top: "ip1"
  inner_product_param {
    num_output: 1000
    weight_filler {
      type: "gaussian"
      mean: 0
      std: 0.01
    }
  }
  bias_param {
    filler {
      value: 0
    }
  }
  fixed_precision: true
  precision {
    enter: 2
    fraccio: 14
    rounding: "nearest"
  }
}
layer {
  name: "relu1"
  type: "ReLU"
  bottom: "ip1"
  top: "ip1"
  fixed_precision: true
  precision {
    enter: 2
    fraccio: 14
    rounding: "nearest"
  }
}
layer {
  name: "ip2"
  type: "InnerProduct"
  bottom: "ip1"
  top: "ip2"
  inner_product_param {
    num_output: 1000
    weight_filler {
      type: "gaussian"
      mean: 0
      std: 0.01
    }
  }
  bias_param {
    filler {
      value: 0
    }
  }
  fixed_precision: true
  precision {
    enter: 2
    fraccio: 14
    rounding: "nearest"
  }
}
layer {
  name: "relu2"
  type: "ReLU"
  bottom: "ip2"
  top: "ip2"
  bias_param {
    filler {
      value: 0
    }
  }
  fixed_precision: true
  precision {
    enter: 2
    fraccio: 14
    rounding: "nearest"
  }
}
layer {
  name: "ip3"
  type: "InnerProduct"
  bottom: "ip2"
  top: "ip3"
  inner_product_param {
    num_output: 10
    weight_filler {
      type: "gaussian"
      mean: 0
      std: 0.01
    }
  }
  bias_param {
    filler {
      value: 0
    }
  }
  fixed_precision: true
  precision {
    enter: 2
    fraccio: 14
    rounding: "nearest"
  }
}
layer {
  name: "accuracy"
  type: "Accuracy"
  bottom: "ip3"
  bottom: "label"
  top: "accuracy"
}
layer {
  name: "loss"
  type: "SoftmaxWithLoss"
  bottom: "ip3"
  bottom: "label"
  top: "loss"
  fixed_precision: true
  precision {
    enter: 2
    fraccio: 14
    rounding: "nearest"
  }
}
I0411 18:37:40.573037 31319 layer_factory.hpp:77] Creating layer mnist
I0411 18:37:40.573153 31319 db_lmdb.cpp:35] Opened lmdb data/mnist_train_lmdb
I0411 18:37:40.573182 31319 net.cpp:84] Creating Layer mnist
I0411 18:37:40.573195 31319 net.cpp:380] mnist -> data
I0411 18:37:40.573223 31319 net.cpp:380] mnist -> label
I0411 18:37:40.573261 31319 data_layer.cpp:45] output data size: 100,1,28,28
I0411 18:37:40.574743 31319 net.cpp:122] Setting up mnist
I0411 18:37:40.574769 31319 net.cpp:129] Top shape: 100 1 28 28 (78400)
I0411 18:37:40.574777 31319 net.cpp:129] Top shape: 100 (100)
I0411 18:37:40.574785 31319 net.cpp:137] Memory required for data: 628000
I0411 18:37:40.574796 31319 layer_factory.hpp:77] Creating layer label_mnist_1_split
I0411 18:37:40.574815 31319 net.cpp:84] Creating Layer label_mnist_1_split
I0411 18:37:40.574826 31319 net.cpp:406] label_mnist_1_split <- label
I0411 18:37:40.574839 31319 net.cpp:380] label_mnist_1_split -> label_mnist_1_split_0
I0411 18:37:40.574852 31319 net.cpp:380] label_mnist_1_split -> label_mnist_1_split_1
I0411 18:37:40.574865 31319 net.cpp:122] Setting up label_mnist_1_split
I0411 18:37:40.574877 31319 net.cpp:129] Top shape: 100 (100)
I0411 18:37:40.574884 31319 net.cpp:129] Top shape: 100 (100)
I0411 18:37:40.574892 31319 net.cpp:137] Memory required for data: 629600
I0411 18:37:40.574898 31319 layer_factory.hpp:77] Creating layer ip1
I0411 18:37:40.574913 31319 net.cpp:84] Creating Layer ip1
I0411 18:37:40.574921 31319 net.cpp:406] ip1 <- data
I0411 18:37:40.574931 31319 net.cpp:380] ip1 -> ip1
I0411 18:37:40.660799 31319 net.cpp:122] Setting up ip1
I0411 18:37:40.660892 31319 net.cpp:129] Top shape: 100 1000 (100000)
I0411 18:37:40.660922 31319 net.cpp:137] Memory required for data: 1429600
I0411 18:37:40.660961 31319 layer_factory.hpp:77] Creating layer relu1
I0411 18:37:40.660996 31319 net.cpp:84] Creating Layer relu1
I0411 18:37:40.661022 31319 net.cpp:406] relu1 <- ip1
I0411 18:37:40.661051 31319 net.cpp:367] relu1 -> ip1 (in-place)
I0411 18:37:40.661088 31319 net.cpp:122] Setting up relu1
I0411 18:37:40.661116 31319 net.cpp:129] Top shape: 100 1000 (100000)
I0411 18:37:40.661140 31319 net.cpp:137] Memory required for data: 2229600
I0411 18:37:40.661164 31319 layer_factory.hpp:77] Creating layer ip2
I0411 18:37:40.661195 31319 net.cpp:84] Creating Layer ip2
I0411 18:37:40.661222 31319 net.cpp:406] ip2 <- ip1
I0411 18:37:40.661249 31319 net.cpp:380] ip2 -> ip2
I0411 18:37:40.746590 31319 net.cpp:122] Setting up ip2
I0411 18:37:40.746649 31319 net.cpp:129] Top shape: 100 1000 (100000)
I0411 18:37:40.746655 31319 net.cpp:137] Memory required for data: 3029600
I0411 18:37:40.746671 31319 layer_factory.hpp:77] Creating layer relu2
I0411 18:37:40.746685 31319 net.cpp:84] Creating Layer relu2
I0411 18:37:40.746691 31319 net.cpp:406] relu2 <- ip2
I0411 18:37:40.746700 31319 net.cpp:367] relu2 -> ip2 (in-place)
I0411 18:37:40.746724 31319 net.cpp:122] Setting up relu2
I0411 18:37:40.746743 31319 net.cpp:129] Top shape: 100 1000 (100000)
I0411 18:37:40.746748 31319 net.cpp:137] Memory required for data: 3829600
I0411 18:37:40.746753 31319 layer_factory.hpp:77] Creating layer ip3
I0411 18:37:40.746762 31319 net.cpp:84] Creating Layer ip3
I0411 18:37:40.746767 31319 net.cpp:406] ip3 <- ip2
I0411 18:37:40.746773 31319 net.cpp:380] ip3 -> ip3
I0411 18:37:40.747516 31319 net.cpp:122] Setting up ip3
I0411 18:37:40.747536 31319 net.cpp:129] Top shape: 100 10 (1000)
I0411 18:37:40.747541 31319 net.cpp:137] Memory required for data: 3837600
I0411 18:37:40.747550 31319 layer_factory.hpp:77] Creating layer ip3_ip3_0_split
I0411 18:37:40.747558 31319 net.cpp:84] Creating Layer ip3_ip3_0_split
I0411 18:37:40.747563 31319 net.cpp:406] ip3_ip3_0_split <- ip3
I0411 18:37:40.747570 31319 net.cpp:380] ip3_ip3_0_split -> ip3_ip3_0_split_0
I0411 18:37:40.747576 31319 net.cpp:380] ip3_ip3_0_split -> ip3_ip3_0_split_1
I0411 18:37:40.747586 31319 net.cpp:122] Setting up ip3_ip3_0_split
I0411 18:37:40.747592 31319 net.cpp:129] Top shape: 100 10 (1000)
I0411 18:37:40.747598 31319 net.cpp:129] Top shape: 100 10 (1000)
I0411 18:37:40.747602 31319 net.cpp:137] Memory required for data: 3853600
I0411 18:37:40.747607 31319 layer_factory.hpp:77] Creating layer accuracy
I0411 18:37:40.747617 31319 net.cpp:84] Creating Layer accuracy
I0411 18:37:40.747624 31319 net.cpp:406] accuracy <- ip3_ip3_0_split_0
I0411 18:37:40.747629 31319 net.cpp:406] accuracy <- label_mnist_1_split_0
I0411 18:37:40.747635 31319 net.cpp:380] accuracy -> accuracy
…
