…
  layer {
    name: "mnist"
    type: "Data"
    top: "data"
    top: "label"
    include {
      phase: TRAIN
    }
    transform_param {
      scale: 0.00390625
    }
    data_param {
      source: "data/mnist_train_lmdb"
      batch_size: 100
      backend: LMDB
    }
  }
  layer {
    name: "mnist"
    type: "Data"
    top: "data"
    top: "label"
    include {
      phase: TEST
    }
    transform_param {
      scale: 0.00390625
    }
    data_param {
      source: "data/mnist_test_lmdb"
      batch_size: 100
      backend: LMDB
    }
  }
  layer {
    name: "ip1"
    type: "InnerProduct"
    bottom: "data"
    top: "ip1"
    inner_product_param {
      num_output: 1000
      weight_filler {
        type: "gaussian"
        mean: 0
        std: 0.01
      }
    }
    bias_param {
      filler {
        value: 0
      }
    }
    fixed_precision: true
    precision {
      enter: 2
      fraccio: 14
      rounding: "stochastic"
    }
  }
  layer {
    name: "relu1"
    type: "ReLU"
    bottom: "ip1"
    top: "ip1"
    fixed_precision: true
    precision {
      enter: 2
      fraccio: 14
      rounding: "stochastic"
    }
  }
  layer {
    name: "ip2"
    type: "InnerProduct"
    bottom: "ip1"
    top: "ip2"
    inner_product_param {
      num_output: 1000
      weight_filler {
        type: "gaussian"
        mean: 0
        std: 0.01
      }
    }
    bias_param {
      filler {
        value: 0
      }
    }
    fixed_precision: true
    precision {
      enter: 2
      fraccio: 14
      rounding: "stochastic"
    }
  }
  layer {
    name: "relu2"
    type: "ReLU"
    bottom: "ip2"
    top: "ip2"
    bias_param {
      filler {
        value: 0
      }
    }
    fixed_precision: true
    precision {
      enter: 2
      fraccio: 14
      rounding: "stochastic"
    }
  }
  layer {
    name: "ip3"
    type: "InnerProduct"
    bottom: "ip2"
    top: "ip3"
    inner_product_param {
      num_output: 10
      weight_filler {
        type: "gaussian"
        mean: 0
        std: 0.01
      }
    }
    bias_param {
      filler {
        value: 0
      }
    }
    fixed_precision: true
    precision {
      enter: 2
      fraccio: 14
      rounding: "stochastic"
    }
  }
  layer {
    name: "accuracy"
    type: "Accuracy"
    bottom: "ip3"
    bottom: "label"
    top: "accuracy"
  }
  layer {
    name: "loss"
    type: "SoftmaxWithLoss"
    bottom: "ip3"
    bottom: "label"
    top: "loss"
    fixed_precision: true
    precision {
      enter: 2
      fraccio: 14
      rounding: "stochastic"
    }
  }
}
train_state {
  level: 0
  stage: ""
}
fixed_precision: true
precision {
  enter: 2
  fraccio: 14
  rounding: "stochastic"
}
I0411 16:21:55.734169 22279 solver.cpp:82] Creating training net specified in net_param.
I0411 16:21:55.734208 22279 net.cpp:294] The NetState phase (0) differed from the phase (1) specified by a rule in layer mnist
I0411 16:21:55.734302 22279 net.cpp:51] Initializing net from parameters: 
name: "LeNet"
state {
  phase: TRAIN
  level: 0
  stage: ""
}
layer {
  name: "mnist"
  type: "Data"
  top: "data"
  top: "label"
  include {
    phase: TRAIN
  }
  transform_param {
    scale: 0.00390625
  }
  data_param {
    source: "data/mnist_train_lmdb"
    batch_size: 100
    backend: LMDB
  }
}
layer {
  name: "ip1"
  type: "InnerProduct"
  bottom: "data"
  top: "ip1"
  inner_product_param {
    num_output: 1000
    weight_filler {
      type: "gaussian"
      mean: 0
      std: 0.01
    }
  }
  bias_param {
    filler {
      value: 0
    }
  }
  fixed_precision: true
  precision {
    enter: 2
    fraccio: 14
    rounding: "stochastic"
  }
}
layer {
  name: "relu1"
  type: "ReLU"
  bottom: "ip1"
  top: "ip1"
  fixed_precision: true
  precision {
    enter: 2
    fraccio: 14
    rounding: "stochastic"
  }
}
layer {
  name: "ip2"
  type: "InnerProduct"
  bottom: "ip1"
  top: "ip2"
  inner_product_param {
    num_output: 1000
    weight_filler {
      type: "gaussian"
      mean: 0
      std: 0.01
    }
  }
  bias_param {
    filler {
      value: 0
    }
  }
  fixed_precision: true
  precision {
    enter: 2
    fraccio: 14
    rounding: "stochastic"
  }
}
layer {
  name: "relu2"
  type: "ReLU"
  bottom: "ip2"
  top: "ip2"
  bias_param {
    filler {
      value: 0
    }
  }
  fixed_precision: true
  precision {
    enter: 2
    fraccio: 14
    rounding: "stochastic"
  }
}
layer {
  name: "ip3"
  type: "InnerProduct"
  bottom: "ip2"
  top: "ip3"
  inner_product_param {
    num_output: 10
    weight_filler {
      type: "gaussian"
      mean: 0
      std: 0.01
    }
  }
  bias_param {
    filler {
      value: 0
    }
  }
  fixed_precision: true
  precision {
    enter: 2
    fraccio: 14
    rounding: "stochastic"
  }
}
layer {
  name: "accuracy"
  type: "Accuracy"
  bottom: "ip3"
  bottom: "label"
  top: "accuracy"
}
layer {
  name: "loss"
  type: "SoftmaxWithLoss"
  bottom: "ip3"
  bottom: "label"
  top: "loss"
  fixed_precision: true
  precision {
    enter: 2
    fraccio: 14
    rounding: "stochastic"
  }
}
I0411 16:21:55.734395 22279 layer_factory.hpp:77] Creating layer mnist
I0411 16:21:55.734500 22279 db_lmdb.cpp:35] Opened lmdb data/mnist_train_lmdb
I0411 16:21:55.734531 22279 net.cpp:84] Creating Layer mnist
I0411 16:21:55.734539 22279 net.cpp:380] mnist -> data
I0411 16:21:55.734560 22279 net.cpp:380] mnist -> label
I0411 16:21:55.734586 22279 data_layer.cpp:45] output data size: 100,1,28,28
I0411 16:21:55.735690 22279 net.cpp:122] Setting up mnist
I0411 16:21:55.735707 22279 net.cpp:129] Top shape: 100 1 28 28 (78400)
I0411 16:21:55.735714 22279 net.cpp:129] Top shape: 100 (100)
I0411 16:21:55.735718 22279 net.cpp:137] Memory required for data: 628000
I0411 16:21:55.735725 22279 layer_factory.hpp:77] Creating layer label_mnist_1_split
I0411 16:21:55.735738 22279 net.cpp:84] Creating Layer label_mnist_1_split
I0411 16:21:55.735743 22279 net.cpp:406] label_mnist_1_split <- label
I0411 16:21:55.735751 22279 net.cpp:380] label_mnist_1_split -> label_mnist_1_split_0
I0411 16:21:55.735761 22279 net.cpp:380] label_mnist_1_split -> label_mnist_1_split_1
I0411 16:21:55.735769 22279 net.cpp:122] Setting up label_mnist_1_split
I0411 16:21:55.735774 22279 net.cpp:129] Top shape: 100 (100)
I0411 16:21:55.735779 22279 net.cpp:129] Top shape: 100 (100)
I0411 16:21:55.735782 22279 net.cpp:137] Memory required for data: 629600
I0411 16:21:55.735786 22279 layer_factory.hpp:77] Creating layer ip1
I0411 16:21:55.735796 22279 net.cpp:84] Creating Layer ip1
I0411 16:21:55.735801 22279 net.cpp:406] ip1 <- data
I0411 16:21:55.735806 22279 net.cpp:380] ip1 -> ip1
I0411 16:21:55.805474 22279 net.cpp:122] Setting up ip1
I0411 16:21:55.805512 22279 net.cpp:129] Top shape: 100 1000 (100000)
I0411 16:21:55.805517 22279 net.cpp:137] Memory required for data: 1429600
I0411 16:21:55.805532 22279 layer_factory.hpp:77] Creating layer relu1
I0411 16:21:55.805546 22279 net.cpp:84] Creating Layer relu1
I0411 16:21:55.805549 22279 net.cpp:406] relu1 <- ip1
I0411 16:21:55.805557 22279 net.cpp:367] relu1 -> ip1 (in-place)
I0411 16:21:55.805572 22279 net.cpp:122] Setting up relu1
I0411 16:21:55.805577 22279 net.cpp:129] Top shape: 100 1000 (100000)
I0411 16:21:55.805580 22279 net.cpp:137] Memory required for data: 2229600
I0411 16:21:55.805583 22279 layer_factory.hpp:77] Creating layer ip2
I0411 16:21:55.805593 22279 net.cpp:84] Creating Layer ip2
I0411 16:21:55.805598 22279 net.cpp:406] ip2 <- ip1
I0411 16:21:55.805603 22279 net.cpp:380] ip2 -> ip2
I0411 16:21:55.897990 22279 net.cpp:122] Setting up ip2
I0411 16:21:55.898032 22279 net.cpp:129] Top shape: 100 1000 (100000)
I0411 16:21:55.898037 22279 net.cpp:137] Memory required for data: 3029600
I0411 16:21:55.898051 22279 layer_factory.hpp:77] Creating layer relu2
I0411 16:21:55.898062 22279 net.cpp:84] Creating Layer relu2
I0411 16:21:55.898067 22279 net.cpp:406] relu2 <- ip2
I0411 16:21:55.898082 22279 net.cpp:367] relu2 -> ip2 (in-place)
I0411 16:21:55.898102 22279 net.cpp:122] Setting up relu2
I0411 16:21:55.898108 22279 net.cpp:129] Top shape: 100 1000 (100000)
I0411 16:21:55.898113 22279 net.cpp:137] Memory required for data: 3829600
I0411 16:21:55.898115 22279 layer_factory.hpp:77] Creating layer ip3
I0411 16:21:55.898123 22279 net.cpp:84] Creating Layer ip3
I0411 16:21:55.898126 22279 net.cpp:406] ip3 <- ip2
I0411 16:21:55.898133 22279 net.cpp:380] ip3 -> ip3
I0411 16:21:55.899082 22279 net.cpp:122] Setting up ip3
I0411 16:21:55.899091 22279 net.cpp:129] Top shape: 100 10 (1000)
I0411 16:21:55.899096 22279 net.cpp:137] Memory required for data: 3837600
I0411 16:21:55.899103 22279 layer_factory.hpp:77] Creating layer ip3_ip3_0_split
I0411 16:21:55.899111 22279 net.cpp:84] Creating Layer ip3_ip3_0_split
I0411 16:21:55.899114 22279 net.cpp:406] ip3_ip3_0_split <- ip3
I0411 16:21:55.899119 22279 net.cpp:380] ip3_ip3_0_split -> ip3_ip3_0_split_0
I0411 16:21:55.899127 22279 net.cpp:380] ip3_ip3_0_split -> ip3_ip3_0_split_1
I0411 16:21:55.899133 22279 net.cpp:122] Setting up ip3_ip3_0_split
I0411 16:21:55.899138 22279 net.cpp:129] Top shape: 100 10 (1000)
I0411 16:21:55.899142 22279 net.cpp:129] Top shape: 100 10 (1000)
I0411 16:21:55.899145 22279 net.cpp:137] Memory required for data: 3853600
I0411 16:21:55.899149 22279 layer_factory.hpp:77] Creating layer accuracy
I0411 16:21:55.899157 22279 net.cpp:84] Creating Layer accuracy
I0411 16:21:55.899161 22279 net.cpp:406] accuracy <- ip3_ip3_0_split_0
I0411 16:21:55.899166 22279 net.cpp:406] accuracy <- label_mnist_1_split_0
I0411 16:21:55.899171 22279 net.cpp:380] accuracy -> accuracy
…
