…
  name: "LeNet"
  layer {
    name: "mnist"
    type: "Data"
    top: "data"
    top: "label"
    include {
      phase: TRAIN
    }
    transform_param {
      scale: 0.00390625
    }
    data_param {
      source: "data/mnist_train_lmdb"
      batch_size: 1
      backend: LMDB
    }
  }
  layer {
    name: "mnist"
    type: "Data"
    top: "data"
    top: "label"
    include {
      phase: TEST
    }
    transform_param {
      scale: 0.00390625
    }
    data_param {
      source: "data/mnist_test_lmdb"
      batch_size: 1
      backend: LMDB
    }
  }
  layer {
    name: "ip1"
    type: "InnerProduct"
    bottom: "data"
    top: "ip1"
    inner_product_param {
      num_output: 1000
      weight_filler {
        type: "gaussian"
        mean: 0
        std: 0.01
      }
    }
    bias_param {
      filler {
        value: 0
      }
    }
    fixed_precision: true
    precision {
      enter: 2
      fraccio: 14
      rounding: "stochastic"
    }
    offset: 0
    layer_id: 1
  }
  layer {
    name: "relu1"
    type: "ReLU"
    bottom: "ip1"
    top: "ip1"
    fixed_precision: true
    precision {
      enter: 2
      fraccio: 14
      rounding: "stochastic"
    }
  }
  layer {
    name: "ip2"
    type: "InnerProduct"
    bottom: "ip1"
    top: "ip2"
    inner_product_param {
      num_output: 1000
      weight_filler {
        type: "gaussian"
        mean: 0
        std: 0.01
      }
    }
    bias_param {
      filler {
        value: 0
      }
    }
    fixed_precision: true
    precision {
      enter: 2
      fraccio: 14
      rounding: "stochastic"
    }
    offset: 1000
    layer_id: 2
  }
  layer {
    name: "relu2"
    type: "ReLU"
    bottom: "ip2"
    top: "ip2"
    bias_param {
      filler {
        value: 0
      }
    }
    fixed_precision: true
    precision {
      enter: 2
      fraccio: 14
      rounding: "stochastic"
    }
  }
  layer {
    name: "ip3"
    type: "InnerProduct"
    bottom: "ip2"
    top: "ip3"
    inner_product_param {
      num_output: 10
      weight_filler {
        type: "gaussian"
        mean: 0
        std: 0.01
      }
    }
    bias_param {
      filler {
        value: 0
      }
    }
    fixed_precision: true
    precision {
      enter: 2
      fraccio: 14
      rounding: "stochastic"
    }
    offset: 2000
    layer_id: 3
  }
  layer {
    name: "accuracy"
    type: "Accuracy"
    bottom: "ip3"
    bottom: "label"
    top: "accuracy"
  }
  layer {
    name: "loss"
    type: "SoftmaxWithLoss"
    bottom: "ip3"
    bottom: "label"
    top: "loss"
    fixed_precision: true
    precision {
      enter: 2
      fraccio: 14
      rounding: "stochastic"
    }
  }
}
train_state {
  level: 0
  stage: ""
}
fixed_precision: true
precision {
  enter: 2
  fraccio: 14
  rounding: "stochastic"
}
I0802 13:55:44.869421 28922 solver.cpp:82] Creating training net specified in net_param.
I0802 13:55:44.869585 28922 net.cpp:294] The NetState phase (0) differed from the phase (1) specified by a rule in layer mnist
I0802 13:55:44.869767 28922 net.cpp:51] Initializing net from parameters: 
name: "LeNet"
state {
  phase: TRAIN
  level: 0
  stage: ""
}
layer {
  name: "mnist"
  type: "Data"
  top: "data"
  top: "label"
  include {
    phase: TRAIN
  }
  transform_param {
    scale: 0.00390625
  }
  data_param {
    source: "data/mnist_train_lmdb"
    batch_size: 1
    backend: LMDB
  }
}
layer {
  name: "ip1"
  type: "InnerProduct"
  bottom: "data"
  top: "ip1"
  inner_product_param {
    num_output: 1000
    weight_filler {
      type: "gaussian"
      mean: 0
      std: 0.01
    }
  }
  bias_param {
    filler {
      value: 0
    }
  }
  fixed_precision: true
  precision {
    enter: 2
    fraccio: 14
    rounding: "stochastic"
  }
  offset: 0
  layer_id: 1
}
layer {
  name: "relu1"
  type: "ReLU"
  bottom: "ip1"
  top: "ip1"
  fixed_precision: true
  precision {
    enter: 2
    fraccio: 14
    rounding: "stochastic"
  }
}
layer {
  name: "ip2"
  type: "InnerProduct"
  bottom: "ip1"
  top: "ip2"
  inner_product_param {
    num_output: 1000
    weight_filler {
      type: "gaussian"
      mean: 0
      std: 0.01
    }
  }
  bias_param {
    filler {
      value: 0
    }
  }
  fixed_precision: true
  precision {
    enter: 2
    fraccio: 14
    rounding: "stochastic"
  }
  offset: 1000
  layer_id: 2
}
layer {
  name: "relu2"
  type: "ReLU"
  bottom: "ip2"
  top: "ip2"
  bias_param {
    filler {
      value: 0
    }
  }
  fixed_precision: true
  precision {
    enter: 2
    fraccio: 14
    rounding: "stochastic"
  }
}
layer {
  name: "ip3"
  type: "InnerProduct"
  bottom: "ip2"
  top: "ip3"
  inner_product_param {
    num_output: 10
    weight_filler {
      type: "gaussian"
      mean: 0
      std: 0.01
    }
  }
  bias_param {
    filler {
      value: 0
    }
  }
  fixed_precision: true
  precision {
    enter: 2
    fraccio: 14
    rounding: "stochastic"
  }
  offset: 2000
  layer_id: 3
}
layer {
  name: "accuracy"
  type: "Accuracy"
  bottom: "ip3"
  bottom: "label"
  top: "accuracy"
}
layer {
  name: "loss"
  type: "SoftmaxWithLoss"
  bottom: "ip3"
  bottom: "label"
  top: "loss"
  fixed_precision: true
  precision {
    enter: 2
    fraccio: 14
    rounding: "stochastic"
  }
}
I0802 13:55:44.870121 28922 layer_factory.hpp:77] Creating layer mnist
I0802 13:55:44.871722 28922 db_lmdb.cpp:35] Opened lmdb data/mnist_train_lmdb
I0802 13:55:44.873450 28922 net.cpp:84] Creating Layer mnist
I0802 13:55:44.873491 28922 net.cpp:380] mnist -> data
I0802 13:55:44.873603 28922 net.cpp:380] mnist -> label
I0802 13:55:44.873780 28922 data_layer.cpp:45] output data size: 1,1,28,28
I0802 13:55:44.874550 28922 net.cpp:122] Setting up mnist
I0802 13:55:44.874594 28922 net.cpp:129] Top shape: 1 1 28 28 (784)
I0802 13:55:44.874613 28922 net.cpp:129] Top shape: 1 (1)
I0802 13:55:44.874622 28922 net.cpp:137] Memory required for data: 6280
I0802 13:55:44.874637 28922 layer_factory.hpp:77] Creating layer label_mnist_1_split
I0802 13:55:44.874653 28922 net.cpp:84] Creating Layer label_mnist_1_split
I0802 13:55:44.874665 28922 net.cpp:406] label_mnist_1_split <- label
I0802 13:55:44.874683 28922 net.cpp:380] label_mnist_1_split -> label_mnist_1_split_0
I0802 13:55:44.874702 28922 net.cpp:380] label_mnist_1_split -> label_mnist_1_split_1
I0802 13:55:44.874721 28922 net.cpp:122] Setting up label_mnist_1_split
I0802 13:55:44.874740 28922 net.cpp:129] Top shape: 1 (1)
I0802 13:55:44.874753 28922 net.cpp:129] Top shape: 1 (1)
I0802 13:55:44.874763 28922 net.cpp:137] Memory required for data: 6296
I0802 13:55:44.874773 28922 layer_factory.hpp:77] Creating layer ip1
I0802 13:55:44.874814 28922 net.cpp:84] Creating Layer ip1
I0802 13:55:44.874830 28922 net.cpp:406] ip1 <- data
I0802 13:55:44.874846 28922 net.cpp:380] ip1 -> ip1
I0802 13:55:44.895249 28922 net.cpp:122] Setting up ip1
I0802 13:55:44.895283 28922 net.cpp:129] Top shape: 1 1000 (1000)
I0802 13:55:44.895294 28922 net.cpp:137] Memory required for data: 14296
I0802 13:55:44.895336 28922 layer_factory.hpp:77] Creating layer relu1
I0802 13:55:44.895403 28922 net.cpp:84] Creating Layer relu1
I0802 13:55:44.895422 28922 net.cpp:406] relu1 <- ip1
I0802 13:55:44.895437 28922 net.cpp:367] relu1 -> ip1 (in-place)
I0802 13:55:44.895454 28922 net.cpp:122] Setting up relu1
I0802 13:55:44.895468 28922 net.cpp:129] Top shape: 1 1000 (1000)
I0802 13:55:44.895478 28922 net.cpp:137] Memory required for data: 22296
I0802 13:55:44.895488 28922 layer_factory.hpp:77] Creating layer ip2
I0802 13:55:44.895504 28922 net.cpp:84] Creating Layer ip2
I0802 13:55:44.895516 28922 net.cpp:406] ip2 <- ip1
I0802 13:55:44.895530 28922 net.cpp:380] ip2 -> ip2
I0802 13:55:44.920395 28922 net.cpp:122] Setting up ip2
I0802 13:55:44.920433 28922 net.cpp:129] Top shape: 1 1000 (1000)
I0802 13:55:44.920444 28922 net.cpp:137] Memory required for data: 30296
I0802 13:55:44.920462 28922 layer_factory.hpp:77] Creating layer relu2
I0802 13:55:44.920480 28922 net.cpp:84] Creating Layer relu2
I0802 13:55:44.920533 28922 net.cpp:406] relu2 <- ip2
I0802 13:55:44.920550 28922 net.cpp:367] relu2 -> ip2 (in-place)
I0802 13:55:44.920568 28922 net.cpp:122] Setting up relu2
I0802 13:55:44.920581 28922 net.cpp:129] Top shape: 1 1000 (1000)
I0802 13:55:44.920591 28922 net.cpp:137] Memory required for data: 38296
I0802 13:55:44.920601 28922 layer_factory.hpp:77] Creating layer ip3
I0802 13:55:44.920616 28922 net.cpp:84] Creating Layer ip3
I0802 13:55:44.920627 28922 net.cpp:406] ip3 <- ip2
I0802 13:55:44.920641 28922 net.cpp:380] ip3 -> ip3
I0802 13:55:44.920920 28922 net.cpp:122] Setting up ip3
I0802 13:55:44.920943 28922 net.cpp:129] Top shape: 1 10 (10)
I0802 13:55:44.920953 28922 net.cpp:137] Memory required for data: 38376
I0802 13:55:44.920969 28922 layer_factory.hpp:77] Creating layer ip3_ip3_0_split
I0802 13:55:44.920985 28922 net.cpp:84] Creating Layer ip3_ip3_0_split
I0802 13:55:44.920996 28922 net.cpp:406] ip3_ip3_0_split <- ip3
I0802 13:55:44.921010 28922 net.cpp:380] ip3_ip3_0_split -> ip3_ip3_0_split_0
I0802 13:55:44.921025 28922 net.cpp:380] ip3_ip3_0_split -> ip3_ip3_0_split_1
I0802 13:55:44.921043 28922 net.cpp:122] Setting up ip3_ip3_0_split
I0802 13:55:44.921057 28922 net.cpp:129] Top shape: 1 10 (10)
I0802 13:55:44.921069 28922 net.cpp:129] Top shape: 1 10 (10)
I0802 13:55:44.921078 28922 net.cpp:137] Memory required for data: 38536
I0802 13:55:44.921088 28922 layer_factory.hpp:77] Creating layer accuracy
I0802 13:55:44.921128 28922 net.cpp:84] Creating Layer accuracy
I0802 13:55:44.921144 28922 net.cpp:406] accuracy <- ip3_ip3_0_split_0
I0802 13:55:44.921155 28922 net.cpp:406] accuracy <- label_mnist_1_split_0
I0802 13:55:44.921169 28922 net.cpp:380] accuracy -> accuracy
…
