…
  layer {
    name: "mnist"
    type: "Data"
    top: "data"
    top: "label"
    include {
      phase: TRAIN
    }
    transform_param {
      scale: 0.00390625
    }
    data_param {
      source: "data/mnist_train_lmdb"
      batch_size: 100
      backend: LMDB
    }
  }
  layer {
    name: "mnist"
    type: "Data"
    top: "data"
    top: "label"
    include {
      phase: TEST
    }
    transform_param {
      scale: 0.00390625
    }
    data_param {
      source: "data/mnist_test_lmdb"
      batch_size: 100
      backend: LMDB
    }
  }
  layer {
    name: "ip1"
    type: "InnerProduct"
    bottom: "data"
    top: "ip1"
    inner_product_param {
      num_output: 1000
      weight_filler {
        type: "gaussian"
        mean: 0
        std: 0.01
      }
    }
    bias_param {
      filler {
        value: 0
      }
    }
    fixed_precision: true
    precision {
      enter: 2
      fraccio: 9
      rounding: "stochastic"
    }
  }
  layer {
    name: "relu1"
    type: "ReLU"
    bottom: "ip1"
    top: "ip1"
    fixed_precision: true
    precision {
      enter: 2
      fraccio: 9
      rounding: "stochastic"
    }
  }
  layer {
    name: "ip2"
    type: "InnerProduct"
    bottom: "ip1"
    top: "ip2"
    inner_product_param {
      num_output: 1000
      weight_filler {
        type: "gaussian"
        mean: 0
        std: 0.01
      }
    }
    bias_param {
      filler {
        value: 0
      }
    }
    fixed_precision: true
    precision {
      enter: 2
      fraccio: 9
      rounding: "stochastic"
    }
  }
  layer {
    name: "relu2"
    type: "ReLU"
    bottom: "ip2"
    top: "ip2"
    bias_param {
      filler {
        value: 0
      }
    }
    fixed_precision: true
    precision {
      enter: 2
      fraccio: 9
      rounding: "stochastic"
    }
  }
  layer {
    name: "ip3"
    type: "InnerProduct"
    bottom: "ip2"
    top: "ip3"
    inner_product_param {
      num_output: 10
      weight_filler {
        type: "gaussian"
        mean: 0
        std: 0.01
      }
    }
    bias_param {
      filler {
        value: 0
      }
    }
    fixed_precision: true
    precision {
      enter: 2
      fraccio: 9
      rounding: "stochastic"
    }
  }
  layer {
    name: "accuracy"
    type: "Accuracy"
    bottom: "ip3"
    bottom: "label"
    top: "accuracy"
  }
  layer {
    name: "loss"
    type: "SoftmaxWithLoss"
    bottom: "ip3"
    bottom: "label"
    top: "loss"
    fixed_precision: true
    precision {
      enter: 2
      fraccio: 9
      rounding: "stochastic"
    }
  }
}
train_state {
  level: 0
  stage: ""
}
fixed_precision: true
precision {
  enter: 2
  fraccio: 9
  rounding: "stochastic"
}
I0404 11:40:09.599956 15320 solver.cpp:82] Creating training net specified in net_param.
I0404 11:40:09.600016 15320 net.cpp:294] The NetState phase (0) differed from the phase (1) specified by a rule in layer mnist
I0404 11:40:09.600183 15320 net.cpp:51] Initializing net from parameters: 
name: "LeNet"
state {
  phase: TRAIN
  level: 0
  stage: ""
}
layer {
  name: "mnist"
  type: "Data"
  top: "data"
  top: "label"
  include {
    phase: TRAIN
  }
  transform_param {
    scale: 0.00390625
  }
  data_param {
    source: "data/mnist_train_lmdb"
    batch_size: 100
    backend: LMDB
  }
}
layer {
  name: "ip1"
  type: "InnerProduct"
  bottom: "data"
  top: "ip1"
  inner_product_param {
    num_output: 1000
    weight_filler {
      type: "gaussian"
      mean: 0
      std: 0.01
    }
  }
  bias_param {
    filler {
      value: 0
    }
  }
  fixed_precision: true
  precision {
    enter: 2
    fraccio: 9
    rounding: "stochastic"
  }
}
layer {
  name: "relu1"
  type: "ReLU"
  bottom: "ip1"
  top: "ip1"
  fixed_precision: true
  precision {
    enter: 2
    fraccio: 9
    rounding: "stochastic"
  }
}
layer {
  name: "ip2"
  type: "InnerProduct"
  bottom: "ip1"
  top: "ip2"
  inner_product_param {
    num_output: 1000
    weight_filler {
      type: "gaussian"
      mean: 0
      std: 0.01
    }
  }
  bias_param {
    filler {
      value: 0
    }
  }
  fixed_precision: true
  precision {
    enter: 2
    fraccio: 9
    rounding: "stochastic"
  }
}
layer {
  name: "relu2"
  type: "ReLU"
  bottom: "ip2"
  top: "ip2"
  bias_param {
    filler {
      value: 0
    }
  }
  fixed_precision: true
  precision {
    enter: 2
    fraccio: 9
    rounding: "stochastic"
  }
}
layer {
  name: "ip3"
  type: "InnerProduct"
  bottom: "ip2"
  top: "ip3"
  inner_product_param {
    num_output: 10
    weight_filler {
      type: "gaussian"
      mean: 0
      std: 0.01
    }
  }
  bias_param {
    filler {
      value: 0
    }
  }
  fixed_precision: true
  precision {
    enter: 2
    fraccio: 9
    rounding: "stochastic"
  }
}
layer {
  name: "accuracy"
  type: "Accuracy"
  bottom: "ip3"
  bottom: "label"
  top: "accuracy"
}
layer {
  name: "loss"
  type: "SoftmaxWithLoss"
  bottom: "ip3"
  bottom: "label"
  top: "loss"
  fixed_precision: true
  precision {
    enter: 2
    fraccio: 9
    rounding: "stochastic"
  }
}
I0404 11:40:09.600311 15320 layer_factory.hpp:77] Creating layer mnist
I0404 11:40:09.600433 15320 db_lmdb.cpp:35] Opened lmdb data/mnist_train_lmdb
I0404 11:40:09.600463 15320 net.cpp:84] Creating Layer mnist
I0404 11:40:09.600476 15320 net.cpp:380] mnist -> data
I0404 11:40:09.600503 15320 net.cpp:380] mnist -> label
I0404 11:40:09.600543 15320 data_layer.cpp:45] output data size: 100,1,28,28
I0404 11:40:09.602309 15320 net.cpp:122] Setting up mnist
I0404 11:40:09.602336 15320 net.cpp:129] Top shape: 100 1 28 28 (78400)
I0404 11:40:09.602346 15320 net.cpp:129] Top shape: 100 (100)
I0404 11:40:09.602354 15320 net.cpp:137] Memory required for data: 628000
I0404 11:40:09.602365 15320 layer_factory.hpp:77] Creating layer label_mnist_1_split
I0404 11:40:09.602381 15320 net.cpp:84] Creating Layer label_mnist_1_split
I0404 11:40:09.602391 15320 net.cpp:406] label_mnist_1_split <- label
I0404 11:40:09.602404 15320 net.cpp:380] label_mnist_1_split -> label_mnist_1_split_0
I0404 11:40:09.602417 15320 net.cpp:380] label_mnist_1_split -> label_mnist_1_split_1
I0404 11:40:09.602432 15320 net.cpp:122] Setting up label_mnist_1_split
I0404 11:40:09.602442 15320 net.cpp:129] Top shape: 100 (100)
I0404 11:40:09.602449 15320 net.cpp:129] Top shape: 100 (100)
I0404 11:40:09.602455 15320 net.cpp:137] Memory required for data: 629600
I0404 11:40:09.602463 15320 layer_factory.hpp:77] Creating layer ip1
I0404 11:40:09.602478 15320 net.cpp:84] Creating Layer ip1
I0404 11:40:09.602485 15320 net.cpp:406] ip1 <- data
I0404 11:40:09.602496 15320 net.cpp:380] ip1 -> ip1
I0404 11:40:09.721801 15320 net.cpp:122] Setting up ip1
I0404 11:40:09.721851 15320 net.cpp:129] Top shape: 100 1000 (100000)
I0404 11:40:09.721861 15320 net.cpp:137] Memory required for data: 1429600
I0404 11:40:09.721889 15320 layer_factory.hpp:77] Creating layer relu1
I0404 11:40:09.721909 15320 net.cpp:84] Creating Layer relu1
I0404 11:40:09.721920 15320 net.cpp:406] relu1 <- ip1
I0404 11:40:09.721932 15320 net.cpp:367] relu1 -> ip1 (in-place)
I0404 11:40:09.721953 15320 net.cpp:122] Setting up relu1
I0404 11:40:09.721963 15320 net.cpp:129] Top shape: 100 1000 (100000)
I0404 11:40:09.721972 15320 net.cpp:137] Memory required for data: 2229600
I0404 11:40:09.721981 15320 layer_factory.hpp:77] Creating layer ip2
I0404 11:40:09.721995 15320 net.cpp:84] Creating Layer ip2
I0404 11:40:09.722003 15320 net.cpp:406] ip2 <- ip1
I0404 11:40:09.722015 15320 net.cpp:380] ip2 -> ip2
I0404 11:40:09.834991 15320 net.cpp:122] Setting up ip2
I0404 11:40:09.835037 15320 net.cpp:129] Top shape: 100 1000 (100000)
I0404 11:40:09.835044 15320 net.cpp:137] Memory required for data: 3029600
I0404 11:40:09.835060 15320 layer_factory.hpp:77] Creating layer relu2
I0404 11:40:09.835075 15320 net.cpp:84] Creating Layer relu2
I0404 11:40:09.835083 15320 net.cpp:406] relu2 <- ip2
I0404 11:40:09.835093 15320 net.cpp:367] relu2 -> ip2 (in-place)
I0404 11:40:09.835121 15320 net.cpp:122] Setting up relu2
I0404 11:40:09.835149 15320 net.cpp:129] Top shape: 100 1000 (100000)
I0404 11:40:09.835152 15320 net.cpp:137] Memory required for data: 3829600
I0404 11:40:09.835156 15320 layer_factory.hpp:77] Creating layer ip3
I0404 11:40:09.835165 15320 net.cpp:84] Creating Layer ip3
I0404 11:40:09.835170 15320 net.cpp:406] ip3 <- ip2
I0404 11:40:09.835176 15320 net.cpp:380] ip3 -> ip3
I0404 11:40:09.836154 15320 net.cpp:122] Setting up ip3
I0404 11:40:09.836166 15320 net.cpp:129] Top shape: 100 10 (1000)
I0404 11:40:09.836184 15320 net.cpp:137] Memory required for data: 3837600
I0404 11:40:09.836192 15320 layer_factory.hpp:77] Creating layer ip3_ip3_0_split
I0404 11:40:09.836200 15320 net.cpp:84] Creating Layer ip3_ip3_0_split
I0404 11:40:09.836205 15320 net.cpp:406] ip3_ip3_0_split <- ip3
I0404 11:40:09.836211 15320 net.cpp:380] ip3_ip3_0_split -> ip3_ip3_0_split_0
I0404 11:40:09.836218 15320 net.cpp:380] ip3_ip3_0_split -> ip3_ip3_0_split_1
I0404 11:40:09.836227 15320 net.cpp:122] Setting up ip3_ip3_0_split
I0404 11:40:09.836232 15320 net.cpp:129] Top shape: 100 10 (1000)
I0404 11:40:09.836237 15320 net.cpp:129] Top shape: 100 10 (1000)
I0404 11:40:09.836241 15320 net.cpp:137] Memory required for data: 3853600
I0404 11:40:09.836246 15320 layer_factory.hpp:77] Creating layer accuracy
I0404 11:40:09.836252 15320 net.cpp:84] Creating Layer accuracy
I0404 11:40:09.836256 15320 net.cpp:406] accuracy <- ip3_ip3_0_split_0
I0404 11:40:09.836261 15320 net.cpp:406] accuracy <- label_mnist_1_split_0
I0404 11:40:09.836268 15320 net.cpp:380] accuracy -> accuracy
…
