…
  layer {
    name: "mnist"
    type: "Data"
    top: "data"
    top: "label"
    include {
      phase: TRAIN
    }
    transform_param {
      scale: 0.00390625
    }
    data_param {
      source: "data/mnist_train_lmdb"
      batch_size: 100
      backend: LMDB
    }
  }
  layer {
    name: "mnist"
    type: "Data"
    top: "data"
    top: "label"
    include {
      phase: TEST
    }
    transform_param {
      scale: 0.00390625
    }
    data_param {
      source: "data/mnist_test_lmdb"
      batch_size: 100
      backend: LMDB
    }
  }
  layer {
    name: "ip1"
    type: "InnerProduct"
    bottom: "data"
    top: "ip1"
    inner_product_param {
      num_output: 1000
      weight_filler {
        type: "gaussian"
        mean: 0
        std: 0.01
      }
    }
    bias_param {
      filler {
        value: 0
      }
    }
    fixed_precision: true
    precision {
      enter: 2
      fraccio: 9
      rounding: "stochastic"
    }
  }
  layer {
    name: "relu1"
    type: "ReLU"
    bottom: "ip1"
    top: "ip1"
    fixed_precision: true
    precision {
      enter: 2
      fraccio: 9
      rounding: "stochastic"
    }
  }
  layer {
    name: "ip2"
    type: "InnerProduct"
    bottom: "ip1"
    top: "ip2"
    inner_product_param {
      num_output: 1000
      weight_filler {
        type: "gaussian"
        mean: 0
        std: 0.01
      }
    }
    bias_param {
      filler {
        value: 0
      }
    }
    fixed_precision: true
    precision {
      enter: 2
      fraccio: 9
      rounding: "stochastic"
    }
  }
  layer {
    name: "relu2"
    type: "ReLU"
    bottom: "ip2"
    top: "ip2"
    bias_param {
      filler {
        value: 0
      }
    }
    fixed_precision: true
    precision {
      enter: 2
      fraccio: 9
      rounding: "stochastic"
    }
  }
  layer {
    name: "ip3"
    type: "InnerProduct"
    bottom: "ip2"
    top: "ip3"
    inner_product_param {
      num_output: 10
      weight_filler {
        type: "gaussian"
        mean: 0
        std: 0.01
      }
    }
    bias_param {
      filler {
        value: 0
      }
    }
    fixed_precision: true
    precision {
      enter: 2
      fraccio: 9
      rounding: "stochastic"
    }
  }
  layer {
    name: "accuracy"
    type: "Accuracy"
    bottom: "ip3"
    bottom: "label"
    top: "accuracy"
  }
  layer {
    name: "loss"
    type: "SoftmaxWithLoss"
    bottom: "ip3"
    bottom: "label"
    top: "loss"
    fixed_precision: true
    precision {
      enter: 2
      fraccio: 9
      rounding: "stochastic"
    }
  }
}
train_state {
  level: 0
  stage: ""
}
fixed_precision: true
precision {
  enter: 2
  fraccio: 9
  rounding: "stochastic"
}
I0404 12:45:12.761910 21073 solver.cpp:82] Creating training net specified in net_param.
I0404 12:45:12.761970 21073 net.cpp:294] The NetState phase (0) differed from the phase (1) specified by a rule in layer mnist
I0404 12:45:12.762086 21073 net.cpp:51] Initializing net from parameters: 
name: "LeNet"
state {
  phase: TRAIN
  level: 0
  stage: ""
}
layer {
  name: "mnist"
  type: "Data"
  top: "data"
  top: "label"
  include {
    phase: TRAIN
  }
  transform_param {
    scale: 0.00390625
  }
  data_param {
    source: "data/mnist_train_lmdb"
    batch_size: 100
    backend: LMDB
  }
}
layer {
  name: "ip1"
  type: "InnerProduct"
  bottom: "data"
  top: "ip1"
  inner_product_param {
    num_output: 1000
    weight_filler {
      type: "gaussian"
      mean: 0
      std: 0.01
    }
  }
  bias_param {
    filler {
      value: 0
    }
  }
  fixed_precision: true
  precision {
    enter: 2
    fraccio: 9
    rounding: "stochastic"
  }
}
layer {
  name: "relu1"
  type: "ReLU"
  bottom: "ip1"
  top: "ip1"
  fixed_precision: true
  precision {
    enter: 2
    fraccio: 9
    rounding: "stochastic"
  }
}
layer {
  name: "ip2"
  type: "InnerProduct"
  bottom: "ip1"
  top: "ip2"
  inner_product_param {
    num_output: 1000
    weight_filler {
      type: "gaussian"
      mean: 0
      std: 0.01
    }
  }
  bias_param {
    filler {
      value: 0
    }
  }
  fixed_precision: true
  precision {
    enter: 2
    fraccio: 9
    rounding: "stochastic"
  }
}
layer {
  name: "relu2"
  type: "ReLU"
  bottom: "ip2"
  top: "ip2"
  bias_param {
    filler {
      value: 0
    }
  }
  fixed_precision: true
  precision {
    enter: 2
    fraccio: 9
    rounding: "stochastic"
  }
}
layer {
  name: "ip3"
  type: "InnerProduct"
  bottom: "ip2"
  top: "ip3"
  inner_product_param {
    num_output: 10
    weight_filler {
      type: "gaussian"
      mean: 0
      std: 0.01
    }
  }
  bias_param {
    filler {
      value: 0
    }
  }
  fixed_precision: true
  precision {
    enter: 2
    fraccio: 9
    rounding: "stochastic"
  }
}
layer {
  name: "accuracy"
  type: "Accuracy"
  bottom: "ip3"
  bottom: "label"
  top: "accuracy"
}
layer {
  name: "loss"
  type: "SoftmaxWithLoss"
  bottom: "ip3"
  bottom: "label"
  top: "loss"
  fixed_precision: true
  precision {
    enter: 2
    fraccio: 9
    rounding: "stochastic"
  }
}
I0404 12:45:12.762198 21073 layer_factory.hpp:77] Creating layer mnist
I0404 12:45:12.762307 21073 db_lmdb.cpp:35] Opened lmdb data/mnist_train_lmdb
I0404 12:45:12.762339 21073 net.cpp:84] Creating Layer mnist
I0404 12:45:12.762358 21073 net.cpp:380] mnist -> data
I0404 12:45:12.762392 21073 net.cpp:380] mnist -> label
I0404 12:45:12.762437 21073 data_layer.cpp:45] output data size: 100,1,28,28
I0404 12:45:12.763698 21073 net.cpp:122] Setting up mnist
I0404 12:45:12.763732 21073 net.cpp:129] Top shape: 100 1 28 28 (78400)
I0404 12:45:12.763746 21073 net.cpp:129] Top shape: 100 (100)
I0404 12:45:12.763753 21073 net.cpp:137] Memory required for data: 628000
I0404 12:45:12.763767 21073 layer_factory.hpp:77] Creating layer label_mnist_1_split
I0404 12:45:12.763787 21073 net.cpp:84] Creating Layer label_mnist_1_split
I0404 12:45:12.763797 21073 net.cpp:406] label_mnist_1_split <- label
I0404 12:45:12.763810 21073 net.cpp:380] label_mnist_1_split -> label_mnist_1_split_0
I0404 12:45:12.763824 21073 net.cpp:380] label_mnist_1_split -> label_mnist_1_split_1
I0404 12:45:12.763839 21073 net.cpp:122] Setting up label_mnist_1_split
I0404 12:45:12.763847 21073 net.cpp:129] Top shape: 100 (100)
I0404 12:45:12.763856 21073 net.cpp:129] Top shape: 100 (100)
I0404 12:45:12.763862 21073 net.cpp:137] Memory required for data: 629600
I0404 12:45:12.763872 21073 layer_factory.hpp:77] Creating layer ip1
I0404 12:45:12.763891 21073 net.cpp:84] Creating Layer ip1
I0404 12:45:12.763900 21073 net.cpp:406] ip1 <- data
I0404 12:45:12.763909 21073 net.cpp:380] ip1 -> ip1
I0404 12:45:12.873955 21073 net.cpp:122] Setting up ip1
I0404 12:45:12.874001 21073 net.cpp:129] Top shape: 100 1000 (100000)
I0404 12:45:12.874014 21073 net.cpp:137] Memory required for data: 1429600
I0404 12:45:12.874045 21073 layer_factory.hpp:77] Creating layer relu1
I0404 12:45:12.874066 21073 net.cpp:84] Creating Layer relu1
I0404 12:45:12.874079 21073 net.cpp:406] relu1 <- ip1
I0404 12:45:12.874094 21073 net.cpp:367] relu1 -> ip1 (in-place)
I0404 12:45:12.874119 21073 net.cpp:122] Setting up relu1
I0404 12:45:12.874130 21073 net.cpp:129] Top shape: 100 1000 (100000)
I0404 12:45:12.874138 21073 net.cpp:137] Memory required for data: 2229600
I0404 12:45:12.874146 21073 layer_factory.hpp:77] Creating layer ip2
I0404 12:45:12.874164 21073 net.cpp:84] Creating Layer ip2
I0404 12:45:12.874174 21073 net.cpp:406] ip2 <- ip1
I0404 12:45:12.874187 21073 net.cpp:380] ip2 -> ip2
I0404 12:45:12.974828 21073 net.cpp:122] Setting up ip2
I0404 12:45:12.974874 21073 net.cpp:129] Top shape: 100 1000 (100000)
I0404 12:45:12.974884 21073 net.cpp:137] Memory required for data: 3029600
I0404 12:45:12.974902 21073 layer_factory.hpp:77] Creating layer relu2
I0404 12:45:12.974921 21073 net.cpp:84] Creating Layer relu2
I0404 12:45:12.974931 21073 net.cpp:406] relu2 <- ip2
I0404 12:45:12.974943 21073 net.cpp:367] relu2 -> ip2 (in-place)
I0404 12:45:12.974972 21073 net.cpp:122] Setting up relu2
I0404 12:45:12.974994 21073 net.cpp:129] Top shape: 100 1000 (100000)
I0404 12:45:12.975002 21073 net.cpp:137] Memory required for data: 3829600
I0404 12:45:12.975009 21073 layer_factory.hpp:77] Creating layer ip3
I0404 12:45:12.975024 21073 net.cpp:84] Creating Layer ip3
I0404 12:45:12.975033 21073 net.cpp:406] ip3 <- ip2
I0404 12:45:12.975044 21073 net.cpp:380] ip3 -> ip3
I0404 12:45:12.976104 21073 net.cpp:122] Setting up ip3
I0404 12:45:12.976120 21073 net.cpp:129] Top shape: 100 10 (1000)
I0404 12:45:12.976127 21073 net.cpp:137] Memory required for data: 3837600
I0404 12:45:12.976141 21073 layer_factory.hpp:77] Creating layer ip3_ip3_0_split
I0404 12:45:12.976156 21073 net.cpp:84] Creating Layer ip3_ip3_0_split
I0404 12:45:12.976166 21073 net.cpp:406] ip3_ip3_0_split <- ip3
I0404 12:45:12.976177 21073 net.cpp:380] ip3_ip3_0_split -> ip3_ip3_0_split_0
I0404 12:45:12.976194 21073 net.cpp:380] ip3_ip3_0_split -> ip3_ip3_0_split_1
I0404 12:45:12.976212 21073 net.cpp:122] Setting up ip3_ip3_0_split
I0404 12:45:12.976223 21073 net.cpp:129] Top shape: 100 10 (1000)
I0404 12:45:12.976233 21073 net.cpp:129] Top shape: 100 10 (1000)
I0404 12:45:12.976243 21073 net.cpp:137] Memory required for data: 3853600
I0404 12:45:12.976249 21073 layer_factory.hpp:77] Creating layer accuracy
I0404 12:45:12.976263 21073 net.cpp:84] Creating Layer accuracy
I0404 12:45:12.976272 21073 net.cpp:406] accuracy <- ip3_ip3_0_split_0
I0404 12:45:12.976281 21073 net.cpp:406] accuracy <- label_mnist_1_split_0
I0404 12:45:12.976294 21073 net.cpp:380] accuracy -> accuracy
…
