…
  layer {
    name: "mnist"
    type: "Data"
    top: "data"
    top: "label"
    include {
      phase: TRAIN
    }
    transform_param {
      scale: 0.00390625
    }
    data_param {
      source: "data/mnist_train_lmdb"
      batch_size: 100
      backend: LMDB
    }
  }
  layer {
    name: "mnist"
    type: "Data"
    top: "data"
    top: "label"
    include {
      phase: TEST
    }
    transform_param {
      scale: 0.00390625
    }
    data_param {
      source: "data/mnist_test_lmdb"
      batch_size: 100
      backend: LMDB
    }
  }
  layer {
    name: "ip1"
    type: "InnerProduct"
    bottom: "data"
    top: "ip1"
    inner_product_param {
      num_output: 1000
      weight_filler {
        type: "gaussian"
        mean: 0
        std: 0.01
      }
    }
    bias_param {
      filler {
        value: 0
      }
    }
    fixed_precision: true
    precision {
      enter: 6
      fraccio: 10
      rounding: "stochastic"
    }
  }
  layer {
    name: "relu1"
    type: "ReLU"
    bottom: "ip1"
    top: "ip1"
    fixed_precision: true
    precision {
      enter: 6
      fraccio: 10
      rounding: "stochastic"
    }
  }
  layer {
    name: "ip2"
    type: "InnerProduct"
    bottom: "ip1"
    top: "ip2"
    inner_product_param {
      num_output: 1000
      weight_filler {
        type: "gaussian"
        mean: 0
        std: 0.01
      }
    }
    bias_param {
      filler {
        value: 0
      }
    }
    fixed_precision: true
    precision {
      enter: 6
      fraccio: 10
      rounding: "stochastic"
    }
  }
  layer {
    name: "relu2"
    type: "ReLU"
    bottom: "ip2"
    top: "ip2"
    bias_param {
      filler {
        value: 0
      }
    }
    fixed_precision: true
    precision {
      enter: 6
      fraccio: 10
      rounding: "stochastic"
    }
  }
  layer {
    name: "ip3"
    type: "InnerProduct"
    bottom: "ip2"
    top: "ip3"
    inner_product_param {
      num_output: 10
      weight_filler {
        type: "gaussian"
        mean: 0
        std: 0.01
      }
    }
    bias_param {
      filler {
        value: 0
      }
    }
    fixed_precision: true
    precision {
      enter: 6
      fraccio: 10
      rounding: "stochastic"
    }
  }
  layer {
    name: "accuracy"
    type: "Accuracy"
    bottom: "ip3"
    bottom: "label"
    top: "accuracy"
  }
  layer {
    name: "loss"
    type: "SoftmaxWithLoss"
    bottom: "ip3"
    bottom: "label"
    top: "loss"
    fixed_precision: true
    precision {
      enter: 6
      fraccio: 10
      rounding: "stochastic"
    }
  }
}
train_state {
  level: 0
  stage: ""
}
fixed_precision: true
precision {
  enter: 6
  fraccio: 10
  rounding: "stochastic"
}
I0330 23:39:27.753461 32158 solver.cpp:82] Creating training net specified in net_param.
I0330 23:39:27.753522 32158 net.cpp:294] The NetState phase (0) differed from the phase (1) specified by a rule in layer mnist
I0330 23:39:27.753691 32158 net.cpp:51] Initializing net from parameters: 
name: "LeNet"
state {
  phase: TRAIN
  level: 0
  stage: ""
}
layer {
  name: "mnist"
  type: "Data"
  top: "data"
  top: "label"
  include {
    phase: TRAIN
  }
  transform_param {
    scale: 0.00390625
  }
  data_param {
    source: "data/mnist_train_lmdb"
    batch_size: 100
    backend: LMDB
  }
}
layer {
  name: "ip1"
  type: "InnerProduct"
  bottom: "data"
  top: "ip1"
  inner_product_param {
    num_output: 1000
    weight_filler {
      type: "gaussian"
      mean: 0
      std: 0.01
    }
  }
  bias_param {
    filler {
      value: 0
    }
  }
  fixed_precision: true
  precision {
    enter: 6
    fraccio: 10
    rounding: "stochastic"
  }
}
layer {
  name: "relu1"
  type: "ReLU"
  bottom: "ip1"
  top: "ip1"
  fixed_precision: true
  precision {
    enter: 6
    fraccio: 10
    rounding: "stochastic"
  }
}
layer {
  name: "ip2"
  type: "InnerProduct"
  bottom: "ip1"
  top: "ip2"
  inner_product_param {
    num_output: 1000
    weight_filler {
      type: "gaussian"
      mean: 0
      std: 0.01
    }
  }
  bias_param {
    filler {
      value: 0
    }
  }
  fixed_precision: true
  precision {
    enter: 6
    fraccio: 10
    rounding: "stochastic"
  }
}
layer {
  name: "relu2"
  type: "ReLU"
  bottom: "ip2"
  top: "ip2"
  bias_param {
    filler {
      value: 0
    }
  }
  fixed_precision: true
  precision {
    enter: 6
    fraccio: 10
    rounding: "stochastic"
  }
}
layer {
  name: "ip3"
  type: "InnerProduct"
  bottom: "ip2"
  top: "ip3"
  inner_product_param {
    num_output: 10
    weight_filler {
      type: "gaussian"
      mean: 0
      std: 0.01
    }
  }
  bias_param {
    filler {
      value: 0
    }
  }
  fixed_precision: true
  precision {
    enter: 6
    fraccio: 10
    rounding: "stochastic"
  }
}
layer {
  name: "accuracy"
  type: "Accuracy"
  bottom: "ip3"
  bottom: "label"
  top: "accuracy"
}
layer {
  name: "loss"
  type: "SoftmaxWithLoss"
  bottom: "ip3"
  bottom: "label"
  top: "loss"
  fixed_precision: true
  precision {
    enter: 6
    fraccio: 10
    rounding: "stochastic"
  }
}
I0330 23:39:27.753820 32158 layer_factory.hpp:77] Creating layer mnist
I0330 23:39:27.753939 32158 db_lmdb.cpp:35] Opened lmdb data/mnist_train_lmdb
I0330 23:39:27.753970 32158 net.cpp:84] Creating Layer mnist
I0330 23:39:27.753983 32158 net.cpp:380] mnist -> data
I0330 23:39:27.754012 32158 net.cpp:380] mnist -> label
I0330 23:39:27.754055 32158 data_layer.cpp:45] output data size: 100,1,28,28
I0330 23:39:27.755844 32158 net.cpp:122] Setting up mnist
I0330 23:39:27.755870 32158 net.cpp:129] Top shape: 100 1 28 28 (78400)
I0330 23:39:27.755880 32158 net.cpp:129] Top shape: 100 (100)
I0330 23:39:27.755888 32158 net.cpp:137] Memory required for data: 628000
I0330 23:39:27.755899 32158 layer_factory.hpp:77] Creating layer label_mnist_1_split
I0330 23:39:27.755918 32158 net.cpp:84] Creating Layer label_mnist_1_split
I0330 23:39:27.755926 32158 net.cpp:406] label_mnist_1_split <- label
I0330 23:39:27.755941 32158 net.cpp:380] label_mnist_1_split -> label_mnist_1_split_0
I0330 23:39:27.755955 32158 net.cpp:380] label_mnist_1_split -> label_mnist_1_split_1
I0330 23:39:27.755969 32158 net.cpp:122] Setting up label_mnist_1_split
I0330 23:39:27.755978 32158 net.cpp:129] Top shape: 100 (100)
I0330 23:39:27.755987 32158 net.cpp:129] Top shape: 100 (100)
I0330 23:39:27.755995 32158 net.cpp:137] Memory required for data: 629600
I0330 23:39:27.756001 32158 layer_factory.hpp:77] Creating layer ip1
I0330 23:39:27.756013 32158 net.cpp:84] Creating Layer ip1
I0330 23:39:27.756021 32158 net.cpp:406] ip1 <- data
I0330 23:39:27.756032 32158 net.cpp:380] ip1 -> ip1
I0330 23:39:27.867938 32158 net.cpp:122] Setting up ip1
I0330 23:39:27.867980 32158 net.cpp:129] Top shape: 100 1000 (100000)
I0330 23:39:27.867988 32158 net.cpp:137] Memory required for data: 1429600
I0330 23:39:27.868011 32158 layer_factory.hpp:77] Creating layer relu1
I0330 23:39:27.868031 32158 net.cpp:84] Creating Layer relu1
I0330 23:39:27.868041 32158 net.cpp:406] relu1 <- ip1
I0330 23:39:27.868054 32158 net.cpp:367] relu1 -> ip1 (in-place)
I0330 23:39:27.868077 32158 net.cpp:122] Setting up relu1
I0330 23:39:27.868088 32158 net.cpp:129] Top shape: 100 1000 (100000)
I0330 23:39:27.868095 32158 net.cpp:137] Memory required for data: 2229600
I0330 23:39:27.868103 32158 layer_factory.hpp:77] Creating layer ip2
I0330 23:39:27.868119 32158 net.cpp:84] Creating Layer ip2
I0330 23:39:27.868126 32158 net.cpp:406] ip2 <- ip1
I0330 23:39:27.868139 32158 net.cpp:380] ip2 -> ip2
I0330 23:39:27.966250 32158 net.cpp:122] Setting up ip2
I0330 23:39:27.966289 32158 net.cpp:129] Top shape: 100 1000 (100000)
I0330 23:39:27.966297 32158 net.cpp:137] Memory required for data: 3029600
I0330 23:39:27.966315 32158 layer_factory.hpp:77] Creating layer relu2
I0330 23:39:27.966331 32158 net.cpp:84] Creating Layer relu2
I0330 23:39:27.966341 32158 net.cpp:406] relu2 <- ip2
I0330 23:39:27.966354 32158 net.cpp:367] relu2 -> ip2 (in-place)
I0330 23:39:27.966382 32158 net.cpp:122] Setting up relu2
I0330 23:39:27.966401 32158 net.cpp:129] Top shape: 100 1000 (100000)
I0330 23:39:27.966409 32158 net.cpp:137] Memory required for data: 3829600
I0330 23:39:27.966416 32158 layer_factory.hpp:77] Creating layer ip3
I0330 23:39:27.966430 32158 net.cpp:84] Creating Layer ip3
I0330 23:39:27.966439 32158 net.cpp:406] ip3 <- ip2
I0330 23:39:27.966449 32158 net.cpp:380] ip3 -> ip3
I0330 23:39:27.967478 32158 net.cpp:122] Setting up ip3
I0330 23:39:27.967492 32158 net.cpp:129] Top shape: 100 10 (1000)
I0330 23:39:27.967499 32158 net.cpp:137] Memory required for data: 3837600
I0330 23:39:27.967514 32158 layer_factory.hpp:77] Creating layer ip3_ip3_0_split
I0330 23:39:27.967525 32158 net.cpp:84] Creating Layer ip3_ip3_0_split
I0330 23:39:27.967532 32158 net.cpp:406] ip3_ip3_0_split <- ip3
I0330 23:39:27.967545 32158 net.cpp:380] ip3_ip3_0_split -> ip3_ip3_0_split_0
I0330 23:39:27.967558 32158 net.cpp:380] ip3_ip3_0_split -> ip3_ip3_0_split_1
I0330 23:39:27.967574 32158 net.cpp:122] Setting up ip3_ip3_0_split
I0330 23:39:27.967584 32158 net.cpp:129] Top shape: 100 10 (1000)
I0330 23:39:27.967595 32158 net.cpp:129] Top shape: 100 10 (1000)
I0330 23:39:27.967602 32158 net.cpp:137] Memory required for data: 3853600
I0330 23:39:27.967610 32158 layer_factory.hpp:77] Creating layer accuracy
I0330 23:39:27.967623 32158 net.cpp:84] Creating Layer accuracy
I0330 23:39:27.967633 32158 net.cpp:406] accuracy <- ip3_ip3_0_split_0
I0330 23:39:27.967641 32158 net.cpp:406] accuracy <- label_mnist_1_split_0
I0330 23:39:27.967654 32158 net.cpp:380] accuracy -> accuracy
…
