…
  layer {
    name: "mnist"
    type: "Data"
    top: "data"
    top: "label"
    include {
      phase: TRAIN
    }
    transform_param {
      scale: 0.00390625
    }
    data_param {
      source: "data/mnist_train_lmdb"
      batch_size: 100
      backend: LMDB
    }
  }
  layer {
    name: "mnist"
    type: "Data"
    top: "data"
    top: "label"
    include {
      phase: TEST
    }
    transform_param {
      scale: 0.00390625
    }
    data_param {
      source: "data/mnist_test_lmdb"
      batch_size: 100
      backend: LMDB
    }
  }
  layer {
    name: "ip1"
    type: "InnerProduct"
    bottom: "data"
    top: "ip1"
    inner_product_param {
      num_output: 1000
      weight_filler {
        type: "gaussian"
        mean: 0
        std: 0.01
      }
    }
    bias_param {
      filler {
        value: 0
      }
    }
    fixed_precision: true
    precision {
      enter: 1
      fraccio: 15
      rounding: "stochastic"
    }
  }
  layer {
    name: "relu1"
    type: "ReLU"
    bottom: "ip1"
    top: "ip1"
    fixed_precision: true
    precision {
      enter: 1
      fraccio: 15
      rounding: "stochastic"
    }
  }
  layer {
    name: "ip2"
    type: "InnerProduct"
    bottom: "ip1"
    top: "ip2"
    inner_product_param {
      num_output: 1000
      weight_filler {
        type: "gaussian"
        mean: 0
        std: 0.01
      }
    }
    bias_param {
      filler {
        value: 0
      }
    }
    fixed_precision: true
    precision {
      enter: 1
      fraccio: 15
      rounding: "stochastic"
    }
  }
  layer {
    name: "relu2"
    type: "ReLU"
    bottom: "ip2"
    top: "ip2"
    bias_param {
      filler {
        value: 0
      }
    }
    fixed_precision: true
    precision {
      enter: 1
      fraccio: 15
      rounding: "stochastic"
    }
  }
  layer {
    name: "ip3"
    type: "InnerProduct"
    bottom: "ip2"
    top: "ip3"
    inner_product_param {
      num_output: 10
      weight_filler {
        type: "gaussian"
        mean: 0
        std: 0.01
      }
    }
    bias_param {
      filler {
        value: 0
      }
    }
    fixed_precision: true
    precision {
      enter: 1
      fraccio: 15
      rounding: "stochastic"
    }
  }
  layer {
    name: "accuracy"
    type: "Accuracy"
    bottom: "ip3"
    bottom: "label"
    top: "accuracy"
  }
  layer {
    name: "loss"
    type: "SoftmaxWithLoss"
    bottom: "ip3"
    bottom: "label"
    top: "loss"
    fixed_precision: true
    precision {
      enter: 1
      fraccio: 15
      rounding: "stochastic"
    }
  }
}
train_state {
  level: 0
  stage: ""
}
fixed_precision: true
precision {
  enter: 1
  fraccio: 15
  rounding: "stochastic"
}
I0402 15:46:49.493901 16188 solver.cpp:82] Creating training net specified in net_param.
I0402 15:46:49.493959 16188 net.cpp:294] The NetState phase (0) differed from the phase (1) specified by a rule in layer mnist
I0402 15:46:49.494130 16188 net.cpp:51] Initializing net from parameters: 
name: "LeNet"
state {
  phase: TRAIN
  level: 0
  stage: ""
}
layer {
  name: "mnist"
  type: "Data"
  top: "data"
  top: "label"
  include {
    phase: TRAIN
  }
  transform_param {
    scale: 0.00390625
  }
  data_param {
    source: "data/mnist_train_lmdb"
    batch_size: 100
    backend: LMDB
  }
}
layer {
  name: "ip1"
  type: "InnerProduct"
  bottom: "data"
  top: "ip1"
  inner_product_param {
    num_output: 1000
    weight_filler {
      type: "gaussian"
      mean: 0
      std: 0.01
    }
  }
  bias_param {
    filler {
      value: 0
    }
  }
  fixed_precision: true
  precision {
    enter: 1
    fraccio: 15
    rounding: "stochastic"
  }
}
layer {
  name: "relu1"
  type: "ReLU"
  bottom: "ip1"
  top: "ip1"
  fixed_precision: true
  precision {
    enter: 1
    fraccio: 15
    rounding: "stochastic"
  }
}
layer {
  name: "ip2"
  type: "InnerProduct"
  bottom: "ip1"
  top: "ip2"
  inner_product_param {
    num_output: 1000
    weight_filler {
      type: "gaussian"
      mean: 0
      std: 0.01
    }
  }
  bias_param {
    filler {
      value: 0
    }
  }
  fixed_precision: true
  precision {
    enter: 1
    fraccio: 15
    rounding: "stochastic"
  }
}
layer {
  name: "relu2"
  type: "ReLU"
  bottom: "ip2"
  top: "ip2"
  bias_param {
    filler {
      value: 0
    }
  }
  fixed_precision: true
  precision {
    enter: 1
    fraccio: 15
    rounding: "stochastic"
  }
}
layer {
  name: "ip3"
  type: "InnerProduct"
  bottom: "ip2"
  top: "ip3"
  inner_product_param {
    num_output: 10
    weight_filler {
      type: "gaussian"
      mean: 0
      std: 0.01
    }
  }
  bias_param {
    filler {
      value: 0
    }
  }
  fixed_precision: true
  precision {
    enter: 1
    fraccio: 15
    rounding: "stochastic"
  }
}
layer {
  name: "accuracy"
  type: "Accuracy"
  bottom: "ip3"
  bottom: "label"
  top: "accuracy"
}
layer {
  name: "loss"
  type: "SoftmaxWithLoss"
  bottom: "ip3"
  bottom: "label"
  top: "loss"
  fixed_precision: true
  precision {
    enter: 1
    fraccio: 15
    rounding: "stochastic"
  }
}
I0402 15:46:49.494257 16188 layer_factory.hpp:77] Creating layer mnist
I0402 15:46:49.494377 16188 db_lmdb.cpp:35] Opened lmdb data/mnist_train_lmdb
I0402 15:46:49.494407 16188 net.cpp:84] Creating Layer mnist
I0402 15:46:49.494420 16188 net.cpp:380] mnist -> data
I0402 15:46:49.494448 16188 net.cpp:380] mnist -> label
I0402 15:46:49.494488 16188 data_layer.cpp:45] output data size: 100,1,28,28
I0402 15:46:49.496222 16188 net.cpp:122] Setting up mnist
I0402 15:46:49.496245 16188 net.cpp:129] Top shape: 100 1 28 28 (78400)
I0402 15:46:49.496255 16188 net.cpp:129] Top shape: 100 (100)
I0402 15:46:49.496263 16188 net.cpp:137] Memory required for data: 628000
I0402 15:46:49.496274 16188 layer_factory.hpp:77] Creating layer label_mnist_1_split
I0402 15:46:49.496290 16188 net.cpp:84] Creating Layer label_mnist_1_split
I0402 15:46:49.496299 16188 net.cpp:406] label_mnist_1_split <- label
I0402 15:46:49.496314 16188 net.cpp:380] label_mnist_1_split -> label_mnist_1_split_0
I0402 15:46:49.496326 16188 net.cpp:380] label_mnist_1_split -> label_mnist_1_split_1
I0402 15:46:49.496340 16188 net.cpp:122] Setting up label_mnist_1_split
I0402 15:46:49.496348 16188 net.cpp:129] Top shape: 100 (100)
I0402 15:46:49.496357 16188 net.cpp:129] Top shape: 100 (100)
I0402 15:46:49.496364 16188 net.cpp:137] Memory required for data: 629600
I0402 15:46:49.496371 16188 layer_factory.hpp:77] Creating layer ip1
I0402 15:46:49.496387 16188 net.cpp:84] Creating Layer ip1
I0402 15:46:49.496394 16188 net.cpp:406] ip1 <- data
I0402 15:46:49.496404 16188 net.cpp:380] ip1 -> ip1
I0402 15:46:49.609542 16188 net.cpp:122] Setting up ip1
I0402 15:46:49.609581 16188 net.cpp:129] Top shape: 100 1000 (100000)
I0402 15:46:49.609593 16188 net.cpp:137] Memory required for data: 1429600
I0402 15:46:49.609619 16188 layer_factory.hpp:77] Creating layer relu1
I0402 15:46:49.609642 16188 net.cpp:84] Creating Layer relu1
I0402 15:46:49.609653 16188 net.cpp:406] relu1 <- ip1
I0402 15:46:49.609666 16188 net.cpp:367] relu1 -> ip1 (in-place)
I0402 15:46:49.609690 16188 net.cpp:122] Setting up relu1
I0402 15:46:49.609701 16188 net.cpp:129] Top shape: 100 1000 (100000)
I0402 15:46:49.609709 16188 net.cpp:137] Memory required for data: 2229600
I0402 15:46:49.609717 16188 layer_factory.hpp:77] Creating layer ip2
I0402 15:46:49.609732 16188 net.cpp:84] Creating Layer ip2
I0402 15:46:49.609742 16188 net.cpp:406] ip2 <- ip1
I0402 15:46:49.609755 16188 net.cpp:380] ip2 -> ip2
I0402 15:46:49.711833 16188 net.cpp:122] Setting up ip2
I0402 15:46:49.711869 16188 net.cpp:129] Top shape: 100 1000 (100000)
I0402 15:46:49.711879 16188 net.cpp:137] Memory required for data: 3029600
I0402 15:46:49.711900 16188 layer_factory.hpp:77] Creating layer relu2
I0402 15:46:49.711920 16188 net.cpp:84] Creating Layer relu2
I0402 15:46:49.711932 16188 net.cpp:406] relu2 <- ip2
I0402 15:46:49.711946 16188 net.cpp:367] relu2 -> ip2 (in-place)
I0402 15:46:49.711973 16188 net.cpp:122] Setting up relu2
I0402 15:46:49.711995 16188 net.cpp:129] Top shape: 100 1000 (100000)
I0402 15:46:49.712003 16188 net.cpp:137] Memory required for data: 3829600
I0402 15:46:49.712031 16188 layer_factory.hpp:77] Creating layer ip3
I0402 15:46:49.712045 16188 net.cpp:84] Creating Layer ip3
I0402 15:46:49.712056 16188 net.cpp:406] ip3 <- ip2
I0402 15:46:49.712069 16188 net.cpp:380] ip3 -> ip3
I0402 15:46:49.713176 16188 net.cpp:122] Setting up ip3
I0402 15:46:49.713191 16188 net.cpp:129] Top shape: 100 10 (1000)
I0402 15:46:49.713199 16188 net.cpp:137] Memory required for data: 3837600
I0402 15:46:49.713215 16188 layer_factory.hpp:77] Creating layer ip3_ip3_0_split
I0402 15:46:49.713227 16188 net.cpp:84] Creating Layer ip3_ip3_0_split
I0402 15:46:49.713235 16188 net.cpp:406] ip3_ip3_0_split <- ip3
I0402 15:46:49.713246 16188 net.cpp:380] ip3_ip3_0_split -> ip3_ip3_0_split_0
I0402 15:46:49.713260 16188 net.cpp:380] ip3_ip3_0_split -> ip3_ip3_0_split_1
I0402 15:46:49.713277 16188 net.cpp:122] Setting up ip3_ip3_0_split
I0402 15:46:49.713302 16188 net.cpp:129] Top shape: 100 10 (1000)
I0402 15:46:49.713315 16188 net.cpp:129] Top shape: 100 10 (1000)
I0402 15:46:49.713322 16188 net.cpp:137] Memory required for data: 3853600
I0402 15:46:49.713330 16188 layer_factory.hpp:77] Creating layer accuracy
I0402 15:46:49.713346 16188 net.cpp:84] Creating Layer accuracy
I0402 15:46:49.713353 16188 net.cpp:406] accuracy <- ip3_ip3_0_split_0
I0402 15:46:49.713362 16188 net.cpp:406] accuracy <- label_mnist_1_split_0
I0402 15:46:49.713376 16188 net.cpp:380] accuracy -> accuracy
…
