…
  layer {
    name: "mnist"
    type: "Data"
    top: "data"
    top: "label"
    include {
      phase: TRAIN
    }
    transform_param {
      scale: 0.00390625
    }
    data_param {
      source: "data/mnist_train_lmdb"
      batch_size: 100
      backend: LMDB
    }
  }
  layer {
    name: "mnist"
    type: "Data"
    top: "data"
    top: "label"
    include {
      phase: TEST
    }
    transform_param {
      scale: 0.00390625
    }
    data_param {
      source: "data/mnist_test_lmdb"
      batch_size: 100
      backend: LMDB
    }
  }
  layer {
    name: "ip1"
    type: "InnerProduct"
    bottom: "data"
    top: "ip1"
    inner_product_param {
      num_output: 1000
      weight_filler {
        type: "gaussian"
        mean: 0
        std: 0.01
      }
    }
    bias_param {
      filler {
        value: 0
      }
    }
    fixed_precision: true
    precision {
      enter: 0
      fraccio: 16
      rounding: "stochastic"
    }
  }
  layer {
    name: "relu1"
    type: "ReLU"
    bottom: "ip1"
    top: "ip1"
    fixed_precision: true
    precision {
      enter: 0
      fraccio: 16
      rounding: "stochastic"
    }
  }
  layer {
    name: "ip2"
    type: "InnerProduct"
    bottom: "ip1"
    top: "ip2"
    inner_product_param {
      num_output: 1000
      weight_filler {
        type: "gaussian"
        mean: 0
        std: 0.01
      }
    }
    bias_param {
      filler {
        value: 0
      }
    }
    fixed_precision: true
    precision {
      enter: 0
      fraccio: 16
      rounding: "stochastic"
    }
  }
  layer {
    name: "relu2"
    type: "ReLU"
    bottom: "ip2"
    top: "ip2"
    bias_param {
      filler {
        value: 0
      }
    }
    fixed_precision: true
    precision {
      enter: 0
      fraccio: 16
      rounding: "stochastic"
    }
  }
  layer {
    name: "ip3"
    type: "InnerProduct"
    bottom: "ip2"
    top: "ip3"
    inner_product_param {
      num_output: 10
      weight_filler {
        type: "gaussian"
        mean: 0
        std: 0.01
      }
    }
    bias_param {
      filler {
        value: 0
      }
    }
    fixed_precision: true
    precision {
      enter: 0
      fraccio: 16
      rounding: "stochastic"
    }
  }
  layer {
    name: "accuracy"
    type: "Accuracy"
    bottom: "ip3"
    bottom: "label"
    top: "accuracy"
  }
  layer {
    name: "loss"
    type: "SoftmaxWithLoss"
    bottom: "ip3"
    bottom: "label"
    top: "loss"
    fixed_precision: true
    precision {
      enter: 0
      fraccio: 16
      rounding: "stochastic"
    }
  }
}
train_state {
  level: 0
  stage: ""
}
fixed_precision: true
precision {
  enter: 0
  fraccio: 16
  rounding: "stochastic"
}
I0402 14:25:16.472887 11326 solver.cpp:82] Creating training net specified in net_param.
I0402 14:25:16.472945 11326 net.cpp:294] The NetState phase (0) differed from the phase (1) specified by a rule in layer mnist
I0402 14:25:16.473115 11326 net.cpp:51] Initializing net from parameters: 
name: "LeNet"
state {
  phase: TRAIN
  level: 0
  stage: ""
}
layer {
  name: "mnist"
  type: "Data"
  top: "data"
  top: "label"
  include {
    phase: TRAIN
  }
  transform_param {
    scale: 0.00390625
  }
  data_param {
    source: "data/mnist_train_lmdb"
    batch_size: 100
    backend: LMDB
  }
}
layer {
  name: "ip1"
  type: "InnerProduct"
  bottom: "data"
  top: "ip1"
  inner_product_param {
    num_output: 1000
    weight_filler {
      type: "gaussian"
      mean: 0
      std: 0.01
    }
  }
  bias_param {
    filler {
      value: 0
    }
  }
  fixed_precision: true
  precision {
    enter: 0
    fraccio: 16
    rounding: "stochastic"
  }
}
layer {
  name: "relu1"
  type: "ReLU"
  bottom: "ip1"
  top: "ip1"
  fixed_precision: true
  precision {
    enter: 0
    fraccio: 16
    rounding: "stochastic"
  }
}
layer {
  name: "ip2"
  type: "InnerProduct"
  bottom: "ip1"
  top: "ip2"
  inner_product_param {
    num_output: 1000
    weight_filler {
      type: "gaussian"
      mean: 0
      std: 0.01
    }
  }
  bias_param {
    filler {
      value: 0
    }
  }
  fixed_precision: true
  precision {
    enter: 0
    fraccio: 16
    rounding: "stochastic"
  }
}
layer {
  name: "relu2"
  type: "ReLU"
  bottom: "ip2"
  top: "ip2"
  bias_param {
    filler {
      value: 0
    }
  }
  fixed_precision: true
  precision {
    enter: 0
    fraccio: 16
    rounding: "stochastic"
  }
}
layer {
  name: "ip3"
  type: "InnerProduct"
  bottom: "ip2"
  top: "ip3"
  inner_product_param {
    num_output: 10
    weight_filler {
      type: "gaussian"
      mean: 0
      std: 0.01
    }
  }
  bias_param {
    filler {
      value: 0
    }
  }
  fixed_precision: true
  precision {
    enter: 0
    fraccio: 16
    rounding: "stochastic"
  }
}
layer {
  name: "accuracy"
  type: "Accuracy"
  bottom: "ip3"
  bottom: "label"
  top: "accuracy"
}
layer {
  name: "loss"
  type: "SoftmaxWithLoss"
  bottom: "ip3"
  bottom: "label"
  top: "loss"
  fixed_precision: true
  precision {
    enter: 0
    fraccio: 16
    rounding: "stochastic"
  }
}
I0402 14:25:16.473242 11326 layer_factory.hpp:77] Creating layer mnist
I0402 14:25:16.473358 11326 db_lmdb.cpp:35] Opened lmdb data/mnist_train_lmdb
I0402 14:25:16.473387 11326 net.cpp:84] Creating Layer mnist
I0402 14:25:16.473399 11326 net.cpp:380] mnist -> data
I0402 14:25:16.473428 11326 net.cpp:380] mnist -> label
I0402 14:25:16.473469 11326 data_layer.cpp:45] output data size: 100,1,28,28
I0402 14:25:16.475154 11326 net.cpp:122] Setting up mnist
I0402 14:25:16.475178 11326 net.cpp:129] Top shape: 100 1 28 28 (78400)
I0402 14:25:16.475188 11326 net.cpp:129] Top shape: 100 (100)
I0402 14:25:16.475194 11326 net.cpp:137] Memory required for data: 628000
I0402 14:25:16.475205 11326 layer_factory.hpp:77] Creating layer label_mnist_1_split
I0402 14:25:16.475221 11326 net.cpp:84] Creating Layer label_mnist_1_split
I0402 14:25:16.475230 11326 net.cpp:406] label_mnist_1_split <- label
I0402 14:25:16.475244 11326 net.cpp:380] label_mnist_1_split -> label_mnist_1_split_0
I0402 14:25:16.475256 11326 net.cpp:380] label_mnist_1_split -> label_mnist_1_split_1
I0402 14:25:16.475270 11326 net.cpp:122] Setting up label_mnist_1_split
I0402 14:25:16.475278 11326 net.cpp:129] Top shape: 100 (100)
I0402 14:25:16.475287 11326 net.cpp:129] Top shape: 100 (100)
I0402 14:25:16.475293 11326 net.cpp:137] Memory required for data: 629600
I0402 14:25:16.475301 11326 layer_factory.hpp:77] Creating layer ip1
I0402 14:25:16.475312 11326 net.cpp:84] Creating Layer ip1
I0402 14:25:16.475319 11326 net.cpp:406] ip1 <- data
I0402 14:25:16.475329 11326 net.cpp:380] ip1 -> ip1
I0402 14:25:16.589037 11326 net.cpp:122] Setting up ip1
I0402 14:25:16.589078 11326 net.cpp:129] Top shape: 100 1000 (100000)
I0402 14:25:16.589090 11326 net.cpp:137] Memory required for data: 1429600
I0402 14:25:16.589117 11326 layer_factory.hpp:77] Creating layer relu1
I0402 14:25:16.589136 11326 net.cpp:84] Creating Layer relu1
I0402 14:25:16.589148 11326 net.cpp:406] relu1 <- ip1
I0402 14:25:16.589160 11326 net.cpp:367] relu1 -> ip1 (in-place)
I0402 14:25:16.589184 11326 net.cpp:122] Setting up relu1
I0402 14:25:16.589195 11326 net.cpp:129] Top shape: 100 1000 (100000)
I0402 14:25:16.589202 11326 net.cpp:137] Memory required for data: 2229600
I0402 14:25:16.589210 11326 layer_factory.hpp:77] Creating layer ip2
I0402 14:25:16.589226 11326 net.cpp:84] Creating Layer ip2
I0402 14:25:16.589233 11326 net.cpp:406] ip2 <- ip1
I0402 14:25:16.589246 11326 net.cpp:380] ip2 -> ip2
I0402 14:25:16.689788 11326 net.cpp:122] Setting up ip2
I0402 14:25:16.689824 11326 net.cpp:129] Top shape: 100 1000 (100000)
I0402 14:25:16.689832 11326 net.cpp:137] Memory required for data: 3029600
I0402 14:25:16.689851 11326 layer_factory.hpp:77] Creating layer relu2
I0402 14:25:16.689867 11326 net.cpp:84] Creating Layer relu2
I0402 14:25:16.689877 11326 net.cpp:406] relu2 <- ip2
I0402 14:25:16.689889 11326 net.cpp:367] relu2 -> ip2 (in-place)
I0402 14:25:16.689915 11326 net.cpp:122] Setting up relu2
I0402 14:25:16.689934 11326 net.cpp:129] Top shape: 100 1000 (100000)
I0402 14:25:16.689942 11326 net.cpp:137] Memory required for data: 3829600
I0402 14:25:16.689949 11326 layer_factory.hpp:77] Creating layer ip3
I0402 14:25:16.689961 11326 net.cpp:84] Creating Layer ip3
I0402 14:25:16.689970 11326 net.cpp:406] ip3 <- ip2
I0402 14:25:16.689980 11326 net.cpp:380] ip3 -> ip3
I0402 14:25:16.691053 11326 net.cpp:122] Setting up ip3
I0402 14:25:16.691067 11326 net.cpp:129] Top shape: 100 10 (1000)
I0402 14:25:16.691076 11326 net.cpp:137] Memory required for data: 3837600
I0402 14:25:16.691089 11326 layer_factory.hpp:77] Creating layer ip3_ip3_0_split
I0402 14:25:16.691100 11326 net.cpp:84] Creating Layer ip3_ip3_0_split
I0402 14:25:16.691109 11326 net.cpp:406] ip3_ip3_0_split <- ip3
I0402 14:25:16.691120 11326 net.cpp:380] ip3_ip3_0_split -> ip3_ip3_0_split_0
I0402 14:25:16.691135 11326 net.cpp:380] ip3_ip3_0_split -> ip3_ip3_0_split_1
I0402 14:25:16.691151 11326 net.cpp:122] Setting up ip3_ip3_0_split
I0402 14:25:16.691164 11326 net.cpp:129] Top shape: 100 10 (1000)
I0402 14:25:16.691172 11326 net.cpp:129] Top shape: 100 10 (1000)
I0402 14:25:16.691180 11326 net.cpp:137] Memory required for data: 3853600
I0402 14:25:16.691187 11326 layer_factory.hpp:77] Creating layer accuracy
I0402 14:25:16.691200 11326 net.cpp:84] Creating Layer accuracy
I0402 14:25:16.691207 11326 net.cpp:406] accuracy <- ip3_ip3_0_split_0
I0402 14:25:16.691216 11326 net.cpp:406] accuracy <- label_mnist_1_split_0
I0402 14:25:16.691229 11326 net.cpp:380] accuracy -> accuracy
…
