…
  layer {
    name: "mnist"
    type: "Data"
    top: "data"
    top: "label"
    include {
      phase: TRAIN
    }
    transform_param {
      scale: 0.00390625
    }
    data_param {
      source: "data/mnist_train_lmdb"
      batch_size: 100
      backend: LMDB
    }
  }
  layer {
    name: "mnist"
    type: "Data"
    top: "data"
    top: "label"
    include {
      phase: TEST
    }
    transform_param {
      scale: 0.00390625
    }
    data_param {
      source: "data/mnist_test_lmdb"
      batch_size: 100
      backend: LMDB
    }
  }
  layer {
    name: "ip1"
    type: "InnerProduct"
    bottom: "data"
    top: "ip1"
    inner_product_param {
      num_output: 1000
      weight_filler {
        type: "gaussian"
        mean: 0
        std: 0.01
      }
    }
    bias_param {
      filler {
        value: 0
      }
    }
    fixed_precision: true
    precision {
      enter: 8
      fraccio: 8
      rounding: "stochastic"
    }
  }
  layer {
    name: "relu1"
    type: "ReLU"
    bottom: "ip1"
    top: "ip1"
    fixed_precision: true
    precision {
      enter: 8
      fraccio: 8
      rounding: "stochastic"
    }
  }
  layer {
    name: "ip2"
    type: "InnerProduct"
    bottom: "ip1"
    top: "ip2"
    inner_product_param {
      num_output: 1000
      weight_filler {
        type: "gaussian"
        mean: 0
        std: 0.01
      }
    }
    bias_param {
      filler {
        value: 0
      }
    }
    fixed_precision: true
    precision {
      enter: 8
      fraccio: 8
      rounding: "stochastic"
    }
  }
  layer {
    name: "relu2"
    type: "ReLU"
    bottom: "ip2"
    top: "ip2"
    bias_param {
      filler {
        value: 0
      }
    }
    fixed_precision: true
    precision {
      enter: 8
      fraccio: 8
      rounding: "stochastic"
    }
  }
  layer {
    name: "ip3"
    type: "InnerProduct"
    bottom: "ip2"
    top: "ip3"
    inner_product_param {
      num_output: 10
      weight_filler {
        type: "gaussian"
        mean: 0
        std: 0.01
      }
    }
    bias_param {
      filler {
        value: 0
      }
    }
    fixed_precision: true
    precision {
      enter: 8
      fraccio: 8
      rounding: "stochastic"
    }
  }
  layer {
    name: "accuracy"
    type: "Accuracy"
    bottom: "ip3"
    bottom: "label"
    top: "accuracy"
  }
  layer {
    name: "loss"
    type: "SoftmaxWithLoss"
    bottom: "ip3"
    bottom: "label"
    top: "loss"
    fixed_precision: true
    precision {
      enter: 8
      fraccio: 8
      rounding: "stochastic"
    }
  }
}
train_state {
  level: 0
  stage: ""
}
fixed_precision: true
precision {
  enter: 8
  fraccio: 8
  rounding: "stochastic"
}
I0331 04:24:23.033380 17302 solver.cpp:82] Creating training net specified in net_param.
I0331 04:24:23.033440 17302 net.cpp:294] The NetState phase (0) differed from the phase (1) specified by a rule in layer mnist
I0331 04:24:23.033612 17302 net.cpp:51] Initializing net from parameters: 
name: "LeNet"
state {
  phase: TRAIN
  level: 0
  stage: ""
}
layer {
  name: "mnist"
  type: "Data"
  top: "data"
  top: "label"
  include {
    phase: TRAIN
  }
  transform_param {
    scale: 0.00390625
  }
  data_param {
    source: "data/mnist_train_lmdb"
    batch_size: 100
    backend: LMDB
  }
}
layer {
  name: "ip1"
  type: "InnerProduct"
  bottom: "data"
  top: "ip1"
  inner_product_param {
    num_output: 1000
    weight_filler {
      type: "gaussian"
      mean: 0
      std: 0.01
    }
  }
  bias_param {
    filler {
      value: 0
    }
  }
  fixed_precision: true
  precision {
    enter: 8
    fraccio: 8
    rounding: "stochastic"
  }
}
layer {
  name: "relu1"
  type: "ReLU"
  bottom: "ip1"
  top: "ip1"
  fixed_precision: true
  precision {
    enter: 8
    fraccio: 8
    rounding: "stochastic"
  }
}
layer {
  name: "ip2"
  type: "InnerProduct"
  bottom: "ip1"
  top: "ip2"
  inner_product_param {
    num_output: 1000
    weight_filler {
      type: "gaussian"
      mean: 0
      std: 0.01
    }
  }
  bias_param {
    filler {
      value: 0
    }
  }
  fixed_precision: true
  precision {
    enter: 8
    fraccio: 8
    rounding: "stochastic"
  }
}
layer {
  name: "relu2"
  type: "ReLU"
  bottom: "ip2"
  top: "ip2"
  bias_param {
    filler {
      value: 0
    }
  }
  fixed_precision: true
  precision {
    enter: 8
    fraccio: 8
    rounding: "stochastic"
  }
}
layer {
  name: "ip3"
  type: "InnerProduct"
  bottom: "ip2"
  top: "ip3"
  inner_product_param {
    num_output: 10
    weight_filler {
      type: "gaussian"
      mean: 0
      std: 0.01
    }
  }
  bias_param {
    filler {
      value: 0
    }
  }
  fixed_precision: true
  precision {
    enter: 8
    fraccio: 8
    rounding: "stochastic"
  }
}
layer {
  name: "accuracy"
  type: "Accuracy"
  bottom: "ip3"
  bottom: "label"
  top: "accuracy"
}
layer {
  name: "loss"
  type: "SoftmaxWithLoss"
  bottom: "ip3"
  bottom: "label"
  top: "loss"
  fixed_precision: true
  precision {
    enter: 8
    fraccio: 8
    rounding: "stochastic"
  }
}
I0331 04:24:23.033741 17302 layer_factory.hpp:77] Creating layer mnist
I0331 04:24:23.033861 17302 db_lmdb.cpp:35] Opened lmdb data/mnist_train_lmdb
I0331 04:24:23.033893 17302 net.cpp:84] Creating Layer mnist
I0331 04:24:23.033906 17302 net.cpp:380] mnist -> data
I0331 04:24:23.033937 17302 net.cpp:380] mnist -> label
I0331 04:24:23.033977 17302 data_layer.cpp:45] output data size: 100,1,28,28
I0331 04:24:23.036996 17302 net.cpp:122] Setting up mnist
I0331 04:24:23.037037 17302 net.cpp:129] Top shape: 100 1 28 28 (78400)
I0331 04:24:23.037048 17302 net.cpp:129] Top shape: 100 (100)
I0331 04:24:23.037056 17302 net.cpp:137] Memory required for data: 628000
I0331 04:24:23.037070 17302 layer_factory.hpp:77] Creating layer label_mnist_1_split
I0331 04:24:23.037091 17302 net.cpp:84] Creating Layer label_mnist_1_split
I0331 04:24:23.037102 17302 net.cpp:406] label_mnist_1_split <- label
I0331 04:24:23.037118 17302 net.cpp:380] label_mnist_1_split -> label_mnist_1_split_0
I0331 04:24:23.037133 17302 net.cpp:380] label_mnist_1_split -> label_mnist_1_split_1
I0331 04:24:23.037149 17302 net.cpp:122] Setting up label_mnist_1_split
I0331 04:24:23.037159 17302 net.cpp:129] Top shape: 100 (100)
I0331 04:24:23.037170 17302 net.cpp:129] Top shape: 100 (100)
I0331 04:24:23.037178 17302 net.cpp:137] Memory required for data: 629600
I0331 04:24:23.037184 17302 layer_factory.hpp:77] Creating layer ip1
I0331 04:24:23.037202 17302 net.cpp:84] Creating Layer ip1
I0331 04:24:23.037210 17302 net.cpp:406] ip1 <- data
I0331 04:24:23.037220 17302 net.cpp:380] ip1 -> ip1
I0331 04:24:23.177002 17302 net.cpp:122] Setting up ip1
I0331 04:24:23.177042 17302 net.cpp:129] Top shape: 100 1000 (100000)
I0331 04:24:23.177050 17302 net.cpp:137] Memory required for data: 1429600
I0331 04:24:23.177072 17302 layer_factory.hpp:77] Creating layer relu1
I0331 04:24:23.177085 17302 net.cpp:84] Creating Layer relu1
I0331 04:24:23.177093 17302 net.cpp:406] relu1 <- ip1
I0331 04:24:23.177101 17302 net.cpp:367] relu1 -> ip1 (in-place)
I0331 04:24:23.177117 17302 net.cpp:122] Setting up relu1
I0331 04:24:23.177124 17302 net.cpp:129] Top shape: 100 1000 (100000)
I0331 04:24:23.177129 17302 net.cpp:137] Memory required for data: 2229600
I0331 04:24:23.177132 17302 layer_factory.hpp:77] Creating layer ip2
I0331 04:24:23.177142 17302 net.cpp:84] Creating Layer ip2
I0331 04:24:23.177147 17302 net.cpp:406] ip2 <- ip1
I0331 04:24:23.177155 17302 net.cpp:380] ip2 -> ip2
I0331 04:24:23.270658 17302 net.cpp:122] Setting up ip2
I0331 04:24:23.270692 17302 net.cpp:129] Top shape: 100 1000 (100000)
I0331 04:24:23.270697 17302 net.cpp:137] Memory required for data: 3029600
I0331 04:24:23.270711 17302 layer_factory.hpp:77] Creating layer relu2
I0331 04:24:23.270725 17302 net.cpp:84] Creating Layer relu2
I0331 04:24:23.270730 17302 net.cpp:406] relu2 <- ip2
I0331 04:24:23.270736 17302 net.cpp:367] relu2 -> ip2 (in-place)
I0331 04:24:23.270754 17302 net.cpp:122] Setting up relu2
I0331 04:24:23.270768 17302 net.cpp:129] Top shape: 100 1000 (100000)
I0331 04:24:23.270771 17302 net.cpp:137] Memory required for data: 3829600
I0331 04:24:23.270774 17302 layer_factory.hpp:77] Creating layer ip3
I0331 04:24:23.270781 17302 net.cpp:84] Creating Layer ip3
I0331 04:24:23.270786 17302 net.cpp:406] ip3 <- ip2
I0331 04:24:23.270792 17302 net.cpp:380] ip3 -> ip3
I0331 04:24:23.271710 17302 net.cpp:122] Setting up ip3
I0331 04:24:23.271718 17302 net.cpp:129] Top shape: 100 10 (1000)
I0331 04:24:23.271733 17302 net.cpp:137] Memory required for data: 3837600
I0331 04:24:23.271740 17302 layer_factory.hpp:77] Creating layer ip3_ip3_0_split
I0331 04:24:23.271746 17302 net.cpp:84] Creating Layer ip3_ip3_0_split
I0331 04:24:23.271750 17302 net.cpp:406] ip3_ip3_0_split <- ip3
I0331 04:24:23.271755 17302 net.cpp:380] ip3_ip3_0_split -> ip3_ip3_0_split_0
I0331 04:24:23.271762 17302 net.cpp:380] ip3_ip3_0_split -> ip3_ip3_0_split_1
I0331 04:24:23.271770 17302 net.cpp:122] Setting up ip3_ip3_0_split
I0331 04:24:23.271776 17302 net.cpp:129] Top shape: 100 10 (1000)
I0331 04:24:23.271782 17302 net.cpp:129] Top shape: 100 10 (1000)
I0331 04:24:23.271785 17302 net.cpp:137] Memory required for data: 3853600
I0331 04:24:23.271790 17302 layer_factory.hpp:77] Creating layer accuracy
I0331 04:24:23.271795 17302 net.cpp:84] Creating Layer accuracy
I0331 04:24:23.271800 17302 net.cpp:406] accuracy <- ip3_ip3_0_split_0
I0331 04:24:23.271805 17302 net.cpp:406] accuracy <- label_mnist_1_split_0
I0331 04:24:23.271812 17302 net.cpp:380] accuracy -> accuracy
…
