…
  layer {
    name: "mnist"
    type: "Data"
    top: "data"
    top: "label"
    include {
      phase: TRAIN
    }
    transform_param {
      scale: 0.00390625
    }
    data_param {
      source: "data/mnist_train_lmdb"
      batch_size: 100
      backend: LMDB
    }
  }
  layer {
    name: "mnist"
    type: "Data"
    top: "data"
    top: "label"
    include {
      phase: TEST
    }
    transform_param {
      scale: 0.00390625
    }
    data_param {
      source: "data/mnist_test_lmdb"
      batch_size: 100
      backend: LMDB
    }
  }
  layer {
    name: "ip1"
    type: "InnerProduct"
    bottom: "data"
    top: "ip1"
    inner_product_param {
      num_output: 1000
      weight_filler {
        type: "gaussian"
        mean: 0
        std: 0.01
      }
    }
    bias_param {
      filler {
        value: 0
      }
    }
    fixed_precision: true
    precision {
      enter: 1
      fraccio: 15
      rounding: "nearest"
    }
  }
  layer {
    name: "relu1"
    type: "ReLU"
    bottom: "ip1"
    top: "ip1"
    fixed_precision: true
    precision {
      enter: 1
      fraccio: 15
      rounding: "nearest"
    }
  }
  layer {
    name: "ip2"
    type: "InnerProduct"
    bottom: "ip1"
    top: "ip2"
    inner_product_param {
      num_output: 1000
      weight_filler {
        type: "gaussian"
        mean: 0
        std: 0.01
      }
    }
    bias_param {
      filler {
        value: 0
      }
    }
    fixed_precision: true
    precision {
      enter: 1
      fraccio: 15
      rounding: "nearest"
    }
  }
  layer {
    name: "relu2"
    type: "ReLU"
    bottom: "ip2"
    top: "ip2"
    bias_param {
      filler {
        value: 0
      }
    }
    fixed_precision: true
    precision {
      enter: 1
      fraccio: 15
      rounding: "nearest"
    }
  }
  layer {
    name: "ip3"
    type: "InnerProduct"
    bottom: "ip2"
    top: "ip3"
    inner_product_param {
      num_output: 10
      weight_filler {
        type: "gaussian"
        mean: 0
        std: 0.01
      }
    }
    bias_param {
      filler {
        value: 0
      }
    }
    fixed_precision: true
    precision {
      enter: 1
      fraccio: 15
      rounding: "nearest"
    }
  }
  layer {
    name: "accuracy"
    type: "Accuracy"
    bottom: "ip3"
    bottom: "label"
    top: "accuracy"
  }
  layer {
    name: "loss"
    type: "SoftmaxWithLoss"
    bottom: "ip3"
    bottom: "label"
    top: "loss"
    fixed_precision: true
    precision {
      enter: 1
      fraccio: 15
      rounding: "nearest"
    }
  }
}
train_state {
  level: 0
  stage: ""
}
fixed_precision: true
precision {
  enter: 1
  fraccio: 15
  rounding: "nearest"
}
I0402 20:38:20.704440  1151 solver.cpp:82] Creating training net specified in net_param.
I0402 20:38:20.704500  1151 net.cpp:294] The NetState phase (0) differed from the phase (1) specified by a rule in layer mnist
I0402 20:38:20.704674  1151 net.cpp:51] Initializing net from parameters: 
name: "LeNet"
state {
  phase: TRAIN
  level: 0
  stage: ""
}
layer {
  name: "mnist"
  type: "Data"
  top: "data"
  top: "label"
  include {
    phase: TRAIN
  }
  transform_param {
    scale: 0.00390625
  }
  data_param {
    source: "data/mnist_train_lmdb"
    batch_size: 100
    backend: LMDB
  }
}
layer {
  name: "ip1"
  type: "InnerProduct"
  bottom: "data"
  top: "ip1"
  inner_product_param {
    num_output: 1000
    weight_filler {
      type: "gaussian"
      mean: 0
      std: 0.01
    }
  }
  bias_param {
    filler {
      value: 0
    }
  }
  fixed_precision: true
  precision {
    enter: 1
    fraccio: 15
    rounding: "nearest"
  }
}
layer {
  name: "relu1"
  type: "ReLU"
  bottom: "ip1"
  top: "ip1"
  fixed_precision: true
  precision {
    enter: 1
    fraccio: 15
    rounding: "nearest"
  }
}
layer {
  name: "ip2"
  type: "InnerProduct"
  bottom: "ip1"
  top: "ip2"
  inner_product_param {
    num_output: 1000
    weight_filler {
      type: "gaussian"
      mean: 0
      std: 0.01
    }
  }
  bias_param {
    filler {
      value: 0
    }
  }
  fixed_precision: true
  precision {
    enter: 1
    fraccio: 15
    rounding: "nearest"
  }
}
layer {
  name: "relu2"
  type: "ReLU"
  bottom: "ip2"
  top: "ip2"
  bias_param {
    filler {
      value: 0
    }
  }
  fixed_precision: true
  precision {
    enter: 1
    fraccio: 15
    rounding: "nearest"
  }
}
layer {
  name: "ip3"
  type: "InnerProduct"
  bottom: "ip2"
  top: "ip3"
  inner_product_param {
    num_output: 10
    weight_filler {
      type: "gaussian"
      mean: 0
      std: 0.01
    }
  }
  bias_param {
    filler {
      value: 0
    }
  }
  fixed_precision: true
  precision {
    enter: 1
    fraccio: 15
    rounding: "nearest"
  }
}
layer {
  name: "accuracy"
  type: "Accuracy"
  bottom: "ip3"
  bottom: "label"
  top: "accuracy"
}
layer {
  name: "loss"
  type: "SoftmaxWithLoss"
  bottom: "ip3"
  bottom: "label"
  top: "loss"
  fixed_precision: true
  precision {
    enter: 1
    fraccio: 15
    rounding: "nearest"
  }
}
I0402 20:38:20.704802  1151 layer_factory.hpp:77] Creating layer mnist
I0402 20:38:20.704921  1151 db_lmdb.cpp:35] Opened lmdb data/mnist_train_lmdb
I0402 20:38:20.704952  1151 net.cpp:84] Creating Layer mnist
I0402 20:38:20.704963  1151 net.cpp:380] mnist -> data
I0402 20:38:20.704993  1151 net.cpp:380] mnist -> label
I0402 20:38:20.705082  1151 data_layer.cpp:45] output data size: 100,1,28,28
I0402 20:38:20.706919  1151 net.cpp:122] Setting up mnist
I0402 20:38:20.706948  1151 net.cpp:129] Top shape: 100 1 28 28 (78400)
I0402 20:38:20.706957  1151 net.cpp:129] Top shape: 100 (100)
I0402 20:38:20.706965  1151 net.cpp:137] Memory required for data: 628000
I0402 20:38:20.706977  1151 layer_factory.hpp:77] Creating layer label_mnist_1_split
I0402 20:38:20.706995  1151 net.cpp:84] Creating Layer label_mnist_1_split
I0402 20:38:20.707005  1151 net.cpp:406] label_mnist_1_split <- label
I0402 20:38:20.707020  1151 net.cpp:380] label_mnist_1_split -> label_mnist_1_split_0
I0402 20:38:20.707034  1151 net.cpp:380] label_mnist_1_split -> label_mnist_1_split_1
I0402 20:38:20.707047  1151 net.cpp:122] Setting up label_mnist_1_split
I0402 20:38:20.707057  1151 net.cpp:129] Top shape: 100 (100)
I0402 20:38:20.707067  1151 net.cpp:129] Top shape: 100 (100)
I0402 20:38:20.707073  1151 net.cpp:137] Memory required for data: 629600
I0402 20:38:20.707080  1151 layer_factory.hpp:77] Creating layer ip1
I0402 20:38:20.707098  1151 net.cpp:84] Creating Layer ip1
I0402 20:38:20.707105  1151 net.cpp:406] ip1 <- data
I0402 20:38:20.707116  1151 net.cpp:380] ip1 -> ip1
I0402 20:38:20.805431  1151 net.cpp:122] Setting up ip1
I0402 20:38:20.805472  1151 net.cpp:129] Top shape: 100 1000 (100000)
I0402 20:38:20.805480  1151 net.cpp:137] Memory required for data: 1429600
I0402 20:38:20.805503  1151 layer_factory.hpp:77] Creating layer relu1
I0402 20:38:20.805519  1151 net.cpp:84] Creating Layer relu1
I0402 20:38:20.805531  1151 net.cpp:406] relu1 <- ip1
I0402 20:38:20.805542  1151 net.cpp:367] relu1 -> ip1 (in-place)
I0402 20:38:20.805564  1151 net.cpp:122] Setting up relu1
I0402 20:38:20.805573  1151 net.cpp:129] Top shape: 100 1000 (100000)
I0402 20:38:20.805580  1151 net.cpp:137] Memory required for data: 2229600
I0402 20:38:20.805588  1151 layer_factory.hpp:77] Creating layer ip2
I0402 20:38:20.805603  1151 net.cpp:84] Creating Layer ip2
I0402 20:38:20.805613  1151 net.cpp:406] ip2 <- ip1
I0402 20:38:20.805624  1151 net.cpp:380] ip2 -> ip2
I0402 20:38:20.891652  1151 net.cpp:122] Setting up ip2
I0402 20:38:20.891695  1151 net.cpp:129] Top shape: 100 1000 (100000)
I0402 20:38:20.891703  1151 net.cpp:137] Memory required for data: 3029600
I0402 20:38:20.891722  1151 layer_factory.hpp:77] Creating layer relu2
I0402 20:38:20.891739  1151 net.cpp:84] Creating Layer relu2
I0402 20:38:20.891751  1151 net.cpp:406] relu2 <- ip2
I0402 20:38:20.891764  1151 net.cpp:367] relu2 -> ip2 (in-place)
I0402 20:38:20.891789  1151 net.cpp:122] Setting up relu2
I0402 20:38:20.891810  1151 net.cpp:129] Top shape: 100 1000 (100000)
I0402 20:38:20.891819  1151 net.cpp:137] Memory required for data: 3829600
I0402 20:38:20.891825  1151 layer_factory.hpp:77] Creating layer ip3
I0402 20:38:20.891839  1151 net.cpp:84] Creating Layer ip3
I0402 20:38:20.891846  1151 net.cpp:406] ip3 <- ip2
I0402 20:38:20.891857  1151 net.cpp:380] ip3 -> ip3
I0402 20:38:20.892740  1151 net.cpp:122] Setting up ip3
I0402 20:38:20.892752  1151 net.cpp:129] Top shape: 100 10 (1000)
I0402 20:38:20.892760  1151 net.cpp:137] Memory required for data: 3837600
I0402 20:38:20.892773  1151 layer_factory.hpp:77] Creating layer ip3_ip3_0_split
I0402 20:38:20.892784  1151 net.cpp:84] Creating Layer ip3_ip3_0_split
I0402 20:38:20.892791  1151 net.cpp:406] ip3_ip3_0_split <- ip3
I0402 20:38:20.892802  1151 net.cpp:380] ip3_ip3_0_split -> ip3_ip3_0_split_0
I0402 20:38:20.892813  1151 net.cpp:380] ip3_ip3_0_split -> ip3_ip3_0_split_1
I0402 20:38:20.892828  1151 net.cpp:122] Setting up ip3_ip3_0_split
I0402 20:38:20.892838  1151 net.cpp:129] Top shape: 100 10 (1000)
I0402 20:38:20.892848  1151 net.cpp:129] Top shape: 100 10 (1000)
I0402 20:38:20.892854  1151 net.cpp:137] Memory required for data: 3853600
I0402 20:38:20.892861  1151 layer_factory.hpp:77] Creating layer accuracy
I0402 20:38:20.892874  1151 net.cpp:84] Creating Layer accuracy
I0402 20:38:20.892880  1151 net.cpp:406] accuracy <- ip3_ip3_0_split_0
I0402 20:38:20.892889  1151 net.cpp:406] accuracy <- label_mnist_1_split_0
I0402 20:38:20.892902  1151 net.cpp:380] accuracy -> accuracy
…
