…
  layer {
    name: "mnist"
    type: "Data"
    top: "data"
    top: "label"
    include {
      phase: TRAIN
    }
    transform_param {
      scale: 0.00390625
    }
    data_param {
      source: "data/mnist_train_lmdb"
      batch_size: 100
      backend: LMDB
    }
  }
  layer {
    name: "mnist"
    type: "Data"
    top: "data"
    top: "label"
    include {
      phase: TEST
    }
    transform_param {
      scale: 0.00390625
    }
    data_param {
      source: "data/mnist_test_lmdb"
      batch_size: 100
      backend: LMDB
    }
  }
  layer {
    name: "ip1"
    type: "InnerProduct"
    bottom: "data"
    top: "ip1"
    inner_product_param {
      num_output: 1000
      weight_filler {
        type: "gaussian"
        mean: 0
        std: 0.01
      }
    }
    bias_param {
      filler {
        value: 0
      }
    }
    fixed_precision: true
    precision {
      enter: 0
      fraccio: 16
      rounding: "nearest"
    }
  }
  layer {
    name: "relu1"
    type: "ReLU"
    bottom: "ip1"
    top: "ip1"
    fixed_precision: true
    precision {
      enter: 0
      fraccio: 16
      rounding: "nearest"
    }
  }
  layer {
    name: "ip2"
    type: "InnerProduct"
    bottom: "ip1"
    top: "ip2"
    inner_product_param {
      num_output: 1000
      weight_filler {
        type: "gaussian"
        mean: 0
        std: 0.01
      }
    }
    bias_param {
      filler {
        value: 0
      }
    }
    fixed_precision: true
    precision {
      enter: 0
      fraccio: 16
      rounding: "nearest"
    }
  }
  layer {
    name: "relu2"
    type: "ReLU"
    bottom: "ip2"
    top: "ip2"
    bias_param {
      filler {
        value: 0
      }
    }
    fixed_precision: true
    precision {
      enter: 0
      fraccio: 16
      rounding: "nearest"
    }
  }
  layer {
    name: "ip3"
    type: "InnerProduct"
    bottom: "ip2"
    top: "ip3"
    inner_product_param {
      num_output: 10
      weight_filler {
        type: "gaussian"
        mean: 0
        std: 0.01
      }
    }
    bias_param {
      filler {
        value: 0
      }
    }
    fixed_precision: true
    precision {
      enter: 0
      fraccio: 16
      rounding: "nearest"
    }
  }
  layer {
    name: "accuracy"
    type: "Accuracy"
    bottom: "ip3"
    bottom: "label"
    top: "accuracy"
  }
  layer {
    name: "loss"
    type: "SoftmaxWithLoss"
    bottom: "ip3"
    bottom: "label"
    top: "loss"
    fixed_precision: true
    precision {
      enter: 0
      fraccio: 16
      rounding: "nearest"
    }
  }
}
train_state {
  level: 0
  stage: ""
}
fixed_precision: true
precision {
  enter: 0
  fraccio: 16
  rounding: "nearest"
}
I0402 18:51:12.854496 27141 solver.cpp:82] Creating training net specified in net_param.
I0402 18:51:12.854555 27141 net.cpp:294] The NetState phase (0) differed from the phase (1) specified by a rule in layer mnist
I0402 18:51:12.854732 27141 net.cpp:51] Initializing net from parameters: 
name: "LeNet"
state {
  phase: TRAIN
  level: 0
  stage: ""
}
layer {
  name: "mnist"
  type: "Data"
  top: "data"
  top: "label"
  include {
    phase: TRAIN
  }
  transform_param {
    scale: 0.00390625
  }
  data_param {
    source: "data/mnist_train_lmdb"
    batch_size: 100
    backend: LMDB
  }
}
layer {
  name: "ip1"
  type: "InnerProduct"
  bottom: "data"
  top: "ip1"
  inner_product_param {
    num_output: 1000
    weight_filler {
      type: "gaussian"
      mean: 0
      std: 0.01
    }
  }
  bias_param {
    filler {
      value: 0
    }
  }
  fixed_precision: true
  precision {
    enter: 0
    fraccio: 16
    rounding: "nearest"
  }
}
layer {
  name: "relu1"
  type: "ReLU"
  bottom: "ip1"
  top: "ip1"
  fixed_precision: true
  precision {
    enter: 0
    fraccio: 16
    rounding: "nearest"
  }
}
layer {
  name: "ip2"
  type: "InnerProduct"
  bottom: "ip1"
  top: "ip2"
  inner_product_param {
    num_output: 1000
    weight_filler {
      type: "gaussian"
      mean: 0
      std: 0.01
    }
  }
  bias_param {
    filler {
      value: 0
    }
  }
  fixed_precision: true
  precision {
    enter: 0
    fraccio: 16
    rounding: "nearest"
  }
}
layer {
  name: "relu2"
  type: "ReLU"
  bottom: "ip2"
  top: "ip2"
  bias_param {
    filler {
      value: 0
    }
  }
  fixed_precision: true
  precision {
    enter: 0
    fraccio: 16
    rounding: "nearest"
  }
}
layer {
  name: "ip3"
  type: "InnerProduct"
  bottom: "ip2"
  top: "ip3"
  inner_product_param {
    num_output: 10
    weight_filler {
      type: "gaussian"
      mean: 0
      std: 0.01
    }
  }
  bias_param {
    filler {
      value: 0
    }
  }
  fixed_precision: true
  precision {
    enter: 0
    fraccio: 16
    rounding: "nearest"
  }
}
layer {
  name: "accuracy"
  type: "Accuracy"
  bottom: "ip3"
  bottom: "label"
  top: "accuracy"
}
layer {
  name: "loss"
  type: "SoftmaxWithLoss"
  bottom: "ip3"
  bottom: "label"
  top: "loss"
  fixed_precision: true
  precision {
    enter: 0
    fraccio: 16
    rounding: "nearest"
  }
}
I0402 18:51:12.854871 27141 layer_factory.hpp:77] Creating layer mnist
I0402 18:51:12.855000 27141 db_lmdb.cpp:35] Opened lmdb data/mnist_train_lmdb
I0402 18:51:12.855032 27141 net.cpp:84] Creating Layer mnist
I0402 18:51:12.855047 27141 net.cpp:380] mnist -> data
I0402 18:51:12.855080 27141 net.cpp:380] mnist -> label
I0402 18:51:12.855123 27141 data_layer.cpp:45] output data size: 100,1,28,28
I0402 18:51:12.856952 27141 net.cpp:122] Setting up mnist
I0402 18:51:12.856986 27141 net.cpp:129] Top shape: 100 1 28 28 (78400)
I0402 18:51:12.856997 27141 net.cpp:129] Top shape: 100 (100)
I0402 18:51:12.857005 27141 net.cpp:137] Memory required for data: 628000
I0402 18:51:12.857018 27141 layer_factory.hpp:77] Creating layer label_mnist_1_split
I0402 18:51:12.857054 27141 net.cpp:84] Creating Layer label_mnist_1_split
I0402 18:51:12.857065 27141 net.cpp:406] label_mnist_1_split <- label
I0402 18:51:12.857082 27141 net.cpp:380] label_mnist_1_split -> label_mnist_1_split_0
I0402 18:51:12.857097 27141 net.cpp:380] label_mnist_1_split -> label_mnist_1_split_1
I0402 18:51:12.857111 27141 net.cpp:122] Setting up label_mnist_1_split
I0402 18:51:12.857122 27141 net.cpp:129] Top shape: 100 (100)
I0402 18:51:12.857131 27141 net.cpp:129] Top shape: 100 (100)
I0402 18:51:12.857138 27141 net.cpp:137] Memory required for data: 629600
I0402 18:51:12.857146 27141 layer_factory.hpp:77] Creating layer ip1
I0402 18:51:12.857164 27141 net.cpp:84] Creating Layer ip1
I0402 18:51:12.857175 27141 net.cpp:406] ip1 <- data
I0402 18:51:12.857187 27141 net.cpp:380] ip1 -> ip1
I0402 18:51:12.983644 27141 net.cpp:122] Setting up ip1
I0402 18:51:12.983686 27141 net.cpp:129] Top shape: 100 1000 (100000)
I0402 18:51:12.983696 27141 net.cpp:137] Memory required for data: 1429600
I0402 18:51:12.983722 27141 layer_factory.hpp:77] Creating layer relu1
I0402 18:51:12.983742 27141 net.cpp:84] Creating Layer relu1
I0402 18:51:12.983754 27141 net.cpp:406] relu1 <- ip1
I0402 18:51:12.983765 27141 net.cpp:367] relu1 -> ip1 (in-place)
I0402 18:51:12.983788 27141 net.cpp:122] Setting up relu1
I0402 18:51:12.983798 27141 net.cpp:129] Top shape: 100 1000 (100000)
I0402 18:51:12.983805 27141 net.cpp:137] Memory required for data: 2229600
I0402 18:51:12.983813 27141 layer_factory.hpp:77] Creating layer ip2
I0402 18:51:12.983827 27141 net.cpp:84] Creating Layer ip2
I0402 18:51:12.983834 27141 net.cpp:406] ip2 <- ip1
I0402 18:51:12.983844 27141 net.cpp:380] ip2 -> ip2
I0402 18:51:13.055840 27141 net.cpp:122] Setting up ip2
I0402 18:51:13.055877 27141 net.cpp:129] Top shape: 100 1000 (100000)
I0402 18:51:13.055884 27141 net.cpp:137] Memory required for data: 3029600
I0402 18:51:13.055899 27141 layer_factory.hpp:77] Creating layer relu2
I0402 18:51:13.055914 27141 net.cpp:84] Creating Layer relu2
I0402 18:51:13.055922 27141 net.cpp:406] relu2 <- ip2
I0402 18:51:13.055932 27141 net.cpp:367] relu2 -> ip2 (in-place)
I0402 18:51:13.055953 27141 net.cpp:122] Setting up relu2
I0402 18:51:13.055972 27141 net.cpp:129] Top shape: 100 1000 (100000)
I0402 18:51:13.055979 27141 net.cpp:137] Memory required for data: 3829600
I0402 18:51:13.055985 27141 layer_factory.hpp:77] Creating layer ip3
I0402 18:51:13.055995 27141 net.cpp:84] Creating Layer ip3
I0402 18:51:13.056004 27141 net.cpp:406] ip3 <- ip2
I0402 18:51:13.056012 27141 net.cpp:380] ip3 -> ip3
I0402 18:51:13.056747 27141 net.cpp:122] Setting up ip3
I0402 18:51:13.056757 27141 net.cpp:129] Top shape: 100 10 (1000)
I0402 18:51:13.056763 27141 net.cpp:137] Memory required for data: 3837600
I0402 18:51:13.056776 27141 layer_factory.hpp:77] Creating layer ip3_ip3_0_split
I0402 18:51:13.056784 27141 net.cpp:84] Creating Layer ip3_ip3_0_split
I0402 18:51:13.056792 27141 net.cpp:406] ip3_ip3_0_split <- ip3
I0402 18:51:13.056799 27141 net.cpp:380] ip3_ip3_0_split -> ip3_ip3_0_split_0
I0402 18:51:13.056810 27141 net.cpp:380] ip3_ip3_0_split -> ip3_ip3_0_split_1
I0402 18:51:13.056823 27141 net.cpp:122] Setting up ip3_ip3_0_split
I0402 18:51:13.056831 27141 net.cpp:129] Top shape: 100 10 (1000)
I0402 18:51:13.056838 27141 net.cpp:129] Top shape: 100 10 (1000)
I0402 18:51:13.056844 27141 net.cpp:137] Memory required for data: 3853600
I0402 18:51:13.056851 27141 layer_factory.hpp:77] Creating layer accuracy
I0402 18:51:13.056862 27141 net.cpp:84] Creating Layer accuracy
I0402 18:51:13.056869 27141 net.cpp:406] accuracy <- ip3_ip3_0_split_0
I0402 18:51:13.056875 27141 net.cpp:406] accuracy <- label_mnist_1_split_0
I0402 18:51:13.056886 27141 net.cpp:380] accuracy -> accuracy
…
