…
  layer {
    name: "mnist"
    type: "Data"
    top: "data"
    top: "label"
    include {
      phase: TRAIN
    }
    transform_param {
      scale: 0.00390625
    }
    data_param {
      source: "data/mnist_train_lmdb"
      batch_size: 100
      backend: LMDB
    }
  }
  layer {
    name: "mnist"
    type: "Data"
    top: "data"
    top: "label"
    include {
      phase: TEST
    }
    transform_param {
      scale: 0.00390625
    }
    data_param {
      source: "data/mnist_test_lmdb"
      batch_size: 100
      backend: LMDB
    }
  }
  layer {
    name: "ip1"
    type: "InnerProduct"
    bottom: "data"
    top: "ip1"
    inner_product_param {
      num_output: 1000
      weight_filler {
        type: "gaussian"
        mean: 0
        std: 0.01
      }
    }
    bias_param {
      filler {
        value: 0
      }
    }
    fixed_precision: true
    precision {
      enter: 8
      fraccio: 8
      rounding: "nearest"
    }
  }
  layer {
    name: "relu1"
    type: "ReLU"
    bottom: "ip1"
    top: "ip1"
    fixed_precision: true
    precision {
      enter: 8
      fraccio: 8
      rounding: "nearest"
    }
  }
  layer {
    name: "ip2"
    type: "InnerProduct"
    bottom: "ip1"
    top: "ip2"
    inner_product_param {
      num_output: 1000
      weight_filler {
        type: "gaussian"
        mean: 0
        std: 0.01
      }
    }
    bias_param {
      filler {
        value: 0
      }
    }
    fixed_precision: true
    precision {
      enter: 8
      fraccio: 8
      rounding: "nearest"
    }
  }
  layer {
    name: "relu2"
    type: "ReLU"
    bottom: "ip2"
    top: "ip2"
    bias_param {
      filler {
        value: 0
      }
    }
    fixed_precision: true
    precision {
      enter: 8
      fraccio: 8
      rounding: "nearest"
    }
  }
  layer {
    name: "ip3"
    type: "InnerProduct"
    bottom: "ip2"
    top: "ip3"
    inner_product_param {
      num_output: 10
      weight_filler {
        type: "gaussian"
        mean: 0
        std: 0.01
      }
    }
    bias_param {
      filler {
        value: 0
      }
    }
    fixed_precision: true
    precision {
      enter: 8
      fraccio: 8
      rounding: "nearest"
    }
  }
  layer {
    name: "accuracy"
    type: "Accuracy"
    bottom: "ip3"
    bottom: "label"
    top: "accuracy"
  }
  layer {
    name: "loss"
    type: "SoftmaxWithLoss"
    bottom: "ip3"
    bottom: "label"
    top: "loss"
    fixed_precision: true
    precision {
      enter: 8
      fraccio: 8
      rounding: "nearest"
    }
  }
}
train_state {
  level: 0
  stage: ""
}
fixed_precision: true
precision {
  enter: 8
  fraccio: 8
  rounding: "nearest"
}
I0331 11:45:53.809645 12571 solver.cpp:82] Creating training net specified in net_param.
I0331 11:45:53.809710 12571 net.cpp:294] The NetState phase (0) differed from the phase (1) specified by a rule in layer mnist
I0331 11:45:53.809882 12571 net.cpp:51] Initializing net from parameters: 
name: "LeNet"
state {
  phase: TRAIN
  level: 0
  stage: ""
}
layer {
  name: "mnist"
  type: "Data"
  top: "data"
  top: "label"
  include {
    phase: TRAIN
  }
  transform_param {
    scale: 0.00390625
  }
  data_param {
    source: "data/mnist_train_lmdb"
    batch_size: 100
    backend: LMDB
  }
}
layer {
  name: "ip1"
  type: "InnerProduct"
  bottom: "data"
  top: "ip1"
  inner_product_param {
    num_output: 1000
    weight_filler {
      type: "gaussian"
      mean: 0
      std: 0.01
    }
  }
  bias_param {
    filler {
      value: 0
    }
  }
  fixed_precision: true
  precision {
    enter: 8
    fraccio: 8
    rounding: "nearest"
  }
}
layer {
  name: "relu1"
  type: "ReLU"
  bottom: "ip1"
  top: "ip1"
  fixed_precision: true
  precision {
    enter: 8
    fraccio: 8
    rounding: "nearest"
  }
}
layer {
  name: "ip2"
  type: "InnerProduct"
  bottom: "ip1"
  top: "ip2"
  inner_product_param {
    num_output: 1000
    weight_filler {
      type: "gaussian"
      mean: 0
      std: 0.01
    }
  }
  bias_param {
    filler {
      value: 0
    }
  }
  fixed_precision: true
  precision {
    enter: 8
    fraccio: 8
    rounding: "nearest"
  }
}
layer {
  name: "relu2"
  type: "ReLU"
  bottom: "ip2"
  top: "ip2"
  bias_param {
    filler {
      value: 0
    }
  }
  fixed_precision: true
  precision {
    enter: 8
    fraccio: 8
    rounding: "nearest"
  }
}
layer {
  name: "ip3"
  type: "InnerProduct"
  bottom: "ip2"
  top: "ip3"
  inner_product_param {
    num_output: 10
    weight_filler {
      type: "gaussian"
      mean: 0
      std: 0.01
    }
  }
  bias_param {
    filler {
      value: 0
    }
  }
  fixed_precision: true
  precision {
    enter: 8
    fraccio: 8
    rounding: "nearest"
  }
}
layer {
  name: "accuracy"
  type: "Accuracy"
  bottom: "ip3"
  bottom: "label"
  top: "accuracy"
}
layer {
  name: "loss"
  type: "SoftmaxWithLoss"
  bottom: "ip3"
  bottom: "label"
  top: "loss"
  fixed_precision: true
  precision {
    enter: 8
    fraccio: 8
    rounding: "nearest"
  }
}
I0331 11:45:53.810016 12571 layer_factory.hpp:77] Creating layer mnist
I0331 11:45:53.810144 12571 db_lmdb.cpp:35] Opened lmdb data/mnist_train_lmdb
I0331 11:45:53.810178 12571 net.cpp:84] Creating Layer mnist
I0331 11:45:53.810194 12571 net.cpp:380] mnist -> data
I0331 11:45:53.810227 12571 net.cpp:380] mnist -> label
I0331 11:45:53.810271 12571 data_layer.cpp:45] output data size: 100,1,28,28
I0331 11:45:53.812059 12571 net.cpp:122] Setting up mnist
I0331 11:45:53.812100 12571 net.cpp:129] Top shape: 100 1 28 28 (78400)
I0331 11:45:53.812111 12571 net.cpp:129] Top shape: 100 (100)
I0331 11:45:53.812119 12571 net.cpp:137] Memory required for data: 628000
I0331 11:45:53.812134 12571 layer_factory.hpp:77] Creating layer label_mnist_1_split
I0331 11:45:53.812160 12571 net.cpp:84] Creating Layer label_mnist_1_split
I0331 11:45:53.812171 12571 net.cpp:406] label_mnist_1_split <- label
I0331 11:45:53.812191 12571 net.cpp:380] label_mnist_1_split -> label_mnist_1_split_0
I0331 11:45:53.812208 12571 net.cpp:380] label_mnist_1_split -> label_mnist_1_split_1
I0331 11:45:53.812225 12571 net.cpp:122] Setting up label_mnist_1_split
I0331 11:45:53.812238 12571 net.cpp:129] Top shape: 100 (100)
I0331 11:45:53.812247 12571 net.cpp:129] Top shape: 100 (100)
I0331 11:45:53.812253 12571 net.cpp:137] Memory required for data: 629600
I0331 11:45:53.812260 12571 layer_factory.hpp:77] Creating layer ip1
I0331 11:45:53.812280 12571 net.cpp:84] Creating Layer ip1
I0331 11:45:53.812288 12571 net.cpp:406] ip1 <- data
I0331 11:45:53.812297 12571 net.cpp:380] ip1 -> ip1
I0331 11:45:53.934515 12571 net.cpp:122] Setting up ip1
I0331 11:45:53.934552 12571 net.cpp:129] Top shape: 100 1000 (100000)
I0331 11:45:53.934561 12571 net.cpp:137] Memory required for data: 1429600
I0331 11:45:53.934586 12571 layer_factory.hpp:77] Creating layer relu1
I0331 11:45:53.934604 12571 net.cpp:84] Creating Layer relu1
I0331 11:45:53.934615 12571 net.cpp:406] relu1 <- ip1
I0331 11:45:53.934626 12571 net.cpp:367] relu1 -> ip1 (in-place)
I0331 11:45:53.934648 12571 net.cpp:122] Setting up relu1
I0331 11:45:53.934658 12571 net.cpp:129] Top shape: 100 1000 (100000)
I0331 11:45:53.934664 12571 net.cpp:137] Memory required for data: 2229600
I0331 11:45:53.934670 12571 layer_factory.hpp:77] Creating layer ip2
I0331 11:45:53.934685 12571 net.cpp:84] Creating Layer ip2
I0331 11:45:53.934691 12571 net.cpp:406] ip2 <- ip1
I0331 11:45:53.934702 12571 net.cpp:380] ip2 -> ip2
I0331 11:45:54.007597 12571 net.cpp:122] Setting up ip2
I0331 11:45:54.007645 12571 net.cpp:129] Top shape: 100 1000 (100000)
I0331 11:45:54.007654 12571 net.cpp:137] Memory required for data: 3029600
I0331 11:45:54.007671 12571 layer_factory.hpp:77] Creating layer relu2
I0331 11:45:54.007688 12571 net.cpp:84] Creating Layer relu2
I0331 11:45:54.007696 12571 net.cpp:406] relu2 <- ip2
I0331 11:45:54.007705 12571 net.cpp:367] relu2 -> ip2 (in-place)
I0331 11:45:54.007740 12571 net.cpp:122] Setting up relu2
I0331 11:45:54.007766 12571 net.cpp:129] Top shape: 100 1000 (100000)
I0331 11:45:54.007769 12571 net.cpp:137] Memory required for data: 3829600
I0331 11:45:54.007773 12571 layer_factory.hpp:77] Creating layer ip3
I0331 11:45:54.007781 12571 net.cpp:84] Creating Layer ip3
I0331 11:45:54.007786 12571 net.cpp:406] ip3 <- ip2
I0331 11:45:54.007791 12571 net.cpp:380] ip3 -> ip3
I0331 11:45:54.008533 12571 net.cpp:122] Setting up ip3
I0331 11:45:54.008540 12571 net.cpp:129] Top shape: 100 10 (1000)
I0331 11:45:54.008555 12571 net.cpp:137] Memory required for data: 3837600
I0331 11:45:54.008563 12571 layer_factory.hpp:77] Creating layer ip3_ip3_0_split
I0331 11:45:54.008569 12571 net.cpp:84] Creating Layer ip3_ip3_0_split
I0331 11:45:54.008574 12571 net.cpp:406] ip3_ip3_0_split <- ip3
I0331 11:45:54.008580 12571 net.cpp:380] ip3_ip3_0_split -> ip3_ip3_0_split_0
I0331 11:45:54.008587 12571 net.cpp:380] ip3_ip3_0_split -> ip3_ip3_0_split_1
I0331 11:45:54.008596 12571 net.cpp:122] Setting up ip3_ip3_0_split
I0331 11:45:54.008602 12571 net.cpp:129] Top shape: 100 10 (1000)
I0331 11:45:54.008606 12571 net.cpp:129] Top shape: 100 10 (1000)
I0331 11:45:54.008610 12571 net.cpp:137] Memory required for data: 3853600
I0331 11:45:54.008613 12571 layer_factory.hpp:77] Creating layer accuracy
I0331 11:45:54.008620 12571 net.cpp:84] Creating Layer accuracy
I0331 11:45:54.008625 12571 net.cpp:406] accuracy <- ip3_ip3_0_split_0
I0331 11:45:54.008630 12571 net.cpp:406] accuracy <- label_mnist_1_split_0
I0331 11:45:54.008636 12571 net.cpp:380] accuracy -> accuracy
…
