…
  layer {
    name: "mnist"
    type: "Data"
    top: "data"
    top: "label"
    include {
      phase: TRAIN
    }
    transform_param {
      scale: 0.00390625
    }
    data_param {
      source: "data/mnist_train_lmdb"
      batch_size: 100
      backend: LMDB
    }
  }
  layer {
    name: "mnist"
    type: "Data"
    top: "data"
    top: "label"
    include {
      phase: TEST
    }
    transform_param {
      scale: 0.00390625
    }
    data_param {
      source: "data/mnist_test_lmdb"
      batch_size: 100
      backend: LMDB
    }
  }
  layer {
    name: "ip1"
    type: "InnerProduct"
    bottom: "data"
    top: "ip1"
    inner_product_param {
      num_output: 1000
      weight_filler {
        type: "gaussian"
        mean: 0
        std: 0.01
      }
    }
    bias_param {
      filler {
        value: 0
      }
    }
    fixed_precision: true
    precision {
      enter: 2
      fraccio: 14
      rounding: "stochastic"
    }
  }
  layer {
    name: "relu1"
    type: "ReLU"
    bottom: "ip1"
    top: "ip1"
    fixed_precision: true
    precision {
      enter: 2
      fraccio: 14
      rounding: "stochastic"
    }
  }
  layer {
    name: "ip2"
    type: "InnerProduct"
    bottom: "ip1"
    top: "ip2"
    inner_product_param {
      num_output: 1000
      weight_filler {
        type: "gaussian"
        mean: 0
        std: 0.01
      }
    }
    bias_param {
      filler {
        value: 0
      }
    }
    fixed_precision: true
    precision {
      enter: 2
      fraccio: 14
      rounding: "stochastic"
    }
  }
  layer {
    name: "relu2"
    type: "ReLU"
    bottom: "ip2"
    top: "ip2"
    bias_param {
      filler {
        value: 0
      }
    }
    fixed_precision: true
    precision {
      enter: 2
      fraccio: 14
      rounding: "stochastic"
    }
  }
  layer {
    name: "ip3"
    type: "InnerProduct"
    bottom: "ip2"
    top: "ip3"
    inner_product_param {
      num_output: 10
      weight_filler {
        type: "gaussian"
        mean: 0
        std: 0.01
      }
    }
    bias_param {
      filler {
        value: 0
      }
    }
    fixed_precision: true
    precision {
      enter: 2
      fraccio: 14
      rounding: "stochastic"
    }
  }
  layer {
    name: "accuracy"
    type: "Accuracy"
    bottom: "ip3"
    bottom: "label"
    top: "accuracy"
  }
  layer {
    name: "loss"
    type: "SoftmaxWithLoss"
    bottom: "ip3"
    bottom: "label"
    top: "loss"
    fixed_precision: true
    precision {
      enter: 2
      fraccio: 14
      rounding: "stochastic"
    }
  }
}
train_state {
  level: 0
  stage: ""
}
fixed_precision: true
precision {
  enter: 2
  fraccio: 14
  rounding: "stochastic"
}
I0509 12:43:11.575376 14681 solver.cpp:82] Creating training net specified in net_param.
I0509 12:43:11.575438 14681 net.cpp:294] The NetState phase (0) differed from the phase (1) specified by a rule in layer mnist
I0509 12:43:11.575565 14681 net.cpp:51] Initializing net from parameters: 
name: "LeNet"
state {
  phase: TRAIN
  level: 0
  stage: ""
}
layer {
  name: "mnist"
  type: "Data"
  top: "data"
  top: "label"
  include {
    phase: TRAIN
  }
  transform_param {
    scale: 0.00390625
  }
  data_param {
    source: "data/mnist_train_lmdb"
    batch_size: 100
    backend: LMDB
  }
}
layer {
  name: "ip1"
  type: "InnerProduct"
  bottom: "data"
  top: "ip1"
  inner_product_param {
    num_output: 1000
    weight_filler {
      type: "gaussian"
      mean: 0
      std: 0.01
    }
  }
  bias_param {
    filler {
      value: 0
    }
  }
  fixed_precision: true
  precision {
    enter: 2
    fraccio: 14
    rounding: "stochastic"
  }
}
layer {
  name: "relu1"
  type: "ReLU"
  bottom: "ip1"
  top: "ip1"
  fixed_precision: true
  precision {
    enter: 2
    fraccio: 14
    rounding: "stochastic"
  }
}
layer {
  name: "ip2"
  type: "InnerProduct"
  bottom: "ip1"
  top: "ip2"
  inner_product_param {
    num_output: 1000
    weight_filler {
      type: "gaussian"
      mean: 0
      std: 0.01
    }
  }
  bias_param {
    filler {
      value: 0
    }
  }
  fixed_precision: true
  precision {
    enter: 2
    fraccio: 14
    rounding: "stochastic"
  }
}
layer {
  name: "relu2"
  type: "ReLU"
  bottom: "ip2"
  top: "ip2"
  bias_param {
    filler {
      value: 0
    }
  }
  fixed_precision: true
  precision {
    enter: 2
    fraccio: 14
    rounding: "stochastic"
  }
}
layer {
  name: "ip3"
  type: "InnerProduct"
  bottom: "ip2"
  top: "ip3"
  inner_product_param {
    num_output: 10
    weight_filler {
      type: "gaussian"
      mean: 0
      std: 0.01
    }
  }
  bias_param {
    filler {
      value: 0
    }
  }
  fixed_precision: true
  precision {
    enter: 2
    fraccio: 14
    rounding: "stochastic"
  }
}
layer {
  name: "accuracy"
  type: "Accuracy"
  bottom: "ip3"
  bottom: "label"
  top: "accuracy"
}
layer {
  name: "loss"
  type: "SoftmaxWithLoss"
  bottom: "ip3"
  bottom: "label"
  top: "loss"
  fixed_precision: true
  precision {
    enter: 2
    fraccio: 14
    rounding: "stochastic"
  }
}
I0509 12:43:11.577008 14681 layer_factory.hpp:77] Creating layer mnist
I0509 12:43:11.579077 14681 db_lmdb.cpp:35] Opened lmdb data/mnist_train_lmdb
I0509 12:43:11.579352 14681 net.cpp:84] Creating Layer mnist
I0509 12:43:11.579382 14681 net.cpp:380] mnist -> data
I0509 12:43:11.579427 14681 net.cpp:380] mnist -> label
I0509 12:43:11.579486 14681 data_layer.cpp:45] output data size: 100,1,28,28
I0509 12:43:11.581243 14681 net.cpp:122] Setting up mnist
I0509 12:43:11.581279 14681 net.cpp:129] Top shape: 100 1 28 28 (78400)
I0509 12:43:11.581293 14681 net.cpp:129] Top shape: 100 (100)
I0509 12:43:11.581305 14681 net.cpp:137] Memory required for data: 628000
I0509 12:43:11.581320 14681 layer_factory.hpp:77] Creating layer label_mnist_1_split
I0509 12:43:11.581336 14681 net.cpp:84] Creating Layer label_mnist_1_split
I0509 12:43:11.581351 14681 net.cpp:406] label_mnist_1_split <- label
I0509 12:43:11.581372 14681 net.cpp:380] label_mnist_1_split -> label_mnist_1_split_0
I0509 12:43:11.581389 14681 net.cpp:380] label_mnist_1_split -> label_mnist_1_split_1
I0509 12:43:11.581408 14681 net.cpp:122] Setting up label_mnist_1_split
I0509 12:43:11.581421 14681 net.cpp:129] Top shape: 100 (100)
I0509 12:43:11.581434 14681 net.cpp:129] Top shape: 100 (100)
I0509 12:43:11.581444 14681 net.cpp:137] Memory required for data: 629600
I0509 12:43:11.581454 14681 layer_factory.hpp:77] Creating layer ip1
I0509 12:43:11.581472 14681 net.cpp:84] Creating Layer ip1
I0509 12:43:11.581485 14681 net.cpp:406] ip1 <- data
I0509 12:43:11.581498 14681 net.cpp:380] ip1 -> ip1
I0509 12:43:11.632829 14681 net.cpp:122] Setting up ip1
I0509 12:43:11.632881 14681 net.cpp:129] Top shape: 100 1000 (100000)
I0509 12:43:11.632892 14681 net.cpp:137] Memory required for data: 1429600
I0509 12:43:11.632923 14681 layer_factory.hpp:77] Creating layer relu1
I0509 12:43:11.632951 14681 net.cpp:84] Creating Layer relu1
I0509 12:43:11.632964 14681 net.cpp:406] relu1 <- ip1
I0509 12:43:11.632979 14681 net.cpp:367] relu1 -> ip1 (in-place)
I0509 12:43:11.632999 14681 net.cpp:122] Setting up relu1
I0509 12:43:11.633013 14681 net.cpp:129] Top shape: 100 1000 (100000)
I0509 12:43:11.633023 14681 net.cpp:137] Memory required for data: 2229600
I0509 12:43:11.633038 14681 layer_factory.hpp:77] Creating layer ip2
I0509 12:43:11.633059 14681 net.cpp:84] Creating Layer ip2
I0509 12:43:11.633070 14681 net.cpp:406] ip2 <- ip1
I0509 12:43:11.633085 14681 net.cpp:380] ip2 -> ip2
I0509 12:43:11.694933 14681 net.cpp:122] Setting up ip2
I0509 12:43:11.694988 14681 net.cpp:129] Top shape: 100 1000 (100000)
I0509 12:43:11.694998 14681 net.cpp:137] Memory required for data: 3029600
I0509 12:43:11.695022 14681 layer_factory.hpp:77] Creating layer relu2
I0509 12:43:11.695052 14681 net.cpp:84] Creating Layer relu2
I0509 12:43:11.695065 14681 net.cpp:406] relu2 <- ip2
I0509 12:43:11.695081 14681 net.cpp:367] relu2 -> ip2 (in-place)
I0509 12:43:11.695103 14681 net.cpp:122] Setting up relu2
I0509 12:43:11.695160 14681 net.cpp:129] Top shape: 100 1000 (100000)
I0509 12:43:11.695173 14681 net.cpp:137] Memory required for data: 3829600
I0509 12:43:11.695183 14681 layer_factory.hpp:77] Creating layer ip3
I0509 12:43:11.695199 14681 net.cpp:84] Creating Layer ip3
I0509 12:43:11.695210 14681 net.cpp:406] ip3 <- ip2
I0509 12:43:11.695225 14681 net.cpp:380] ip3 -> ip3
I0509 12:43:11.695889 14681 net.cpp:122] Setting up ip3
I0509 12:43:11.695911 14681 net.cpp:129] Top shape: 100 10 (1000)
I0509 12:43:11.695922 14681 net.cpp:137] Memory required for data: 3837600
I0509 12:43:11.695940 14681 layer_factory.hpp:77] Creating layer ip3_ip3_0_split
I0509 12:43:11.695955 14681 net.cpp:84] Creating Layer ip3_ip3_0_split
I0509 12:43:11.695966 14681 net.cpp:406] ip3_ip3_0_split <- ip3
I0509 12:43:11.695979 14681 net.cpp:380] ip3_ip3_0_split -> ip3_ip3_0_split_0
I0509 12:43:11.695996 14681 net.cpp:380] ip3_ip3_0_split -> ip3_ip3_0_split_1
I0509 12:43:11.696012 14681 net.cpp:122] Setting up ip3_ip3_0_split
I0509 12:43:11.696027 14681 net.cpp:129] Top shape: 100 10 (1000)
I0509 12:43:11.696045 14681 net.cpp:129] Top shape: 100 10 (1000)
I0509 12:43:11.696054 14681 net.cpp:137] Memory required for data: 3853600
I0509 12:43:11.696065 14681 layer_factory.hpp:77] Creating layer accuracy
I0509 12:43:11.696090 14681 net.cpp:84] Creating Layer accuracy
I0509 12:43:11.696104 14681 net.cpp:406] accuracy <- ip3_ip3_0_split_0
I0509 12:43:11.696115 14681 net.cpp:406] accuracy <- label_mnist_1_split_0
I0509 12:43:11.696128 14681 net.cpp:380] accuracy -> accuracy
…
