…
  layer {
    name: "mnist"
    type: "Data"
    top: "data"
    top: "label"
    include {
      phase: TRAIN
    }
    transform_param {
      scale: 0.00390625
    }
    data_param {
      source: "data/mnist_train_lmdb"
      batch_size: 100
      backend: LMDB
    }
  }
  layer {
    name: "mnist"
    type: "Data"
    top: "data"
    top: "label"
    include {
      phase: TEST
    }
    transform_param {
      scale: 0.00390625
    }
    data_param {
      source: "data/mnist_test_lmdb"
      batch_size: 100
      backend: LMDB
    }
  }
  layer {
    name: "ip1"
    type: "InnerProduct"
    bottom: "data"
    top: "ip1"
    inner_product_param {
      num_output: 1000
      weight_filler {
        type: "gaussian"
        mean: 0
        std: 0.01
      }
    }
    bias_param {
      filler {
        value: 0
      }
    }
    fixed_precision: true
    precision {
      enter: 2
      fraccio: 14
      rounding: "stochastic"
    }
  }
  layer {
    name: "relu1"
    type: "ReLU"
    bottom: "ip1"
    top: "ip1"
    fixed_precision: true
    precision {
      enter: 2
      fraccio: 14
      rounding: "stochastic"
    }
  }
  layer {
    name: "ip2"
    type: "InnerProduct"
    bottom: "ip1"
    top: "ip2"
    inner_product_param {
      num_output: 1000
      weight_filler {
        type: "gaussian"
        mean: 0
        std: 0.01
      }
    }
    bias_param {
      filler {
        value: 0
      }
    }
    fixed_precision: true
    precision {
      enter: 2
      fraccio: 14
      rounding: "stochastic"
    }
  }
  layer {
    name: "relu2"
    type: "ReLU"
    bottom: "ip2"
    top: "ip2"
    bias_param {
      filler {
        value: 0
      }
    }
    fixed_precision: true
    precision {
      enter: 2
      fraccio: 14
      rounding: "stochastic"
    }
  }
  layer {
    name: "ip3"
    type: "InnerProduct"
    bottom: "ip2"
    top: "ip3"
    inner_product_param {
      num_output: 10
      weight_filler {
        type: "gaussian"
        mean: 0
        std: 0.01
      }
    }
    bias_param {
      filler {
        value: 0
      }
    }
    fixed_precision: true
    precision {
      enter: 2
      fraccio: 14
      rounding: "stochastic"
    }
  }
  layer {
    name: "accuracy"
    type: "Accuracy"
    bottom: "ip3"
    bottom: "label"
    top: "accuracy"
  }
  layer {
    name: "loss"
    type: "SoftmaxWithLoss"
    bottom: "ip3"
    bottom: "label"
    top: "loss"
    fixed_precision: true
    precision {
      enter: 2
      fraccio: 14
      rounding: "stochastic"
    }
  }
}
train_state {
  level: 0
  stage: ""
}
fixed_precision: true
precision {
  enter: 2
  fraccio: 14
  rounding: "stochastic"
}
I0509 12:44:51.966609  9531 solver.cpp:82] Creating training net specified in net_param.
I0509 12:44:51.966673  9531 net.cpp:294] The NetState phase (0) differed from the phase (1) specified by a rule in layer mnist
I0509 12:44:51.966804  9531 net.cpp:51] Initializing net from parameters: 
name: "LeNet"
state {
  phase: TRAIN
  level: 0
  stage: ""
}
layer {
  name: "mnist"
  type: "Data"
  top: "data"
  top: "label"
  include {
    phase: TRAIN
  }
  transform_param {
    scale: 0.00390625
  }
  data_param {
    source: "data/mnist_train_lmdb"
    batch_size: 100
    backend: LMDB
  }
}
layer {
  name: "ip1"
  type: "InnerProduct"
  bottom: "data"
  top: "ip1"
  inner_product_param {
    num_output: 1000
    weight_filler {
      type: "gaussian"
      mean: 0
      std: 0.01
    }
  }
  bias_param {
    filler {
      value: 0
    }
  }
  fixed_precision: true
  precision {
    enter: 2
    fraccio: 14
    rounding: "stochastic"
  }
}
layer {
  name: "relu1"
  type: "ReLU"
  bottom: "ip1"
  top: "ip1"
  fixed_precision: true
  precision {
    enter: 2
    fraccio: 14
    rounding: "stochastic"
  }
}
layer {
  name: "ip2"
  type: "InnerProduct"
  bottom: "ip1"
  top: "ip2"
  inner_product_param {
    num_output: 1000
    weight_filler {
      type: "gaussian"
      mean: 0
      std: 0.01
    }
  }
  bias_param {
    filler {
      value: 0
    }
  }
  fixed_precision: true
  precision {
    enter: 2
    fraccio: 14
    rounding: "stochastic"
  }
}
layer {
  name: "relu2"
  type: "ReLU"
  bottom: "ip2"
  top: "ip2"
  bias_param {
    filler {
      value: 0
    }
  }
  fixed_precision: true
  precision {
    enter: 2
    fraccio: 14
    rounding: "stochastic"
  }
}
layer {
  name: "ip3"
  type: "InnerProduct"
  bottom: "ip2"
  top: "ip3"
  inner_product_param {
    num_output: 10
    weight_filler {
      type: "gaussian"
      mean: 0
      std: 0.01
    }
  }
  bias_param {
    filler {
      value: 0
    }
  }
  fixed_precision: true
  precision {
    enter: 2
    fraccio: 14
    rounding: "stochastic"
  }
}
layer {
  name: "accuracy"
  type: "Accuracy"
  bottom: "ip3"
  bottom: "label"
  top: "accuracy"
}
layer {
  name: "loss"
  type: "SoftmaxWithLoss"
  bottom: "ip3"
  bottom: "label"
  top: "loss"
  fixed_precision: true
  precision {
    enter: 2
    fraccio: 14
    rounding: "stochastic"
  }
}
I0509 12:44:51.968596  9531 layer_factory.hpp:77] Creating layer mnist
I0509 12:44:51.969501  9531 db_lmdb.cpp:35] Opened lmdb data/mnist_train_lmdb
I0509 12:44:51.969756  9531 net.cpp:84] Creating Layer mnist
I0509 12:44:51.969789  9531 net.cpp:380] mnist -> data
I0509 12:44:51.969836  9531 net.cpp:380] mnist -> label
I0509 12:44:51.969897  9531 data_layer.cpp:45] output data size: 100,1,28,28
I0509 12:44:51.971647  9531 net.cpp:122] Setting up mnist
I0509 12:44:51.971683  9531 net.cpp:129] Top shape: 100 1 28 28 (78400)
I0509 12:44:51.971699  9531 net.cpp:129] Top shape: 100 (100)
I0509 12:44:51.971709  9531 net.cpp:137] Memory required for data: 628000
I0509 12:44:51.971726  9531 layer_factory.hpp:77] Creating layer label_mnist_1_split
I0509 12:44:51.971745  9531 net.cpp:84] Creating Layer label_mnist_1_split
I0509 12:44:51.971760  9531 net.cpp:406] label_mnist_1_split <- label
I0509 12:44:51.971779  9531 net.cpp:380] label_mnist_1_split -> label_mnist_1_split_0
I0509 12:44:51.971797  9531 net.cpp:380] label_mnist_1_split -> label_mnist_1_split_1
I0509 12:44:51.971818  9531 net.cpp:122] Setting up label_mnist_1_split
I0509 12:44:51.971833  9531 net.cpp:129] Top shape: 100 (100)
I0509 12:44:51.971845  9531 net.cpp:129] Top shape: 100 (100)
I0509 12:44:51.971855  9531 net.cpp:137] Memory required for data: 629600
I0509 12:44:51.971866  9531 layer_factory.hpp:77] Creating layer ip1
I0509 12:44:51.971886  9531 net.cpp:84] Creating Layer ip1
I0509 12:44:51.971899  9531 net.cpp:406] ip1 <- data
I0509 12:44:51.971915  9531 net.cpp:380] ip1 -> ip1
I0509 12:44:52.023624  9531 net.cpp:122] Setting up ip1
I0509 12:44:52.023695  9531 net.cpp:129] Top shape: 100 1000 (100000)
I0509 12:44:52.023706  9531 net.cpp:137] Memory required for data: 1429600
I0509 12:44:52.023737  9531 layer_factory.hpp:77] Creating layer relu1
I0509 12:44:52.023766  9531 net.cpp:84] Creating Layer relu1
I0509 12:44:52.023779  9531 net.cpp:406] relu1 <- ip1
I0509 12:44:52.023795  9531 net.cpp:367] relu1 -> ip1 (in-place)
I0509 12:44:52.023816  9531 net.cpp:122] Setting up relu1
I0509 12:44:52.023830  9531 net.cpp:129] Top shape: 100 1000 (100000)
I0509 12:44:52.023841  9531 net.cpp:137] Memory required for data: 2229600
I0509 12:44:52.023851  9531 layer_factory.hpp:77] Creating layer ip2
I0509 12:44:52.023872  9531 net.cpp:84] Creating Layer ip2
I0509 12:44:52.023885  9531 net.cpp:406] ip2 <- ip1
I0509 12:44:52.023900  9531 net.cpp:380] ip2 -> ip2
I0509 12:44:52.086289  9531 net.cpp:122] Setting up ip2
I0509 12:44:52.086346  9531 net.cpp:129] Top shape: 100 1000 (100000)
I0509 12:44:52.086359  9531 net.cpp:137] Memory required for data: 3029600
I0509 12:44:52.086381  9531 layer_factory.hpp:77] Creating layer relu2
I0509 12:44:52.086405  9531 net.cpp:84] Creating Layer relu2
I0509 12:44:52.086418  9531 net.cpp:406] relu2 <- ip2
I0509 12:44:52.086436  9531 net.cpp:367] relu2 -> ip2 (in-place)
I0509 12:44:52.086455  9531 net.cpp:122] Setting up relu2
I0509 12:44:52.086514  9531 net.cpp:129] Top shape: 100 1000 (100000)
I0509 12:44:52.086525  9531 net.cpp:137] Memory required for data: 3829600
I0509 12:44:52.086536  9531 layer_factory.hpp:77] Creating layer ip3
I0509 12:44:52.086555  9531 net.cpp:84] Creating Layer ip3
I0509 12:44:52.086566  9531 net.cpp:406] ip3 <- ip2
I0509 12:44:52.086582  9531 net.cpp:380] ip3 -> ip3
I0509 12:44:52.087257  9531 net.cpp:122] Setting up ip3
I0509 12:44:52.087280  9531 net.cpp:129] Top shape: 100 10 (1000)
I0509 12:44:52.087291  9531 net.cpp:137] Memory required for data: 3837600
I0509 12:44:52.087309  9531 layer_factory.hpp:77] Creating layer ip3_ip3_0_split
I0509 12:44:52.087324  9531 net.cpp:84] Creating Layer ip3_ip3_0_split
I0509 12:44:52.087335  9531 net.cpp:406] ip3_ip3_0_split <- ip3
I0509 12:44:52.087349  9531 net.cpp:380] ip3_ip3_0_split -> ip3_ip3_0_split_0
I0509 12:44:52.087364  9531 net.cpp:380] ip3_ip3_0_split -> ip3_ip3_0_split_1
I0509 12:44:52.087383  9531 net.cpp:122] Setting up ip3_ip3_0_split
I0509 12:44:52.087396  9531 net.cpp:129] Top shape: 100 10 (1000)
I0509 12:44:52.087409  9531 net.cpp:129] Top shape: 100 10 (1000)
I0509 12:44:52.087419  9531 net.cpp:137] Memory required for data: 3853600
I0509 12:44:52.087430  9531 layer_factory.hpp:77] Creating layer accuracy
I0509 12:44:52.087453  9531 net.cpp:84] Creating Layer accuracy
I0509 12:44:52.087466  9531 net.cpp:406] accuracy <- ip3_ip3_0_split_0
I0509 12:44:52.087478  9531 net.cpp:406] accuracy <- label_mnist_1_split_0
I0509 12:44:52.087492  9531 net.cpp:380] accuracy -> accuracy
…
