…
  layer {
    name: "mnist"
    type: "Data"
    top: "data"
    top: "label"
    include {
      phase: TRAIN
    }
    transform_param {
      scale: 0.00390625
    }
    data_param {
      source: "data/mnist_train_lmdb"
      batch_size: 100
      backend: LMDB
    }
  }
  layer {
    name: "mnist"
    type: "Data"
    top: "data"
    top: "label"
    include {
      phase: TEST
    }
    transform_param {
      scale: 0.00390625
    }
    data_param {
      source: "data/mnist_test_lmdb"
      batch_size: 100
      backend: LMDB
    }
  }
  layer {
    name: "ip1"
    type: "InnerProduct"
    bottom: "data"
    top: "ip1"
    inner_product_param {
      num_output: 1000
      weight_filler {
        type: "gaussian"
        mean: 0
        std: 0.01
      }
    }
    bias_param {
      filler {
        value: 0
      }
    }
    fixed_precision: true
    precision {
      enter: 2
      fraccio: 14
      rounding: "nearest"
    }
  }
  layer {
    name: "relu1"
    type: "ReLU"
    bottom: "ip1"
    top: "ip1"
    fixed_precision: true
    precision {
      enter: 2
      fraccio: 14
      rounding: "nearest"
    }
  }
  layer {
    name: "ip2"
    type: "InnerProduct"
    bottom: "ip1"
    top: "ip2"
    inner_product_param {
      num_output: 1000
      weight_filler {
        type: "gaussian"
        mean: 0
        std: 0.01
      }
    }
    bias_param {
      filler {
        value: 0
      }
    }
    fixed_precision: true
    precision {
      enter: 2
      fraccio: 14
      rounding: "nearest"
    }
  }
  layer {
    name: "relu2"
    type: "ReLU"
    bottom: "ip2"
    top: "ip2"
    bias_param {
      filler {
        value: 0
      }
    }
    fixed_precision: true
    precision {
      enter: 2
      fraccio: 14
      rounding: "nearest"
    }
  }
  layer {
    name: "ip3"
    type: "InnerProduct"
    bottom: "ip2"
    top: "ip3"
    inner_product_param {
      num_output: 10
      weight_filler {
        type: "gaussian"
        mean: 0
        std: 0.01
      }
    }
    bias_param {
      filler {
        value: 0
      }
    }
    fixed_precision: true
    precision {
      enter: 2
      fraccio: 14
      rounding: "nearest"
    }
  }
  layer {
    name: "accuracy"
    type: "Accuracy"
    bottom: "ip3"
    bottom: "label"
    top: "accuracy"
  }
  layer {
    name: "loss"
    type: "SoftmaxWithLoss"
    bottom: "ip3"
    bottom: "label"
    top: "loss"
    fixed_precision: true
    precision {
      enter: 2
      fraccio: 14
      rounding: "nearest"
    }
  }
}
train_state {
  level: 0
  stage: ""
}
fixed_precision: true
precision {
  enter: 2
  fraccio: 14
  rounding: "nearest"
}
I0509 13:07:54.848433  7328 solver.cpp:82] Creating training net specified in net_param.
I0509 13:07:54.848553  7328 net.cpp:294] The NetState phase (0) differed from the phase (1) specified by a rule in layer mnist
I0509 13:07:54.848716  7328 net.cpp:51] Initializing net from parameters: 
name: "LeNet"
state {
  phase: TRAIN
  level: 0
  stage: ""
}
layer {
  name: "mnist"
  type: "Data"
  top: "data"
  top: "label"
  include {
    phase: TRAIN
  }
  transform_param {
    scale: 0.00390625
  }
  data_param {
    source: "data/mnist_train_lmdb"
    batch_size: 100
    backend: LMDB
  }
}
layer {
  name: "ip1"
  type: "InnerProduct"
  bottom: "data"
  top: "ip1"
  inner_product_param {
    num_output: 1000
    weight_filler {
      type: "gaussian"
      mean: 0
      std: 0.01
    }
  }
  bias_param {
    filler {
      value: 0
    }
  }
  fixed_precision: true
  precision {
    enter: 2
    fraccio: 14
    rounding: "nearest"
  }
}
layer {
  name: "relu1"
  type: "ReLU"
  bottom: "ip1"
  top: "ip1"
  fixed_precision: true
  precision {
    enter: 2
    fraccio: 14
    rounding: "nearest"
  }
}
layer {
  name: "ip2"
  type: "InnerProduct"
  bottom: "ip1"
  top: "ip2"
  inner_product_param {
    num_output: 1000
    weight_filler {
      type: "gaussian"
      mean: 0
      std: 0.01
    }
  }
  bias_param {
    filler {
      value: 0
    }
  }
  fixed_precision: true
  precision {
    enter: 2
    fraccio: 14
    rounding: "nearest"
  }
}
layer {
  name: "relu2"
  type: "ReLU"
  bottom: "ip2"
  top: "ip2"
  bias_param {
    filler {
      value: 0
    }
  }
  fixed_precision: true
  precision {
    enter: 2
    fraccio: 14
    rounding: "nearest"
  }
}
layer {
  name: "ip3"
  type: "InnerProduct"
  bottom: "ip2"
  top: "ip3"
  inner_product_param {
    num_output: 10
    weight_filler {
      type: "gaussian"
      mean: 0
      std: 0.01
    }
  }
  bias_param {
    filler {
      value: 0
    }
  }
  fixed_precision: true
  precision {
    enter: 2
    fraccio: 14
    rounding: "nearest"
  }
}
layer {
  name: "accuracy"
  type: "Accuracy"
  bottom: "ip3"
  bottom: "label"
  top: "accuracy"
}
layer {
  name: "loss"
  type: "SoftmaxWithLoss"
  bottom: "ip3"
  bottom: "label"
  top: "loss"
  fixed_precision: true
  precision {
    enter: 2
    fraccio: 14
    rounding: "nearest"
  }
}
I0509 13:07:54.849944  7328 layer_factory.hpp:77] Creating layer mnist
I0509 13:07:54.851624  7328 db_lmdb.cpp:35] Opened lmdb data/mnist_train_lmdb
I0509 13:07:54.851987  7328 net.cpp:84] Creating Layer mnist
I0509 13:07:54.852043  7328 net.cpp:380] mnist -> data
I0509 13:07:54.852129  7328 net.cpp:380] mnist -> label
I0509 13:07:54.852303  7328 data_layer.cpp:45] output data size: 100,1,28,28
I0509 13:07:54.854321  7328 net.cpp:122] Setting up mnist
I0509 13:07:54.854393  7328 net.cpp:129] Top shape: 100 1 28 28 (78400)
I0509 13:07:54.854413  7328 net.cpp:129] Top shape: 100 (100)
I0509 13:07:54.854425  7328 net.cpp:137] Memory required for data: 628000
I0509 13:07:54.854444  7328 layer_factory.hpp:77] Creating layer label_mnist_1_split
I0509 13:07:54.854480  7328 net.cpp:84] Creating Layer label_mnist_1_split
I0509 13:07:54.854497  7328 net.cpp:406] label_mnist_1_split <- label
I0509 13:07:54.854521  7328 net.cpp:380] label_mnist_1_split -> label_mnist_1_split_0
I0509 13:07:54.854542  7328 net.cpp:380] label_mnist_1_split -> label_mnist_1_split_1
I0509 13:07:54.854578  7328 net.cpp:122] Setting up label_mnist_1_split
I0509 13:07:54.854598  7328 net.cpp:129] Top shape: 100 (100)
I0509 13:07:54.854610  7328 net.cpp:129] Top shape: 100 (100)
I0509 13:07:54.854621  7328 net.cpp:137] Memory required for data: 629600
I0509 13:07:54.854631  7328 layer_factory.hpp:77] Creating layer ip1
I0509 13:07:54.854674  7328 net.cpp:84] Creating Layer ip1
I0509 13:07:54.854691  7328 net.cpp:406] ip1 <- data
I0509 13:07:54.854707  7328 net.cpp:380] ip1 -> ip1
I0509 13:07:54.893023  7328 net.cpp:122] Setting up ip1
I0509 13:07:54.893093  7328 net.cpp:129] Top shape: 100 1000 (100000)
I0509 13:07:54.893132  7328 net.cpp:137] Memory required for data: 1429600
I0509 13:07:54.893187  7328 layer_factory.hpp:77] Creating layer relu1
I0509 13:07:54.893231  7328 net.cpp:84] Creating Layer relu1
I0509 13:07:54.893249  7328 net.cpp:406] relu1 <- ip1
I0509 13:07:54.893265  7328 net.cpp:367] relu1 -> ip1 (in-place)
I0509 13:07:54.893328  7328 net.cpp:122] Setting up relu1
I0509 13:07:54.893353  7328 net.cpp:129] Top shape: 100 1000 (100000)
I0509 13:07:54.893364  7328 net.cpp:137] Memory required for data: 2229600
I0509 13:07:54.893374  7328 layer_factory.hpp:77] Creating layer ip2
I0509 13:07:54.893398  7328 net.cpp:84] Creating Layer ip2
I0509 13:07:54.893409  7328 net.cpp:406] ip2 <- ip1
I0509 13:07:54.893424  7328 net.cpp:380] ip2 -> ip2
I0509 13:07:54.936434  7328 net.cpp:122] Setting up ip2
I0509 13:07:54.936516  7328 net.cpp:129] Top shape: 100 1000 (100000)
I0509 13:07:54.936527  7328 net.cpp:137] Memory required for data: 3029600
I0509 13:07:54.936553  7328 layer_factory.hpp:77] Creating layer relu2
I0509 13:07:54.936580  7328 net.cpp:84] Creating Layer relu2
I0509 13:07:54.936594  7328 net.cpp:406] relu2 <- ip2
I0509 13:07:54.936610  7328 net.cpp:367] relu2 -> ip2 (in-place)
I0509 13:07:54.936632  7328 net.cpp:122] Setting up relu2
I0509 13:07:54.936688  7328 net.cpp:129] Top shape: 100 1000 (100000)
I0509 13:07:54.936700  7328 net.cpp:137] Memory required for data: 3829600
I0509 13:07:54.936710  7328 layer_factory.hpp:77] Creating layer ip3
I0509 13:07:54.936729  7328 net.cpp:84] Creating Layer ip3
I0509 13:07:54.936741  7328 net.cpp:406] ip3 <- ip2
I0509 13:07:54.936756  7328 net.cpp:380] ip3 -> ip3
I0509 13:07:54.937233  7328 net.cpp:122] Setting up ip3
I0509 13:07:54.937255  7328 net.cpp:129] Top shape: 100 10 (1000)
I0509 13:07:54.937268  7328 net.cpp:137] Memory required for data: 3837600
I0509 13:07:54.937285  7328 layer_factory.hpp:77] Creating layer ip3_ip3_0_split
I0509 13:07:54.937307  7328 net.cpp:84] Creating Layer ip3_ip3_0_split
I0509 13:07:54.937320  7328 net.cpp:406] ip3_ip3_0_split <- ip3
I0509 13:07:54.937335  7328 net.cpp:380] ip3_ip3_0_split -> ip3_ip3_0_split_0
I0509 13:07:54.937350  7328 net.cpp:380] ip3_ip3_0_split -> ip3_ip3_0_split_1
I0509 13:07:54.937368  7328 net.cpp:122] Setting up ip3_ip3_0_split
I0509 13:07:54.937383  7328 net.cpp:129] Top shape: 100 10 (1000)
I0509 13:07:54.937397  7328 net.cpp:129] Top shape: 100 10 (1000)
I0509 13:07:54.937407  7328 net.cpp:137] Memory required for data: 3853600
I0509 13:07:54.937417  7328 layer_factory.hpp:77] Creating layer accuracy
I0509 13:07:54.937480  7328 net.cpp:84] Creating Layer accuracy
I0509 13:07:54.937497  7328 net.cpp:406] accuracy <- ip3_ip3_0_split_0
I0509 13:07:54.937510  7328 net.cpp:406] accuracy <- label_mnist_1_split_0
I0509 13:07:54.937523  7328 net.cpp:380] accuracy -> accuracy
…
