…
  layer {
    name: "mnist"
    type: "Data"
    top: "data"
    top: "label"
    include {
      phase: TRAIN
    }
    transform_param {
      scale: 0.00390625
    }
    data_param {
      source: "data/mnist_train_lmdb"
      batch_size: 100
      backend: LMDB
    }
  }
  layer {
    name: "mnist"
    type: "Data"
    top: "data"
    top: "label"
    include {
      phase: TEST
    }
    transform_param {
      scale: 0.00390625
    }
    data_param {
      source: "data/mnist_test_lmdb"
      batch_size: 100
      backend: LMDB
    }
  }
  layer {
    name: "ip1"
    type: "InnerProduct"
    bottom: "data"
    top: "ip1"
    inner_product_param {
      num_output: 1000
      weight_filler {
        type: "gaussian"
        mean: 0
        std: 0.01
      }
    }
    bias_param {
      filler {
        value: 0
      }
    }
    floating_point: true
    fpoint {
      exp: 5
      mant: 10
      rounding: "stochastic"
    }
  }
  layer {
    name: "relu1"
    type: "ReLU"
    bottom: "ip1"
    top: "ip1"
    floating_point: true
    fpoint {
      exp: 5
      mant: 10
      rounding: "stochastic"
    }
  }
  layer {
    name: "ip2"
    type: "InnerProduct"
    bottom: "ip1"
    top: "ip2"
    inner_product_param {
      num_output: 1000
      weight_filler {
        type: "gaussian"
        mean: 0
        std: 0.01
      }
    }
    bias_param {
      filler {
        value: 0
      }
    }
    floating_point: true
    fpoint {
      exp: 5
      mant: 10
      rounding: "stochastic"
    }
  }
  layer {
    name: "relu2"
    type: "ReLU"
    bottom: "ip2"
    top: "ip2"
    bias_param {
      filler {
        value: 0
      }
    }
    floating_point: true
    fpoint {
      exp: 5
      mant: 10
      rounding: "stochastic"
    }
  }
  layer {
    name: "ip3"
    type: "InnerProduct"
    bottom: "ip2"
    top: "ip3"
    inner_product_param {
      num_output: 10
      weight_filler {
        type: "gaussian"
        mean: 0
        std: 0.01
      }
    }
    bias_param {
      filler {
        value: 0
      }
    }
    floating_point: true
    fpoint {
      exp: 5
      mant: 10
      rounding: "stochastic"
    }
  }
  layer {
    name: "accuracy"
    type: "Accuracy"
    bottom: "ip3"
    bottom: "label"
    top: "accuracy"
  }
  layer {
    name: "loss"
    type: "SoftmaxWithLoss"
    bottom: "ip3"
    bottom: "label"
    top: "loss"
    floating_point: true
    fpoint {
      exp: 5
      mant: 10
      rounding: "stochastic"
    }
  }
}
train_state {
  level: 0
  stage: ""
}
floating_point: true
fpoint {
  exp: 5
  mant: 10
  rounding: "stochastic"
}
I0418 16:49:14.988487  4047 solver.cpp:82] Creating training net specified in net_param.
I0418 16:49:14.988541  4047 net.cpp:294] The NetState phase (0) differed from the phase (1) specified by a rule in layer mnist
I0418 16:49:14.988684  4047 net.cpp:51] Initializing net from parameters: 
name: "LeNet"
state {
  phase: TRAIN
  level: 0
  stage: ""
}
layer {
  name: "mnist"
  type: "Data"
  top: "data"
  top: "label"
  include {
    phase: TRAIN
  }
  transform_param {
    scale: 0.00390625
  }
  data_param {
    source: "data/mnist_train_lmdb"
    batch_size: 100
    backend: LMDB
  }
}
layer {
  name: "ip1"
  type: "InnerProduct"
  bottom: "data"
  top: "ip1"
  inner_product_param {
    num_output: 1000
    weight_filler {
      type: "gaussian"
      mean: 0
      std: 0.01
    }
  }
  bias_param {
    filler {
      value: 0
    }
  }
  floating_point: true
  fpoint {
    exp: 5
    mant: 10
    rounding: "stochastic"
  }
}
layer {
  name: "relu1"
  type: "ReLU"
  bottom: "ip1"
  top: "ip1"
  floating_point: true
  fpoint {
    exp: 5
    mant: 10
    rounding: "stochastic"
  }
}
layer {
  name: "ip2"
  type: "InnerProduct"
  bottom: "ip1"
  top: "ip2"
  inner_product_param {
    num_output: 1000
    weight_filler {
      type: "gaussian"
      mean: 0
      std: 0.01
    }
  }
  bias_param {
    filler {
      value: 0
    }
  }
  floating_point: true
  fpoint {
    exp: 5
    mant: 10
    rounding: "stochastic"
  }
}
layer {
  name: "relu2"
  type: "ReLU"
  bottom: "ip2"
  top: "ip2"
  bias_param {
    filler {
      value: 0
    }
  }
  floating_point: true
  fpoint {
    exp: 5
    mant: 10
    rounding: "stochastic"
  }
}
layer {
  name: "ip3"
  type: "InnerProduct"
  bottom: "ip2"
  top: "ip3"
  inner_product_param {
    num_output: 10
    weight_filler {
      type: "gaussian"
      mean: 0
      std: 0.01
    }
  }
  bias_param {
    filler {
      value: 0
    }
  }
  floating_point: true
  fpoint {
    exp: 5
    mant: 10
    rounding: "stochastic"
  }
}
layer {
  name: "accuracy"
  type: "Accuracy"
  bottom: "ip3"
  bottom: "label"
  top: "accuracy"
}
layer {
  name: "loss"
  type: "SoftmaxWithLoss"
  bottom: "ip3"
  bottom: "label"
  top: "loss"
  floating_point: true
  fpoint {
    exp: 5
    mant: 10
    rounding: "stochastic"
  }
}
I0418 16:49:14.988796  4047 layer_factory.hpp:77] Creating layer mnist
I0418 16:49:14.988911  4047 db_lmdb.cpp:35] Opened lmdb data/mnist_train_lmdb
I0418 16:49:14.988939  4047 net.cpp:84] Creating Layer mnist
I0418 16:49:14.988948  4047 net.cpp:380] mnist -> data
I0418 16:49:14.988976  4047 net.cpp:380] mnist -> label
I0418 16:49:14.989011  4047 data_layer.cpp:45] output data size: 100,1,28,28
I0418 16:49:14.990541  4047 net.cpp:122] Setting up mnist
I0418 16:49:14.990566  4047 net.cpp:129] Top shape: 100 1 28 28 (78400)
I0418 16:49:14.990576  4047 net.cpp:129] Top shape: 100 (100)
I0418 16:49:14.990584  4047 net.cpp:137] Memory required for data: 628000
I0418 16:49:14.990595  4047 layer_factory.hpp:77] Creating layer label_mnist_1_split
I0418 16:49:14.990613  4047 net.cpp:84] Creating Layer label_mnist_1_split
I0418 16:49:14.990623  4047 net.cpp:406] label_mnist_1_split <- label
I0418 16:49:14.990638  4047 net.cpp:380] label_mnist_1_split -> label_mnist_1_split_0
I0418 16:49:14.990651  4047 net.cpp:380] label_mnist_1_split -> label_mnist_1_split_1
I0418 16:49:14.990664  4047 net.cpp:122] Setting up label_mnist_1_split
I0418 16:49:14.990674  4047 net.cpp:129] Top shape: 100 (100)
I0418 16:49:14.990682  4047 net.cpp:129] Top shape: 100 (100)
I0418 16:49:14.990689  4047 net.cpp:137] Memory required for data: 629600
I0418 16:49:14.990695  4047 layer_factory.hpp:77] Creating layer ip1
I0418 16:49:14.990712  4047 net.cpp:84] Creating Layer ip1
I0418 16:49:14.990720  4047 net.cpp:406] ip1 <- data
I0418 16:49:14.990728  4047 net.cpp:380] ip1 -> ip1
I0418 16:49:15.067709  4047 net.cpp:122] Setting up ip1
I0418 16:49:15.067749  4047 net.cpp:129] Top shape: 100 1000 (100000)
I0418 16:49:15.067757  4047 net.cpp:137] Memory required for data: 1429600
I0418 16:49:15.067780  4047 layer_factory.hpp:77] Creating layer relu1
I0418 16:49:15.067796  4047 net.cpp:84] Creating Layer relu1
I0418 16:49:15.067804  4047 net.cpp:406] relu1 <- ip1
I0418 16:49:15.067814  4047 net.cpp:367] relu1 -> ip1 (in-place)
I0418 16:49:15.067836  4047 net.cpp:122] Setting up relu1
I0418 16:49:15.067844  4047 net.cpp:129] Top shape: 100 1000 (100000)
I0418 16:49:15.067850  4047 net.cpp:137] Memory required for data: 2229600
I0418 16:49:15.067857  4047 layer_factory.hpp:77] Creating layer ip2
I0418 16:49:15.067872  4047 net.cpp:84] Creating Layer ip2
I0418 16:49:15.067878  4047 net.cpp:406] ip2 <- ip1
I0418 16:49:15.067888  4047 net.cpp:380] ip2 -> ip2
I0418 16:49:15.136576  4047 net.cpp:122] Setting up ip2
I0418 16:49:15.136629  4047 net.cpp:129] Top shape: 100 1000 (100000)
I0418 16:49:15.136642  4047 net.cpp:137] Memory required for data: 3029600
I0418 16:49:15.136664  4047 layer_factory.hpp:77] Creating layer relu2
I0418 16:49:15.136687  4047 net.cpp:84] Creating Layer relu2
I0418 16:49:15.136700  4047 net.cpp:406] relu2 <- ip2
I0418 16:49:15.136715  4047 net.cpp:367] relu2 -> ip2 (in-place)
I0418 16:49:15.136731  4047 net.cpp:122] Setting up relu2
I0418 16:49:15.136750  4047 net.cpp:129] Top shape: 100 1000 (100000)
I0418 16:49:15.136770  4047 net.cpp:137] Memory required for data: 3829600
I0418 16:49:15.136775  4047 layer_factory.hpp:77] Creating layer ip3
I0418 16:49:15.136785  4047 net.cpp:84] Creating Layer ip3
I0418 16:49:15.136792  4047 net.cpp:406] ip3 <- ip2
I0418 16:49:15.136804  4047 net.cpp:380] ip3 -> ip3
I0418 16:49:15.137703  4047 net.cpp:122] Setting up ip3
I0418 16:49:15.137723  4047 net.cpp:129] Top shape: 100 10 (1000)
I0418 16:49:15.137732  4047 net.cpp:137] Memory required for data: 3837600
I0418 16:49:15.137744  4047 layer_factory.hpp:77] Creating layer ip3_ip3_0_split
I0418 16:49:15.137753  4047 net.cpp:84] Creating Layer ip3_ip3_0_split
I0418 16:49:15.137758  4047 net.cpp:406] ip3_ip3_0_split <- ip3
I0418 16:49:15.137763  4047 net.cpp:380] ip3_ip3_0_split -> ip3_ip3_0_split_0
I0418 16:49:15.137771  4047 net.cpp:380] ip3_ip3_0_split -> ip3_ip3_0_split_1
I0418 16:49:15.137780  4047 net.cpp:122] Setting up ip3_ip3_0_split
I0418 16:49:15.137785  4047 net.cpp:129] Top shape: 100 10 (1000)
I0418 16:49:15.137790  4047 net.cpp:129] Top shape: 100 10 (1000)
I0418 16:49:15.137795  4047 net.cpp:137] Memory required for data: 3853600
I0418 16:49:15.137800  4047 layer_factory.hpp:77] Creating layer accuracy
I0418 16:49:15.137814  4047 net.cpp:84] Creating Layer accuracy
I0418 16:49:15.137823  4047 net.cpp:406] accuracy <- ip3_ip3_0_split_0
I0418 16:49:15.137831  4047 net.cpp:406] accuracy <- label_mnist_1_split_0
I0418 16:49:15.137841  4047 net.cpp:380] accuracy -> accuracy
…
