…
  layer {
    name: "mnist"
    type: "Data"
    top: "data"
    top: "label"
    include {
      phase: TRAIN
    }
    transform_param {
      scale: 0.00390625
    }
    data_param {
      source: "data/mnist_train_lmdb"
      batch_size: 100
      backend: LMDB
    }
  }
  layer {
    name: "mnist"
    type: "Data"
    top: "data"
    top: "label"
    include {
      phase: TEST
    }
    transform_param {
      scale: 0.00390625
    }
    data_param {
      source: "data/mnist_test_lmdb"
      batch_size: 100
      backend: LMDB
    }
  }
  layer {
    name: "ip1"
    type: "InnerProduct"
    bottom: "data"
    top: "ip1"
    inner_product_param {
      num_output: 1000
      weight_filler {
        type: "gaussian"
        mean: 0
        std: 0.01
      }
    }
    bias_param {
      filler {
        value: 0
      }
    }
    floating_point: true
    fpoint {
      exp: 5
      mant: 10
      rounding: "nearest"
    }
  }
  layer {
    name: "relu1"
    type: "ReLU"
    bottom: "ip1"
    top: "ip1"
    floating_point: true
    fpoint {
      exp: 5
      mant: 10
      rounding: "nearest"
    }
  }
  layer {
    name: "ip2"
    type: "InnerProduct"
    bottom: "ip1"
    top: "ip2"
    inner_product_param {
      num_output: 1000
      weight_filler {
        type: "gaussian"
        mean: 0
        std: 0.01
      }
    }
    bias_param {
      filler {
        value: 0
      }
    }
    floating_point: true
    fpoint {
      exp: 5
      mant: 10
      rounding: "nearest"
    }
  }
  layer {
    name: "relu2"
    type: "ReLU"
    bottom: "ip2"
    top: "ip2"
    bias_param {
      filler {
        value: 0
      }
    }
    floating_point: true
    fpoint {
      exp: 5
      mant: 10
      rounding: "nearest"
    }
  }
  layer {
    name: "ip3"
    type: "InnerProduct"
    bottom: "ip2"
    top: "ip3"
    inner_product_param {
      num_output: 10
      weight_filler {
        type: "gaussian"
        mean: 0
        std: 0.01
      }
    }
    bias_param {
      filler {
        value: 0
      }
    }
    floating_point: true
    fpoint {
      exp: 5
      mant: 10
      rounding: "nearest"
    }
  }
  layer {
    name: "accuracy"
    type: "Accuracy"
    bottom: "ip3"
    bottom: "label"
    top: "accuracy"
  }
  layer {
    name: "loss"
    type: "SoftmaxWithLoss"
    bottom: "ip3"
    bottom: "label"
    top: "loss"
    floating_point: true
    fpoint {
      exp: 5
      mant: 10
      rounding: "nearest"
    }
  }
}
train_state {
  level: 0
  stage: ""
}
floating_point: true
fpoint {
  exp: 5
  mant: 10
  rounding: "nearest"
}
I0417 22:21:23.675626 25851 solver.cpp:82] Creating training net specified in net_param.
I0417 22:21:23.675680 25851 net.cpp:294] The NetState phase (0) differed from the phase (1) specified by a rule in layer mnist
I0417 22:21:23.675825 25851 net.cpp:51] Initializing net from parameters: 
name: "LeNet"
state {
  phase: TRAIN
  level: 0
  stage: ""
}
layer {
  name: "mnist"
  type: "Data"
  top: "data"
  top: "label"
  include {
    phase: TRAIN
  }
  transform_param {
    scale: 0.00390625
  }
  data_param {
    source: "data/mnist_train_lmdb"
    batch_size: 100
    backend: LMDB
  }
}
layer {
  name: "ip1"
  type: "InnerProduct"
  bottom: "data"
  top: "ip1"
  inner_product_param {
    num_output: 1000
    weight_filler {
      type: "gaussian"
      mean: 0
      std: 0.01
    }
  }
  bias_param {
    filler {
      value: 0
    }
  }
  floating_point: true
  fpoint {
    exp: 5
    mant: 10
    rounding: "nearest"
  }
}
layer {
  name: "relu1"
  type: "ReLU"
  bottom: "ip1"
  top: "ip1"
  floating_point: true
  fpoint {
    exp: 5
    mant: 10
    rounding: "nearest"
  }
}
layer {
  name: "ip2"
  type: "InnerProduct"
  bottom: "ip1"
  top: "ip2"
  inner_product_param {
    num_output: 1000
    weight_filler {
      type: "gaussian"
      mean: 0
      std: 0.01
    }
  }
  bias_param {
    filler {
      value: 0
    }
  }
  floating_point: true
  fpoint {
    exp: 5
    mant: 10
    rounding: "nearest"
  }
}
layer {
  name: "relu2"
  type: "ReLU"
  bottom: "ip2"
  top: "ip2"
  bias_param {
    filler {
      value: 0
    }
  }
  floating_point: true
  fpoint {
    exp: 5
    mant: 10
    rounding: "nearest"
  }
}
layer {
  name: "ip3"
  type: "InnerProduct"
  bottom: "ip2"
  top: "ip3"
  inner_product_param {
    num_output: 10
    weight_filler {
      type: "gaussian"
      mean: 0
      std: 0.01
    }
  }
  bias_param {
    filler {
      value: 0
    }
  }
  floating_point: true
  fpoint {
    exp: 5
    mant: 10
    rounding: "nearest"
  }
}
layer {
  name: "accuracy"
  type: "Accuracy"
  bottom: "ip3"
  bottom: "label"
  top: "accuracy"
}
layer {
  name: "loss"
  type: "SoftmaxWithLoss"
  bottom: "ip3"
  bottom: "label"
  top: "loss"
  floating_point: true
  fpoint {
    exp: 5
    mant: 10
    rounding: "nearest"
  }
}
I0417 22:21:23.675936 25851 layer_factory.hpp:77] Creating layer mnist
I0417 22:21:23.676074 25851 db_lmdb.cpp:35] Opened lmdb data/mnist_train_lmdb
I0417 22:21:23.676103 25851 net.cpp:84] Creating Layer mnist
I0417 22:21:23.676115 25851 net.cpp:380] mnist -> data
I0417 22:21:23.676142 25851 net.cpp:380] mnist -> label
I0417 22:21:23.676182 25851 data_layer.cpp:45] output data size: 100,1,28,28
I0417 22:21:23.677861 25851 net.cpp:122] Setting up mnist
I0417 22:21:23.677896 25851 net.cpp:129] Top shape: 100 1 28 28 (78400)
I0417 22:21:23.677904 25851 net.cpp:129] Top shape: 100 (100)
I0417 22:21:23.677911 25851 net.cpp:137] Memory required for data: 628000
I0417 22:21:23.677923 25851 layer_factory.hpp:77] Creating layer label_mnist_1_split
I0417 22:21:23.677942 25851 net.cpp:84] Creating Layer label_mnist_1_split
I0417 22:21:23.677952 25851 net.cpp:406] label_mnist_1_split <- label
I0417 22:21:23.677965 25851 net.cpp:380] label_mnist_1_split -> label_mnist_1_split_0
I0417 22:21:23.677978 25851 net.cpp:380] label_mnist_1_split -> label_mnist_1_split_1
I0417 22:21:23.677991 25851 net.cpp:122] Setting up label_mnist_1_split
I0417 22:21:23.677999 25851 net.cpp:129] Top shape: 100 (100)
I0417 22:21:23.678007 25851 net.cpp:129] Top shape: 100 (100)
I0417 22:21:23.678014 25851 net.cpp:137] Memory required for data: 629600
I0417 22:21:23.678020 25851 layer_factory.hpp:77] Creating layer ip1
I0417 22:21:23.678032 25851 net.cpp:84] Creating Layer ip1
I0417 22:21:23.678040 25851 net.cpp:406] ip1 <- data
I0417 22:21:23.678048 25851 net.cpp:380] ip1 -> ip1
I0417 22:21:23.754523 25851 net.cpp:122] Setting up ip1
I0417 22:21:23.754566 25851 net.cpp:129] Top shape: 100 1000 (100000)
I0417 22:21:23.754573 25851 net.cpp:137] Memory required for data: 1429600
I0417 22:21:23.754595 25851 layer_factory.hpp:77] Creating layer relu1
I0417 22:21:23.754608 25851 net.cpp:84] Creating Layer relu1
I0417 22:21:23.754616 25851 net.cpp:406] relu1 <- ip1
I0417 22:21:23.754626 25851 net.cpp:367] relu1 -> ip1 (in-place)
I0417 22:21:23.754647 25851 net.cpp:122] Setting up relu1
I0417 22:21:23.754654 25851 net.cpp:129] Top shape: 100 1000 (100000)
I0417 22:21:23.754660 25851 net.cpp:137] Memory required for data: 2229600
I0417 22:21:23.754665 25851 layer_factory.hpp:77] Creating layer ip2
I0417 22:21:23.754678 25851 net.cpp:84] Creating Layer ip2
I0417 22:21:23.754684 25851 net.cpp:406] ip2 <- ip1
I0417 22:21:23.754693 25851 net.cpp:380] ip2 -> ip2
I0417 22:21:23.816089 25851 net.cpp:122] Setting up ip2
I0417 22:21:23.816123 25851 net.cpp:129] Top shape: 100 1000 (100000)
I0417 22:21:23.816128 25851 net.cpp:137] Memory required for data: 3029600
I0417 22:21:23.816141 25851 layer_factory.hpp:77] Creating layer relu2
I0417 22:21:23.816154 25851 net.cpp:84] Creating Layer relu2
I0417 22:21:23.816159 25851 net.cpp:406] relu2 <- ip2
I0417 22:21:23.816165 25851 net.cpp:367] relu2 -> ip2 (in-place)
I0417 22:21:23.816174 25851 net.cpp:122] Setting up relu2
I0417 22:21:23.816179 25851 net.cpp:129] Top shape: 100 1000 (100000)
I0417 22:21:23.816203 25851 net.cpp:137] Memory required for data: 3829600
I0417 22:21:23.816207 25851 layer_factory.hpp:77] Creating layer ip3
I0417 22:21:23.816215 25851 net.cpp:84] Creating Layer ip3
I0417 22:21:23.816218 25851 net.cpp:406] ip3 <- ip2
I0417 22:21:23.816224 25851 net.cpp:380] ip3 -> ip3
I0417 22:21:23.816818 25851 net.cpp:122] Setting up ip3
I0417 22:21:23.816826 25851 net.cpp:129] Top shape: 100 10 (1000)
I0417 22:21:23.816829 25851 net.cpp:137] Memory required for data: 3837600
I0417 22:21:23.816836 25851 layer_factory.hpp:77] Creating layer ip3_ip3_0_split
I0417 22:21:23.816843 25851 net.cpp:84] Creating Layer ip3_ip3_0_split
I0417 22:21:23.816846 25851 net.cpp:406] ip3_ip3_0_split <- ip3
I0417 22:21:23.816851 25851 net.cpp:380] ip3_ip3_0_split -> ip3_ip3_0_split_0
I0417 22:21:23.816857 25851 net.cpp:380] ip3_ip3_0_split -> ip3_ip3_0_split_1
I0417 22:21:23.816864 25851 net.cpp:122] Setting up ip3_ip3_0_split
I0417 22:21:23.816869 25851 net.cpp:129] Top shape: 100 10 (1000)
I0417 22:21:23.816872 25851 net.cpp:129] Top shape: 100 10 (1000)
I0417 22:21:23.816875 25851 net.cpp:137] Memory required for data: 3853600
I0417 22:21:23.816879 25851 layer_factory.hpp:77] Creating layer accuracy
I0417 22:21:23.816886 25851 net.cpp:84] Creating Layer accuracy
I0417 22:21:23.816890 25851 net.cpp:406] accuracy <- ip3_ip3_0_split_0
I0417 22:21:23.816895 25851 net.cpp:406] accuracy <- label_mnist_1_split_0
I0417 22:21:23.816898 25851 net.cpp:380] accuracy -> accuracy
…
