…
  layer {
    name: "mnist"
    type: "Data"
    top: "data"
    top: "label"
    include {
      phase: TRAIN
    }
    transform_param {
      scale: 0.00390625
    }
    data_param {
      source: "data/mnist_train_lmdb"
      batch_size: 100
      backend: LMDB
    }
  }
  layer {
    name: "mnist"
    type: "Data"
    top: "data"
    top: "label"
    include {
      phase: TEST
    }
    transform_param {
      scale: 0.00390625
    }
    data_param {
      source: "data/mnist_test_lmdb"
      batch_size: 100
      backend: LMDB
    }
  }
  layer {
    name: "ip1"
    type: "InnerProduct"
    bottom: "data"
    top: "ip1"
    inner_product_param {
      num_output: 1000
      weight_filler {
        type: "gaussian"
        mean: 0
        std: 0.01
      }
    }
    bias_param {
      filler {
        value: 0
      }
    }
    fixed_precision: true
    precision {
      enter: 2
      fraccio: 14
      rounding: "withProb"
      prob: 0.5
    }
  }
  layer {
    name: "relu1"
    type: "ReLU"
    bottom: "ip1"
    top: "ip1"
    fixed_precision: true
    precision {
      enter: 2
      fraccio: 14
      rounding: "withProb"
      prob: 0.5
    }
  }
  layer {
    name: "ip2"
    type: "InnerProduct"
    bottom: "ip1"
    top: "ip2"
    inner_product_param {
      num_output: 1000
      weight_filler {
        type: "gaussian"
        mean: 0
        std: 0.01
      }
    }
    bias_param {
      filler {
        value: 0
      }
    }
    fixed_precision: true
    precision {
      enter: 2
      fraccio: 14
      rounding: "withProb"
      prob: 0.5
    }
  }
  layer {
    name: "relu2"
    type: "ReLU"
    bottom: "ip2"
    top: "ip2"
    bias_param {
      filler {
        value: 0
      }
    }
    fixed_precision: true
    precision {
      enter: 2
      fraccio: 14
      rounding: "withProb"
      prob: 0.5
    }
  }
  layer {
    name: "ip3"
    type: "InnerProduct"
    bottom: "ip2"
    top: "ip3"
    inner_product_param {
      num_output: 10
      weight_filler {
        type: "gaussian"
        mean: 0
        std: 0.01
      }
    }
    bias_param {
      filler {
        value: 0
      }
    }
    fixed_precision: true
    precision {
      enter: 2
      fraccio: 14
      rounding: "withProb"
      prob: 0.5
    }
  }
  layer {
    name: "accuracy"
    type: "Accuracy"
    bottom: "ip3"
    bottom: "label"
    top: "accuracy"
  }
  layer {
    name: "loss"
    type: "SoftmaxWithLoss"
    bottom: "ip3"
    bottom: "label"
    top: "loss"
    fixed_precision: true
    precision {
      enter: 2
      fraccio: 14
      rounding: "withProb"
      prob: 0.5
    }
  }
}
train_state {
  level: 0
  stage: ""
}
fixed_precision: true
precision {
  enter: 2
  fraccio: 14
  rounding: "withProb"
  prob: 0.5
}
I0407 20:28:59.025255 24603 solver.cpp:82] Creating training net specified in net_param.
I0407 20:28:59.025315 24603 net.cpp:294] The NetState phase (0) differed from the phase (1) specified by a rule in layer mnist
I0407 20:28:59.025498 24603 net.cpp:51] Initializing net from parameters: 
name: "LeNet"
state {
  phase: TRAIN
  level: 0
  stage: ""
}
layer {
  name: "mnist"
  type: "Data"
  top: "data"
  top: "label"
  include {
    phase: TRAIN
  }
  transform_param {
    scale: 0.00390625
  }
  data_param {
    source: "data/mnist_train_lmdb"
    batch_size: 100
    backend: LMDB
  }
}
layer {
  name: "ip1"
  type: "InnerProduct"
  bottom: "data"
  top: "ip1"
  inner_product_param {
    num_output: 1000
    weight_filler {
      type: "gaussian"
      mean: 0
      std: 0.01
    }
  }
  bias_param {
    filler {
      value: 0
    }
  }
  fixed_precision: true
  precision {
    enter: 2
    fraccio: 14
    rounding: "withProb"
    prob: 0.5
  }
}
layer {
  name: "relu1"
  type: "ReLU"
  bottom: "ip1"
  top: "ip1"
  fixed_precision: true
  precision {
    enter: 2
    fraccio: 14
    rounding: "withProb"
    prob: 0.5
  }
}
layer {
  name: "ip2"
  type: "InnerProduct"
  bottom: "ip1"
  top: "ip2"
  inner_product_param {
    num_output: 1000
    weight_filler {
      type: "gaussian"
      mean: 0
      std: 0.01
    }
  }
  bias_param {
    filler {
      value: 0
    }
  }
  fixed_precision: true
  precision {
    enter: 2
    fraccio: 14
    rounding: "withProb"
    prob: 0.5
  }
}
layer {
  name: "relu2"
  type: "ReLU"
  bottom: "ip2"
  top: "ip2"
  bias_param {
    filler {
      value: 0
    }
  }
  fixed_precision: true
  precision {
    enter: 2
    fraccio: 14
    rounding: "withProb"
    prob: 0.5
  }
}
layer {
  name: "ip3"
  type: "InnerProduct"
  bottom: "ip2"
  top: "ip3"
  inner_product_param {
    num_output: 10
    weight_filler {
      type: "gaussian"
      mean: 0
      std: 0.01
    }
  }
  bias_param {
    filler {
      value: 0
    }
  }
  fixed_precision: true
  precision {
    enter: 2
    fraccio: 14
    rounding: "withProb"
    prob: 0.5
  }
}
layer {
  name: "accuracy"
  type: "Accuracy"
  bottom: "ip3"
  bottom: "label"
  top: "accuracy"
}
layer {
  name: "loss"
  type: "SoftmaxWithLoss"
  bottom: "ip3"
  bottom: "label"
  top: "loss"
  fixed_precision: true
  precision {
    enter: 2
    fraccio: 14
    rounding: "withProb"
    prob: 0.5
  }
}
I0407 20:28:59.025626 24603 layer_factory.hpp:77] Creating layer mnist
I0407 20:28:59.025749 24603 db_lmdb.cpp:35] Opened lmdb data/mnist_train_lmdb
I0407 20:28:59.025779 24603 net.cpp:84] Creating Layer mnist
I0407 20:28:59.025791 24603 net.cpp:380] mnist -> data
I0407 20:28:59.025820 24603 net.cpp:380] mnist -> label
I0407 20:28:59.025862 24603 data_layer.cpp:45] output data size: 100,1,28,28
I0407 20:28:59.027701 24603 net.cpp:122] Setting up mnist
I0407 20:28:59.027730 24603 net.cpp:129] Top shape: 100 1 28 28 (78400)
I0407 20:28:59.027741 24603 net.cpp:129] Top shape: 100 (100)
I0407 20:28:59.027750 24603 net.cpp:137] Memory required for data: 628000
I0407 20:28:59.027760 24603 layer_factory.hpp:77] Creating layer label_mnist_1_split
I0407 20:28:59.027779 24603 net.cpp:84] Creating Layer label_mnist_1_split
I0407 20:28:59.027788 24603 net.cpp:406] label_mnist_1_split <- label
I0407 20:28:59.027803 24603 net.cpp:380] label_mnist_1_split -> label_mnist_1_split_0
I0407 20:28:59.027817 24603 net.cpp:380] label_mnist_1_split -> label_mnist_1_split_1
I0407 20:28:59.027830 24603 net.cpp:122] Setting up label_mnist_1_split
I0407 20:28:59.027840 24603 net.cpp:129] Top shape: 100 (100)
I0407 20:28:59.027849 24603 net.cpp:129] Top shape: 100 (100)
I0407 20:28:59.027856 24603 net.cpp:137] Memory required for data: 629600
I0407 20:28:59.027863 24603 layer_factory.hpp:77] Creating layer ip1
I0407 20:28:59.027876 24603 net.cpp:84] Creating Layer ip1
I0407 20:28:59.027884 24603 net.cpp:406] ip1 <- data
I0407 20:28:59.027894 24603 net.cpp:380] ip1 -> ip1
I0407 20:28:59.139750 24603 net.cpp:122] Setting up ip1
I0407 20:28:59.139787 24603 net.cpp:129] Top shape: 100 1000 (100000)
I0407 20:28:59.139796 24603 net.cpp:137] Memory required for data: 1429600
I0407 20:28:59.139819 24603 layer_factory.hpp:77] Creating layer relu1
I0407 20:28:59.139837 24603 net.cpp:84] Creating Layer relu1
I0407 20:28:59.139847 24603 net.cpp:406] relu1 <- ip1
I0407 20:28:59.139858 24603 net.cpp:367] relu1 -> ip1 (in-place)
I0407 20:28:59.139881 24603 net.cpp:122] Setting up relu1
I0407 20:28:59.139891 24603 net.cpp:129] Top shape: 100 1000 (100000)
I0407 20:28:59.139899 24603 net.cpp:137] Memory required for data: 2229600
I0407 20:28:59.139905 24603 layer_factory.hpp:77] Creating layer ip2
I0407 20:28:59.139920 24603 net.cpp:84] Creating Layer ip2
I0407 20:28:59.139928 24603 net.cpp:406] ip2 <- ip1
I0407 20:28:59.139940 24603 net.cpp:380] ip2 -> ip2
I0407 20:28:59.242125 24603 net.cpp:122] Setting up ip2
I0407 20:28:59.242168 24603 net.cpp:129] Top shape: 100 1000 (100000)
I0407 20:28:59.242175 24603 net.cpp:137] Memory required for data: 3029600
I0407 20:28:59.242194 24603 layer_factory.hpp:77] Creating layer relu2
I0407 20:28:59.242221 24603 net.cpp:84] Creating Layer relu2
I0407 20:28:59.242243 24603 net.cpp:406] relu2 <- ip2
I0407 20:28:59.242254 24603 net.cpp:367] relu2 -> ip2 (in-place)
I0407 20:28:59.242270 24603 net.cpp:122] Setting up relu2
I0407 20:28:59.242281 24603 net.cpp:129] Top shape: 100 1000 (100000)
I0407 20:28:59.242290 24603 net.cpp:137] Memory required for data: 3829600
I0407 20:28:59.242297 24603 layer_factory.hpp:77] Creating layer ip3
I0407 20:28:59.242311 24603 net.cpp:84] Creating Layer ip3
I0407 20:28:59.242318 24603 net.cpp:406] ip3 <- ip2
I0407 20:28:59.242328 24603 net.cpp:380] ip3 -> ip3
I0407 20:28:59.243423 24603 net.cpp:122] Setting up ip3
I0407 20:28:59.243438 24603 net.cpp:129] Top shape: 100 10 (1000)
I0407 20:28:59.243445 24603 net.cpp:137] Memory required for data: 3837600
I0407 20:28:59.243460 24603 layer_factory.hpp:77] Creating layer ip3_ip3_0_split
I0407 20:28:59.243482 24603 net.cpp:84] Creating Layer ip3_ip3_0_split
I0407 20:28:59.243489 24603 net.cpp:406] ip3_ip3_0_split <- ip3
I0407 20:28:59.243499 24603 net.cpp:380] ip3_ip3_0_split -> ip3_ip3_0_split_0
I0407 20:28:59.243513 24603 net.cpp:380] ip3_ip3_0_split -> ip3_ip3_0_split_1
I0407 20:28:59.243530 24603 net.cpp:122] Setting up ip3_ip3_0_split
I0407 20:28:59.243538 24603 net.cpp:129] Top shape: 100 10 (1000)
I0407 20:28:59.243546 24603 net.cpp:129] Top shape: 100 10 (1000)
I0407 20:28:59.243553 24603 net.cpp:137] Memory required for data: 3853600
I0407 20:28:59.243561 24603 layer_factory.hpp:77] Creating layer accuracy
I0407 20:28:59.243574 24603 net.cpp:84] Creating Layer accuracy
I0407 20:28:59.243584 24603 net.cpp:406] accuracy <- ip3_ip3_0_split_0
I0407 20:28:59.243593 24603 net.cpp:406] accuracy <- label_mnist_1_split_0
I0407 20:28:59.243603 24603 net.cpp:380] accuracy -> accuracy
…
