…
  layer {
    name: "mnist"
    type: "Data"
    top: "data"
    top: "label"
    include {
      phase: TRAIN
    }
    transform_param {
      scale: 0.00390625
    }
    data_param {
      source: "data/mnist_train_lmdb"
      batch_size: 100
      backend: LMDB
    }
  }
  layer {
    name: "mnist"
    type: "Data"
    top: "data"
    top: "label"
    include {
      phase: TEST
    }
    transform_param {
      scale: 0.00390625
    }
    data_param {
      source: "data/mnist_test_lmdb"
      batch_size: 100
      backend: LMDB
    }
  }
  layer {
    name: "ip1"
    type: "InnerProduct"
    bottom: "data"
    top: "ip1"
    inner_product_param {
      num_output: 1000
      weight_filler {
        type: "gaussian"
        mean: 0
        std: 0.01
      }
    }
    bias_param {
      filler {
        value: 0
      }
    }
    fixed_precision: true
    precision {
      enter: 2
      fraccio: 14
      rounding: "nearest"
    }
  }
  layer {
    name: "relu1"
    type: "ReLU"
    bottom: "ip1"
    top: "ip1"
    fixed_precision: true
    precision {
      enter: 2
      fraccio: 14
      rounding: "nearest"
    }
  }
  layer {
    name: "ip2"
    type: "InnerProduct"
    bottom: "ip1"
    top: "ip2"
    inner_product_param {
      num_output: 1000
      weight_filler {
        type: "gaussian"
        mean: 0
        std: 0.01
      }
    }
    bias_param {
      filler {
        value: 0
      }
    }
    fixed_precision: true
    precision {
      enter: 2
      fraccio: 14
      rounding: "nearest"
    }
  }
  layer {
    name: "relu2"
    type: "ReLU"
    bottom: "ip2"
    top: "ip2"
    bias_param {
      filler {
        value: 0
      }
    }
    fixed_precision: true
    precision {
      enter: 2
      fraccio: 14
      rounding: "nearest"
    }
  }
  layer {
    name: "ip3"
    type: "InnerProduct"
    bottom: "ip2"
    top: "ip3"
    inner_product_param {
      num_output: 10
      weight_filler {
        type: "gaussian"
        mean: 0
        std: 0.01
      }
    }
    bias_param {
      filler {
        value: 0
      }
    }
    fixed_precision: true
    precision {
      enter: 2
      fraccio: 14
      rounding: "nearest"
    }
  }
  layer {
    name: "accuracy"
    type: "Accuracy"
    bottom: "ip3"
    bottom: "label"
    top: "accuracy"
  }
  layer {
    name: "loss"
    type: "SoftmaxWithLoss"
    bottom: "ip3"
    bottom: "label"
    top: "loss"
    fixed_precision: true
    precision {
      enter: 2
      fraccio: 14
      rounding: "nearest"
    }
  }
}
train_state {
  level: 0
  stage: ""
}
fixed_precision: true
precision {
  enter: 2
  fraccio: 14
  rounding: "nearest"
}
I0420 15:55:32.589076 21553 solver.cpp:82] Creating training net specified in net_param.
I0420 15:55:32.589133 21553 net.cpp:294] The NetState phase (0) differed from the phase (1) specified by a rule in layer mnist
I0420 15:55:32.589288 21553 net.cpp:51] Initializing net from parameters: 
name: "LeNet"
state {
  phase: TRAIN
  level: 0
  stage: ""
}
layer {
  name: "mnist"
  type: "Data"
  top: "data"
  top: "label"
  include {
    phase: TRAIN
  }
  transform_param {
    scale: 0.00390625
  }
  data_param {
    source: "data/mnist_train_lmdb"
    batch_size: 100
    backend: LMDB
  }
}
layer {
  name: "ip1"
  type: "InnerProduct"
  bottom: "data"
  top: "ip1"
  inner_product_param {
    num_output: 1000
    weight_filler {
      type: "gaussian"
      mean: 0
      std: 0.01
    }
  }
  bias_param {
    filler {
      value: 0
    }
  }
  fixed_precision: true
  precision {
    enter: 2
    fraccio: 14
    rounding: "nearest"
  }
}
layer {
  name: "relu1"
  type: "ReLU"
  bottom: "ip1"
  top: "ip1"
  fixed_precision: true
  precision {
    enter: 2
    fraccio: 14
    rounding: "nearest"
  }
}
layer {
  name: "ip2"
  type: "InnerProduct"
  bottom: "ip1"
  top: "ip2"
  inner_product_param {
    num_output: 1000
    weight_filler {
      type: "gaussian"
      mean: 0
      std: 0.01
    }
  }
  bias_param {
    filler {
      value: 0
    }
  }
  fixed_precision: true
  precision {
    enter: 2
    fraccio: 14
    rounding: "nearest"
  }
}
layer {
  name: "relu2"
  type: "ReLU"
  bottom: "ip2"
  top: "ip2"
  bias_param {
    filler {
      value: 0
    }
  }
  fixed_precision: true
  precision {
    enter: 2
    fraccio: 14
    rounding: "nearest"
  }
}
layer {
  name: "ip3"
  type: "InnerProduct"
  bottom: "ip2"
  top: "ip3"
  inner_product_param {
    num_output: 10
    weight_filler {
      type: "gaussian"
      mean: 0
      std: 0.01
    }
  }
  bias_param {
    filler {
      value: 0
    }
  }
  fixed_precision: true
  precision {
    enter: 2
    fraccio: 14
    rounding: "nearest"
  }
}
layer {
  name: "accuracy"
  type: "Accuracy"
  bottom: "ip3"
  bottom: "label"
  top: "accuracy"
}
layer {
  name: "loss"
  type: "SoftmaxWithLoss"
  bottom: "ip3"
  bottom: "label"
  top: "loss"
  fixed_precision: true
  precision {
    enter: 2
    fraccio: 14
    rounding: "nearest"
  }
}
I0420 15:55:32.589399 21553 layer_factory.hpp:77] Creating layer mnist
I0420 15:55:32.589517 21553 db_lmdb.cpp:35] Opened lmdb data/mnist_train_lmdb
I0420 15:55:32.589545 21553 net.cpp:84] Creating Layer mnist
I0420 15:55:32.589556 21553 net.cpp:380] mnist -> data
I0420 15:55:32.589582 21553 net.cpp:380] mnist -> label
I0420 15:55:32.589617 21553 data_layer.cpp:45] output data size: 100,1,28,28
I0420 15:55:32.591240 21553 net.cpp:122] Setting up mnist
I0420 15:55:32.591284 21553 net.cpp:129] Top shape: 100 1 28 28 (78400)
I0420 15:55:32.591294 21553 net.cpp:129] Top shape: 100 (100)
I0420 15:55:32.591300 21553 net.cpp:137] Memory required for data: 628000
I0420 15:55:32.591310 21553 layer_factory.hpp:77] Creating layer label_mnist_1_split
I0420 15:55:32.591327 21553 net.cpp:84] Creating Layer label_mnist_1_split
I0420 15:55:32.591336 21553 net.cpp:406] label_mnist_1_split <- label
I0420 15:55:32.591348 21553 net.cpp:380] label_mnist_1_split -> label_mnist_1_split_0
I0420 15:55:32.591361 21553 net.cpp:380] label_mnist_1_split -> label_mnist_1_split_1
I0420 15:55:32.591373 21553 net.cpp:122] Setting up label_mnist_1_split
I0420 15:55:32.591382 21553 net.cpp:129] Top shape: 100 (100)
I0420 15:55:32.591388 21553 net.cpp:129] Top shape: 100 (100)
I0420 15:55:32.591394 21553 net.cpp:137] Memory required for data: 629600
I0420 15:55:32.591399 21553 layer_factory.hpp:77] Creating layer ip1
I0420 15:55:32.591415 21553 net.cpp:84] Creating Layer ip1
I0420 15:55:32.591421 21553 net.cpp:406] ip1 <- data
I0420 15:55:32.591429 21553 net.cpp:380] ip1 -> ip1
I0420 15:55:32.676873 21553 net.cpp:122] Setting up ip1
I0420 15:55:32.676915 21553 net.cpp:129] Top shape: 100 1000 (100000)
I0420 15:55:32.676923 21553 net.cpp:137] Memory required for data: 1429600
I0420 15:55:32.676944 21553 layer_factory.hpp:77] Creating layer relu1
I0420 15:55:32.676959 21553 net.cpp:84] Creating Layer relu1
I0420 15:55:32.676966 21553 net.cpp:406] relu1 <- ip1
I0420 15:55:32.676976 21553 net.cpp:367] relu1 -> ip1 (in-place)
I0420 15:55:32.676993 21553 net.cpp:122] Setting up relu1
I0420 15:55:32.677001 21553 net.cpp:129] Top shape: 100 1000 (100000)
I0420 15:55:32.677007 21553 net.cpp:137] Memory required for data: 2229600
I0420 15:55:32.677013 21553 layer_factory.hpp:77] Creating layer ip2
I0420 15:55:32.677026 21553 net.cpp:84] Creating Layer ip2
I0420 15:55:32.677032 21553 net.cpp:406] ip2 <- ip1
I0420 15:55:32.677040 21553 net.cpp:380] ip2 -> ip2
I0420 15:55:32.747881 21553 net.cpp:122] Setting up ip2
I0420 15:55:32.747925 21553 net.cpp:129] Top shape: 100 1000 (100000)
I0420 15:55:32.747931 21553 net.cpp:137] Memory required for data: 3029600
I0420 15:55:32.747947 21553 layer_factory.hpp:77] Creating layer relu2
I0420 15:55:32.747964 21553 net.cpp:84] Creating Layer relu2
I0420 15:55:32.747972 21553 net.cpp:406] relu2 <- ip2
I0420 15:55:32.747984 21553 net.cpp:367] relu2 -> ip2 (in-place)
I0420 15:55:32.748011 21553 net.cpp:122] Setting up relu2
I0420 15:55:32.748028 21553 net.cpp:129] Top shape: 100 1000 (100000)
I0420 15:55:32.748034 21553 net.cpp:137] Memory required for data: 3829600
I0420 15:55:32.748040 21553 layer_factory.hpp:77] Creating layer ip3
I0420 15:55:32.748052 21553 net.cpp:84] Creating Layer ip3
I0420 15:55:32.748059 21553 net.cpp:406] ip3 <- ip2
I0420 15:55:32.748067 21553 net.cpp:380] ip3 -> ip3
I0420 15:55:32.748816 21553 net.cpp:122] Setting up ip3
I0420 15:55:32.748826 21553 net.cpp:129] Top shape: 100 10 (1000)
I0420 15:55:32.748832 21553 net.cpp:137] Memory required for data: 3837600
I0420 15:55:32.748843 21553 layer_factory.hpp:77] Creating layer ip3_ip3_0_split
I0420 15:55:32.748853 21553 net.cpp:84] Creating Layer ip3_ip3_0_split
I0420 15:55:32.748858 21553 net.cpp:406] ip3_ip3_0_split <- ip3
I0420 15:55:32.748867 21553 net.cpp:380] ip3_ip3_0_split -> ip3_ip3_0_split_0
I0420 15:55:32.748878 21553 net.cpp:380] ip3_ip3_0_split -> ip3_ip3_0_split_1
I0420 15:55:32.748891 21553 net.cpp:122] Setting up ip3_ip3_0_split
I0420 15:55:32.748899 21553 net.cpp:129] Top shape: 100 10 (1000)
I0420 15:55:32.748906 21553 net.cpp:129] Top shape: 100 10 (1000)
I0420 15:55:32.748913 21553 net.cpp:137] Memory required for data: 3853600
I0420 15:55:32.748919 21553 layer_factory.hpp:77] Creating layer accuracy
I0420 15:55:32.748931 21553 net.cpp:84] Creating Layer accuracy
I0420 15:55:32.748936 21553 net.cpp:406] accuracy <- ip3_ip3_0_split_0
I0420 15:55:32.748944 21553 net.cpp:406] accuracy <- label_mnist_1_split_0
I0420 15:55:32.748952 21553 net.cpp:380] accuracy -> accuracy
…
