…
  layer {
    name: "mnist"
    type: "Data"
    top: "data"
    top: "label"
    include {
      phase: TRAIN
    }
    transform_param {
      scale: 0.00390625
    }
    data_param {
      source: "data/mnist_train_lmdb"
      batch_size: 100
      backend: LMDB
    }
  }
  layer {
    name: "mnist"
    type: "Data"
    top: "data"
    top: "label"
    include {
      phase: TEST
    }
    transform_param {
      scale: 0.00390625
    }
    data_param {
      source: "data/mnist_test_lmdb"
      batch_size: 100
      backend: LMDB
    }
  }
  layer {
    name: "ip1"
    type: "InnerProduct"
    bottom: "data"
    top: "ip1"
    inner_product_param {
      num_output: 1000
      weight_filler {
        type: "gaussian"
        mean: 0
        std: 0.01
      }
    }
    bias_param {
      filler {
        value: 0
      }
    }
    fixed_precision: true
    precision {
      enter: 2
      fraccio: 14
      rounding: "stochastic"
    }
  }
  layer {
    name: "relu1"
    type: "ReLU"
    bottom: "ip1"
    top: "ip1"
    fixed_precision: true
    precision {
      enter: 2
      fraccio: 14
      rounding: "stochastic"
    }
  }
  layer {
    name: "ip2"
    type: "InnerProduct"
    bottom: "ip1"
    top: "ip2"
    inner_product_param {
      num_output: 1000
      weight_filler {
        type: "gaussian"
        mean: 0
        std: 0.01
      }
    }
    bias_param {
      filler {
        value: 0
      }
    }
    fixed_precision: true
    precision {
      enter: 2
      fraccio: 14
      rounding: "stochastic"
    }
  }
  layer {
    name: "relu2"
    type: "ReLU"
    bottom: "ip2"
    top: "ip2"
    bias_param {
      filler {
        value: 0
      }
    }
    fixed_precision: true
    precision {
      enter: 2
      fraccio: 14
      rounding: "stochastic"
    }
  }
  layer {
    name: "ip3"
    type: "InnerProduct"
    bottom: "ip2"
    top: "ip3"
    inner_product_param {
      num_output: 10
      weight_filler {
        type: "gaussian"
        mean: 0
        std: 0.01
      }
    }
    bias_param {
      filler {
        value: 0
      }
    }
    fixed_precision: true
    precision {
      enter: 2
      fraccio: 14
      rounding: "stochastic"
    }
  }
  layer {
    name: "accuracy"
    type: "Accuracy"
    bottom: "ip3"
    bottom: "label"
    top: "accuracy"
  }
  layer {
    name: "loss"
    type: "SoftmaxWithLoss"
    bottom: "ip3"
    bottom: "label"
    top: "loss"
    fixed_precision: true
    precision {
      enter: 2
      fraccio: 14
      rounding: "stochastic"
    }
  }
}
train_state {
  level: 0
  stage: ""
}
fixed_precision: true
precision {
  enter: 2
  fraccio: 14
  rounding: "stochastic"
}
I0420 19:06:22.961349  6895 solver.cpp:82] Creating training net specified in net_param.
I0420 19:06:22.961412  6895 net.cpp:294] The NetState phase (0) differed from the phase (1) specified by a rule in layer mnist
I0420 19:06:22.961585  6895 net.cpp:51] Initializing net from parameters: 
name: "LeNet"
state {
  phase: TRAIN
  level: 0
  stage: ""
}
layer {
  name: "mnist"
  type: "Data"
  top: "data"
  top: "label"
  include {
    phase: TRAIN
  }
  transform_param {
    scale: 0.00390625
  }
  data_param {
    source: "data/mnist_train_lmdb"
    batch_size: 100
    backend: LMDB
  }
}
layer {
  name: "ip1"
  type: "InnerProduct"
  bottom: "data"
  top: "ip1"
  inner_product_param {
    num_output: 1000
    weight_filler {
      type: "gaussian"
      mean: 0
      std: 0.01
    }
  }
  bias_param {
    filler {
      value: 0
    }
  }
  fixed_precision: true
  precision {
    enter: 2
    fraccio: 14
    rounding: "stochastic"
  }
}
layer {
  name: "relu1"
  type: "ReLU"
  bottom: "ip1"
  top: "ip1"
  fixed_precision: true
  precision {
    enter: 2
    fraccio: 14
    rounding: "stochastic"
  }
}
layer {
  name: "ip2"
  type: "InnerProduct"
  bottom: "ip1"
  top: "ip2"
  inner_product_param {
    num_output: 1000
    weight_filler {
      type: "gaussian"
      mean: 0
      std: 0.01
    }
  }
  bias_param {
    filler {
      value: 0
    }
  }
  fixed_precision: true
  precision {
    enter: 2
    fraccio: 14
    rounding: "stochastic"
  }
}
layer {
  name: "relu2"
  type: "ReLU"
  bottom: "ip2"
  top: "ip2"
  bias_param {
    filler {
      value: 0
    }
  }
  fixed_precision: true
  precision {
    enter: 2
    fraccio: 14
    rounding: "stochastic"
  }
}
layer {
  name: "ip3"
  type: "InnerProduct"
  bottom: "ip2"
  top: "ip3"
  inner_product_param {
    num_output: 10
    weight_filler {
      type: "gaussian"
      mean: 0
      std: 0.01
    }
  }
  bias_param {
    filler {
      value: 0
    }
  }
  fixed_precision: true
  precision {
    enter: 2
    fraccio: 14
    rounding: "stochastic"
  }
}
layer {
  name: "accuracy"
  type: "Accuracy"
  bottom: "ip3"
  bottom: "label"
  top: "accuracy"
}
layer {
  name: "loss"
  type: "SoftmaxWithLoss"
  bottom: "ip3"
  bottom: "label"
  top: "loss"
  fixed_precision: true
  precision {
    enter: 2
    fraccio: 14
    rounding: "stochastic"
  }
}
I0420 19:06:22.961720  6895 layer_factory.hpp:77] Creating layer mnist
I0420 19:06:22.961838  6895 db_lmdb.cpp:35] Opened lmdb data/mnist_train_lmdb
I0420 19:06:22.961886  6895 net.cpp:84] Creating Layer mnist
I0420 19:06:22.961905  6895 net.cpp:380] mnist -> data
I0420 19:06:22.961938  6895 net.cpp:380] mnist -> label
I0420 19:06:22.961982  6895 data_layer.cpp:45] output data size: 100,1,28,28
I0420 19:06:22.963680  6895 net.cpp:122] Setting up mnist
I0420 19:06:22.963707  6895 net.cpp:129] Top shape: 100 1 28 28 (78400)
I0420 19:06:22.963721  6895 net.cpp:129] Top shape: 100 (100)
I0420 19:06:22.963732  6895 net.cpp:137] Memory required for data: 628000
I0420 19:06:22.963747  6895 layer_factory.hpp:77] Creating layer label_mnist_1_split
I0420 19:06:22.963768  6895 net.cpp:84] Creating Layer label_mnist_1_split
I0420 19:06:22.963781  6895 net.cpp:406] label_mnist_1_split <- label
I0420 19:06:22.963799  6895 net.cpp:380] label_mnist_1_split -> label_mnist_1_split_0
I0420 19:06:22.963815  6895 net.cpp:380] label_mnist_1_split -> label_mnist_1_split_1
I0420 19:06:22.963834  6895 net.cpp:122] Setting up label_mnist_1_split
I0420 19:06:22.963846  6895 net.cpp:129] Top shape: 100 (100)
I0420 19:06:22.963856  6895 net.cpp:129] Top shape: 100 (100)
I0420 19:06:22.963865  6895 net.cpp:137] Memory required for data: 629600
I0420 19:06:22.963876  6895 layer_factory.hpp:77] Creating layer ip1
I0420 19:06:22.963896  6895 net.cpp:84] Creating Layer ip1
I0420 19:06:22.963906  6895 net.cpp:406] ip1 <- data
I0420 19:06:22.963917  6895 net.cpp:380] ip1 -> ip1
I0420 19:06:23.121024  6895 net.cpp:122] Setting up ip1
I0420 19:06:23.121081  6895 net.cpp:129] Top shape: 100 1000 (100000)
I0420 19:06:23.121096  6895 net.cpp:137] Memory required for data: 1429600
I0420 19:06:23.121125  6895 layer_factory.hpp:77] Creating layer relu1
I0420 19:06:23.121150  6895 net.cpp:84] Creating Layer relu1
I0420 19:06:23.121165  6895 net.cpp:406] relu1 <- ip1
I0420 19:06:23.121186  6895 net.cpp:367] relu1 -> ip1 (in-place)
I0420 19:06:23.121213  6895 net.cpp:122] Setting up relu1
I0420 19:06:23.121227  6895 net.cpp:129] Top shape: 100 1000 (100000)
I0420 19:06:23.121237  6895 net.cpp:137] Memory required for data: 2229600
I0420 19:06:23.121253  6895 layer_factory.hpp:77] Creating layer ip2
I0420 19:06:23.121271  6895 net.cpp:84] Creating Layer ip2
I0420 19:06:23.121280  6895 net.cpp:406] ip2 <- ip1
I0420 19:06:23.121294  6895 net.cpp:380] ip2 -> ip2
I0420 19:06:23.261023  6895 net.cpp:122] Setting up ip2
I0420 19:06:23.261062  6895 net.cpp:129] Top shape: 100 1000 (100000)
I0420 19:06:23.261071  6895 net.cpp:137] Memory required for data: 3029600
I0420 19:06:23.261096  6895 layer_factory.hpp:77] Creating layer relu2
I0420 19:06:23.261116  6895 net.cpp:84] Creating Layer relu2
I0420 19:06:23.261129  6895 net.cpp:406] relu2 <- ip2
I0420 19:06:23.261145  6895 net.cpp:367] relu2 -> ip2 (in-place)
I0420 19:06:23.261180  6895 net.cpp:122] Setting up relu2
I0420 19:06:23.261193  6895 net.cpp:129] Top shape: 100 1000 (100000)
I0420 19:06:23.261204  6895 net.cpp:137] Memory required for data: 3829600
I0420 19:06:23.261211  6895 layer_factory.hpp:77] Creating layer ip3
I0420 19:06:23.261226  6895 net.cpp:84] Creating Layer ip3
I0420 19:06:23.261236  6895 net.cpp:406] ip3 <- ip2
I0420 19:06:23.261248  6895 net.cpp:380] ip3 -> ip3
I0420 19:06:23.262476  6895 net.cpp:122] Setting up ip3
I0420 19:06:23.262500  6895 net.cpp:129] Top shape: 100 10 (1000)
I0420 19:06:23.262511  6895 net.cpp:137] Memory required for data: 3837600
I0420 19:06:23.262526  6895 layer_factory.hpp:77] Creating layer ip3_ip3_0_split
I0420 19:06:23.262539  6895 net.cpp:84] Creating Layer ip3_ip3_0_split
I0420 19:06:23.262548  6895 net.cpp:406] ip3_ip3_0_split <- ip3
I0420 19:06:23.262559  6895 net.cpp:380] ip3_ip3_0_split -> ip3_ip3_0_split_0
I0420 19:06:23.262574  6895 net.cpp:380] ip3_ip3_0_split -> ip3_ip3_0_split_1
I0420 19:06:23.262590  6895 net.cpp:122] Setting up ip3_ip3_0_split
I0420 19:06:23.262603  6895 net.cpp:129] Top shape: 100 10 (1000)
I0420 19:06:23.262614  6895 net.cpp:129] Top shape: 100 10 (1000)
I0420 19:06:23.262621  6895 net.cpp:137] Memory required for data: 3853600
I0420 19:06:23.262631  6895 layer_factory.hpp:77] Creating layer accuracy
I0420 19:06:23.262650  6895 net.cpp:84] Creating Layer accuracy
I0420 19:06:23.262660  6895 net.cpp:406] accuracy <- ip3_ip3_0_split_0
I0420 19:06:23.262671  6895 net.cpp:406] accuracy <- label_mnist_1_split_0
I0420 19:06:23.262684  6895 net.cpp:380] accuracy -> accuracy
…
