…
  layer {
    name: "mnist"
    type: "Data"
    top: "data"
    top: "label"
    include {
      phase: TRAIN
    }
    transform_param {
      scale: 0.00390625
    }
    data_param {
      source: "data/mnist_train_lmdb"
      batch_size: 100
      backend: LMDB
    }
  }
  layer {
    name: "mnist"
    type: "Data"
    top: "data"
    top: "label"
    include {
      phase: TEST
    }
    transform_param {
      scale: 0.00390625
    }
    data_param {
      source: "data/mnist_test_lmdb"
      batch_size: 100
      backend: LMDB
    }
  }
  layer {
    name: "ip1"
    type: "InnerProduct"
    bottom: "data"
    top: "ip1"
    inner_product_param {
      num_output: 1000
      weight_filler {
        type: "gaussian"
        mean: 0
        std: 1
      }
    }
    bias_param {
      filler {
        value: 0
      }
    }
    floating_point: true
    fpoint {
      exp: 2
      mant: 5
      rounding: "stochastic"
    }
  }
  layer {
    name: "relu1"
    type: "ReLU"
    bottom: "ip1"
    top: "ip1"
    floating_point: true
    fpoint {
      exp: 2
      mant: 5
      rounding: "stochastic"
    }
  }
  layer {
    name: "ip2"
    type: "InnerProduct"
    bottom: "ip1"
    top: "ip2"
    inner_product_param {
      num_output: 1000
      weight_filler {
        type: "gaussian"
        mean: 0
        std: 1
      }
    }
    bias_param {
      filler {
        value: 0
      }
    }
    floating_point: true
    fpoint {
      exp: 2
      mant: 5
      rounding: "stochastic"
    }
  }
  layer {
    name: "relu2"
    type: "ReLU"
    bottom: "ip2"
    top: "ip2"
    bias_param {
      filler {
        value: 0
      }
    }
    floating_point: true
    fpoint {
      exp: 2
      mant: 5
      rounding: "stochastic"
    }
  }
  layer {
    name: "ip3"
    type: "InnerProduct"
    bottom: "ip2"
    top: "ip3"
    inner_product_param {
      num_output: 10
      weight_filler {
        type: "gaussian"
        mean: 0
        std: 1
      }
    }
    bias_param {
      filler {
        value: 0
      }
    }
    floating_point: true
    fpoint {
      exp: 2
      mant: 5
      rounding: "stochastic"
    }
  }
  layer {
    name: "accuracy"
    type: "Accuracy"
    bottom: "ip3"
    bottom: "label"
    top: "accuracy"
  }
  layer {
    name: "loss"
    type: "SoftmaxWithLoss"
    bottom: "ip3"
    bottom: "label"
    top: "loss"
    floating_point: true
    fpoint {
      exp: 2
      mant: 5
      rounding: "stochastic"
    }
  }
}
train_state {
  level: 0
  stage: ""
}
floating_point: true
fpoint {
  exp: 2
  mant: 5
  rounding: "stochastic"
}
I0502 19:13:59.633510  5563 solver.cpp:82] Creating training net specified in net_param.
I0502 19:13:59.633667  5563 net.cpp:294] The NetState phase (0) differed from the phase (1) specified by a rule in layer mnist
I0502 19:13:59.633829  5563 net.cpp:51] Initializing net from parameters: 
name: "LeNet"
state {
  phase: TRAIN
  level: 0
  stage: ""
}
layer {
  name: "mnist"
  type: "Data"
  top: "data"
  top: "label"
  include {
    phase: TRAIN
  }
  transform_param {
    scale: 0.00390625
  }
  data_param {
    source: "data/mnist_train_lmdb"
    batch_size: 100
    backend: LMDB
  }
}
layer {
  name: "ip1"
  type: "InnerProduct"
  bottom: "data"
  top: "ip1"
  inner_product_param {
    num_output: 1000
    weight_filler {
      type: "gaussian"
      mean: 0
      std: 1
    }
  }
  bias_param {
    filler {
      value: 0
    }
  }
  floating_point: true
  fpoint {
    exp: 2
    mant: 5
    rounding: "stochastic"
  }
}
layer {
  name: "relu1"
  type: "ReLU"
  bottom: "ip1"
  top: "ip1"
  floating_point: true
  fpoint {
    exp: 2
    mant: 5
    rounding: "stochastic"
  }
}
layer {
  name: "ip2"
  type: "InnerProduct"
  bottom: "ip1"
  top: "ip2"
  inner_product_param {
    num_output: 1000
    weight_filler {
      type: "gaussian"
      mean: 0
      std: 1
    }
  }
  bias_param {
    filler {
      value: 0
    }
  }
  floating_point: true
  fpoint {
    exp: 2
    mant: 5
    rounding: "stochastic"
  }
}
layer {
  name: "relu2"
  type: "ReLU"
  bottom: "ip2"
  top: "ip2"
  bias_param {
    filler {
      value: 0
    }
  }
  floating_point: true
  fpoint {
    exp: 2
    mant: 5
    rounding: "stochastic"
  }
}
layer {
  name: "ip3"
  type: "InnerProduct"
  bottom: "ip2"
  top: "ip3"
  inner_product_param {
    num_output: 10
    weight_filler {
      type: "gaussian"
      mean: 0
      std: 1
    }
  }
  bias_param {
    filler {
      value: 0
    }
  }
  floating_point: true
  fpoint {
    exp: 2
    mant: 5
    rounding: "stochastic"
  }
}
layer {
  name: "accuracy"
  type: "Accuracy"
  bottom: "ip3"
  bottom: "label"
  top: "accuracy"
}
layer {
  name: "loss"
  type: "SoftmaxWithLoss"
  bottom: "ip3"
  bottom: "label"
  top: "loss"
  floating_point: true
  fpoint {
    exp: 2
    mant: 5
    rounding: "stochastic"
  }
}
I0502 19:13:59.634353  5563 layer_factory.hpp:77] Creating layer mnist
I0502 19:13:59.646250  5563 db_lmdb.cpp:35] Opened lmdb data/mnist_train_lmdb
I0502 19:13:59.646613  5563 net.cpp:84] Creating Layer mnist
I0502 19:13:59.646666  5563 net.cpp:380] mnist -> data
I0502 19:13:59.646745  5563 net.cpp:380] mnist -> label
I0502 19:13:59.646903  5563 data_layer.cpp:45] output data size: 100,1,28,28
I0502 19:13:59.648725  5563 net.cpp:122] Setting up mnist
I0502 19:13:59.648787  5563 net.cpp:129] Top shape: 100 1 28 28 (78400)
I0502 19:13:59.648805  5563 net.cpp:129] Top shape: 100 (100)
I0502 19:13:59.648816  5563 net.cpp:137] Memory required for data: 628000
I0502 19:13:59.648834  5563 layer_factory.hpp:77] Creating layer label_mnist_1_split
I0502 19:13:59.648867  5563 net.cpp:84] Creating Layer label_mnist_1_split
I0502 19:13:59.648883  5563 net.cpp:406] label_mnist_1_split <- label
I0502 19:13:59.648905  5563 net.cpp:380] label_mnist_1_split -> label_mnist_1_split_0
I0502 19:13:59.648926  5563 net.cpp:380] label_mnist_1_split -> label_mnist_1_split_1
I0502 19:13:59.648946  5563 net.cpp:122] Setting up label_mnist_1_split
I0502 19:13:59.648960  5563 net.cpp:129] Top shape: 100 (100)
I0502 19:13:59.648972  5563 net.cpp:129] Top shape: 100 (100)
I0502 19:13:59.648983  5563 net.cpp:137] Memory required for data: 629600
I0502 19:13:59.648993  5563 layer_factory.hpp:77] Creating layer ip1
I0502 19:13:59.649040  5563 net.cpp:84] Creating Layer ip1
I0502 19:13:59.649058  5563 net.cpp:406] ip1 <- data
I0502 19:13:59.649075  5563 net.cpp:380] ip1 -> ip1
I0502 19:13:59.672719  5563 net.cpp:122] Setting up ip1
I0502 19:13:59.672775  5563 net.cpp:129] Top shape: 100 1000 (100000)
I0502 19:13:59.672786  5563 net.cpp:137] Memory required for data: 1429600
I0502 19:13:59.672828  5563 layer_factory.hpp:77] Creating layer relu1
I0502 19:13:59.672876  5563 net.cpp:84] Creating Layer relu1
I0502 19:13:59.672894  5563 net.cpp:406] relu1 <- ip1
I0502 19:13:59.672910  5563 net.cpp:367] relu1 -> ip1 (in-place)
I0502 19:13:59.672930  5563 net.cpp:122] Setting up relu1
I0502 19:13:59.672943  5563 net.cpp:129] Top shape: 100 1000 (100000)
I0502 19:13:59.672953  5563 net.cpp:137] Memory required for data: 2229600
I0502 19:13:59.672963  5563 layer_factory.hpp:77] Creating layer ip2
I0502 19:13:59.672983  5563 net.cpp:84] Creating Layer ip2
I0502 19:13:59.672996  5563 net.cpp:406] ip2 <- ip1
I0502 19:13:59.673012  5563 net.cpp:380] ip2 -> ip2
I0502 19:13:59.698186  5563 net.cpp:122] Setting up ip2
I0502 19:13:59.698253  5563 net.cpp:129] Top shape: 100 1000 (100000)
I0502 19:13:59.698264  5563 net.cpp:137] Memory required for data: 3029600
I0502 19:13:59.698287  5563 layer_factory.hpp:77] Creating layer relu2
I0502 19:13:59.698310  5563 net.cpp:84] Creating Layer relu2
I0502 19:13:59.698323  5563 net.cpp:406] relu2 <- ip2
I0502 19:13:59.698338  5563 net.cpp:367] relu2 -> ip2 (in-place)
I0502 19:13:59.698359  5563 net.cpp:122] Setting up relu2
I0502 19:13:59.698371  5563 net.cpp:129] Top shape: 100 1000 (100000)
I0502 19:13:59.698421  5563 net.cpp:137] Memory required for data: 3829600
I0502 19:13:59.698433  5563 layer_factory.hpp:77] Creating layer ip3
I0502 19:13:59.698451  5563 net.cpp:84] Creating Layer ip3
I0502 19:13:59.698462  5563 net.cpp:406] ip3 <- ip2
I0502 19:13:59.698478  5563 net.cpp:380] ip3 -> ip3
I0502 19:13:59.698765  5563 net.cpp:122] Setting up ip3
I0502 19:13:59.698788  5563 net.cpp:129] Top shape: 100 10 (1000)
I0502 19:13:59.698799  5563 net.cpp:137] Memory required for data: 3837600
I0502 19:13:59.698817  5563 layer_factory.hpp:77] Creating layer ip3_ip3_0_split
I0502 19:13:59.698832  5563 net.cpp:84] Creating Layer ip3_ip3_0_split
I0502 19:13:59.698844  5563 net.cpp:406] ip3_ip3_0_split <- ip3
I0502 19:13:59.698858  5563 net.cpp:380] ip3_ip3_0_split -> ip3_ip3_0_split_0
I0502 19:13:59.698874  5563 net.cpp:380] ip3_ip3_0_split -> ip3_ip3_0_split_1
I0502 19:13:59.698892  5563 net.cpp:122] Setting up ip3_ip3_0_split
I0502 19:13:59.698906  5563 net.cpp:129] Top shape: 100 10 (1000)
I0502 19:13:59.698918  5563 net.cpp:129] Top shape: 100 10 (1000)
I0502 19:13:59.698928  5563 net.cpp:137] Memory required for data: 3853600
I0502 19:13:59.698938  5563 layer_factory.hpp:77] Creating layer accuracy
I0502 19:13:59.698994  5563 net.cpp:84] Creating Layer accuracy
I0502 19:13:59.699010  5563 net.cpp:406] accuracy <- ip3_ip3_0_split_0
I0502 19:13:59.699023  5563 net.cpp:406] accuracy <- label_mnist_1_split_0
I0502 19:13:59.699036  5563 net.cpp:380] accuracy -> accuracy
…
