…
  layer {
    name: "mnist"
    type: "Data"
    top: "data"
    top: "label"
    include {
      phase: TRAIN
    }
    transform_param {
      scale: 0.00390625
    }
    data_param {
      source: "data/mnist_train_lmdb"
      batch_size: 100
      backend: LMDB
    }
  }
  layer {
    name: "mnist"
    type: "Data"
    top: "data"
    top: "label"
    include {
      phase: TEST
    }
    transform_param {
      scale: 0.00390625
    }
    data_param {
      source: "data/mnist_test_lmdb"
      batch_size: 100
      backend: LMDB
    }
  }
  layer {
    name: "ip1"
    type: "InnerProduct"
    bottom: "data"
    top: "ip1"
    inner_product_param {
      num_output: 1000
      weight_filler {
        type: "gaussian"
        mean: 0
        std: 1
      }
    }
    bias_param {
      filler {
        value: 0
      }
    }
    floating_point: true
    fpoint {
      exp: 2
      mant: 5
      rounding: "stochastic"
    }
  }
  layer {
    name: "relu1"
    type: "ReLU"
    bottom: "ip1"
    top: "ip1"
    floating_point: true
    fpoint {
      exp: 2
      mant: 5
      rounding: "stochastic"
    }
  }
  layer {
    name: "ip2"
    type: "InnerProduct"
    bottom: "ip1"
    top: "ip2"
    inner_product_param {
      num_output: 1000
      weight_filler {
        type: "gaussian"
        mean: 0
        std: 1
      }
    }
    bias_param {
      filler {
        value: 0
      }
    }
    floating_point: true
    fpoint {
      exp: 2
      mant: 5
      rounding: "stochastic"
    }
  }
  layer {
    name: "relu2"
    type: "ReLU"
    bottom: "ip2"
    top: "ip2"
    bias_param {
      filler {
        value: 0
      }
    }
    floating_point: true
    fpoint {
      exp: 2
      mant: 5
      rounding: "stochastic"
    }
  }
  layer {
    name: "ip3"
    type: "InnerProduct"
    bottom: "ip2"
    top: "ip3"
    inner_product_param {
      num_output: 10
      weight_filler {
        type: "gaussian"
        mean: 0
        std: 1
      }
    }
    bias_param {
      filler {
        value: 0
      }
    }
    floating_point: true
    fpoint {
      exp: 2
      mant: 5
      rounding: "stochastic"
    }
  }
  layer {
    name: "accuracy"
    type: "Accuracy"
    bottom: "ip3"
    bottom: "label"
    top: "accuracy"
  }
  layer {
    name: "loss"
    type: "SoftmaxWithLoss"
    bottom: "ip3"
    bottom: "label"
    top: "loss"
    floating_point: true
    fpoint {
      exp: 2
      mant: 5
      rounding: "stochastic"
    }
  }
}
train_state {
  level: 0
  stage: ""
}
floating_point: true
fpoint {
  exp: 2
  mant: 5
  rounding: "stochastic"
}
I0502 18:09:54.948612  6202 solver.cpp:82] Creating training net specified in net_param.
I0502 18:09:54.948678  6202 net.cpp:294] The NetState phase (0) differed from the phase (1) specified by a rule in layer mnist
I0502 18:09:54.948858  6202 net.cpp:51] Initializing net from parameters: 
name: "LeNet"
state {
  phase: TRAIN
  level: 0
  stage: ""
}
layer {
  name: "mnist"
  type: "Data"
  top: "data"
  top: "label"
  include {
    phase: TRAIN
  }
  transform_param {
    scale: 0.00390625
  }
  data_param {
    source: "data/mnist_train_lmdb"
    batch_size: 100
    backend: LMDB
  }
}
layer {
  name: "ip1"
  type: "InnerProduct"
  bottom: "data"
  top: "ip1"
  inner_product_param {
    num_output: 1000
    weight_filler {
      type: "gaussian"
      mean: 0
      std: 1
    }
  }
  bias_param {
    filler {
      value: 0
    }
  }
  floating_point: true
  fpoint {
    exp: 2
    mant: 5
    rounding: "stochastic"
  }
}
layer {
  name: "relu1"
  type: "ReLU"
  bottom: "ip1"
  top: "ip1"
  floating_point: true
  fpoint {
    exp: 2
    mant: 5
    rounding: "stochastic"
  }
}
layer {
  name: "ip2"
  type: "InnerProduct"
  bottom: "ip1"
  top: "ip2"
  inner_product_param {
    num_output: 1000
    weight_filler {
      type: "gaussian"
      mean: 0
      std: 1
    }
  }
  bias_param {
    filler {
      value: 0
    }
  }
  floating_point: true
  fpoint {
    exp: 2
    mant: 5
    rounding: "stochastic"
  }
}
layer {
  name: "relu2"
  type: "ReLU"
  bottom: "ip2"
  top: "ip2"
  bias_param {
    filler {
      value: 0
    }
  }
  floating_point: true
  fpoint {
    exp: 2
    mant: 5
    rounding: "stochastic"
  }
}
layer {
  name: "ip3"
  type: "InnerProduct"
  bottom: "ip2"
  top: "ip3"
  inner_product_param {
    num_output: 10
    weight_filler {
      type: "gaussian"
      mean: 0
      std: 1
    }
  }
  bias_param {
    filler {
      value: 0
    }
  }
  floating_point: true
  fpoint {
    exp: 2
    mant: 5
    rounding: "stochastic"
  }
}
layer {
  name: "accuracy"
  type: "Accuracy"
  bottom: "ip3"
  bottom: "label"
  top: "accuracy"
}
layer {
  name: "loss"
  type: "SoftmaxWithLoss"
  bottom: "ip3"
  bottom: "label"
  top: "loss"
  floating_point: true
  fpoint {
    exp: 2
    mant: 5
    rounding: "stochastic"
  }
}
I0502 18:09:54.949369  6202 layer_factory.hpp:77] Creating layer mnist
I0502 18:09:54.967836  6202 db_lmdb.cpp:35] Opened lmdb data/mnist_train_lmdb
I0502 18:09:54.968178  6202 net.cpp:84] Creating Layer mnist
I0502 18:09:54.968212  6202 net.cpp:380] mnist -> data
I0502 18:09:54.968261  6202 net.cpp:380] mnist -> label
I0502 18:09:54.968325  6202 data_layer.cpp:45] output data size: 100,1,28,28
I0502 18:09:54.970054  6202 net.cpp:122] Setting up mnist
I0502 18:09:54.970093  6202 net.cpp:129] Top shape: 100 1 28 28 (78400)
I0502 18:09:54.970108  6202 net.cpp:129] Top shape: 100 (100)
I0502 18:09:54.970118  6202 net.cpp:137] Memory required for data: 628000
I0502 18:09:54.970135  6202 layer_factory.hpp:77] Creating layer label_mnist_1_split
I0502 18:09:54.970156  6202 net.cpp:84] Creating Layer label_mnist_1_split
I0502 18:09:54.970168  6202 net.cpp:406] label_mnist_1_split <- label
I0502 18:09:54.970191  6202 net.cpp:380] label_mnist_1_split -> label_mnist_1_split_0
I0502 18:09:54.970208  6202 net.cpp:380] label_mnist_1_split -> label_mnist_1_split_1
I0502 18:09:54.970227  6202 net.cpp:122] Setting up label_mnist_1_split
I0502 18:09:54.970240  6202 net.cpp:129] Top shape: 100 (100)
I0502 18:09:54.970252  6202 net.cpp:129] Top shape: 100 (100)
I0502 18:09:54.970262  6202 net.cpp:137] Memory required for data: 629600
I0502 18:09:54.970271  6202 layer_factory.hpp:77] Creating layer ip1
I0502 18:09:54.970293  6202 net.cpp:84] Creating Layer ip1
I0502 18:09:54.970305  6202 net.cpp:406] ip1 <- data
I0502 18:09:54.970319  6202 net.cpp:380] ip1 -> ip1
I0502 18:09:54.992941  6202 net.cpp:122] Setting up ip1
I0502 18:09:54.993010  6202 net.cpp:129] Top shape: 100 1000 (100000)
I0502 18:09:54.993022  6202 net.cpp:137] Memory required for data: 1429600
I0502 18:09:54.993050  6202 layer_factory.hpp:77] Creating layer relu1
I0502 18:09:54.993077  6202 net.cpp:84] Creating Layer relu1
I0502 18:09:54.993090  6202 net.cpp:406] relu1 <- ip1
I0502 18:09:54.993106  6202 net.cpp:367] relu1 -> ip1 (in-place)
I0502 18:09:54.993124  6202 net.cpp:122] Setting up relu1
I0502 18:09:54.993137  6202 net.cpp:129] Top shape: 100 1000 (100000)
I0502 18:09:54.993147  6202 net.cpp:137] Memory required for data: 2229600
I0502 18:09:54.993157  6202 layer_factory.hpp:77] Creating layer ip2
I0502 18:09:54.993176  6202 net.cpp:84] Creating Layer ip2
I0502 18:09:54.993187  6202 net.cpp:406] ip2 <- ip1
I0502 18:09:54.993202  6202 net.cpp:380] ip2 -> ip2
I0502 18:09:55.018589  6202 net.cpp:122] Setting up ip2
I0502 18:09:55.018664  6202 net.cpp:129] Top shape: 100 1000 (100000)
I0502 18:09:55.018676  6202 net.cpp:137] Memory required for data: 3029600
I0502 18:09:55.018697  6202 layer_factory.hpp:77] Creating layer relu2
I0502 18:09:55.018720  6202 net.cpp:84] Creating Layer relu2
I0502 18:09:55.018733  6202 net.cpp:406] relu2 <- ip2
I0502 18:09:55.018749  6202 net.cpp:367] relu2 -> ip2 (in-place)
I0502 18:09:55.018774  6202 net.cpp:122] Setting up relu2
I0502 18:09:55.018790  6202 net.cpp:129] Top shape: 100 1000 (100000)
I0502 18:09:55.018838  6202 net.cpp:137] Memory required for data: 3829600
I0502 18:09:55.018851  6202 layer_factory.hpp:77] Creating layer ip3
I0502 18:09:55.018867  6202 net.cpp:84] Creating Layer ip3
I0502 18:09:55.018879  6202 net.cpp:406] ip3 <- ip2
I0502 18:09:55.018894  6202 net.cpp:380] ip3 -> ip3
I0502 18:09:55.019181  6202 net.cpp:122] Setting up ip3
I0502 18:09:55.019202  6202 net.cpp:129] Top shape: 100 10 (1000)
I0502 18:09:55.019213  6202 net.cpp:137] Memory required for data: 3837600
I0502 18:09:55.019230  6202 layer_factory.hpp:77] Creating layer ip3_ip3_0_split
I0502 18:09:55.019246  6202 net.cpp:84] Creating Layer ip3_ip3_0_split
I0502 18:09:55.019258  6202 net.cpp:406] ip3_ip3_0_split <- ip3
I0502 18:09:55.019270  6202 net.cpp:380] ip3_ip3_0_split -> ip3_ip3_0_split_0
I0502 18:09:55.019286  6202 net.cpp:380] ip3_ip3_0_split -> ip3_ip3_0_split_1
I0502 18:09:55.019304  6202 net.cpp:122] Setting up ip3_ip3_0_split
I0502 18:09:55.019318  6202 net.cpp:129] Top shape: 100 10 (1000)
I0502 18:09:55.019330  6202 net.cpp:129] Top shape: 100 10 (1000)
I0502 18:09:55.019340  6202 net.cpp:137] Memory required for data: 3853600
I0502 18:09:55.019351  6202 layer_factory.hpp:77] Creating layer accuracy
I0502 18:09:55.019374  6202 net.cpp:84] Creating Layer accuracy
I0502 18:09:55.019387  6202 net.cpp:406] accuracy <- ip3_ip3_0_split_0
I0502 18:09:55.019399  6202 net.cpp:406] accuracy <- label_mnist_1_split_0
I0502 18:09:55.019412  6202 net.cpp:380] accuracy -> accuracy
…
