…
  layer {
    name: "mnist"
    type: "Data"
    top: "data"
    top: "label"
    include {
      phase: TRAIN
    }
    transform_param {
      scale: 0.00390625
    }
    data_param {
      source: "data/mnist_train_lmdb"
      batch_size: 100
      backend: LMDB
    }
  }
  layer {
    name: "mnist"
    type: "Data"
    top: "data"
    top: "label"
    include {
      phase: TEST
    }
    transform_param {
      scale: 0.00390625
    }
    data_param {
      source: "data/mnist_test_lmdb"
      batch_size: 100
      backend: LMDB
    }
  }
  layer {
    name: "ip1"
    type: "InnerProduct"
    bottom: "data"
    top: "ip1"
    inner_product_param {
      num_output: 1000
      weight_filler {
        type: "gaussian"
        mean: 0
        std: 0.1
      }
    }
    bias_param {
      filler {
        value: 0
      }
    }
    floating_point: true
    fpoint {
      exp: 2
      mant: 5
      rounding: "stochastic"
    }
  }
  layer {
    name: "relu1"
    type: "ReLU"
    bottom: "ip1"
    top: "ip1"
    floating_point: true
    fpoint {
      exp: 2
      mant: 5
      rounding: "stochastic"
    }
  }
  layer {
    name: "ip2"
    type: "InnerProduct"
    bottom: "ip1"
    top: "ip2"
    inner_product_param {
      num_output: 1000
      weight_filler {
        type: "gaussian"
        mean: 0
        std: 0.1
      }
    }
    bias_param {
      filler {
        value: 0
      }
    }
    floating_point: true
    fpoint {
      exp: 2
      mant: 5
      rounding: "stochastic"
    }
  }
  layer {
    name: "relu2"
    type: "ReLU"
    bottom: "ip2"
    top: "ip2"
    bias_param {
      filler {
        value: 0
      }
    }
    floating_point: true
    fpoint {
      exp: 2
      mant: 5
      rounding: "stochastic"
    }
  }
  layer {
    name: "ip3"
    type: "InnerProduct"
    bottom: "ip2"
    top: "ip3"
    inner_product_param {
      num_output: 10
      weight_filler {
        type: "gaussian"
        mean: 0
        std: 0.1
      }
    }
    bias_param {
      filler {
        value: 0
      }
    }
    floating_point: true
    fpoint {
      exp: 2
      mant: 5
      rounding: "stochastic"
    }
  }
  layer {
    name: "accuracy"
    type: "Accuracy"
    bottom: "ip3"
    bottom: "label"
    top: "accuracy"
  }
  layer {
    name: "loss"
    type: "SoftmaxWithLoss"
    bottom: "ip3"
    bottom: "label"
    top: "loss"
    floating_point: true
    fpoint {
      exp: 2
      mant: 5
      rounding: "stochastic"
    }
  }
}
train_state {
  level: 0
  stage: ""
}
floating_point: true
fpoint {
  exp: 2
  mant: 5
  rounding: "stochastic"
}
I0502 20:27:14.954437 15360 solver.cpp:82] Creating training net specified in net_param.
I0502 20:27:14.954504 15360 net.cpp:294] The NetState phase (0) differed from the phase (1) specified by a rule in layer mnist
I0502 20:27:14.954637 15360 net.cpp:51] Initializing net from parameters: 
name: "LeNet"
state {
  phase: TRAIN
  level: 0
  stage: ""
}
layer {
  name: "mnist"
  type: "Data"
  top: "data"
  top: "label"
  include {
    phase: TRAIN
  }
  transform_param {
    scale: 0.00390625
  }
  data_param {
    source: "data/mnist_train_lmdb"
    batch_size: 100
    backend: LMDB
  }
}
layer {
  name: "ip1"
  type: "InnerProduct"
  bottom: "data"
  top: "ip1"
  inner_product_param {
    num_output: 1000
    weight_filler {
      type: "gaussian"
      mean: 0
      std: 0.1
    }
  }
  bias_param {
    filler {
      value: 0
    }
  }
  floating_point: true
  fpoint {
    exp: 2
    mant: 5
    rounding: "stochastic"
  }
}
layer {
  name: "relu1"
  type: "ReLU"
  bottom: "ip1"
  top: "ip1"
  floating_point: true
  fpoint {
    exp: 2
    mant: 5
    rounding: "stochastic"
  }
}
layer {
  name: "ip2"
  type: "InnerProduct"
  bottom: "ip1"
  top: "ip2"
  inner_product_param {
    num_output: 1000
    weight_filler {
      type: "gaussian"
      mean: 0
      std: 0.1
    }
  }
  bias_param {
    filler {
      value: 0
    }
  }
  floating_point: true
  fpoint {
    exp: 2
    mant: 5
    rounding: "stochastic"
  }
}
layer {
  name: "relu2"
  type: "ReLU"
  bottom: "ip2"
  top: "ip2"
  bias_param {
    filler {
      value: 0
    }
  }
  floating_point: true
  fpoint {
    exp: 2
    mant: 5
    rounding: "stochastic"
  }
}
layer {
  name: "ip3"
  type: "InnerProduct"
  bottom: "ip2"
  top: "ip3"
  inner_product_param {
    num_output: 10
    weight_filler {
      type: "gaussian"
      mean: 0
      std: 0.1
    }
  }
  bias_param {
    filler {
      value: 0
    }
  }
  floating_point: true
  fpoint {
    exp: 2
    mant: 5
    rounding: "stochastic"
  }
}
layer {
  name: "accuracy"
  type: "Accuracy"
  bottom: "ip3"
  bottom: "label"
  top: "accuracy"
}
layer {
  name: "loss"
  type: "SoftmaxWithLoss"
  bottom: "ip3"
  bottom: "label"
  top: "loss"
  floating_point: true
  fpoint {
    exp: 2
    mant: 5
    rounding: "stochastic"
  }
}
I0502 20:27:14.955081 15360 layer_factory.hpp:77] Creating layer mnist
I0502 20:27:14.955888 15360 db_lmdb.cpp:35] Opened lmdb data/mnist_train_lmdb
I0502 20:27:14.956142 15360 net.cpp:84] Creating Layer mnist
I0502 20:27:14.956174 15360 net.cpp:380] mnist -> data
I0502 20:27:14.956228 15360 net.cpp:380] mnist -> label
I0502 20:27:14.956292 15360 data_layer.cpp:45] output data size: 100,1,28,28
I0502 20:27:14.958010 15360 net.cpp:122] Setting up mnist
I0502 20:27:14.958057 15360 net.cpp:129] Top shape: 100 1 28 28 (78400)
I0502 20:27:14.958073 15360 net.cpp:129] Top shape: 100 (100)
I0502 20:27:14.958084 15360 net.cpp:137] Memory required for data: 628000
I0502 20:27:14.958101 15360 layer_factory.hpp:77] Creating layer label_mnist_1_split
I0502 20:27:14.958122 15360 net.cpp:84] Creating Layer label_mnist_1_split
I0502 20:27:14.958137 15360 net.cpp:406] label_mnist_1_split <- label
I0502 20:27:14.958158 15360 net.cpp:380] label_mnist_1_split -> label_mnist_1_split_0
I0502 20:27:14.958178 15360 net.cpp:380] label_mnist_1_split -> label_mnist_1_split_1
I0502 20:27:14.958204 15360 net.cpp:122] Setting up label_mnist_1_split
I0502 20:27:14.958220 15360 net.cpp:129] Top shape: 100 (100)
I0502 20:27:14.958231 15360 net.cpp:129] Top shape: 100 (100)
I0502 20:27:14.958241 15360 net.cpp:137] Memory required for data: 629600
I0502 20:27:14.958251 15360 layer_factory.hpp:77] Creating layer ip1
I0502 20:27:14.958272 15360 net.cpp:84] Creating Layer ip1
I0502 20:27:14.958284 15360 net.cpp:406] ip1 <- data
I0502 20:27:14.958298 15360 net.cpp:380] ip1 -> ip1
I0502 20:27:14.980646 15360 net.cpp:122] Setting up ip1
I0502 20:27:14.980721 15360 net.cpp:129] Top shape: 100 1000 (100000)
I0502 20:27:14.980733 15360 net.cpp:137] Memory required for data: 1429600
I0502 20:27:14.980763 15360 layer_factory.hpp:77] Creating layer relu1
I0502 20:27:14.980790 15360 net.cpp:84] Creating Layer relu1
I0502 20:27:14.980804 15360 net.cpp:406] relu1 <- ip1
I0502 20:27:14.980819 15360 net.cpp:367] relu1 -> ip1 (in-place)
I0502 20:27:14.980839 15360 net.cpp:122] Setting up relu1
I0502 20:27:14.980854 15360 net.cpp:129] Top shape: 100 1000 (100000)
I0502 20:27:14.980864 15360 net.cpp:137] Memory required for data: 2229600
I0502 20:27:14.980873 15360 layer_factory.hpp:77] Creating layer ip2
I0502 20:27:14.980893 15360 net.cpp:84] Creating Layer ip2
I0502 20:27:14.980906 15360 net.cpp:406] ip2 <- ip1
I0502 20:27:14.980921 15360 net.cpp:380] ip2 -> ip2
I0502 20:27:15.005980 15360 net.cpp:122] Setting up ip2
I0502 20:27:15.006058 15360 net.cpp:129] Top shape: 100 1000 (100000)
I0502 20:27:15.006069 15360 net.cpp:137] Memory required for data: 3029600
I0502 20:27:15.006093 15360 layer_factory.hpp:77] Creating layer relu2
I0502 20:27:15.006119 15360 net.cpp:84] Creating Layer relu2
I0502 20:27:15.006131 15360 net.cpp:406] relu2 <- ip2
I0502 20:27:15.006148 15360 net.cpp:367] relu2 -> ip2 (in-place)
I0502 20:27:15.006170 15360 net.cpp:122] Setting up relu2
I0502 20:27:15.006183 15360 net.cpp:129] Top shape: 100 1000 (100000)
I0502 20:27:15.006242 15360 net.cpp:137] Memory required for data: 3829600
I0502 20:27:15.006254 15360 layer_factory.hpp:77] Creating layer ip3
I0502 20:27:15.006273 15360 net.cpp:84] Creating Layer ip3
I0502 20:27:15.006283 15360 net.cpp:406] ip3 <- ip2
I0502 20:27:15.006300 15360 net.cpp:380] ip3 -> ip3
I0502 20:27:15.006587 15360 net.cpp:122] Setting up ip3
I0502 20:27:15.006609 15360 net.cpp:129] Top shape: 100 10 (1000)
I0502 20:27:15.006620 15360 net.cpp:137] Memory required for data: 3837600
I0502 20:27:15.006639 15360 layer_factory.hpp:77] Creating layer ip3_ip3_0_split
I0502 20:27:15.006654 15360 net.cpp:84] Creating Layer ip3_ip3_0_split
I0502 20:27:15.006665 15360 net.cpp:406] ip3_ip3_0_split <- ip3
I0502 20:27:15.006678 15360 net.cpp:380] ip3_ip3_0_split -> ip3_ip3_0_split_0
I0502 20:27:15.006695 15360 net.cpp:380] ip3_ip3_0_split -> ip3_ip3_0_split_1
I0502 20:27:15.006713 15360 net.cpp:122] Setting up ip3_ip3_0_split
I0502 20:27:15.006726 15360 net.cpp:129] Top shape: 100 10 (1000)
I0502 20:27:15.006739 15360 net.cpp:129] Top shape: 100 10 (1000)
I0502 20:27:15.006748 15360 net.cpp:137] Memory required for data: 3853600
I0502 20:27:15.006759 15360 layer_factory.hpp:77] Creating layer accuracy
I0502 20:27:15.006784 15360 net.cpp:84] Creating Layer accuracy
I0502 20:27:15.006798 15360 net.cpp:406] accuracy <- ip3_ip3_0_split_0
I0502 20:27:15.006809 15360 net.cpp:406] accuracy <- label_mnist_1_split_0
I0502 20:27:15.006822 15360 net.cpp:380] accuracy -> accuracy
…
