…
  layer {
    name: "mnist"
    type: "Data"
    top: "data"
    top: "label"
    include {
      phase: TRAIN
    }
    transform_param {
      scale: 0.00390625
    }
    data_param {
      source: "data/mnist_train_lmdb"
      batch_size: 100
      backend: LMDB
    }
  }
  layer {
    name: "mnist"
    type: "Data"
    top: "data"
    top: "label"
    include {
      phase: TEST
    }
    transform_param {
      scale: 0.00390625
    }
    data_param {
      source: "data/mnist_test_lmdb"
      batch_size: 100
      backend: LMDB
    }
  }
  layer {
    name: "ip1"
    type: "InnerProduct"
    bottom: "data"
    top: "ip1"
    inner_product_param {
      num_output: 1000
      weight_filler {
        type: "gaussian"
        mean: 0
        std: 0.1
      }
    }
    bias_param {
      filler {
        value: 0
      }
    }
    floating_point: true
    fpoint {
      exp: 2
      mant: 5
      rounding: "stochastic"
    }
  }
  layer {
    name: "relu1"
    type: "ReLU"
    bottom: "ip1"
    top: "ip1"
    floating_point: true
    fpoint {
      exp: 2
      mant: 5
      rounding: "stochastic"
    }
  }
  layer {
    name: "ip2"
    type: "InnerProduct"
    bottom: "ip1"
    top: "ip2"
    inner_product_param {
      num_output: 1000
      weight_filler {
        type: "gaussian"
        mean: 0
        std: 0.1
      }
    }
    bias_param {
      filler {
        value: 0
      }
    }
    floating_point: true
    fpoint {
      exp: 2
      mant: 5
      rounding: "stochastic"
    }
  }
  layer {
    name: "relu2"
    type: "ReLU"
    bottom: "ip2"
    top: "ip2"
    bias_param {
      filler {
        value: 0
      }
    }
    floating_point: true
    fpoint {
      exp: 2
      mant: 5
      rounding: "stochastic"
    }
  }
  layer {
    name: "ip3"
    type: "InnerProduct"
    bottom: "ip2"
    top: "ip3"
    inner_product_param {
      num_output: 10
      weight_filler {
        type: "gaussian"
        mean: 0
        std: 0.1
      }
    }
    bias_param {
      filler {
        value: 0
      }
    }
    floating_point: true
    fpoint {
      exp: 2
      mant: 5
      rounding: "stochastic"
    }
  }
  layer {
    name: "accuracy"
    type: "Accuracy"
    bottom: "ip3"
    bottom: "label"
    top: "accuracy"
  }
  layer {
    name: "loss"
    type: "SoftmaxWithLoss"
    bottom: "ip3"
    bottom: "label"
    top: "loss"
    floating_point: true
    fpoint {
      exp: 2
      mant: 5
      rounding: "stochastic"
    }
  }
}
train_state {
  level: 0
  stage: ""
}
floating_point: true
fpoint {
  exp: 2
  mant: 5
  rounding: "stochastic"
}
I0502 20:27:38.206779 15441 solver.cpp:82] Creating training net specified in net_param.
I0502 20:27:38.206841 15441 net.cpp:294] The NetState phase (0) differed from the phase (1) specified by a rule in layer mnist
I0502 20:27:38.206974 15441 net.cpp:51] Initializing net from parameters: 
name: "LeNet"
state {
  phase: TRAIN
  level: 0
  stage: ""
}
layer {
  name: "mnist"
  type: "Data"
  top: "data"
  top: "label"
  include {
    phase: TRAIN
  }
  transform_param {
    scale: 0.00390625
  }
  data_param {
    source: "data/mnist_train_lmdb"
    batch_size: 100
    backend: LMDB
  }
}
layer {
  name: "ip1"
  type: "InnerProduct"
  bottom: "data"
  top: "ip1"
  inner_product_param {
    num_output: 1000
    weight_filler {
      type: "gaussian"
      mean: 0
      std: 0.1
    }
  }
  bias_param {
    filler {
      value: 0
    }
  }
  floating_point: true
  fpoint {
    exp: 2
    mant: 5
    rounding: "stochastic"
  }
}
layer {
  name: "relu1"
  type: "ReLU"
  bottom: "ip1"
  top: "ip1"
  floating_point: true
  fpoint {
    exp: 2
    mant: 5
    rounding: "stochastic"
  }
}
layer {
  name: "ip2"
  type: "InnerProduct"
  bottom: "ip1"
  top: "ip2"
  inner_product_param {
    num_output: 1000
    weight_filler {
      type: "gaussian"
      mean: 0
      std: 0.1
    }
  }
  bias_param {
    filler {
      value: 0
    }
  }
  floating_point: true
  fpoint {
    exp: 2
    mant: 5
    rounding: "stochastic"
  }
}
layer {
  name: "relu2"
  type: "ReLU"
  bottom: "ip2"
  top: "ip2"
  bias_param {
    filler {
      value: 0
    }
  }
  floating_point: true
  fpoint {
    exp: 2
    mant: 5
    rounding: "stochastic"
  }
}
layer {
  name: "ip3"
  type: "InnerProduct"
  bottom: "ip2"
  top: "ip3"
  inner_product_param {
    num_output: 10
    weight_filler {
      type: "gaussian"
      mean: 0
      std: 0.1
    }
  }
  bias_param {
    filler {
      value: 0
    }
  }
  floating_point: true
  fpoint {
    exp: 2
    mant: 5
    rounding: "stochastic"
  }
}
layer {
  name: "accuracy"
  type: "Accuracy"
  bottom: "ip3"
  bottom: "label"
  top: "accuracy"
}
layer {
  name: "loss"
  type: "SoftmaxWithLoss"
  bottom: "ip3"
  bottom: "label"
  top: "loss"
  floating_point: true
  fpoint {
    exp: 2
    mant: 5
    rounding: "stochastic"
  }
}
I0502 20:27:38.207572 15441 layer_factory.hpp:77] Creating layer mnist
I0502 20:27:38.207764 15441 db_lmdb.cpp:35] Opened lmdb data/mnist_train_lmdb
I0502 20:27:38.208169 15441 net.cpp:84] Creating Layer mnist
I0502 20:27:38.208202 15441 net.cpp:380] mnist -> data
I0502 20:27:38.208256 15441 net.cpp:380] mnist -> label
I0502 20:27:38.208317 15441 data_layer.cpp:45] output data size: 100,1,28,28
I0502 20:27:38.210016 15441 net.cpp:122] Setting up mnist
I0502 20:27:38.210057 15441 net.cpp:129] Top shape: 100 1 28 28 (78400)
I0502 20:27:38.210073 15441 net.cpp:129] Top shape: 100 (100)
I0502 20:27:38.210084 15441 net.cpp:137] Memory required for data: 628000
I0502 20:27:38.210101 15441 layer_factory.hpp:77] Creating layer label_mnist_1_split
I0502 20:27:38.210122 15441 net.cpp:84] Creating Layer label_mnist_1_split
I0502 20:27:38.210136 15441 net.cpp:406] label_mnist_1_split <- label
I0502 20:27:38.210158 15441 net.cpp:380] label_mnist_1_split -> label_mnist_1_split_0
I0502 20:27:38.210177 15441 net.cpp:380] label_mnist_1_split -> label_mnist_1_split_1
I0502 20:27:38.210196 15441 net.cpp:122] Setting up label_mnist_1_split
I0502 20:27:38.210216 15441 net.cpp:129] Top shape: 100 (100)
I0502 20:27:38.210229 15441 net.cpp:129] Top shape: 100 (100)
I0502 20:27:38.210239 15441 net.cpp:137] Memory required for data: 629600
I0502 20:27:38.210249 15441 layer_factory.hpp:77] Creating layer ip1
I0502 20:27:38.210270 15441 net.cpp:84] Creating Layer ip1
I0502 20:27:38.210283 15441 net.cpp:406] ip1 <- data
I0502 20:27:38.210299 15441 net.cpp:380] ip1 -> ip1
I0502 20:27:38.232620 15441 net.cpp:122] Setting up ip1
I0502 20:27:38.232697 15441 net.cpp:129] Top shape: 100 1000 (100000)
I0502 20:27:38.232707 15441 net.cpp:137] Memory required for data: 1429600
I0502 20:27:38.232739 15441 layer_factory.hpp:77] Creating layer relu1
I0502 20:27:38.232769 15441 net.cpp:84] Creating Layer relu1
I0502 20:27:38.232784 15441 net.cpp:406] relu1 <- ip1
I0502 20:27:38.232800 15441 net.cpp:367] relu1 -> ip1 (in-place)
I0502 20:27:38.232820 15441 net.cpp:122] Setting up relu1
I0502 20:27:38.232833 15441 net.cpp:129] Top shape: 100 1000 (100000)
I0502 20:27:38.232843 15441 net.cpp:137] Memory required for data: 2229600
I0502 20:27:38.232853 15441 layer_factory.hpp:77] Creating layer ip2
I0502 20:27:38.232874 15441 net.cpp:84] Creating Layer ip2
I0502 20:27:38.232887 15441 net.cpp:406] ip2 <- ip1
I0502 20:27:38.232902 15441 net.cpp:380] ip2 -> ip2
I0502 20:27:38.258072 15441 net.cpp:122] Setting up ip2
I0502 20:27:38.258152 15441 net.cpp:129] Top shape: 100 1000 (100000)
I0502 20:27:38.258163 15441 net.cpp:137] Memory required for data: 3029600
I0502 20:27:38.258188 15441 layer_factory.hpp:77] Creating layer relu2
I0502 20:27:38.258218 15441 net.cpp:84] Creating Layer relu2
I0502 20:27:38.258231 15441 net.cpp:406] relu2 <- ip2
I0502 20:27:38.258249 15441 net.cpp:367] relu2 -> ip2 (in-place)
I0502 20:27:38.258270 15441 net.cpp:122] Setting up relu2
I0502 20:27:38.258283 15441 net.cpp:129] Top shape: 100 1000 (100000)
I0502 20:27:38.258337 15441 net.cpp:137] Memory required for data: 3829600
I0502 20:27:38.258347 15441 layer_factory.hpp:77] Creating layer ip3
I0502 20:27:38.258365 15441 net.cpp:84] Creating Layer ip3
I0502 20:27:38.258378 15441 net.cpp:406] ip3 <- ip2
I0502 20:27:38.258393 15441 net.cpp:380] ip3 -> ip3
I0502 20:27:38.258680 15441 net.cpp:122] Setting up ip3
I0502 20:27:38.258702 15441 net.cpp:129] Top shape: 100 10 (1000)
I0502 20:27:38.258713 15441 net.cpp:137] Memory required for data: 3837600
I0502 20:27:38.258730 15441 layer_factory.hpp:77] Creating layer ip3_ip3_0_split
I0502 20:27:38.258746 15441 net.cpp:84] Creating Layer ip3_ip3_0_split
I0502 20:27:38.258757 15441 net.cpp:406] ip3_ip3_0_split <- ip3
I0502 20:27:38.258771 15441 net.cpp:380] ip3_ip3_0_split -> ip3_ip3_0_split_0
I0502 20:27:38.258787 15441 net.cpp:380] ip3_ip3_0_split -> ip3_ip3_0_split_1
I0502 20:27:38.258805 15441 net.cpp:122] Setting up ip3_ip3_0_split
I0502 20:27:38.258818 15441 net.cpp:129] Top shape: 100 10 (1000)
I0502 20:27:38.258831 15441 net.cpp:129] Top shape: 100 10 (1000)
I0502 20:27:38.258841 15441 net.cpp:137] Memory required for data: 3853600
I0502 20:27:38.258852 15441 layer_factory.hpp:77] Creating layer accuracy
I0502 20:27:38.258877 15441 net.cpp:84] Creating Layer accuracy
I0502 20:27:38.258889 15441 net.cpp:406] accuracy <- ip3_ip3_0_split_0
I0502 20:27:38.258903 15441 net.cpp:406] accuracy <- label_mnist_1_split_0
I0502 20:27:38.258915 15441 net.cpp:380] accuracy -> accuracy
…
