…
  layer {
    name: "mnist"
    type: "Data"
    top: "data"
    top: "label"
    include {
      phase: TRAIN
    }
    transform_param {
      scale: 0.00390625
    }
    data_param {
      source: "data/mnist_train_lmdb"
      batch_size: 100
      backend: LMDB
    }
  }
  layer {
    name: "mnist"
    type: "Data"
    top: "data"
    top: "label"
    include {
      phase: TEST
    }
    transform_param {
      scale: 0.00390625
    }
    data_param {
      source: "data/mnist_test_lmdb"
      batch_size: 100
      backend: LMDB
    }
  }
  layer {
    name: "ip1"
    type: "InnerProduct"
    bottom: "data"
    top: "ip1"
    inner_product_param {
      num_output: 1000
      weight_filler {
        type: "gaussian"
        mean: 0
        std: 0.1
      }
    }
    bias_param {
      filler {
        value: 0
      }
    }
    floating_point: true
    fpoint {
      exp: 2
      mant: 5
      rounding: "stochastic"
    }
  }
  layer {
    name: "relu1"
    type: "ReLU"
    bottom: "ip1"
    top: "ip1"
    floating_point: true
    fpoint {
      exp: 2
      mant: 5
      rounding: "stochastic"
    }
  }
  layer {
    name: "ip2"
    type: "InnerProduct"
    bottom: "ip1"
    top: "ip2"
    inner_product_param {
      num_output: 1000
      weight_filler {
        type: "gaussian"
        mean: 0
        std: 0.1
      }
    }
    bias_param {
      filler {
        value: 0
      }
    }
    floating_point: true
    fpoint {
      exp: 2
      mant: 5
      rounding: "stochastic"
    }
  }
  layer {
    name: "relu2"
    type: "ReLU"
    bottom: "ip2"
    top: "ip2"
    bias_param {
      filler {
        value: 0
      }
    }
    floating_point: true
    fpoint {
      exp: 2
      mant: 5
      rounding: "stochastic"
    }
  }
  layer {
    name: "ip3"
    type: "InnerProduct"
    bottom: "ip2"
    top: "ip3"
    inner_product_param {
      num_output: 10
      weight_filler {
        type: "gaussian"
        mean: 0
        std: 0.1
      }
    }
    bias_param {
      filler {
        value: 0
      }
    }
    floating_point: true
    fpoint {
      exp: 2
      mant: 5
      rounding: "stochastic"
    }
  }
  layer {
    name: "accuracy"
    type: "Accuracy"
    bottom: "ip3"
    bottom: "label"
    top: "accuracy"
  }
  layer {
    name: "loss"
    type: "SoftmaxWithLoss"
    bottom: "ip3"
    bottom: "label"
    top: "loss"
    floating_point: true
    fpoint {
      exp: 2
      mant: 5
      rounding: "stochastic"
    }
  }
}
train_state {
  level: 0
  stage: ""
}
floating_point: true
fpoint {
  exp: 2
  mant: 5
  rounding: "stochastic"
}
I0502 20:27:51.389138 15467 solver.cpp:82] Creating training net specified in net_param.
I0502 20:27:51.389201 15467 net.cpp:294] The NetState phase (0) differed from the phase (1) specified by a rule in layer mnist
I0502 20:27:51.389338 15467 net.cpp:51] Initializing net from parameters: 
name: "LeNet"
state {
  phase: TRAIN
  level: 0
  stage: ""
}
layer {
  name: "mnist"
  type: "Data"
  top: "data"
  top: "label"
  include {
    phase: TRAIN
  }
  transform_param {
    scale: 0.00390625
  }
  data_param {
    source: "data/mnist_train_lmdb"
    batch_size: 100
    backend: LMDB
  }
}
layer {
  name: "ip1"
  type: "InnerProduct"
  bottom: "data"
  top: "ip1"
  inner_product_param {
    num_output: 1000
    weight_filler {
      type: "gaussian"
      mean: 0
      std: 0.1
    }
  }
  bias_param {
    filler {
      value: 0
    }
  }
  floating_point: true
  fpoint {
    exp: 2
    mant: 5
    rounding: "stochastic"
  }
}
layer {
  name: "relu1"
  type: "ReLU"
  bottom: "ip1"
  top: "ip1"
  floating_point: true
  fpoint {
    exp: 2
    mant: 5
    rounding: "stochastic"
  }
}
layer {
  name: "ip2"
  type: "InnerProduct"
  bottom: "ip1"
  top: "ip2"
  inner_product_param {
    num_output: 1000
    weight_filler {
      type: "gaussian"
      mean: 0
      std: 0.1
    }
  }
  bias_param {
    filler {
      value: 0
    }
  }
  floating_point: true
  fpoint {
    exp: 2
    mant: 5
    rounding: "stochastic"
  }
}
layer {
  name: "relu2"
  type: "ReLU"
  bottom: "ip2"
  top: "ip2"
  bias_param {
    filler {
      value: 0
    }
  }
  floating_point: true
  fpoint {
    exp: 2
    mant: 5
    rounding: "stochastic"
  }
}
layer {
  name: "ip3"
  type: "InnerProduct"
  bottom: "ip2"
  top: "ip3"
  inner_product_param {
    num_output: 10
    weight_filler {
      type: "gaussian"
      mean: 0
      std: 0.1
    }
  }
  bias_param {
    filler {
      value: 0
    }
  }
  floating_point: true
  fpoint {
    exp: 2
    mant: 5
    rounding: "stochastic"
  }
}
layer {
  name: "accuracy"
  type: "Accuracy"
  bottom: "ip3"
  bottom: "label"
  top: "accuracy"
}
layer {
  name: "loss"
  type: "SoftmaxWithLoss"
  bottom: "ip3"
  bottom: "label"
  top: "loss"
  floating_point: true
  fpoint {
    exp: 2
    mant: 5
    rounding: "stochastic"
  }
}
I0502 20:27:51.389945 15467 layer_factory.hpp:77] Creating layer mnist
I0502 20:27:51.390139 15467 db_lmdb.cpp:35] Opened lmdb data/mnist_train_lmdb
I0502 20:27:51.390570 15467 net.cpp:84] Creating Layer mnist
I0502 20:27:51.390601 15467 net.cpp:380] mnist -> data
I0502 20:27:51.390647 15467 net.cpp:380] mnist -> label
I0502 20:27:51.390707 15467 data_layer.cpp:45] output data size: 100,1,28,28
I0502 20:27:51.392412 15467 net.cpp:122] Setting up mnist
I0502 20:27:51.392452 15467 net.cpp:129] Top shape: 100 1 28 28 (78400)
I0502 20:27:51.392469 15467 net.cpp:129] Top shape: 100 (100)
I0502 20:27:51.392479 15467 net.cpp:137] Memory required for data: 628000
I0502 20:27:51.392498 15467 layer_factory.hpp:77] Creating layer label_mnist_1_split
I0502 20:27:51.392518 15467 net.cpp:84] Creating Layer label_mnist_1_split
I0502 20:27:51.392531 15467 net.cpp:406] label_mnist_1_split <- label
I0502 20:27:51.392554 15467 net.cpp:380] label_mnist_1_split -> label_mnist_1_split_0
I0502 20:27:51.392572 15467 net.cpp:380] label_mnist_1_split -> label_mnist_1_split_1
I0502 20:27:51.392591 15467 net.cpp:122] Setting up label_mnist_1_split
I0502 20:27:51.392606 15467 net.cpp:129] Top shape: 100 (100)
I0502 20:27:51.392618 15467 net.cpp:129] Top shape: 100 (100)
I0502 20:27:51.392627 15467 net.cpp:137] Memory required for data: 629600
I0502 20:27:51.392638 15467 layer_factory.hpp:77] Creating layer ip1
I0502 20:27:51.392657 15467 net.cpp:84] Creating Layer ip1
I0502 20:27:51.392670 15467 net.cpp:406] ip1 <- data
I0502 20:27:51.392684 15467 net.cpp:380] ip1 -> ip1
I0502 20:27:51.415118 15467 net.cpp:122] Setting up ip1
I0502 20:27:51.415191 15467 net.cpp:129] Top shape: 100 1000 (100000)
I0502 20:27:51.415204 15467 net.cpp:137] Memory required for data: 1429600
I0502 20:27:51.415237 15467 layer_factory.hpp:77] Creating layer relu1
I0502 20:27:51.415266 15467 net.cpp:84] Creating Layer relu1
I0502 20:27:51.415280 15467 net.cpp:406] relu1 <- ip1
I0502 20:27:51.415295 15467 net.cpp:367] relu1 -> ip1 (in-place)
I0502 20:27:51.415314 15467 net.cpp:122] Setting up relu1
I0502 20:27:51.415328 15467 net.cpp:129] Top shape: 100 1000 (100000)
I0502 20:27:51.415338 15467 net.cpp:137] Memory required for data: 2229600
I0502 20:27:51.415349 15467 layer_factory.hpp:77] Creating layer ip2
I0502 20:27:51.415369 15467 net.cpp:84] Creating Layer ip2
I0502 20:27:51.415380 15467 net.cpp:406] ip2 <- ip1
I0502 20:27:51.415395 15467 net.cpp:380] ip2 -> ip2
I0502 20:27:51.440537 15467 net.cpp:122] Setting up ip2
I0502 20:27:51.440614 15467 net.cpp:129] Top shape: 100 1000 (100000)
I0502 20:27:51.440625 15467 net.cpp:137] Memory required for data: 3029600
I0502 20:27:51.440649 15467 layer_factory.hpp:77] Creating layer relu2
I0502 20:27:51.440675 15467 net.cpp:84] Creating Layer relu2
I0502 20:27:51.440687 15467 net.cpp:406] relu2 <- ip2
I0502 20:27:51.440704 15467 net.cpp:367] relu2 -> ip2 (in-place)
I0502 20:27:51.440724 15467 net.cpp:122] Setting up relu2
I0502 20:27:51.440738 15467 net.cpp:129] Top shape: 100 1000 (100000)
I0502 20:27:51.440789 15467 net.cpp:137] Memory required for data: 3829600
I0502 20:27:51.440801 15467 layer_factory.hpp:77] Creating layer ip3
I0502 20:27:51.440819 15467 net.cpp:84] Creating Layer ip3
I0502 20:27:51.440831 15467 net.cpp:406] ip3 <- ip2
I0502 20:27:51.440846 15467 net.cpp:380] ip3 -> ip3
I0502 20:27:51.441128 15467 net.cpp:122] Setting up ip3
I0502 20:27:51.441149 15467 net.cpp:129] Top shape: 100 10 (1000)
I0502 20:27:51.441160 15467 net.cpp:137] Memory required for data: 3837600
I0502 20:27:51.441179 15467 layer_factory.hpp:77] Creating layer ip3_ip3_0_split
I0502 20:27:51.441195 15467 net.cpp:84] Creating Layer ip3_ip3_0_split
I0502 20:27:51.441205 15467 net.cpp:406] ip3_ip3_0_split <- ip3
I0502 20:27:51.441220 15467 net.cpp:380] ip3_ip3_0_split -> ip3_ip3_0_split_0
I0502 20:27:51.441241 15467 net.cpp:380] ip3_ip3_0_split -> ip3_ip3_0_split_1
I0502 20:27:51.441260 15467 net.cpp:122] Setting up ip3_ip3_0_split
I0502 20:27:51.441275 15467 net.cpp:129] Top shape: 100 10 (1000)
I0502 20:27:51.441287 15467 net.cpp:129] Top shape: 100 10 (1000)
I0502 20:27:51.441298 15467 net.cpp:137] Memory required for data: 3853600
I0502 20:27:51.441308 15467 layer_factory.hpp:77] Creating layer accuracy
I0502 20:27:51.441334 15467 net.cpp:84] Creating Layer accuracy
I0502 20:27:51.441346 15467 net.cpp:406] accuracy <- ip3_ip3_0_split_0
I0502 20:27:51.441359 15467 net.cpp:406] accuracy <- label_mnist_1_split_0
I0502 20:27:51.441372 15467 net.cpp:380] accuracy -> accuracy
…
