…
  layer {
    name: "mnist"
    type: "Data"
    top: "data"
    top: "label"
    include {
      phase: TRAIN
    }
    transform_param {
      scale: 0.00390625
    }
    data_param {
      source: "data/mnist_train_lmdb"
      batch_size: 100
      backend: LMDB
    }
  }
  layer {
    name: "mnist"
    type: "Data"
    top: "data"
    top: "label"
    include {
      phase: TEST
    }
    transform_param {
      scale: 0.00390625
    }
    data_param {
      source: "data/mnist_test_lmdb"
      batch_size: 100
      backend: LMDB
    }
  }
  layer {
    name: "ip1"
    type: "InnerProduct"
    bottom: "data"
    top: "ip1"
    inner_product_param {
      num_output: 1000
      weight_filler {
        type: "gaussian"
        mean: 0
        std: 0.1
      }
    }
    bias_param {
      filler {
        value: 0
      }
    }
    floating_point: true
    fpoint {
      exp: 2
      mant: 5
      rounding: "stochastic"
    }
  }
  layer {
    name: "relu1"
    type: "ReLU"
    bottom: "ip1"
    top: "ip1"
    floating_point: true
    fpoint {
      exp: 2
      mant: 5
      rounding: "stochastic"
    }
  }
  layer {
    name: "ip2"
    type: "InnerProduct"
    bottom: "ip1"
    top: "ip2"
    inner_product_param {
      num_output: 1000
      weight_filler {
        type: "gaussian"
        mean: 0
        std: 0.1
      }
    }
    bias_param {
      filler {
        value: 0
      }
    }
    floating_point: true
    fpoint {
      exp: 2
      mant: 5
      rounding: "stochastic"
    }
  }
  layer {
    name: "relu2"
    type: "ReLU"
    bottom: "ip2"
    top: "ip2"
    bias_param {
      filler {
        value: 0
      }
    }
    floating_point: true
    fpoint {
      exp: 2
      mant: 5
      rounding: "stochastic"
    }
  }
  layer {
    name: "ip3"
    type: "InnerProduct"
    bottom: "ip2"
    top: "ip3"
    inner_product_param {
      num_output: 10
      weight_filler {
        type: "gaussian"
        mean: 0
        std: 0.1
      }
    }
    bias_param {
      filler {
        value: 0
      }
    }
    floating_point: true
    fpoint {
      exp: 2
      mant: 5
      rounding: "stochastic"
    }
  }
  layer {
    name: "accuracy"
    type: "Accuracy"
    bottom: "ip3"
    bottom: "label"
    top: "accuracy"
  }
  layer {
    name: "loss"
    type: "SoftmaxWithLoss"
    bottom: "ip3"
    bottom: "label"
    top: "loss"
    floating_point: true
    fpoint {
      exp: 2
      mant: 5
      rounding: "stochastic"
    }
  }
}
train_state {
  level: 0
  stage: ""
}
floating_point: true
fpoint {
  exp: 2
  mant: 5
  rounding: "stochastic"
}
I0502 20:28:00.710696 25950 solver.cpp:82] Creating training net specified in net_param.
I0502 20:28:00.710841 25950 net.cpp:294] The NetState phase (0) differed from the phase (1) specified by a rule in layer mnist
I0502 20:28:00.711045 25950 net.cpp:51] Initializing net from parameters: 
name: "LeNet"
state {
  phase: TRAIN
  level: 0
  stage: ""
}
layer {
  name: "mnist"
  type: "Data"
  top: "data"
  top: "label"
  include {
    phase: TRAIN
  }
  transform_param {
    scale: 0.00390625
  }
  data_param {
    source: "data/mnist_train_lmdb"
    batch_size: 100
    backend: LMDB
  }
}
layer {
  name: "ip1"
  type: "InnerProduct"
  bottom: "data"
  top: "ip1"
  inner_product_param {
    num_output: 1000
    weight_filler {
      type: "gaussian"
      mean: 0
      std: 0.1
    }
  }
  bias_param {
    filler {
      value: 0
    }
  }
  floating_point: true
  fpoint {
    exp: 2
    mant: 5
    rounding: "stochastic"
  }
}
layer {
  name: "relu1"
  type: "ReLU"
  bottom: "ip1"
  top: "ip1"
  floating_point: true
  fpoint {
    exp: 2
    mant: 5
    rounding: "stochastic"
  }
}
layer {
  name: "ip2"
  type: "InnerProduct"
  bottom: "ip1"
  top: "ip2"
  inner_product_param {
    num_output: 1000
    weight_filler {
      type: "gaussian"
      mean: 0
      std: 0.1
    }
  }
  bias_param {
    filler {
      value: 0
    }
  }
  floating_point: true
  fpoint {
    exp: 2
    mant: 5
    rounding: "stochastic"
  }
}
layer {
  name: "relu2"
  type: "ReLU"
  bottom: "ip2"
  top: "ip2"
  bias_param {
    filler {
      value: 0
    }
  }
  floating_point: true
  fpoint {
    exp: 2
    mant: 5
    rounding: "stochastic"
  }
}
layer {
  name: "ip3"
  type: "InnerProduct"
  bottom: "ip2"
  top: "ip3"
  inner_product_param {
    num_output: 10
    weight_filler {
      type: "gaussian"
      mean: 0
      std: 0.1
    }
  }
  bias_param {
    filler {
      value: 0
    }
  }
  floating_point: true
  fpoint {
    exp: 2
    mant: 5
    rounding: "stochastic"
  }
}
layer {
  name: "accuracy"
  type: "Accuracy"
  bottom: "ip3"
  bottom: "label"
  top: "accuracy"
}
layer {
  name: "loss"
  type: "SoftmaxWithLoss"
  bottom: "ip3"
  bottom: "label"
  top: "loss"
  floating_point: true
  fpoint {
    exp: 2
    mant: 5
    rounding: "stochastic"
  }
}
I0502 20:28:00.711659 25950 layer_factory.hpp:77] Creating layer mnist
I0502 20:28:00.729086 25950 db_lmdb.cpp:35] Opened lmdb data/mnist_train_lmdb
I0502 20:28:00.729653 25950 net.cpp:84] Creating Layer mnist
I0502 20:28:00.729708 25950 net.cpp:380] mnist -> data
I0502 20:28:00.729790 25950 net.cpp:380] mnist -> label
I0502 20:28:00.729954 25950 data_layer.cpp:45] output data size: 100,1,28,28
I0502 20:28:00.731770 25950 net.cpp:122] Setting up mnist
I0502 20:28:00.731833 25950 net.cpp:129] Top shape: 100 1 28 28 (78400)
I0502 20:28:00.731853 25950 net.cpp:129] Top shape: 100 (100)
I0502 20:28:00.731863 25950 net.cpp:137] Memory required for data: 628000
I0502 20:28:00.731881 25950 layer_factory.hpp:77] Creating layer label_mnist_1_split
I0502 20:28:00.731914 25950 net.cpp:84] Creating Layer label_mnist_1_split
I0502 20:28:00.731930 25950 net.cpp:406] label_mnist_1_split <- label
I0502 20:28:00.731951 25950 net.cpp:380] label_mnist_1_split -> label_mnist_1_split_0
I0502 20:28:00.731969 25950 net.cpp:380] label_mnist_1_split -> label_mnist_1_split_1
I0502 20:28:00.731987 25950 net.cpp:122] Setting up label_mnist_1_split
I0502 20:28:00.732002 25950 net.cpp:129] Top shape: 100 (100)
I0502 20:28:00.732013 25950 net.cpp:129] Top shape: 100 (100)
I0502 20:28:00.732023 25950 net.cpp:137] Memory required for data: 629600
I0502 20:28:00.732033 25950 layer_factory.hpp:77] Creating layer ip1
I0502 20:28:00.732074 25950 net.cpp:84] Creating Layer ip1
I0502 20:28:00.732090 25950 net.cpp:406] ip1 <- data
I0502 20:28:00.732105 25950 net.cpp:380] ip1 -> ip1
I0502 20:28:00.755352 25950 net.cpp:122] Setting up ip1
I0502 20:28:00.755412 25950 net.cpp:129] Top shape: 100 1000 (100000)
I0502 20:28:00.755424 25950 net.cpp:137] Memory required for data: 1429600
I0502 20:28:00.755465 25950 layer_factory.hpp:77] Creating layer relu1
I0502 20:28:00.755519 25950 net.cpp:84] Creating Layer relu1
I0502 20:28:00.755535 25950 net.cpp:406] relu1 <- ip1
I0502 20:28:00.755551 25950 net.cpp:367] relu1 -> ip1 (in-place)
I0502 20:28:00.755569 25950 net.cpp:122] Setting up relu1
I0502 20:28:00.755584 25950 net.cpp:129] Top shape: 100 1000 (100000)
I0502 20:28:00.755592 25950 net.cpp:137] Memory required for data: 2229600
I0502 20:28:00.755602 25950 layer_factory.hpp:77] Creating layer ip2
I0502 20:28:00.755622 25950 net.cpp:84] Creating Layer ip2
I0502 20:28:00.755633 25950 net.cpp:406] ip2 <- ip1
I0502 20:28:00.755647 25950 net.cpp:380] ip2 -> ip2
I0502 20:28:00.780463 25950 net.cpp:122] Setting up ip2
I0502 20:28:00.780545 25950 net.cpp:129] Top shape: 100 1000 (100000)
I0502 20:28:00.780556 25950 net.cpp:137] Memory required for data: 3029600
I0502 20:28:00.780580 25950 layer_factory.hpp:77] Creating layer relu2
I0502 20:28:00.780604 25950 net.cpp:84] Creating Layer relu2
I0502 20:28:00.780616 25950 net.cpp:406] relu2 <- ip2
I0502 20:28:00.780632 25950 net.cpp:367] relu2 -> ip2 (in-place)
I0502 20:28:00.780652 25950 net.cpp:122] Setting up relu2
I0502 20:28:00.780665 25950 net.cpp:129] Top shape: 100 1000 (100000)
I0502 20:28:00.780715 25950 net.cpp:137] Memory required for data: 3829600
I0502 20:28:00.780726 25950 layer_factory.hpp:77] Creating layer ip3
I0502 20:28:00.780743 25950 net.cpp:84] Creating Layer ip3
I0502 20:28:00.780755 25950 net.cpp:406] ip3 <- ip2
I0502 20:28:00.780769 25950 net.cpp:380] ip3 -> ip3
I0502 20:28:00.781054 25950 net.cpp:122] Setting up ip3
I0502 20:28:00.781077 25950 net.cpp:129] Top shape: 100 10 (1000)
I0502 20:28:00.781087 25950 net.cpp:137] Memory required for data: 3837600
I0502 20:28:00.781105 25950 layer_factory.hpp:77] Creating layer ip3_ip3_0_split
I0502 20:28:00.781121 25950 net.cpp:84] Creating Layer ip3_ip3_0_split
I0502 20:28:00.781131 25950 net.cpp:406] ip3_ip3_0_split <- ip3
I0502 20:28:00.781144 25950 net.cpp:380] ip3_ip3_0_split -> ip3_ip3_0_split_0
I0502 20:28:00.781159 25950 net.cpp:380] ip3_ip3_0_split -> ip3_ip3_0_split_1
I0502 20:28:00.781177 25950 net.cpp:122] Setting up ip3_ip3_0_split
I0502 20:28:00.781190 25950 net.cpp:129] Top shape: 100 10 (1000)
I0502 20:28:00.781203 25950 net.cpp:129] Top shape: 100 10 (1000)
I0502 20:28:00.781213 25950 net.cpp:137] Memory required for data: 3853600
I0502 20:28:00.781222 25950 layer_factory.hpp:77] Creating layer accuracy
I0502 20:28:00.781281 25950 net.cpp:84] Creating Layer accuracy
I0502 20:28:00.781297 25950 net.cpp:406] accuracy <- ip3_ip3_0_split_0
I0502 20:28:00.781309 25950 net.cpp:406] accuracy <- label_mnist_1_split_0
I0502 20:28:00.781322 25950 net.cpp:380] accuracy -> accuracy
…
