…
  layer {
    name: "mnist"
    type: "Data"
    top: "data"
    top: "label"
    include {
      phase: TRAIN
    }
    transform_param {
      scale: 0.00390625
    }
    data_param {
      source: "data/mnist_train_lmdb"
      batch_size: 100
      backend: LMDB
    }
  }
  layer {
    name: "mnist"
    type: "Data"
    top: "data"
    top: "label"
    include {
      phase: TEST
    }
    transform_param {
      scale: 0.00390625
    }
    data_param {
      source: "data/mnist_test_lmdb"
      batch_size: 100
      backend: LMDB
    }
  }
  layer {
    name: "ip1"
    type: "InnerProduct"
    bottom: "data"
    top: "ip1"
    inner_product_param {
      num_output: 1000
      weight_filler {
        type: "gaussian"
        mean: 0
        std: 0.1
      }
    }
    bias_param {
      filler {
        value: 0
      }
    }
    floating_point: true
    fpoint {
      exp: 2
      mant: 5
      rounding: "stochastic"
    }
  }
  layer {
    name: "relu1"
    type: "ReLU"
    bottom: "ip1"
    top: "ip1"
    floating_point: true
    fpoint {
      exp: 2
      mant: 5
      rounding: "stochastic"
    }
  }
  layer {
    name: "ip2"
    type: "InnerProduct"
    bottom: "ip1"
    top: "ip2"
    inner_product_param {
      num_output: 1000
      weight_filler {
        type: "gaussian"
        mean: 0
        std: 0.1
      }
    }
    bias_param {
      filler {
        value: 0
      }
    }
    floating_point: true
    fpoint {
      exp: 2
      mant: 5
      rounding: "stochastic"
    }
  }
  layer {
    name: "relu2"
    type: "ReLU"
    bottom: "ip2"
    top: "ip2"
    bias_param {
      filler {
        value: 0
      }
    }
    floating_point: true
    fpoint {
      exp: 2
      mant: 5
      rounding: "stochastic"
    }
  }
  layer {
    name: "ip3"
    type: "InnerProduct"
    bottom: "ip2"
    top: "ip3"
    inner_product_param {
      num_output: 10
      weight_filler {
        type: "gaussian"
        mean: 0
        std: 0.1
      }
    }
    bias_param {
      filler {
        value: 0
      }
    }
    floating_point: true
    fpoint {
      exp: 2
      mant: 5
      rounding: "stochastic"
    }
  }
  layer {
    name: "accuracy"
    type: "Accuracy"
    bottom: "ip3"
    bottom: "label"
    top: "accuracy"
  }
  layer {
    name: "loss"
    type: "SoftmaxWithLoss"
    bottom: "ip3"
    bottom: "label"
    top: "loss"
    floating_point: true
    fpoint {
      exp: 2
      mant: 5
      rounding: "stochastic"
    }
  }
}
train_state {
  level: 0
  stage: ""
}
floating_point: true
fpoint {
  exp: 2
  mant: 5
  rounding: "stochastic"
}
I0502 20:20:35.619730 14513 solver.cpp:82] Creating training net specified in net_param.
I0502 20:20:35.619887 14513 net.cpp:294] The NetState phase (0) differed from the phase (1) specified by a rule in layer mnist
I0502 20:20:35.620052 14513 net.cpp:51] Initializing net from parameters: 
name: "LeNet"
state {
  phase: TRAIN
  level: 0
  stage: ""
}
layer {
  name: "mnist"
  type: "Data"
  top: "data"
  top: "label"
  include {
    phase: TRAIN
  }
  transform_param {
    scale: 0.00390625
  }
  data_param {
    source: "data/mnist_train_lmdb"
    batch_size: 100
    backend: LMDB
  }
}
layer {
  name: "ip1"
  type: "InnerProduct"
  bottom: "data"
  top: "ip1"
  inner_product_param {
    num_output: 1000
    weight_filler {
      type: "gaussian"
      mean: 0
      std: 0.1
    }
  }
  bias_param {
    filler {
      value: 0
    }
  }
  floating_point: true
  fpoint {
    exp: 2
    mant: 5
    rounding: "stochastic"
  }
}
layer {
  name: "relu1"
  type: "ReLU"
  bottom: "ip1"
  top: "ip1"
  floating_point: true
  fpoint {
    exp: 2
    mant: 5
    rounding: "stochastic"
  }
}
layer {
  name: "ip2"
  type: "InnerProduct"
  bottom: "ip1"
  top: "ip2"
  inner_product_param {
    num_output: 1000
    weight_filler {
      type: "gaussian"
      mean: 0
      std: 0.1
    }
  }
  bias_param {
    filler {
      value: 0
    }
  }
  floating_point: true
  fpoint {
    exp: 2
    mant: 5
    rounding: "stochastic"
  }
}
layer {
  name: "relu2"
  type: "ReLU"
  bottom: "ip2"
  top: "ip2"
  bias_param {
    filler {
      value: 0
    }
  }
  floating_point: true
  fpoint {
    exp: 2
    mant: 5
    rounding: "stochastic"
  }
}
layer {
  name: "ip3"
  type: "InnerProduct"
  bottom: "ip2"
  top: "ip3"
  inner_product_param {
    num_output: 10
    weight_filler {
      type: "gaussian"
      mean: 0
      std: 0.1
    }
  }
  bias_param {
    filler {
      value: 0
    }
  }
  floating_point: true
  fpoint {
    exp: 2
    mant: 5
    rounding: "stochastic"
  }
}
layer {
  name: "accuracy"
  type: "Accuracy"
  bottom: "ip3"
  bottom: "label"
  top: "accuracy"
}
layer {
  name: "loss"
  type: "SoftmaxWithLoss"
  bottom: "ip3"
  bottom: "label"
  top: "loss"
  floating_point: true
  fpoint {
    exp: 2
    mant: 5
    rounding: "stochastic"
  }
}
I0502 20:20:35.620733 14513 layer_factory.hpp:77] Creating layer mnist
I0502 20:20:35.622361 14513 db_lmdb.cpp:35] Opened lmdb data/mnist_train_lmdb
I0502 20:20:35.622751 14513 net.cpp:84] Creating Layer mnist
I0502 20:20:35.622800 14513 net.cpp:380] mnist -> data
I0502 20:20:35.622885 14513 net.cpp:380] mnist -> label
I0502 20:20:35.623042 14513 data_layer.cpp:45] output data size: 100,1,28,28
I0502 20:20:35.624884 14513 net.cpp:122] Setting up mnist
I0502 20:20:35.624949 14513 net.cpp:129] Top shape: 100 1 28 28 (78400)
I0502 20:20:35.624969 14513 net.cpp:129] Top shape: 100 (100)
I0502 20:20:35.624979 14513 net.cpp:137] Memory required for data: 628000
I0502 20:20:35.624997 14513 layer_factory.hpp:77] Creating layer label_mnist_1_split
I0502 20:20:35.625030 14513 net.cpp:84] Creating Layer label_mnist_1_split
I0502 20:20:35.625047 14513 net.cpp:406] label_mnist_1_split <- label
I0502 20:20:35.625068 14513 net.cpp:380] label_mnist_1_split -> label_mnist_1_split_0
I0502 20:20:35.625088 14513 net.cpp:380] label_mnist_1_split -> label_mnist_1_split_1
I0502 20:20:35.625108 14513 net.cpp:122] Setting up label_mnist_1_split
I0502 20:20:35.625123 14513 net.cpp:129] Top shape: 100 (100)
I0502 20:20:35.625135 14513 net.cpp:129] Top shape: 100 (100)
I0502 20:20:35.625145 14513 net.cpp:137] Memory required for data: 629600
I0502 20:20:35.625155 14513 layer_factory.hpp:77] Creating layer ip1
I0502 20:20:35.625267 14513 net.cpp:84] Creating Layer ip1
I0502 20:20:35.625286 14513 net.cpp:406] ip1 <- data
I0502 20:20:35.625303 14513 net.cpp:380] ip1 -> ip1
I0502 20:20:35.649744 14513 net.cpp:122] Setting up ip1
I0502 20:20:35.649804 14513 net.cpp:129] Top shape: 100 1000 (100000)
I0502 20:20:35.649816 14513 net.cpp:137] Memory required for data: 1429600
I0502 20:20:35.649860 14513 layer_factory.hpp:77] Creating layer relu1
I0502 20:20:35.649910 14513 net.cpp:84] Creating Layer relu1
I0502 20:20:35.649927 14513 net.cpp:406] relu1 <- ip1
I0502 20:20:35.649943 14513 net.cpp:367] relu1 -> ip1 (in-place)
I0502 20:20:35.649965 14513 net.cpp:122] Setting up relu1
I0502 20:20:35.649977 14513 net.cpp:129] Top shape: 100 1000 (100000)
I0502 20:20:35.649988 14513 net.cpp:137] Memory required for data: 2229600
I0502 20:20:35.649998 14513 layer_factory.hpp:77] Creating layer ip2
I0502 20:20:35.650019 14513 net.cpp:84] Creating Layer ip2
I0502 20:20:35.650032 14513 net.cpp:406] ip2 <- ip1
I0502 20:20:35.650046 14513 net.cpp:380] ip2 -> ip2
I0502 20:20:35.675714 14513 net.cpp:122] Setting up ip2
I0502 20:20:35.675783 14513 net.cpp:129] Top shape: 100 1000 (100000)
I0502 20:20:35.675794 14513 net.cpp:137] Memory required for data: 3029600
I0502 20:20:35.675817 14513 layer_factory.hpp:77] Creating layer relu2
I0502 20:20:35.675842 14513 net.cpp:84] Creating Layer relu2
I0502 20:20:35.675854 14513 net.cpp:406] relu2 <- ip2
I0502 20:20:35.675870 14513 net.cpp:367] relu2 -> ip2 (in-place)
I0502 20:20:35.675891 14513 net.cpp:122] Setting up relu2
I0502 20:20:35.675905 14513 net.cpp:129] Top shape: 100 1000 (100000)
I0502 20:20:35.675954 14513 net.cpp:137] Memory required for data: 3829600
I0502 20:20:35.675967 14513 layer_factory.hpp:77] Creating layer ip3
I0502 20:20:35.675984 14513 net.cpp:84] Creating Layer ip3
I0502 20:20:35.675997 14513 net.cpp:406] ip3 <- ip2
I0502 20:20:35.676012 14513 net.cpp:380] ip3 -> ip3
I0502 20:20:35.676308 14513 net.cpp:122] Setting up ip3
I0502 20:20:35.676331 14513 net.cpp:129] Top shape: 100 10 (1000)
I0502 20:20:35.676342 14513 net.cpp:137] Memory required for data: 3837600
I0502 20:20:35.676360 14513 layer_factory.hpp:77] Creating layer ip3_ip3_0_split
I0502 20:20:35.676376 14513 net.cpp:84] Creating Layer ip3_ip3_0_split
I0502 20:20:35.676388 14513 net.cpp:406] ip3_ip3_0_split <- ip3
I0502 20:20:35.676401 14513 net.cpp:380] ip3_ip3_0_split -> ip3_ip3_0_split_0
I0502 20:20:35.676419 14513 net.cpp:380] ip3_ip3_0_split -> ip3_ip3_0_split_1
I0502 20:20:35.676436 14513 net.cpp:122] Setting up ip3_ip3_0_split
I0502 20:20:35.676450 14513 net.cpp:129] Top shape: 100 10 (1000)
I0502 20:20:35.676463 14513 net.cpp:129] Top shape: 100 10 (1000)
I0502 20:20:35.676473 14513 net.cpp:137] Memory required for data: 3853600
I0502 20:20:35.676484 14513 layer_factory.hpp:77] Creating layer accuracy
I0502 20:20:35.676542 14513 net.cpp:84] Creating Layer accuracy
I0502 20:20:35.676558 14513 net.cpp:406] accuracy <- ip3_ip3_0_split_0
I0502 20:20:35.676571 14513 net.cpp:406] accuracy <- label_mnist_1_split_0
I0502 20:20:35.676584 14513 net.cpp:380] accuracy -> accuracy
…
