…
  layer {
    name: "mnist"
    type: "Data"
    top: "data"
    top: "label"
    include {
      phase: TRAIN
    }
    transform_param {
      scale: 0.00390625
    }
    data_param {
      source: "data/mnist_train_lmdb"
      batch_size: 100
      backend: LMDB
    }
  }
  layer {
    name: "mnist"
    type: "Data"
    top: "data"
    top: "label"
    include {
      phase: TEST
    }
    transform_param {
      scale: 0.00390625
    }
    data_param {
      source: "data/mnist_test_lmdb"
      batch_size: 100
      backend: LMDB
    }
  }
  layer {
    name: "ip1"
    type: "InnerProduct"
    bottom: "data"
    top: "ip1"
    inner_product_param {
      num_output: 1000
      weight_filler {
        type: "gaussian"
        mean: 0
        std: 0.01
      }
    }
    bias_param {
      filler {
        value: 0
      }
    }
    fixed_precision: true
    precision {
      enter: 0
      fraccio: 11
      rounding: "stochastic"
    }
  }
  layer {
    name: "relu1"
    type: "ReLU"
    bottom: "ip1"
    top: "ip1"
    fixed_precision: true
    precision {
      enter: 0
      fraccio: 11
      rounding: "stochastic"
    }
  }
  layer {
    name: "ip2"
    type: "InnerProduct"
    bottom: "ip1"
    top: "ip2"
    inner_product_param {
      num_output: 1000
      weight_filler {
        type: "gaussian"
        mean: 0
        std: 0.01
      }
    }
    bias_param {
      filler {
        value: 0
      }
    }
    fixed_precision: true
    precision {
      enter: 0
      fraccio: 11
      rounding: "stochastic"
    }
  }
  layer {
    name: "relu2"
    type: "ReLU"
    bottom: "ip2"
    top: "ip2"
    bias_param {
      filler {
        value: 0
      }
    }
    fixed_precision: true
    precision {
      enter: 0
      fraccio: 11
      rounding: "stochastic"
    }
  }
  layer {
    name: "ip3"
    type: "InnerProduct"
    bottom: "ip2"
    top: "ip3"
    inner_product_param {
      num_output: 10
      weight_filler {
        type: "gaussian"
        mean: 0
        std: 0.01
      }
    }
    bias_param {
      filler {
        value: 0
      }
    }
    fixed_precision: true
    precision {
      enter: 0
      fraccio: 11
      rounding: "stochastic"
    }
  }
  layer {
    name: "accuracy"
    type: "Accuracy"
    bottom: "ip3"
    bottom: "label"
    top: "accuracy"
  }
  layer {
    name: "loss"
    type: "SoftmaxWithLoss"
    bottom: "ip3"
    bottom: "label"
    top: "loss"
    fixed_precision: true
    precision {
      enter: 0
      fraccio: 11
      rounding: "stochastic"
    }
  }
}
train_state {
  level: 0
  stage: ""
}
fixed_precision: true
precision {
  enter: 0
  fraccio: 11
  rounding: "stochastic"
}
I0405 13:56:21.258100  3793 solver.cpp:82] Creating training net specified in net_param.
I0405 13:56:21.258160  3793 net.cpp:294] The NetState phase (0) differed from the phase (1) specified by a rule in layer mnist
I0405 13:56:21.258311  3793 net.cpp:51] Initializing net from parameters: 
name: "LeNet"
state {
  phase: TRAIN
  level: 0
  stage: ""
}
layer {
  name: "mnist"
  type: "Data"
  top: "data"
  top: "label"
  include {
    phase: TRAIN
  }
  transform_param {
    scale: 0.00390625
  }
  data_param {
    source: "data/mnist_train_lmdb"
    batch_size: 100
    backend: LMDB
  }
}
layer {
  name: "ip1"
  type: "InnerProduct"
  bottom: "data"
  top: "ip1"
  inner_product_param {
    num_output: 1000
    weight_filler {
      type: "gaussian"
      mean: 0
      std: 0.01
    }
  }
  bias_param {
    filler {
      value: 0
    }
  }
  fixed_precision: true
  precision {
    enter: 0
    fraccio: 11
    rounding: "stochastic"
  }
}
layer {
  name: "relu1"
  type: "ReLU"
  bottom: "ip1"
  top: "ip1"
  fixed_precision: true
  precision {
    enter: 0
    fraccio: 11
    rounding: "stochastic"
  }
}
layer {
  name: "ip2"
  type: "InnerProduct"
  bottom: "ip1"
  top: "ip2"
  inner_product_param {
    num_output: 1000
    weight_filler {
      type: "gaussian"
      mean: 0
      std: 0.01
    }
  }
  bias_param {
    filler {
      value: 0
    }
  }
  fixed_precision: true
  precision {
    enter: 0
    fraccio: 11
    rounding: "stochastic"
  }
}
layer {
  name: "relu2"
  type: "ReLU"
  bottom: "ip2"
  top: "ip2"
  bias_param {
    filler {
      value: 0
    }
  }
  fixed_precision: true
  precision {
    enter: 0
    fraccio: 11
    rounding: "stochastic"
  }
}
layer {
  name: "ip3"
  type: "InnerProduct"
  bottom: "ip2"
  top: "ip3"
  inner_product_param {
    num_output: 10
    weight_filler {
      type: "gaussian"
      mean: 0
      std: 0.01
    }
  }
  bias_param {
    filler {
      value: 0
    }
  }
  fixed_precision: true
  precision {
    enter: 0
    fraccio: 11
    rounding: "stochastic"
  }
}
layer {
  name: "accuracy"
  type: "Accuracy"
  bottom: "ip3"
  bottom: "label"
  top: "accuracy"
}
layer {
  name: "loss"
  type: "SoftmaxWithLoss"
  bottom: "ip3"
  bottom: "label"
  top: "loss"
  fixed_precision: true
  precision {
    enter: 0
    fraccio: 11
    rounding: "stochastic"
  }
}
I0405 13:56:21.258420  3793 layer_factory.hpp:77] Creating layer mnist
I0405 13:56:21.258529  3793 db_lmdb.cpp:35] Opened lmdb data/mnist_train_lmdb
I0405 13:56:21.258556  3793 net.cpp:84] Creating Layer mnist
I0405 13:56:21.258568  3793 net.cpp:380] mnist -> data
I0405 13:56:21.258594  3793 net.cpp:380] mnist -> label
I0405 13:56:21.258627  3793 data_layer.cpp:45] output data size: 100,1,28,28
I0405 13:56:21.260092  3793 net.cpp:122] Setting up mnist
I0405 13:56:21.260115  3793 net.cpp:129] Top shape: 100 1 28 28 (78400)
I0405 13:56:21.260125  3793 net.cpp:129] Top shape: 100 (100)
I0405 13:56:21.260131  3793 net.cpp:137] Memory required for data: 628000
I0405 13:56:21.260141  3793 layer_factory.hpp:77] Creating layer label_mnist_1_split
I0405 13:56:21.260156  3793 net.cpp:84] Creating Layer label_mnist_1_split
I0405 13:56:21.260164  3793 net.cpp:406] label_mnist_1_split <- label
I0405 13:56:21.260176  3793 net.cpp:380] label_mnist_1_split -> label_mnist_1_split_0
I0405 13:56:21.260186  3793 net.cpp:380] label_mnist_1_split -> label_mnist_1_split_1
I0405 13:56:21.260197  3793 net.cpp:122] Setting up label_mnist_1_split
I0405 13:56:21.260205  3793 net.cpp:129] Top shape: 100 (100)
I0405 13:56:21.260212  3793 net.cpp:129] Top shape: 100 (100)
I0405 13:56:21.260218  3793 net.cpp:137] Memory required for data: 629600
I0405 13:56:21.260226  3793 layer_factory.hpp:77] Creating layer ip1
I0405 13:56:21.260239  3793 net.cpp:84] Creating Layer ip1
I0405 13:56:21.260246  3793 net.cpp:406] ip1 <- data
I0405 13:56:21.260254  3793 net.cpp:380] ip1 -> ip1
I0405 13:56:21.364145  3793 net.cpp:122] Setting up ip1
I0405 13:56:21.364189  3793 net.cpp:129] Top shape: 100 1000 (100000)
I0405 13:56:21.364198  3793 net.cpp:137] Memory required for data: 1429600
I0405 13:56:21.364223  3793 layer_factory.hpp:77] Creating layer relu1
I0405 13:56:21.364239  3793 net.cpp:84] Creating Layer relu1
I0405 13:56:21.364249  3793 net.cpp:406] relu1 <- ip1
I0405 13:56:21.364260  3793 net.cpp:367] relu1 -> ip1 (in-place)
I0405 13:56:21.364279  3793 net.cpp:122] Setting up relu1
I0405 13:56:21.364289  3793 net.cpp:129] Top shape: 100 1000 (100000)
I0405 13:56:21.364296  3793 net.cpp:137] Memory required for data: 2229600
I0405 13:56:21.364303  3793 layer_factory.hpp:77] Creating layer ip2
I0405 13:56:21.364317  3793 net.cpp:84] Creating Layer ip2
I0405 13:56:21.364325  3793 net.cpp:406] ip2 <- ip1
I0405 13:56:21.364334  3793 net.cpp:380] ip2 -> ip2
I0405 13:56:21.460556  3793 net.cpp:122] Setting up ip2
I0405 13:56:21.460605  3793 net.cpp:129] Top shape: 100 1000 (100000)
I0405 13:56:21.460611  3793 net.cpp:137] Memory required for data: 3029600
I0405 13:56:21.460624  3793 layer_factory.hpp:77] Creating layer relu2
I0405 13:56:21.460638  3793 net.cpp:84] Creating Layer relu2
I0405 13:56:21.460644  3793 net.cpp:406] relu2 <- ip2
I0405 13:56:21.460650  3793 net.cpp:367] relu2 -> ip2 (in-place)
I0405 13:56:21.460672  3793 net.cpp:122] Setting up relu2
I0405 13:56:21.460688  3793 net.cpp:129] Top shape: 100 1000 (100000)
I0405 13:56:21.460693  3793 net.cpp:137] Memory required for data: 3829600
I0405 13:56:21.460697  3793 layer_factory.hpp:77] Creating layer ip3
I0405 13:56:21.460705  3793 net.cpp:84] Creating Layer ip3
I0405 13:56:21.460708  3793 net.cpp:406] ip3 <- ip2
I0405 13:56:21.460714  3793 net.cpp:380] ip3 -> ip3
I0405 13:56:21.461673  3793 net.cpp:122] Setting up ip3
I0405 13:56:21.461684  3793 net.cpp:129] Top shape: 100 10 (1000)
I0405 13:56:21.461688  3793 net.cpp:137] Memory required for data: 3837600
I0405 13:56:21.461696  3793 layer_factory.hpp:77] Creating layer ip3_ip3_0_split
I0405 13:56:21.461704  3793 net.cpp:84] Creating Layer ip3_ip3_0_split
I0405 13:56:21.461709  3793 net.cpp:406] ip3_ip3_0_split <- ip3
I0405 13:56:21.461714  3793 net.cpp:380] ip3_ip3_0_split -> ip3_ip3_0_split_0
I0405 13:56:21.461720  3793 net.cpp:380] ip3_ip3_0_split -> ip3_ip3_0_split_1
I0405 13:56:21.461727  3793 net.cpp:122] Setting up ip3_ip3_0_split
I0405 13:56:21.461732  3793 net.cpp:129] Top shape: 100 10 (1000)
I0405 13:56:21.461736  3793 net.cpp:129] Top shape: 100 10 (1000)
I0405 13:56:21.461740  3793 net.cpp:137] Memory required for data: 3853600
I0405 13:56:21.461743  3793 layer_factory.hpp:77] Creating layer accuracy
I0405 13:56:21.461750  3793 net.cpp:84] Creating Layer accuracy
I0405 13:56:21.461753  3793 net.cpp:406] accuracy <- ip3_ip3_0_split_0
I0405 13:56:21.461758  3793 net.cpp:406] accuracy <- label_mnist_1_split_0
I0405 13:56:21.461765  3793 net.cpp:380] accuracy -> accuracy
…
