…
  layer {
    name: "mnist"
    type: "Data"
    top: "data"
    top: "label"
    include {
      phase: TRAIN
    }
    transform_param {
      scale: 0.00390625
    }
    data_param {
      source: "data/mnist_train_lmdb"
      batch_size: 100
      backend: LMDB
    }
  }
  layer {
    name: "mnist"
    type: "Data"
    top: "data"
    top: "label"
    include {
      phase: TEST
    }
    transform_param {
      scale: 0.00390625
    }
    data_param {
      source: "data/mnist_test_lmdb"
      batch_size: 100
      backend: LMDB
    }
  }
  layer {
    name: "ip1"
    type: "InnerProduct"
    bottom: "data"
    top: "ip1"
    inner_product_param {
      num_output: 1000
      weight_filler {
        type: "gaussian"
        mean: 0
        std: 0.01
      }
    }
    bias_param {
      filler {
        value: 0
      }
    }
    fixed_precision: true
    precision {
      enter: 1
      fraccio: 10
      rounding: "stochastic"
    }
  }
  layer {
    name: "relu1"
    type: "ReLU"
    bottom: "ip1"
    top: "ip1"
    fixed_precision: true
    precision {
      enter: 1
      fraccio: 10
      rounding: "stochastic"
    }
  }
  layer {
    name: "ip2"
    type: "InnerProduct"
    bottom: "ip1"
    top: "ip2"
    inner_product_param {
      num_output: 1000
      weight_filler {
        type: "gaussian"
        mean: 0
        std: 0.01
      }
    }
    bias_param {
      filler {
        value: 0
      }
    }
    fixed_precision: true
    precision {
      enter: 1
      fraccio: 10
      rounding: "stochastic"
    }
  }
  layer {
    name: "relu2"
    type: "ReLU"
    bottom: "ip2"
    top: "ip2"
    bias_param {
      filler {
        value: 0
      }
    }
    fixed_precision: true
    precision {
      enter: 1
      fraccio: 10
      rounding: "stochastic"
    }
  }
  layer {
    name: "ip3"
    type: "InnerProduct"
    bottom: "ip2"
    top: "ip3"
    inner_product_param {
      num_output: 10
      weight_filler {
        type: "gaussian"
        mean: 0
        std: 0.01
      }
    }
    bias_param {
      filler {
        value: 0
      }
    }
    fixed_precision: true
    precision {
      enter: 1
      fraccio: 10
      rounding: "stochastic"
    }
  }
  layer {
    name: "accuracy"
    type: "Accuracy"
    bottom: "ip3"
    bottom: "label"
    top: "accuracy"
  }
  layer {
    name: "loss"
    type: "SoftmaxWithLoss"
    bottom: "ip3"
    bottom: "label"
    top: "loss"
    fixed_precision: true
    precision {
      enter: 1
      fraccio: 10
      rounding: "stochastic"
    }
  }
}
train_state {
  level: 0
  stage: ""
}
fixed_precision: true
precision {
  enter: 1
  fraccio: 10
  rounding: "stochastic"
}
I0406 01:14:47.635746 10874 solver.cpp:82] Creating training net specified in net_param.
I0406 01:14:47.635802 10874 net.cpp:294] The NetState phase (0) differed from the phase (1) specified by a rule in layer mnist
I0406 01:14:47.635969 10874 net.cpp:51] Initializing net from parameters: 
name: "LeNet"
state {
  phase: TRAIN
  level: 0
  stage: ""
}
layer {
  name: "mnist"
  type: "Data"
  top: "data"
  top: "label"
  include {
    phase: TRAIN
  }
  transform_param {
    scale: 0.00390625
  }
  data_param {
    source: "data/mnist_train_lmdb"
    batch_size: 100
    backend: LMDB
  }
}
layer {
  name: "ip1"
  type: "InnerProduct"
  bottom: "data"
  top: "ip1"
  inner_product_param {
    num_output: 1000
    weight_filler {
      type: "gaussian"
      mean: 0
      std: 0.01
    }
  }
  bias_param {
    filler {
      value: 0
    }
  }
  fixed_precision: true
  precision {
    enter: 1
    fraccio: 10
    rounding: "stochastic"
  }
}
layer {
  name: "relu1"
  type: "ReLU"
  bottom: "ip1"
  top: "ip1"
  fixed_precision: true
  precision {
    enter: 1
    fraccio: 10
    rounding: "stochastic"
  }
}
layer {
  name: "ip2"
  type: "InnerProduct"
  bottom: "ip1"
  top: "ip2"
  inner_product_param {
    num_output: 1000
    weight_filler {
      type: "gaussian"
      mean: 0
      std: 0.01
    }
  }
  bias_param {
    filler {
      value: 0
    }
  }
  fixed_precision: true
  precision {
    enter: 1
    fraccio: 10
    rounding: "stochastic"
  }
}
layer {
  name: "relu2"
  type: "ReLU"
  bottom: "ip2"
  top: "ip2"
  bias_param {
    filler {
      value: 0
    }
  }
  fixed_precision: true
  precision {
    enter: 1
    fraccio: 10
    rounding: "stochastic"
  }
}
layer {
  name: "ip3"
  type: "InnerProduct"
  bottom: "ip2"
  top: "ip3"
  inner_product_param {
    num_output: 10
    weight_filler {
      type: "gaussian"
      mean: 0
      std: 0.01
    }
  }
  bias_param {
    filler {
      value: 0
    }
  }
  fixed_precision: true
  precision {
    enter: 1
    fraccio: 10
    rounding: "stochastic"
  }
}
layer {
  name: "accuracy"
  type: "Accuracy"
  bottom: "ip3"
  bottom: "label"
  top: "accuracy"
}
layer {
  name: "loss"
  type: "SoftmaxWithLoss"
  bottom: "ip3"
  bottom: "label"
  top: "loss"
  fixed_precision: true
  precision {
    enter: 1
    fraccio: 10
    rounding: "stochastic"
  }
}
I0406 01:14:47.636097 10874 layer_factory.hpp:77] Creating layer mnist
I0406 01:14:47.636217 10874 db_lmdb.cpp:35] Opened lmdb data/mnist_train_lmdb
I0406 01:14:47.636247 10874 net.cpp:84] Creating Layer mnist
I0406 01:14:47.636260 10874 net.cpp:380] mnist -> data
I0406 01:14:47.636288 10874 net.cpp:380] mnist -> label
I0406 01:14:47.636327 10874 data_layer.cpp:45] output data size: 100,1,28,28
I0406 01:14:47.638072 10874 net.cpp:122] Setting up mnist
I0406 01:14:47.638094 10874 net.cpp:129] Top shape: 100 1 28 28 (78400)
I0406 01:14:47.638105 10874 net.cpp:129] Top shape: 100 (100)
I0406 01:14:47.638113 10874 net.cpp:137] Memory required for data: 628000
I0406 01:14:47.638124 10874 layer_factory.hpp:77] Creating layer label_mnist_1_split
I0406 01:14:47.638140 10874 net.cpp:84] Creating Layer label_mnist_1_split
I0406 01:14:47.638149 10874 net.cpp:406] label_mnist_1_split <- label
I0406 01:14:47.638162 10874 net.cpp:380] label_mnist_1_split -> label_mnist_1_split_0
I0406 01:14:47.638175 10874 net.cpp:380] label_mnist_1_split -> label_mnist_1_split_1
I0406 01:14:47.638190 10874 net.cpp:122] Setting up label_mnist_1_split
I0406 01:14:47.638200 10874 net.cpp:129] Top shape: 100 (100)
I0406 01:14:47.638207 10874 net.cpp:129] Top shape: 100 (100)
I0406 01:14:47.638214 10874 net.cpp:137] Memory required for data: 629600
I0406 01:14:47.638221 10874 layer_factory.hpp:77] Creating layer ip1
I0406 01:14:47.638237 10874 net.cpp:84] Creating Layer ip1
I0406 01:14:47.638244 10874 net.cpp:406] ip1 <- data
I0406 01:14:47.638254 10874 net.cpp:380] ip1 -> ip1
I0406 01:14:47.752004 10874 net.cpp:122] Setting up ip1
I0406 01:14:47.752044 10874 net.cpp:129] Top shape: 100 1000 (100000)
I0406 01:14:47.752056 10874 net.cpp:137] Memory required for data: 1429600
I0406 01:14:47.752085 10874 layer_factory.hpp:77] Creating layer relu1
I0406 01:14:47.752107 10874 net.cpp:84] Creating Layer relu1
I0406 01:14:47.752120 10874 net.cpp:406] relu1 <- ip1
I0406 01:14:47.752133 10874 net.cpp:367] relu1 -> ip1 (in-place)
I0406 01:14:47.752158 10874 net.cpp:122] Setting up relu1
I0406 01:14:47.752171 10874 net.cpp:129] Top shape: 100 1000 (100000)
I0406 01:14:47.752177 10874 net.cpp:137] Memory required for data: 2229600
I0406 01:14:47.752185 10874 layer_factory.hpp:77] Creating layer ip2
I0406 01:14:47.752202 10874 net.cpp:84] Creating Layer ip2
I0406 01:14:47.752210 10874 net.cpp:406] ip2 <- ip1
I0406 01:14:47.752221 10874 net.cpp:380] ip2 -> ip2
I0406 01:14:47.854385 10874 net.cpp:122] Setting up ip2
I0406 01:14:47.854426 10874 net.cpp:129] Top shape: 100 1000 (100000)
I0406 01:14:47.854435 10874 net.cpp:137] Memory required for data: 3029600
I0406 01:14:47.854456 10874 layer_factory.hpp:77] Creating layer relu2
I0406 01:14:47.854480 10874 net.cpp:84] Creating Layer relu2
I0406 01:14:47.854490 10874 net.cpp:406] relu2 <- ip2
I0406 01:14:47.854502 10874 net.cpp:367] relu2 -> ip2 (in-place)
I0406 01:14:47.854526 10874 net.cpp:122] Setting up relu2
I0406 01:14:47.854547 10874 net.cpp:129] Top shape: 100 1000 (100000)
I0406 01:14:47.854553 10874 net.cpp:137] Memory required for data: 3829600
I0406 01:14:47.854559 10874 layer_factory.hpp:77] Creating layer ip3
I0406 01:14:47.854571 10874 net.cpp:84] Creating Layer ip3
I0406 01:14:47.854579 10874 net.cpp:406] ip3 <- ip2
I0406 01:14:47.854588 10874 net.cpp:380] ip3 -> ip3
I0406 01:14:47.855521 10874 net.cpp:122] Setting up ip3
I0406 01:14:47.855533 10874 net.cpp:129] Top shape: 100 10 (1000)
I0406 01:14:47.855540 10874 net.cpp:137] Memory required for data: 3837600
I0406 01:14:47.855553 10874 layer_factory.hpp:77] Creating layer ip3_ip3_0_split
I0406 01:14:47.855563 10874 net.cpp:84] Creating Layer ip3_ip3_0_split
I0406 01:14:47.855571 10874 net.cpp:406] ip3_ip3_0_split <- ip3
I0406 01:14:47.855581 10874 net.cpp:380] ip3_ip3_0_split -> ip3_ip3_0_split_0
I0406 01:14:47.855592 10874 net.cpp:380] ip3_ip3_0_split -> ip3_ip3_0_split_1
I0406 01:14:47.855607 10874 net.cpp:122] Setting up ip3_ip3_0_split
I0406 01:14:47.855617 10874 net.cpp:129] Top shape: 100 10 (1000)
I0406 01:14:47.855624 10874 net.cpp:129] Top shape: 100 10 (1000)
I0406 01:14:47.855630 10874 net.cpp:137] Memory required for data: 3853600
I0406 01:14:47.855638 10874 layer_factory.hpp:77] Creating layer accuracy
I0406 01:14:47.855650 10874 net.cpp:84] Creating Layer accuracy
I0406 01:14:47.855656 10874 net.cpp:406] accuracy <- ip3_ip3_0_split_0
I0406 01:14:47.855664 10874 net.cpp:406] accuracy <- label_mnist_1_split_0
I0406 01:14:47.855674 10874 net.cpp:380] accuracy -> accuracy
…
