…
  layer {
    name: "mnist"
    type: "Data"
    top: "data"
    top: "label"
    include {
      phase: TRAIN
    }
    transform_param {
      scale: 0.00390625
    }
    data_param {
      source: "data/mnist_train_lmdb"
      batch_size: 100
      backend: LMDB
    }
  }
  layer {
    name: "mnist"
    type: "Data"
    top: "data"
    top: "label"
    include {
      phase: TEST
    }
    transform_param {
      scale: 0.00390625
    }
    data_param {
      source: "data/mnist_test_lmdb"
      batch_size: 100
      backend: LMDB
    }
  }
  layer {
    name: "ip1"
    type: "InnerProduct"
    bottom: "data"
    top: "ip1"
    inner_product_param {
      num_output: 1000
      weight_filler {
        type: "gaussian"
        mean: 0
        std: 0.01
      }
    }
    bias_param {
      filler {
        value: 0
      }
    }
    fixed_precision: true
    precision {
      enter: 2
      fraccio: 9
      rounding: "stochastic"
    }
  }
  layer {
    name: "relu1"
    type: "ReLU"
    bottom: "ip1"
    top: "ip1"
    fixed_precision: true
    precision {
      enter: 2
      fraccio: 9
      rounding: "stochastic"
    }
  }
  layer {
    name: "ip2"
    type: "InnerProduct"
    bottom: "ip1"
    top: "ip2"
    inner_product_param {
      num_output: 1000
      weight_filler {
        type: "gaussian"
        mean: 0
        std: 0.01
      }
    }
    bias_param {
      filler {
        value: 0
      }
    }
    fixed_precision: true
    precision {
      enter: 2
      fraccio: 9
      rounding: "stochastic"
    }
  }
  layer {
    name: "relu2"
    type: "ReLU"
    bottom: "ip2"
    top: "ip2"
    bias_param {
      filler {
        value: 0
      }
    }
    fixed_precision: true
    precision {
      enter: 2
      fraccio: 9
      rounding: "stochastic"
    }
  }
  layer {
    name: "ip3"
    type: "InnerProduct"
    bottom: "ip2"
    top: "ip3"
    inner_product_param {
      num_output: 10
      weight_filler {
        type: "gaussian"
        mean: 0
        std: 0.01
      }
    }
    bias_param {
      filler {
        value: 0
      }
    }
    fixed_precision: true
    precision {
      enter: 2
      fraccio: 9
      rounding: "stochastic"
    }
  }
  layer {
    name: "accuracy"
    type: "Accuracy"
    bottom: "ip3"
    bottom: "label"
    top: "accuracy"
  }
  layer {
    name: "loss"
    type: "SoftmaxWithLoss"
    bottom: "ip3"
    bottom: "label"
    top: "loss"
    fixed_precision: true
    precision {
      enter: 2
      fraccio: 9
      rounding: "stochastic"
    }
  }
}
train_state {
  level: 0
  stage: ""
}
fixed_precision: true
precision {
  enter: 2
  fraccio: 9
  rounding: "stochastic"
}
I0405 18:17:45.389359 21683 solver.cpp:82] Creating training net specified in net_param.
I0405 18:17:45.389415 21683 net.cpp:294] The NetState phase (0) differed from the phase (1) specified by a rule in layer mnist
I0405 18:17:45.389576 21683 net.cpp:51] Initializing net from parameters: 
name: "LeNet"
state {
  phase: TRAIN
  level: 0
  stage: ""
}
layer {
  name: "mnist"
  type: "Data"
  top: "data"
  top: "label"
  include {
    phase: TRAIN
  }
  transform_param {
    scale: 0.00390625
  }
  data_param {
    source: "data/mnist_train_lmdb"
    batch_size: 100
    backend: LMDB
  }
}
layer {
  name: "ip1"
  type: "InnerProduct"
  bottom: "data"
  top: "ip1"
  inner_product_param {
    num_output: 1000
    weight_filler {
      type: "gaussian"
      mean: 0
      std: 0.01
    }
  }
  bias_param {
    filler {
      value: 0
    }
  }
  fixed_precision: true
  precision {
    enter: 2
    fraccio: 9
    rounding: "stochastic"
  }
}
layer {
  name: "relu1"
  type: "ReLU"
  bottom: "ip1"
  top: "ip1"
  fixed_precision: true
  precision {
    enter: 2
    fraccio: 9
    rounding: "stochastic"
  }
}
layer {
  name: "ip2"
  type: "InnerProduct"
  bottom: "ip1"
  top: "ip2"
  inner_product_param {
    num_output: 1000
    weight_filler {
      type: "gaussian"
      mean: 0
      std: 0.01
    }
  }
  bias_param {
    filler {
      value: 0
    }
  }
  fixed_precision: true
  precision {
    enter: 2
    fraccio: 9
    rounding: "stochastic"
  }
}
layer {
  name: "relu2"
  type: "ReLU"
  bottom: "ip2"
  top: "ip2"
  bias_param {
    filler {
      value: 0
    }
  }
  fixed_precision: true
  precision {
    enter: 2
    fraccio: 9
    rounding: "stochastic"
  }
}
layer {
  name: "ip3"
  type: "InnerProduct"
  bottom: "ip2"
  top: "ip3"
  inner_product_param {
    num_output: 10
    weight_filler {
      type: "gaussian"
      mean: 0
      std: 0.01
    }
  }
  bias_param {
    filler {
      value: 0
    }
  }
  fixed_precision: true
  precision {
    enter: 2
    fraccio: 9
    rounding: "stochastic"
  }
}
layer {
  name: "accuracy"
  type: "Accuracy"
  bottom: "ip3"
  bottom: "label"
  top: "accuracy"
}
layer {
  name: "loss"
  type: "SoftmaxWithLoss"
  bottom: "ip3"
  bottom: "label"
  top: "loss"
  fixed_precision: true
  precision {
    enter: 2
    fraccio: 9
    rounding: "stochastic"
  }
}
I0405 18:17:45.389698 21683 layer_factory.hpp:77] Creating layer mnist
I0405 18:17:45.389809 21683 db_lmdb.cpp:35] Opened lmdb data/mnist_train_lmdb
I0405 18:17:45.389838 21683 net.cpp:84] Creating Layer mnist
I0405 18:17:45.389849 21683 net.cpp:380] mnist -> data
I0405 18:17:45.389878 21683 net.cpp:380] mnist -> label
I0405 18:17:45.389912 21683 data_layer.cpp:45] output data size: 100,1,28,28
I0405 18:17:45.391619 21683 net.cpp:122] Setting up mnist
I0405 18:17:45.391644 21683 net.cpp:129] Top shape: 100 1 28 28 (78400)
I0405 18:17:45.391654 21683 net.cpp:129] Top shape: 100 (100)
I0405 18:17:45.391661 21683 net.cpp:137] Memory required for data: 628000
I0405 18:17:45.391672 21683 layer_factory.hpp:77] Creating layer label_mnist_1_split
I0405 18:17:45.391690 21683 net.cpp:84] Creating Layer label_mnist_1_split
I0405 18:17:45.391700 21683 net.cpp:406] label_mnist_1_split <- label
I0405 18:17:45.391713 21683 net.cpp:380] label_mnist_1_split -> label_mnist_1_split_0
I0405 18:17:45.391726 21683 net.cpp:380] label_mnist_1_split -> label_mnist_1_split_1
I0405 18:17:45.391739 21683 net.cpp:122] Setting up label_mnist_1_split
I0405 18:17:45.391748 21683 net.cpp:129] Top shape: 100 (100)
I0405 18:17:45.391757 21683 net.cpp:129] Top shape: 100 (100)
I0405 18:17:45.391763 21683 net.cpp:137] Memory required for data: 629600
I0405 18:17:45.391770 21683 layer_factory.hpp:77] Creating layer ip1
I0405 18:17:45.391786 21683 net.cpp:84] Creating Layer ip1
I0405 18:17:45.391793 21683 net.cpp:406] ip1 <- data
I0405 18:17:45.391803 21683 net.cpp:380] ip1 -> ip1
I0405 18:17:45.508692 21683 net.cpp:122] Setting up ip1
I0405 18:17:45.508738 21683 net.cpp:129] Top shape: 100 1000 (100000)
I0405 18:17:45.508751 21683 net.cpp:137] Memory required for data: 1429600
I0405 18:17:45.508780 21683 layer_factory.hpp:77] Creating layer relu1
I0405 18:17:45.508800 21683 net.cpp:84] Creating Layer relu1
I0405 18:17:45.508815 21683 net.cpp:406] relu1 <- ip1
I0405 18:17:45.508828 21683 net.cpp:367] relu1 -> ip1 (in-place)
I0405 18:17:45.508853 21683 net.cpp:122] Setting up relu1
I0405 18:17:45.508863 21683 net.cpp:129] Top shape: 100 1000 (100000)
I0405 18:17:45.508872 21683 net.cpp:137] Memory required for data: 2229600
I0405 18:17:45.508882 21683 layer_factory.hpp:77] Creating layer ip2
I0405 18:17:45.508898 21683 net.cpp:84] Creating Layer ip2
I0405 18:17:45.508905 21683 net.cpp:406] ip2 <- ip1
I0405 18:17:45.508918 21683 net.cpp:380] ip2 -> ip2
I0405 18:17:45.606927 21683 net.cpp:122] Setting up ip2
I0405 18:17:45.606958 21683 net.cpp:129] Top shape: 100 1000 (100000)
I0405 18:17:45.606966 21683 net.cpp:137] Memory required for data: 3029600
I0405 18:17:45.606984 21683 layer_factory.hpp:77] Creating layer relu2
I0405 18:17:45.607002 21683 net.cpp:84] Creating Layer relu2
I0405 18:17:45.607012 21683 net.cpp:406] relu2 <- ip2
I0405 18:17:45.607024 21683 net.cpp:367] relu2 -> ip2 (in-place)
I0405 18:17:45.607046 21683 net.cpp:122] Setting up relu2
I0405 18:17:45.607064 21683 net.cpp:129] Top shape: 100 1000 (100000)
I0405 18:17:45.607071 21683 net.cpp:137] Memory required for data: 3829600
I0405 18:17:45.607079 21683 layer_factory.hpp:77] Creating layer ip3
I0405 18:17:45.607090 21683 net.cpp:84] Creating Layer ip3
I0405 18:17:45.607097 21683 net.cpp:406] ip3 <- ip2
I0405 18:17:45.607106 21683 net.cpp:380] ip3 -> ip3
I0405 18:17:45.608052 21683 net.cpp:122] Setting up ip3
I0405 18:17:45.608062 21683 net.cpp:129] Top shape: 100 10 (1000)
I0405 18:17:45.608069 21683 net.cpp:137] Memory required for data: 3837600
I0405 18:17:45.608083 21683 layer_factory.hpp:77] Creating layer ip3_ip3_0_split
I0405 18:17:45.608093 21683 net.cpp:84] Creating Layer ip3_ip3_0_split
I0405 18:17:45.608100 21683 net.cpp:406] ip3_ip3_0_split <- ip3
I0405 18:17:45.608109 21683 net.cpp:380] ip3_ip3_0_split -> ip3_ip3_0_split_0
I0405 18:17:45.608121 21683 net.cpp:380] ip3_ip3_0_split -> ip3_ip3_0_split_1
I0405 18:17:45.608135 21683 net.cpp:122] Setting up ip3_ip3_0_split
I0405 18:17:45.608144 21683 net.cpp:129] Top shape: 100 10 (1000)
I0405 18:17:45.608153 21683 net.cpp:129] Top shape: 100 10 (1000)
I0405 18:17:45.608161 21683 net.cpp:137] Memory required for data: 3853600
I0405 18:17:45.608167 21683 layer_factory.hpp:77] Creating layer accuracy
I0405 18:17:45.608180 21683 net.cpp:84] Creating Layer accuracy
I0405 18:17:45.608186 21683 net.cpp:406] accuracy <- ip3_ip3_0_split_0
I0405 18:17:45.608193 21683 net.cpp:406] accuracy <- label_mnist_1_split_0
I0405 18:17:45.608206 21683 net.cpp:380] accuracy -> accuracy
…
