…
  layer {
    name: "mnist"
    type: "Data"
    top: "data"
    top: "label"
    include {
      phase: TRAIN
    }
    transform_param {
      scale: 0.00390625
    }
    data_param {
      source: "data/mnist_train_lmdb"
      batch_size: 100
      backend: LMDB
    }
  }
  layer {
    name: "mnist"
    type: "Data"
    top: "data"
    top: "label"
    include {
      phase: TEST
    }
    transform_param {
      scale: 0.00390625
    }
    data_param {
      source: "data/mnist_test_lmdb"
      batch_size: 100
      backend: LMDB
    }
  }
  layer {
    name: "ip1"
    type: "InnerProduct"
    bottom: "data"
    top: "ip1"
    inner_product_param {
      num_output: 1000
      weight_filler {
        type: "gaussian"
        mean: 0
        std: 0.01
      }
    }
    bias_param {
      filler {
        value: 0
      }
    }
    fixed_precision: true
    precision {
      enter: 6
      fraccio: 10
      rounding: "nearest"
    }
  }
  layer {
    name: "relu1"
    type: "ReLU"
    bottom: "ip1"
    top: "ip1"
    fixed_precision: true
    precision {
      enter: 6
      fraccio: 10
      rounding: "nearest"
    }
  }
  layer {
    name: "ip2"
    type: "InnerProduct"
    bottom: "ip1"
    top: "ip2"
    inner_product_param {
      num_output: 1000
      weight_filler {
        type: "gaussian"
        mean: 0
        std: 0.01
      }
    }
    bias_param {
      filler {
        value: 0
      }
    }
    fixed_precision: true
    precision {
      enter: 6
      fraccio: 10
      rounding: "nearest"
    }
  }
  layer {
    name: "relu2"
    type: "ReLU"
    bottom: "ip2"
    top: "ip2"
    bias_param {
      filler {
        value: 0
      }
    }
    fixed_precision: true
    precision {
      enter: 6
      fraccio: 10
      rounding: "nearest"
    }
  }
  layer {
    name: "ip3"
    type: "InnerProduct"
    bottom: "ip2"
    top: "ip3"
    inner_product_param {
      num_output: 10
      weight_filler {
        type: "gaussian"
        mean: 0
        std: 0.01
      }
    }
    bias_param {
      filler {
        value: 0
      }
    }
    fixed_precision: true
    precision {
      enter: 6
      fraccio: 10
      rounding: "nearest"
    }
  }
  layer {
    name: "accuracy"
    type: "Accuracy"
    bottom: "ip3"
    bottom: "label"
    top: "accuracy"
  }
  layer {
    name: "loss"
    type: "SoftmaxWithLoss"
    bottom: "ip3"
    bottom: "label"
    top: "loss"
    fixed_precision: true
    precision {
      enter: 6
      fraccio: 10
      rounding: "nearest"
    }
  }
}
train_state {
  level: 0
  stage: ""
}
fixed_precision: true
precision {
  enter: 6
  fraccio: 10
  rounding: "nearest"
}
I0331 10:05:10.451288  6388 solver.cpp:82] Creating training net specified in net_param.
I0331 10:05:10.451355  6388 net.cpp:294] The NetState phase (0) differed from the phase (1) specified by a rule in layer mnist
I0331 10:05:10.451536  6388 net.cpp:51] Initializing net from parameters: 
name: "LeNet"
state {
  phase: TRAIN
  level: 0
  stage: ""
}
layer {
  name: "mnist"
  type: "Data"
  top: "data"
  top: "label"
  include {
    phase: TRAIN
  }
  transform_param {
    scale: 0.00390625
  }
  data_param {
    source: "data/mnist_train_lmdb"
    batch_size: 100
    backend: LMDB
  }
}
layer {
  name: "ip1"
  type: "InnerProduct"
  bottom: "data"
  top: "ip1"
  inner_product_param {
    num_output: 1000
    weight_filler {
      type: "gaussian"
      mean: 0
      std: 0.01
    }
  }
  bias_param {
    filler {
      value: 0
    }
  }
  fixed_precision: true
  precision {
    enter: 6
    fraccio: 10
    rounding: "nearest"
  }
}
layer {
  name: "relu1"
  type: "ReLU"
  bottom: "ip1"
  top: "ip1"
  fixed_precision: true
  precision {
    enter: 6
    fraccio: 10
    rounding: "nearest"
  }
}
layer {
  name: "ip2"
  type: "InnerProduct"
  bottom: "ip1"
  top: "ip2"
  inner_product_param {
    num_output: 1000
    weight_filler {
      type: "gaussian"
      mean: 0
      std: 0.01
    }
  }
  bias_param {
    filler {
      value: 0
    }
  }
  fixed_precision: true
  precision {
    enter: 6
    fraccio: 10
    rounding: "nearest"
  }
}
layer {
  name: "relu2"
  type: "ReLU"
  bottom: "ip2"
  top: "ip2"
  bias_param {
    filler {
      value: 0
    }
  }
  fixed_precision: true
  precision {
    enter: 6
    fraccio: 10
    rounding: "nearest"
  }
}
layer {
  name: "ip3"
  type: "InnerProduct"
  bottom: "ip2"
  top: "ip3"
  inner_product_param {
    num_output: 10
    weight_filler {
      type: "gaussian"
      mean: 0
      std: 0.01
    }
  }
  bias_param {
    filler {
      value: 0
    }
  }
  fixed_precision: true
  precision {
    enter: 6
    fraccio: 10
    rounding: "nearest"
  }
}
layer {
  name: "accuracy"
  type: "Accuracy"
  bottom: "ip3"
  bottom: "label"
  top: "accuracy"
}
layer {
  name: "loss"
  type: "SoftmaxWithLoss"
  bottom: "ip3"
  bottom: "label"
  top: "loss"
  fixed_precision: true
  precision {
    enter: 6
    fraccio: 10
    rounding: "nearest"
  }
}
I0331 10:05:10.451675  6388 layer_factory.hpp:77] Creating layer mnist
I0331 10:05:10.451804  6388 db_lmdb.cpp:35] Opened lmdb data/mnist_train_lmdb
I0331 10:05:10.451839  6388 net.cpp:84] Creating Layer mnist
I0331 10:05:10.451856  6388 net.cpp:380] mnist -> data
I0331 10:05:10.451890  6388 net.cpp:380] mnist -> label
I0331 10:05:10.451934  6388 data_layer.cpp:45] output data size: 100,1,28,28
I0331 10:05:10.453794  6388 net.cpp:122] Setting up mnist
I0331 10:05:10.453826  6388 net.cpp:129] Top shape: 100 1 28 28 (78400)
I0331 10:05:10.453838  6388 net.cpp:129] Top shape: 100 (100)
I0331 10:05:10.453847  6388 net.cpp:137] Memory required for data: 628000
I0331 10:05:10.453861  6388 layer_factory.hpp:77] Creating layer label_mnist_1_split
I0331 10:05:10.453884  6388 net.cpp:84] Creating Layer label_mnist_1_split
I0331 10:05:10.453896  6388 net.cpp:406] label_mnist_1_split <- label
I0331 10:05:10.453913  6388 net.cpp:380] label_mnist_1_split -> label_mnist_1_split_0
I0331 10:05:10.453930  6388 net.cpp:380] label_mnist_1_split -> label_mnist_1_split_1
I0331 10:05:10.453948  6388 net.cpp:122] Setting up label_mnist_1_split
I0331 10:05:10.453958  6388 net.cpp:129] Top shape: 100 (100)
I0331 10:05:10.453968  6388 net.cpp:129] Top shape: 100 (100)
I0331 10:05:10.453974  6388 net.cpp:137] Memory required for data: 629600
I0331 10:05:10.453982  6388 layer_factory.hpp:77] Creating layer ip1
I0331 10:05:10.454000  6388 net.cpp:84] Creating Layer ip1
I0331 10:05:10.454010  6388 net.cpp:406] ip1 <- data
I0331 10:05:10.454020  6388 net.cpp:380] ip1 -> ip1
I0331 10:05:10.580785  6388 net.cpp:122] Setting up ip1
I0331 10:05:10.580829  6388 net.cpp:129] Top shape: 100 1000 (100000)
I0331 10:05:10.580838  6388 net.cpp:137] Memory required for data: 1429600
I0331 10:05:10.580858  6388 layer_factory.hpp:77] Creating layer relu1
I0331 10:05:10.580873  6388 net.cpp:84] Creating Layer relu1
I0331 10:05:10.580881  6388 net.cpp:406] relu1 <- ip1
I0331 10:05:10.580889  6388 net.cpp:367] relu1 -> ip1 (in-place)
I0331 10:05:10.580909  6388 net.cpp:122] Setting up relu1
I0331 10:05:10.580919  6388 net.cpp:129] Top shape: 100 1000 (100000)
I0331 10:05:10.580924  6388 net.cpp:137] Memory required for data: 2229600
I0331 10:05:10.580929  6388 layer_factory.hpp:77] Creating layer ip2
I0331 10:05:10.580938  6388 net.cpp:84] Creating Layer ip2
I0331 10:05:10.580945  6388 net.cpp:406] ip2 <- ip1
I0331 10:05:10.580952  6388 net.cpp:380] ip2 -> ip2
I0331 10:05:10.661366  6388 net.cpp:122] Setting up ip2
I0331 10:05:10.661396  6388 net.cpp:129] Top shape: 100 1000 (100000)
I0331 10:05:10.661404  6388 net.cpp:137] Memory required for data: 3029600
I0331 10:05:10.661418  6388 layer_factory.hpp:77] Creating layer relu2
I0331 10:05:10.661432  6388 net.cpp:84] Creating Layer relu2
I0331 10:05:10.661440  6388 net.cpp:406] relu2 <- ip2
I0331 10:05:10.661448  6388 net.cpp:367] relu2 -> ip2 (in-place)
I0331 10:05:10.661470  6388 net.cpp:122] Setting up relu2
I0331 10:05:10.661485  6388 net.cpp:129] Top shape: 100 1000 (100000)
I0331 10:05:10.661489  6388 net.cpp:137] Memory required for data: 3829600
I0331 10:05:10.661494  6388 layer_factory.hpp:77] Creating layer ip3
I0331 10:05:10.661501  6388 net.cpp:84] Creating Layer ip3
I0331 10:05:10.661506  6388 net.cpp:406] ip3 <- ip2
I0331 10:05:10.661512  6388 net.cpp:380] ip3 -> ip3
I0331 10:05:10.662315  6388 net.cpp:122] Setting up ip3
I0331 10:05:10.662324  6388 net.cpp:129] Top shape: 100 10 (1000)
I0331 10:05:10.662328  6388 net.cpp:137] Memory required for data: 3837600
I0331 10:05:10.662336  6388 layer_factory.hpp:77] Creating layer ip3_ip3_0_split
I0331 10:05:10.662343  6388 net.cpp:84] Creating Layer ip3_ip3_0_split
I0331 10:05:10.662348  6388 net.cpp:406] ip3_ip3_0_split <- ip3
I0331 10:05:10.662353  6388 net.cpp:380] ip3_ip3_0_split -> ip3_ip3_0_split_0
I0331 10:05:10.662360  6388 net.cpp:380] ip3_ip3_0_split -> ip3_ip3_0_split_1
I0331 10:05:10.662369  6388 net.cpp:122] Setting up ip3_ip3_0_split
I0331 10:05:10.662374  6388 net.cpp:129] Top shape: 100 10 (1000)
I0331 10:05:10.662379  6388 net.cpp:129] Top shape: 100 10 (1000)
I0331 10:05:10.662382  6388 net.cpp:137] Memory required for data: 3853600
I0331 10:05:10.662386  6388 layer_factory.hpp:77] Creating layer accuracy
I0331 10:05:10.662394  6388 net.cpp:84] Creating Layer accuracy
I0331 10:05:10.662397  6388 net.cpp:406] accuracy <- ip3_ip3_0_split_0
I0331 10:05:10.662401  6388 net.cpp:406] accuracy <- label_mnist_1_split_0
I0331 10:05:10.662408  6388 net.cpp:380] accuracy -> accuracy
…
