…
  layer {
    name: "mnist"
    type: "Data"
    top: "data"
    top: "label"
    include {
      phase: TRAIN
    }
    transform_param {
      scale: 0.00390625
    }
    data_param {
      source: "data/mnist_train_lmdb"
      batch_size: 100
      backend: LMDB
    }
  }
  layer {
    name: "mnist"
    type: "Data"
    top: "data"
    top: "label"
    include {
      phase: TEST
    }
    transform_param {
      scale: 0.00390625
    }
    data_param {
      source: "data/mnist_test_lmdb"
      batch_size: 100
      backend: LMDB
    }
  }
  layer {
    name: "ip1"
    type: "InnerProduct"
    bottom: "data"
    top: "ip1"
    inner_product_param {
      num_output: 1000
      weight_filler {
        type: "gaussian"
        mean: 0
        std: 0.01
      }
    }
    bias_param {
      filler {
        value: 0
      }
    }
    floating_point: true
    fpoint {
      exp: 5
      mant: 10
      rounding: "stochastic"
    }
  }
  layer {
    name: "relu1"
    type: "ReLU"
    bottom: "ip1"
    top: "ip1"
    floating_point: true
    fpoint {
      exp: 5
      mant: 10
      rounding: "stochastic"
    }
  }
  layer {
    name: "ip2"
    type: "InnerProduct"
    bottom: "ip1"
    top: "ip2"
    inner_product_param {
      num_output: 1000
      weight_filler {
        type: "gaussian"
        mean: 0
        std: 0.01
      }
    }
    bias_param {
      filler {
        value: 0
      }
    }
    floating_point: true
    fpoint {
      exp: 5
      mant: 10
      rounding: "stochastic"
    }
  }
  layer {
    name: "relu2"
    type: "ReLU"
    bottom: "ip2"
    top: "ip2"
    bias_param {
      filler {
        value: 0
      }
    }
    floating_point: true
    fpoint {
      exp: 5
      mant: 10
      rounding: "stochastic"
    }
  }
  layer {
    name: "ip3"
    type: "InnerProduct"
    bottom: "ip2"
    top: "ip3"
    inner_product_param {
      num_output: 10
      weight_filler {
        type: "gaussian"
        mean: 0
        std: 0.01
      }
    }
    bias_param {
      filler {
        value: 0
      }
    }
    floating_point: true
    fpoint {
      exp: 5
      mant: 10
      rounding: "stochastic"
    }
  }
  layer {
    name: "accuracy"
    type: "Accuracy"
    bottom: "ip3"
    bottom: "label"
    top: "accuracy"
  }
  layer {
    name: "loss"
    type: "SoftmaxWithLoss"
    bottom: "ip3"
    bottom: "label"
    top: "loss"
    floating_point: true
    fpoint {
      exp: 5
      mant: 10
      rounding: "stochastic"
    }
  }
}
train_state {
  level: 0
  stage: ""
}
floating_point: true
fpoint {
  exp: 5
  mant: 10
  rounding: "stochastic"
}
I0503 16:44:42.701474 22754 solver.cpp:82] Creating training net specified in net_param.
I0503 16:44:42.701628 22754 net.cpp:294] The NetState phase (0) differed from the phase (1) specified by a rule in layer mnist
I0503 16:44:42.701797 22754 net.cpp:51] Initializing net from parameters: 
name: "LeNet"
state {
  phase: TRAIN
  level: 0
  stage: ""
}
layer {
  name: "mnist"
  type: "Data"
  top: "data"
  top: "label"
  include {
    phase: TRAIN
  }
  transform_param {
    scale: 0.00390625
  }
  data_param {
    source: "data/mnist_train_lmdb"
    batch_size: 100
    backend: LMDB
  }
}
layer {
  name: "ip1"
  type: "InnerProduct"
  bottom: "data"
  top: "ip1"
  inner_product_param {
    num_output: 1000
    weight_filler {
      type: "gaussian"
      mean: 0
      std: 0.01
    }
  }
  bias_param {
    filler {
      value: 0
    }
  }
  floating_point: true
  fpoint {
    exp: 5
    mant: 10
    rounding: "stochastic"
  }
}
layer {
  name: "relu1"
  type: "ReLU"
  bottom: "ip1"
  top: "ip1"
  floating_point: true
  fpoint {
    exp: 5
    mant: 10
    rounding: "stochastic"
  }
}
layer {
  name: "ip2"
  type: "InnerProduct"
  bottom: "ip1"
  top: "ip2"
  inner_product_param {
    num_output: 1000
    weight_filler {
      type: "gaussian"
      mean: 0
      std: 0.01
    }
  }
  bias_param {
    filler {
      value: 0
    }
  }
  floating_point: true
  fpoint {
    exp: 5
    mant: 10
    rounding: "stochastic"
  }
}
layer {
  name: "relu2"
  type: "ReLU"
  bottom: "ip2"
  top: "ip2"
  bias_param {
    filler {
      value: 0
    }
  }
  floating_point: true
  fpoint {
    exp: 5
    mant: 10
    rounding: "stochastic"
  }
}
layer {
  name: "ip3"
  type: "InnerProduct"
  bottom: "ip2"
  top: "ip3"
  inner_product_param {
    num_output: 10
    weight_filler {
      type: "gaussian"
      mean: 0
      std: 0.01
    }
  }
  bias_param {
    filler {
      value: 0
    }
  }
  floating_point: true
  fpoint {
    exp: 5
    mant: 10
    rounding: "stochastic"
  }
}
layer {
  name: "accuracy"
  type: "Accuracy"
  bottom: "ip3"
  bottom: "label"
  top: "accuracy"
}
layer {
  name: "loss"
  type: "SoftmaxWithLoss"
  bottom: "ip3"
  bottom: "label"
  top: "loss"
  floating_point: true
  fpoint {
    exp: 5
    mant: 10
    rounding: "stochastic"
  }
}
I0503 16:44:42.702311 22754 layer_factory.hpp:77] Creating layer mnist
I0503 16:44:42.706089 22754 db_lmdb.cpp:35] Opened lmdb data/mnist_train_lmdb
I0503 16:44:42.706387 22754 net.cpp:84] Creating Layer mnist
I0503 16:44:42.706434 22754 net.cpp:380] mnist -> data
I0503 16:44:42.706512 22754 net.cpp:380] mnist -> label
I0503 16:44:42.706668 22754 data_layer.cpp:45] output data size: 100,1,28,28
I0503 16:44:42.708504 22754 net.cpp:122] Setting up mnist
I0503 16:44:42.708565 22754 net.cpp:129] Top shape: 100 1 28 28 (78400)
I0503 16:44:42.708585 22754 net.cpp:129] Top shape: 100 (100)
I0503 16:44:42.708596 22754 net.cpp:137] Memory required for data: 628000
I0503 16:44:42.708613 22754 layer_factory.hpp:77] Creating layer label_mnist_1_split
I0503 16:44:42.708644 22754 net.cpp:84] Creating Layer label_mnist_1_split
I0503 16:44:42.708662 22754 net.cpp:406] label_mnist_1_split <- label
I0503 16:44:42.708683 22754 net.cpp:380] label_mnist_1_split -> label_mnist_1_split_0
I0503 16:44:42.708700 22754 net.cpp:380] label_mnist_1_split -> label_mnist_1_split_1
I0503 16:44:42.708719 22754 net.cpp:122] Setting up label_mnist_1_split
I0503 16:44:42.708734 22754 net.cpp:129] Top shape: 100 (100)
I0503 16:44:42.708745 22754 net.cpp:129] Top shape: 100 (100)
I0503 16:44:42.708755 22754 net.cpp:137] Memory required for data: 629600
I0503 16:44:42.708766 22754 layer_factory.hpp:77] Creating layer ip1
I0503 16:44:42.708817 22754 net.cpp:84] Creating Layer ip1
I0503 16:44:42.708835 22754 net.cpp:406] ip1 <- data
I0503 16:44:42.708850 22754 net.cpp:380] ip1 -> ip1
I0503 16:44:42.732568 22754 net.cpp:122] Setting up ip1
I0503 16:44:42.732626 22754 net.cpp:129] Top shape: 100 1000 (100000)
I0503 16:44:42.732638 22754 net.cpp:137] Memory required for data: 1429600
I0503 16:44:42.732678 22754 layer_factory.hpp:77] Creating layer relu1
I0503 16:44:42.732725 22754 net.cpp:84] Creating Layer relu1
I0503 16:44:42.732743 22754 net.cpp:406] relu1 <- ip1
I0503 16:44:42.732759 22754 net.cpp:367] relu1 -> ip1 (in-place)
I0503 16:44:42.732779 22754 net.cpp:122] Setting up relu1
I0503 16:44:42.732792 22754 net.cpp:129] Top shape: 100 1000 (100000)
I0503 16:44:42.732803 22754 net.cpp:137] Memory required for data: 2229600
I0503 16:44:42.732813 22754 layer_factory.hpp:77] Creating layer ip2
I0503 16:44:42.732833 22754 net.cpp:84] Creating Layer ip2
I0503 16:44:42.732846 22754 net.cpp:406] ip2 <- ip1
I0503 16:44:42.732859 22754 net.cpp:380] ip2 -> ip2
I0503 16:44:42.757936 22754 net.cpp:122] Setting up ip2
I0503 16:44:42.758005 22754 net.cpp:129] Top shape: 100 1000 (100000)
I0503 16:44:42.758016 22754 net.cpp:137] Memory required for data: 3029600
I0503 16:44:42.758039 22754 layer_factory.hpp:77] Creating layer relu2
I0503 16:44:42.758064 22754 net.cpp:84] Creating Layer relu2
I0503 16:44:42.758076 22754 net.cpp:406] relu2 <- ip2
I0503 16:44:42.758093 22754 net.cpp:367] relu2 -> ip2 (in-place)
I0503 16:44:42.758113 22754 net.cpp:122] Setting up relu2
I0503 16:44:42.758126 22754 net.cpp:129] Top shape: 100 1000 (100000)
I0503 16:44:42.758177 22754 net.cpp:137] Memory required for data: 3829600
I0503 16:44:42.758188 22754 layer_factory.hpp:77] Creating layer ip3
I0503 16:44:42.758206 22754 net.cpp:84] Creating Layer ip3
I0503 16:44:42.758218 22754 net.cpp:406] ip3 <- ip2
I0503 16:44:42.758232 22754 net.cpp:380] ip3 -> ip3
I0503 16:44:42.758528 22754 net.cpp:122] Setting up ip3
I0503 16:44:42.758551 22754 net.cpp:129] Top shape: 100 10 (1000)
I0503 16:44:42.758563 22754 net.cpp:137] Memory required for data: 3837600
I0503 16:44:42.758579 22754 layer_factory.hpp:77] Creating layer ip3_ip3_0_split
I0503 16:44:42.758595 22754 net.cpp:84] Creating Layer ip3_ip3_0_split
I0503 16:44:42.758606 22754 net.cpp:406] ip3_ip3_0_split <- ip3
I0503 16:44:42.758620 22754 net.cpp:380] ip3_ip3_0_split -> ip3_ip3_0_split_0
I0503 16:44:42.758635 22754 net.cpp:380] ip3_ip3_0_split -> ip3_ip3_0_split_1
I0503 16:44:42.758653 22754 net.cpp:122] Setting up ip3_ip3_0_split
I0503 16:44:42.758667 22754 net.cpp:129] Top shape: 100 10 (1000)
I0503 16:44:42.758680 22754 net.cpp:129] Top shape: 100 10 (1000)
I0503 16:44:42.758689 22754 net.cpp:137] Memory required for data: 3853600
I0503 16:44:42.758700 22754 layer_factory.hpp:77] Creating layer accuracy
I0503 16:44:42.758755 22754 net.cpp:84] Creating Layer accuracy
I0503 16:44:42.758771 22754 net.cpp:406] accuracy <- ip3_ip3_0_split_0
I0503 16:44:42.758785 22754 net.cpp:406] accuracy <- label_mnist_1_split_0
I0503 16:44:42.758798 22754 net.cpp:380] accuracy -> accuracy
…
