…
  layer {
    name: "mnist"
    type: "Data"
    top: "data"
    top: "label"
    include {
      phase: TRAIN
    }
    transform_param {
      scale: 0.00390625
    }
    data_param {
      source: "data/mnist_train_lmdb"
      batch_size: 100
      backend: LMDB
    }
  }
  layer {
    name: "mnist"
    type: "Data"
    top: "data"
    top: "label"
    include {
      phase: TEST
    }
    transform_param {
      scale: 0.00390625
    }
    data_param {
      source: "data/mnist_test_lmdb"
      batch_size: 100
      backend: LMDB
    }
  }
  layer {
    name: "ip1"
    type: "InnerProduct"
    bottom: "data"
    top: "ip1"
    inner_product_param {
      num_output: 1000
      weight_filler {
        type: "gaussian"
        mean: 0
        std: 0.01
      }
    }
    bias_param {
      filler {
        value: 0
      }
    }
    floating_point: true
    fpoint {
      exp: 5
      mant: 10
      rounding: "stochastic"
    }
  }
  layer {
    name: "relu1"
    type: "ReLU"
    bottom: "ip1"
    top: "ip1"
    floating_point: true
    fpoint {
      exp: 5
      mant: 10
      rounding: "stochastic"
    }
  }
  layer {
    name: "ip2"
    type: "InnerProduct"
    bottom: "ip1"
    top: "ip2"
    inner_product_param {
      num_output: 1000
      weight_filler {
        type: "gaussian"
        mean: 0
        std: 0.01
      }
    }
    bias_param {
      filler {
        value: 0
      }
    }
    floating_point: true
    fpoint {
      exp: 5
      mant: 10
      rounding: "stochastic"
    }
  }
  layer {
    name: "relu2"
    type: "ReLU"
    bottom: "ip2"
    top: "ip2"
    bias_param {
      filler {
        value: 0
      }
    }
    floating_point: true
    fpoint {
      exp: 5
      mant: 10
      rounding: "stochastic"
    }
  }
  layer {
    name: "ip3"
    type: "InnerProduct"
    bottom: "ip2"
    top: "ip3"
    inner_product_param {
      num_output: 10
      weight_filler {
        type: "gaussian"
        mean: 0
        std: 0.01
      }
    }
    bias_param {
      filler {
        value: 0
      }
    }
    floating_point: true
    fpoint {
      exp: 5
      mant: 10
      rounding: "stochastic"
    }
  }
  layer {
    name: "accuracy"
    type: "Accuracy"
    bottom: "ip3"
    bottom: "label"
    top: "accuracy"
  }
  layer {
    name: "loss"
    type: "SoftmaxWithLoss"
    bottom: "ip3"
    bottom: "label"
    top: "loss"
    floating_point: true
    fpoint {
      exp: 5
      mant: 10
      rounding: "stochastic"
    }
  }
}
train_state {
  level: 0
  stage: ""
}
floating_point: true
fpoint {
  exp: 5
  mant: 10
  rounding: "stochastic"
}
I0503 16:59:24.779333 25024 solver.cpp:82] Creating training net specified in net_param.
I0503 16:59:24.779413 25024 net.cpp:294] The NetState phase (0) differed from the phase (1) specified by a rule in layer mnist
I0503 16:59:24.779547 25024 net.cpp:51] Initializing net from parameters: 
name: "LeNet"
state {
  phase: TRAIN
  level: 0
  stage: ""
}
layer {
  name: "mnist"
  type: "Data"
  top: "data"
  top: "label"
  include {
    phase: TRAIN
  }
  transform_param {
    scale: 0.00390625
  }
  data_param {
    source: "data/mnist_train_lmdb"
    batch_size: 100
    backend: LMDB
  }
}
layer {
  name: "ip1"
  type: "InnerProduct"
  bottom: "data"
  top: "ip1"
  inner_product_param {
    num_output: 1000
    weight_filler {
      type: "gaussian"
      mean: 0
      std: 0.01
    }
  }
  bias_param {
    filler {
      value: 0
    }
  }
  floating_point: true
  fpoint {
    exp: 5
    mant: 10
    rounding: "stochastic"
  }
}
layer {
  name: "relu1"
  type: "ReLU"
  bottom: "ip1"
  top: "ip1"
  floating_point: true
  fpoint {
    exp: 5
    mant: 10
    rounding: "stochastic"
  }
}
layer {
  name: "ip2"
  type: "InnerProduct"
  bottom: "ip1"
  top: "ip2"
  inner_product_param {
    num_output: 1000
    weight_filler {
      type: "gaussian"
      mean: 0
      std: 0.01
    }
  }
  bias_param {
    filler {
      value: 0
    }
  }
  floating_point: true
  fpoint {
    exp: 5
    mant: 10
    rounding: "stochastic"
  }
}
layer {
  name: "relu2"
  type: "ReLU"
  bottom: "ip2"
  top: "ip2"
  bias_param {
    filler {
      value: 0
    }
  }
  floating_point: true
  fpoint {
    exp: 5
    mant: 10
    rounding: "stochastic"
  }
}
layer {
  name: "ip3"
  type: "InnerProduct"
  bottom: "ip2"
  top: "ip3"
  inner_product_param {
    num_output: 10
    weight_filler {
      type: "gaussian"
      mean: 0
      std: 0.01
    }
  }
  bias_param {
    filler {
      value: 0
    }
  }
  floating_point: true
  fpoint {
    exp: 5
    mant: 10
    rounding: "stochastic"
  }
}
layer {
  name: "accuracy"
  type: "Accuracy"
  bottom: "ip3"
  bottom: "label"
  top: "accuracy"
}
layer {
  name: "loss"
  type: "SoftmaxWithLoss"
  bottom: "ip3"
  bottom: "label"
  top: "loss"
  floating_point: true
  fpoint {
    exp: 5
    mant: 10
    rounding: "stochastic"
  }
}
I0503 16:59:24.780184 25024 layer_factory.hpp:77] Creating layer mnist
I0503 16:59:24.780431 25024 db_lmdb.cpp:35] Opened lmdb data/mnist_train_lmdb
I0503 16:59:24.780859 25024 net.cpp:84] Creating Layer mnist
I0503 16:59:24.780892 25024 net.cpp:380] mnist -> data
I0503 16:59:24.780942 25024 net.cpp:380] mnist -> label
I0503 16:59:24.781009 25024 data_layer.cpp:45] output data size: 100,1,28,28
I0503 16:59:24.782763 25024 net.cpp:122] Setting up mnist
I0503 16:59:24.782802 25024 net.cpp:129] Top shape: 100 1 28 28 (78400)
I0503 16:59:24.782819 25024 net.cpp:129] Top shape: 100 (100)
I0503 16:59:24.782829 25024 net.cpp:137] Memory required for data: 628000
I0503 16:59:24.782845 25024 layer_factory.hpp:77] Creating layer label_mnist_1_split
I0503 16:59:24.782866 25024 net.cpp:84] Creating Layer label_mnist_1_split
I0503 16:59:24.782881 25024 net.cpp:406] label_mnist_1_split <- label
I0503 16:59:24.782902 25024 net.cpp:380] label_mnist_1_split -> label_mnist_1_split_0
I0503 16:59:24.782920 25024 net.cpp:380] label_mnist_1_split -> label_mnist_1_split_1
I0503 16:59:24.782938 25024 net.cpp:122] Setting up label_mnist_1_split
I0503 16:59:24.782953 25024 net.cpp:129] Top shape: 100 (100)
I0503 16:59:24.782966 25024 net.cpp:129] Top shape: 100 (100)
I0503 16:59:24.782976 25024 net.cpp:137] Memory required for data: 629600
I0503 16:59:24.782986 25024 layer_factory.hpp:77] Creating layer ip1
I0503 16:59:24.783007 25024 net.cpp:84] Creating Layer ip1
I0503 16:59:24.783020 25024 net.cpp:406] ip1 <- data
I0503 16:59:24.783035 25024 net.cpp:380] ip1 -> ip1
I0503 16:59:24.805347 25024 net.cpp:122] Setting up ip1
I0503 16:59:24.805421 25024 net.cpp:129] Top shape: 100 1000 (100000)
I0503 16:59:24.805433 25024 net.cpp:137] Memory required for data: 1429600
I0503 16:59:24.805462 25024 layer_factory.hpp:77] Creating layer relu1
I0503 16:59:24.805488 25024 net.cpp:84] Creating Layer relu1
I0503 16:59:24.805502 25024 net.cpp:406] relu1 <- ip1
I0503 16:59:24.805517 25024 net.cpp:367] relu1 -> ip1 (in-place)
I0503 16:59:24.805536 25024 net.cpp:122] Setting up relu1
I0503 16:59:24.805550 25024 net.cpp:129] Top shape: 100 1000 (100000)
I0503 16:59:24.805560 25024 net.cpp:137] Memory required for data: 2229600
I0503 16:59:24.805572 25024 layer_factory.hpp:77] Creating layer ip2
I0503 16:59:24.805590 25024 net.cpp:84] Creating Layer ip2
I0503 16:59:24.805603 25024 net.cpp:406] ip2 <- ip1
I0503 16:59:24.805618 25024 net.cpp:380] ip2 -> ip2
I0503 16:59:24.830453 25024 net.cpp:122] Setting up ip2
I0503 16:59:24.830519 25024 net.cpp:129] Top shape: 100 1000 (100000)
I0503 16:59:24.830530 25024 net.cpp:137] Memory required for data: 3029600
I0503 16:59:24.830552 25024 layer_factory.hpp:77] Creating layer relu2
I0503 16:59:24.830574 25024 net.cpp:84] Creating Layer relu2
I0503 16:59:24.830587 25024 net.cpp:406] relu2 <- ip2
I0503 16:59:24.830605 25024 net.cpp:367] relu2 -> ip2 (in-place)
I0503 16:59:24.830622 25024 net.cpp:122] Setting up relu2
I0503 16:59:24.830636 25024 net.cpp:129] Top shape: 100 1000 (100000)
I0503 16:59:24.830688 25024 net.cpp:137] Memory required for data: 3829600
I0503 16:59:24.830700 25024 layer_factory.hpp:77] Creating layer ip3
I0503 16:59:24.830718 25024 net.cpp:84] Creating Layer ip3
I0503 16:59:24.830730 25024 net.cpp:406] ip3 <- ip2
I0503 16:59:24.830745 25024 net.cpp:380] ip3 -> ip3
I0503 16:59:24.831030 25024 net.cpp:122] Setting up ip3
I0503 16:59:24.831053 25024 net.cpp:129] Top shape: 100 10 (1000)
I0503 16:59:24.831064 25024 net.cpp:137] Memory required for data: 3837600
I0503 16:59:24.831081 25024 layer_factory.hpp:77] Creating layer ip3_ip3_0_split
I0503 16:59:24.831097 25024 net.cpp:84] Creating Layer ip3_ip3_0_split
I0503 16:59:24.831109 25024 net.cpp:406] ip3_ip3_0_split <- ip3
I0503 16:59:24.831122 25024 net.cpp:380] ip3_ip3_0_split -> ip3_ip3_0_split_0
I0503 16:59:24.831138 25024 net.cpp:380] ip3_ip3_0_split -> ip3_ip3_0_split_1
I0503 16:59:24.831156 25024 net.cpp:122] Setting up ip3_ip3_0_split
I0503 16:59:24.831171 25024 net.cpp:129] Top shape: 100 10 (1000)
I0503 16:59:24.831183 25024 net.cpp:129] Top shape: 100 10 (1000)
I0503 16:59:24.831193 25024 net.cpp:137] Memory required for data: 3853600
I0503 16:59:24.831203 25024 layer_factory.hpp:77] Creating layer accuracy
I0503 16:59:24.831228 25024 net.cpp:84] Creating Layer accuracy
I0503 16:59:24.831240 25024 net.cpp:406] accuracy <- ip3_ip3_0_split_0
I0503 16:59:24.831254 25024 net.cpp:406] accuracy <- label_mnist_1_split_0
I0503 16:59:24.831266 25024 net.cpp:380] accuracy -> accuracy
…
