…
  layer {
    name: "mnist"
    type: "Data"
    top: "data"
    top: "label"
    include {
      phase: TRAIN
    }
    transform_param {
      scale: 0.00390625
    }
    data_param {
      source: "data/mnist_train_lmdb"
      batch_size: 100
      backend: LMDB
    }
  }
  layer {
    name: "mnist"
    type: "Data"
    top: "data"
    top: "label"
    include {
      phase: TEST
    }
    transform_param {
      scale: 0.00390625
    }
    data_param {
      source: "data/mnist_test_lmdb"
      batch_size: 100
      backend: LMDB
    }
  }
  layer {
    name: "ip1"
    type: "InnerProduct"
    bottom: "data"
    top: "ip1"
    inner_product_param {
      num_output: 1000
      weight_filler {
        type: "gaussian"
        mean: 0
        std: 0.01
      }
    }
    bias_param {
      filler {
        value: 0
      }
    }
    floating_point: true
    fpoint {
      exp: 5
      mant: 10
      rounding: "stochastic"
    }
  }
  layer {
    name: "relu1"
    type: "ReLU"
    bottom: "ip1"
    top: "ip1"
    floating_point: true
    fpoint {
      exp: 5
      mant: 10
      rounding: "stochastic"
    }
  }
  layer {
    name: "ip2"
    type: "InnerProduct"
    bottom: "ip1"
    top: "ip2"
    inner_product_param {
      num_output: 1000
      weight_filler {
        type: "gaussian"
        mean: 0
        std: 0.01
      }
    }
    bias_param {
      filler {
        value: 0
      }
    }
    floating_point: true
    fpoint {
      exp: 5
      mant: 10
      rounding: "stochastic"
    }
  }
  layer {
    name: "relu2"
    type: "ReLU"
    bottom: "ip2"
    top: "ip2"
    bias_param {
      filler {
        value: 0
      }
    }
    floating_point: true
    fpoint {
      exp: 5
      mant: 10
      rounding: "stochastic"
    }
  }
  layer {
    name: "ip3"
    type: "InnerProduct"
    bottom: "ip2"
    top: "ip3"
    inner_product_param {
      num_output: 10
      weight_filler {
        type: "gaussian"
        mean: 0
        std: 0.01
      }
    }
    bias_param {
      filler {
        value: 0
      }
    }
    floating_point: true
    fpoint {
      exp: 5
      mant: 10
      rounding: "stochastic"
    }
  }
  layer {
    name: "accuracy"
    type: "Accuracy"
    bottom: "ip3"
    bottom: "label"
    top: "accuracy"
  }
  layer {
    name: "loss"
    type: "SoftmaxWithLoss"
    bottom: "ip3"
    bottom: "label"
    top: "loss"
    floating_point: true
    fpoint {
      exp: 5
      mant: 10
      rounding: "stochastic"
    }
  }
}
train_state {
  level: 0
  stage: ""
}
floating_point: true
fpoint {
  exp: 5
  mant: 10
  rounding: "stochastic"
}
I0503 16:31:26.429162 20904 solver.cpp:82] Creating training net specified in net_param.
I0503 16:31:26.429288 20904 net.cpp:294] The NetState phase (0) differed from the phase (1) specified by a rule in layer mnist
I0503 16:31:26.429477 20904 net.cpp:51] Initializing net from parameters: 
name: "LeNet"
state {
  phase: TRAIN
  level: 0
  stage: ""
}
layer {
  name: "mnist"
  type: "Data"
  top: "data"
  top: "label"
  include {
    phase: TRAIN
  }
  transform_param {
    scale: 0.00390625
  }
  data_param {
    source: "data/mnist_train_lmdb"
    batch_size: 100
    backend: LMDB
  }
}
layer {
  name: "ip1"
  type: "InnerProduct"
  bottom: "data"
  top: "ip1"
  inner_product_param {
    num_output: 1000
    weight_filler {
      type: "gaussian"
      mean: 0
      std: 0.01
    }
  }
  bias_param {
    filler {
      value: 0
    }
  }
  floating_point: true
  fpoint {
    exp: 5
    mant: 10
    rounding: "stochastic"
  }
}
layer {
  name: "relu1"
  type: "ReLU"
  bottom: "ip1"
  top: "ip1"
  floating_point: true
  fpoint {
    exp: 5
    mant: 10
    rounding: "stochastic"
  }
}
layer {
  name: "ip2"
  type: "InnerProduct"
  bottom: "ip1"
  top: "ip2"
  inner_product_param {
    num_output: 1000
    weight_filler {
      type: "gaussian"
      mean: 0
      std: 0.01
    }
  }
  bias_param {
    filler {
      value: 0
    }
  }
  floating_point: true
  fpoint {
    exp: 5
    mant: 10
    rounding: "stochastic"
  }
}
layer {
  name: "relu2"
  type: "ReLU"
  bottom: "ip2"
  top: "ip2"
  bias_param {
    filler {
      value: 0
    }
  }
  floating_point: true
  fpoint {
    exp: 5
    mant: 10
    rounding: "stochastic"
  }
}
layer {
  name: "ip3"
  type: "InnerProduct"
  bottom: "ip2"
  top: "ip3"
  inner_product_param {
    num_output: 10
    weight_filler {
      type: "gaussian"
      mean: 0
      std: 0.01
    }
  }
  bias_param {
    filler {
      value: 0
    }
  }
  floating_point: true
  fpoint {
    exp: 5
    mant: 10
    rounding: "stochastic"
  }
}
layer {
  name: "accuracy"
  type: "Accuracy"
  bottom: "ip3"
  bottom: "label"
  top: "accuracy"
}
layer {
  name: "loss"
  type: "SoftmaxWithLoss"
  bottom: "ip3"
  bottom: "label"
  top: "loss"
  floating_point: true
  fpoint {
    exp: 5
    mant: 10
    rounding: "stochastic"
  }
}
I0503 16:31:26.429992 20904 layer_factory.hpp:77] Creating layer mnist
I0503 16:31:26.431490 20904 db_lmdb.cpp:35] Opened lmdb data/mnist_train_lmdb
I0503 16:31:26.431792 20904 net.cpp:84] Creating Layer mnist
I0503 16:31:26.431838 20904 net.cpp:380] mnist -> data
I0503 16:31:26.431915 20904 net.cpp:380] mnist -> label
I0503 16:31:26.432065 20904 data_layer.cpp:45] output data size: 100,1,28,28
I0503 16:31:26.433881 20904 net.cpp:122] Setting up mnist
I0503 16:31:26.433939 20904 net.cpp:129] Top shape: 100 1 28 28 (78400)
I0503 16:31:26.433959 20904 net.cpp:129] Top shape: 100 (100)
I0503 16:31:26.433970 20904 net.cpp:137] Memory required for data: 628000
I0503 16:31:26.433987 20904 layer_factory.hpp:77] Creating layer label_mnist_1_split
I0503 16:31:26.434018 20904 net.cpp:84] Creating Layer label_mnist_1_split
I0503 16:31:26.434036 20904 net.cpp:406] label_mnist_1_split <- label
I0503 16:31:26.434056 20904 net.cpp:380] label_mnist_1_split -> label_mnist_1_split_0
I0503 16:31:26.434075 20904 net.cpp:380] label_mnist_1_split -> label_mnist_1_split_1
I0503 16:31:26.434094 20904 net.cpp:122] Setting up label_mnist_1_split
I0503 16:31:26.434109 20904 net.cpp:129] Top shape: 100 (100)
I0503 16:31:26.434121 20904 net.cpp:129] Top shape: 100 (100)
I0503 16:31:26.434131 20904 net.cpp:137] Memory required for data: 629600
I0503 16:31:26.434142 20904 layer_factory.hpp:77] Creating layer ip1
I0503 16:31:26.434182 20904 net.cpp:84] Creating Layer ip1
I0503 16:31:26.434200 20904 net.cpp:406] ip1 <- data
I0503 16:31:26.434216 20904 net.cpp:380] ip1 -> ip1
I0503 16:31:26.457696 20904 net.cpp:122] Setting up ip1
I0503 16:31:26.457751 20904 net.cpp:129] Top shape: 100 1000 (100000)
I0503 16:31:26.457762 20904 net.cpp:137] Memory required for data: 1429600
I0503 16:31:26.457803 20904 layer_factory.hpp:77] Creating layer relu1
I0503 16:31:26.457849 20904 net.cpp:84] Creating Layer relu1
I0503 16:31:26.457866 20904 net.cpp:406] relu1 <- ip1
I0503 16:31:26.457882 20904 net.cpp:367] relu1 -> ip1 (in-place)
I0503 16:31:26.457901 20904 net.cpp:122] Setting up relu1
I0503 16:31:26.457916 20904 net.cpp:129] Top shape: 100 1000 (100000)
I0503 16:31:26.457926 20904 net.cpp:137] Memory required for data: 2229600
I0503 16:31:26.457937 20904 layer_factory.hpp:77] Creating layer ip2
I0503 16:31:26.457957 20904 net.cpp:84] Creating Layer ip2
I0503 16:31:26.457967 20904 net.cpp:406] ip2 <- ip1
I0503 16:31:26.457983 20904 net.cpp:380] ip2 -> ip2
I0503 16:31:26.482996 20904 net.cpp:122] Setting up ip2
I0503 16:31:26.483060 20904 net.cpp:129] Top shape: 100 1000 (100000)
I0503 16:31:26.483072 20904 net.cpp:137] Memory required for data: 3029600
I0503 16:31:26.483094 20904 layer_factory.hpp:77] Creating layer relu2
I0503 16:31:26.483117 20904 net.cpp:84] Creating Layer relu2
I0503 16:31:26.483129 20904 net.cpp:406] relu2 <- ip2
I0503 16:31:26.483145 20904 net.cpp:367] relu2 -> ip2 (in-place)
I0503 16:31:26.483163 20904 net.cpp:122] Setting up relu2
I0503 16:31:26.483177 20904 net.cpp:129] Top shape: 100 1000 (100000)
I0503 16:31:26.483187 20904 net.cpp:137] Memory required for data: 3829600
I0503 16:31:26.483235 20904 layer_factory.hpp:77] Creating layer ip3
I0503 16:31:26.483253 20904 net.cpp:84] Creating Layer ip3
I0503 16:31:26.483265 20904 net.cpp:406] ip3 <- ip2
I0503 16:31:26.483280 20904 net.cpp:380] ip3 -> ip3
I0503 16:31:26.483570 20904 net.cpp:122] Setting up ip3
I0503 16:31:26.483593 20904 net.cpp:129] Top shape: 100 10 (1000)
I0503 16:31:26.483604 20904 net.cpp:137] Memory required for data: 3837600
I0503 16:31:26.483623 20904 layer_factory.hpp:77] Creating layer ip3_ip3_0_split
I0503 16:31:26.483639 20904 net.cpp:84] Creating Layer ip3_ip3_0_split
I0503 16:31:26.483649 20904 net.cpp:406] ip3_ip3_0_split <- ip3
I0503 16:31:26.483662 20904 net.cpp:380] ip3_ip3_0_split -> ip3_ip3_0_split_0
I0503 16:31:26.483678 20904 net.cpp:380] ip3_ip3_0_split -> ip3_ip3_0_split_1
I0503 16:31:26.483695 20904 net.cpp:122] Setting up ip3_ip3_0_split
I0503 16:31:26.483710 20904 net.cpp:129] Top shape: 100 10 (1000)
I0503 16:31:26.483722 20904 net.cpp:129] Top shape: 100 10 (1000)
I0503 16:31:26.483732 20904 net.cpp:137] Memory required for data: 3853600
I0503 16:31:26.483742 20904 layer_factory.hpp:77] Creating layer accuracy
I0503 16:31:26.483793 20904 net.cpp:84] Creating Layer accuracy
I0503 16:31:26.483808 20904 net.cpp:406] accuracy <- ip3_ip3_0_split_0
I0503 16:31:26.483821 20904 net.cpp:406] accuracy <- label_mnist_1_split_0
I0503 16:31:26.483834 20904 net.cpp:380] accuracy -> accuracy
…
