…
  layer {
    name: "mnist"
    type: "Data"
    top: "data"
    top: "label"
    include {
      phase: TRAIN
    }
    transform_param {
      scale: 0.00390625
    }
    data_param {
      source: "data/mnist_train_lmdb"
      batch_size: 100
      backend: LMDB
    }
  }
  layer {
    name: "mnist"
    type: "Data"
    top: "data"
    top: "label"
    include {
      phase: TEST
    }
    transform_param {
      scale: 0.00390625
    }
    data_param {
      source: "data/mnist_test_lmdb"
      batch_size: 100
      backend: LMDB
    }
  }
  layer {
    name: "ip1"
    type: "InnerProduct"
    bottom: "data"
    top: "ip1"
    inner_product_param {
      num_output: 1000
      weight_filler {
        type: "gaussian"
        mean: 0
        std: 0.01
      }
    }
    bias_param {
      filler {
        value: 0
      }
    }
    fixed_precision: true
    precision {
      enter: 2
      fraccio: 14
      rounding: "stochastic"
    }
  }
  layer {
    name: "relu1"
    type: "ReLU"
    bottom: "ip1"
    top: "ip1"
    fixed_precision: true
    precision {
      enter: 2
      fraccio: 14
      rounding: "stochastic"
    }
  }
  layer {
    name: "ip2"
    type: "InnerProduct"
    bottom: "ip1"
    top: "ip2"
    inner_product_param {
      num_output: 1000
      weight_filler {
        type: "gaussian"
        mean: 0
        std: 0.01
      }
    }
    bias_param {
      filler {
        value: 0
      }
    }
    fixed_precision: true
    precision {
      enter: 2
      fraccio: 14
      rounding: "stochastic"
    }
  }
  layer {
    name: "relu2"
    type: "ReLU"
    bottom: "ip2"
    top: "ip2"
    bias_param {
      filler {
        value: 0
      }
    }
    fixed_precision: true
    precision {
      enter: 2
      fraccio: 14
      rounding: "stochastic"
    }
  }
  layer {
    name: "ip3"
    type: "InnerProduct"
    bottom: "ip2"
    top: "ip3"
    inner_product_param {
      num_output: 10
      weight_filler {
        type: "gaussian"
        mean: 0
        std: 0.01
      }
    }
    bias_param {
      filler {
        value: 0
      }
    }
    fixed_precision: true
    precision {
      enter: 2
      fraccio: 14
      rounding: "stochastic"
    }
  }
  layer {
    name: "accuracy"
    type: "Accuracy"
    bottom: "ip3"
    bottom: "label"
    top: "accuracy"
  }
  layer {
    name: "loss"
    type: "SoftmaxWithLoss"
    bottom: "ip3"
    bottom: "label"
    top: "loss"
    fixed_precision: true
    precision {
      enter: 2
      fraccio: 14
      rounding: "stochastic"
    }
  }
}
train_state {
  level: 0
  stage: ""
}
fixed_precision: true
precision {
  enter: 2
  fraccio: 14
  rounding: "stochastic"
}
I0504 13:52:16.529769 20630 solver.cpp:82] Creating training net specified in net_param.
I0504 13:52:16.529834 20630 net.cpp:294] The NetState phase (0) differed from the phase (1) specified by a rule in layer mnist
I0504 13:52:16.529968 20630 net.cpp:51] Initializing net from parameters: 
name: "LeNet"
state {
  phase: TRAIN
  level: 0
  stage: ""
}
layer {
  name: "mnist"
  type: "Data"
  top: "data"
  top: "label"
  include {
    phase: TRAIN
  }
  transform_param {
    scale: 0.00390625
  }
  data_param {
    source: "data/mnist_train_lmdb"
    batch_size: 100
    backend: LMDB
  }
}
layer {
  name: "ip1"
  type: "InnerProduct"
  bottom: "data"
  top: "ip1"
  inner_product_param {
    num_output: 1000
    weight_filler {
      type: "gaussian"
      mean: 0
      std: 0.01
    }
  }
  bias_param {
    filler {
      value: 0
    }
  }
  fixed_precision: true
  precision {
    enter: 2
    fraccio: 14
    rounding: "stochastic"
  }
}
layer {
  name: "relu1"
  type: "ReLU"
  bottom: "ip1"
  top: "ip1"
  fixed_precision: true
  precision {
    enter: 2
    fraccio: 14
    rounding: "stochastic"
  }
}
layer {
  name: "ip2"
  type: "InnerProduct"
  bottom: "ip1"
  top: "ip2"
  inner_product_param {
    num_output: 1000
    weight_filler {
      type: "gaussian"
      mean: 0
      std: 0.01
    }
  }
  bias_param {
    filler {
      value: 0
    }
  }
  fixed_precision: true
  precision {
    enter: 2
    fraccio: 14
    rounding: "stochastic"
  }
}
layer {
  name: "relu2"
  type: "ReLU"
  bottom: "ip2"
  top: "ip2"
  bias_param {
    filler {
      value: 0
    }
  }
  fixed_precision: true
  precision {
    enter: 2
    fraccio: 14
    rounding: "stochastic"
  }
}
layer {
  name: "ip3"
  type: "InnerProduct"
  bottom: "ip2"
  top: "ip3"
  inner_product_param {
    num_output: 10
    weight_filler {
      type: "gaussian"
      mean: 0
      std: 0.01
    }
  }
  bias_param {
    filler {
      value: 0
    }
  }
  fixed_precision: true
  precision {
    enter: 2
    fraccio: 14
    rounding: "stochastic"
  }
}
layer {
  name: "accuracy"
  type: "Accuracy"
  bottom: "ip3"
  bottom: "label"
  top: "accuracy"
}
layer {
  name: "loss"
  type: "SoftmaxWithLoss"
  bottom: "ip3"
  bottom: "label"
  top: "loss"
  fixed_precision: true
  precision {
    enter: 2
    fraccio: 14
    rounding: "stochastic"
  }
}
I0504 13:52:16.532397 20630 layer_factory.hpp:77] Creating layer mnist
I0504 13:52:16.533941 20630 db_lmdb.cpp:35] Opened lmdb data/mnist_train_lmdb
I0504 13:52:16.534447 20630 net.cpp:84] Creating Layer mnist
I0504 13:52:16.534482 20630 net.cpp:380] mnist -> data
I0504 13:52:16.534531 20630 net.cpp:380] mnist -> label
I0504 13:52:16.534595 20630 data_layer.cpp:45] output data size: 100,1,28,28
I0504 13:52:16.536329 20630 net.cpp:122] Setting up mnist
I0504 13:52:16.536373 20630 net.cpp:129] Top shape: 100 1 28 28 (78400)
I0504 13:52:16.536389 20630 net.cpp:129] Top shape: 100 (100)
I0504 13:52:16.536399 20630 net.cpp:137] Memory required for data: 628000
I0504 13:52:16.536417 20630 layer_factory.hpp:77] Creating layer label_mnist_1_split
I0504 13:52:16.536439 20630 net.cpp:84] Creating Layer label_mnist_1_split
I0504 13:52:16.536453 20630 net.cpp:406] label_mnist_1_split <- label
I0504 13:52:16.536474 20630 net.cpp:380] label_mnist_1_split -> label_mnist_1_split_0
I0504 13:52:16.536494 20630 net.cpp:380] label_mnist_1_split -> label_mnist_1_split_1
I0504 13:52:16.536514 20630 net.cpp:122] Setting up label_mnist_1_split
I0504 13:52:16.536528 20630 net.cpp:129] Top shape: 100 (100)
I0504 13:52:16.536540 20630 net.cpp:129] Top shape: 100 (100)
I0504 13:52:16.536550 20630 net.cpp:137] Memory required for data: 629600
I0504 13:52:16.536561 20630 layer_factory.hpp:77] Creating layer ip1
I0504 13:52:16.536582 20630 net.cpp:84] Creating Layer ip1
I0504 13:52:16.536595 20630 net.cpp:406] ip1 <- data
I0504 13:52:16.536609 20630 net.cpp:380] ip1 -> ip1
I0504 13:52:16.588073 20630 net.cpp:122] Setting up ip1
I0504 13:52:16.588143 20630 net.cpp:129] Top shape: 100 1000 (100000)
I0504 13:52:16.588155 20630 net.cpp:137] Memory required for data: 1429600
I0504 13:52:16.588186 20630 layer_factory.hpp:77] Creating layer relu1
I0504 13:52:16.588219 20630 net.cpp:84] Creating Layer relu1
I0504 13:52:16.588235 20630 net.cpp:406] relu1 <- ip1
I0504 13:52:16.588251 20630 net.cpp:367] relu1 -> ip1 (in-place)
I0504 13:52:16.588271 20630 net.cpp:122] Setting up relu1
I0504 13:52:16.588284 20630 net.cpp:129] Top shape: 100 1000 (100000)
I0504 13:52:16.588294 20630 net.cpp:137] Memory required for data: 2229600
I0504 13:52:16.588305 20630 layer_factory.hpp:77] Creating layer ip2
I0504 13:52:16.588325 20630 net.cpp:84] Creating Layer ip2
I0504 13:52:16.588337 20630 net.cpp:406] ip2 <- ip1
I0504 13:52:16.588351 20630 net.cpp:380] ip2 -> ip2
I0504 13:52:16.650527 20630 net.cpp:122] Setting up ip2
I0504 13:52:16.650598 20630 net.cpp:129] Top shape: 100 1000 (100000)
I0504 13:52:16.650609 20630 net.cpp:137] Memory required for data: 3029600
I0504 13:52:16.650632 20630 layer_factory.hpp:77] Creating layer relu2
I0504 13:52:16.650660 20630 net.cpp:84] Creating Layer relu2
I0504 13:52:16.650672 20630 net.cpp:406] relu2 <- ip2
I0504 13:52:16.650689 20630 net.cpp:367] relu2 -> ip2 (in-place)
I0504 13:52:16.650710 20630 net.cpp:122] Setting up relu2
I0504 13:52:16.650766 20630 net.cpp:129] Top shape: 100 1000 (100000)
I0504 13:52:16.650779 20630 net.cpp:137] Memory required for data: 3829600
I0504 13:52:16.650789 20630 layer_factory.hpp:77] Creating layer ip3
I0504 13:52:16.650807 20630 net.cpp:84] Creating Layer ip3
I0504 13:52:16.650818 20630 net.cpp:406] ip3 <- ip2
I0504 13:52:16.650833 20630 net.cpp:380] ip3 -> ip3
I0504 13:52:16.651510 20630 net.cpp:122] Setting up ip3
I0504 13:52:16.651532 20630 net.cpp:129] Top shape: 100 10 (1000)
I0504 13:52:16.651543 20630 net.cpp:137] Memory required for data: 3837600
I0504 13:52:16.651561 20630 layer_factory.hpp:77] Creating layer ip3_ip3_0_split
I0504 13:52:16.651576 20630 net.cpp:84] Creating Layer ip3_ip3_0_split
I0504 13:52:16.651587 20630 net.cpp:406] ip3_ip3_0_split <- ip3
I0504 13:52:16.651602 20630 net.cpp:380] ip3_ip3_0_split -> ip3_ip3_0_split_0
I0504 13:52:16.651618 20630 net.cpp:380] ip3_ip3_0_split -> ip3_ip3_0_split_1
I0504 13:52:16.651635 20630 net.cpp:122] Setting up ip3_ip3_0_split
I0504 13:52:16.651649 20630 net.cpp:129] Top shape: 100 10 (1000)
I0504 13:52:16.651662 20630 net.cpp:129] Top shape: 100 10 (1000)
I0504 13:52:16.651672 20630 net.cpp:137] Memory required for data: 3853600
I0504 13:52:16.651682 20630 layer_factory.hpp:77] Creating layer accuracy
I0504 13:52:16.651707 20630 net.cpp:84] Creating Layer accuracy
I0504 13:52:16.651721 20630 net.cpp:406] accuracy <- ip3_ip3_0_split_0
I0504 13:52:16.651732 20630 net.cpp:406] accuracy <- label_mnist_1_split_0
I0504 13:52:16.651746 20630 net.cpp:380] accuracy -> accuracy
…
