…
  layer {
    name: "mnist"
    type: "Data"
    top: "data"
    top: "label"
    include {
      phase: TRAIN
    }
    transform_param {
      scale: 0.00390625
    }
    data_param {
      source: "data/mnist_train_lmdb"
      batch_size: 100
      backend: LMDB
    }
  }
  layer {
    name: "mnist"
    type: "Data"
    top: "data"
    top: "label"
    include {
      phase: TEST
    }
    transform_param {
      scale: 0.00390625
    }
    data_param {
      source: "data/mnist_test_lmdb"
      batch_size: 100
      backend: LMDB
    }
  }
  layer {
    name: "ip1"
    type: "InnerProduct"
    bottom: "data"
    top: "ip1"
    inner_product_param {
      num_output: 1000
      weight_filler {
        type: "gaussian"
        mean: 0
        std: 0.01
      }
    }
    bias_param {
      filler {
        value: 0
      }
    }
    fixed_precision: true
    precision {
      enter: 2
      fraccio: 14
      rounding: "stochastic"
    }
  }
  layer {
    name: "relu1"
    type: "ReLU"
    bottom: "ip1"
    top: "ip1"
    fixed_precision: true
    precision {
      enter: 2
      fraccio: 14
      rounding: "stochastic"
    }
  }
  layer {
    name: "ip2"
    type: "InnerProduct"
    bottom: "ip1"
    top: "ip2"
    inner_product_param {
      num_output: 1000
      weight_filler {
        type: "gaussian"
        mean: 0
        std: 0.01
      }
    }
    bias_param {
      filler {
        value: 0
      }
    }
    fixed_precision: true
    precision {
      enter: 2
      fraccio: 14
      rounding: "stochastic"
    }
  }
  layer {
    name: "relu2"
    type: "ReLU"
    bottom: "ip2"
    top: "ip2"
    bias_param {
      filler {
        value: 0
      }
    }
    fixed_precision: true
    precision {
      enter: 2
      fraccio: 14
      rounding: "stochastic"
    }
  }
  layer {
    name: "ip3"
    type: "InnerProduct"
    bottom: "ip2"
    top: "ip3"
    inner_product_param {
      num_output: 10
      weight_filler {
        type: "gaussian"
        mean: 0
        std: 0.01
      }
    }
    bias_param {
      filler {
        value: 0
      }
    }
    fixed_precision: true
    precision {
      enter: 2
      fraccio: 14
      rounding: "stochastic"
    }
  }
  layer {
    name: "accuracy"
    type: "Accuracy"
    bottom: "ip3"
    bottom: "label"
    top: "accuracy"
  }
  layer {
    name: "loss"
    type: "SoftmaxWithLoss"
    bottom: "ip3"
    bottom: "label"
    top: "loss"
    fixed_precision: true
    precision {
      enter: 2
      fraccio: 14
      rounding: "stochastic"
    }
  }
}
train_state {
  level: 0
  stage: ""
}
fixed_precision: true
precision {
  enter: 2
  fraccio: 14
  rounding: "stochastic"
}
I0504 13:50:49.778339 20389 solver.cpp:82] Creating training net specified in net_param.
I0504 13:50:49.778523 20389 net.cpp:294] The NetState phase (0) differed from the phase (1) specified by a rule in layer mnist
I0504 13:50:49.778694 20389 net.cpp:51] Initializing net from parameters: 
name: "LeNet"
state {
  phase: TRAIN
  level: 0
  stage: ""
}
layer {
  name: "mnist"
  type: "Data"
  top: "data"
  top: "label"
  include {
    phase: TRAIN
  }
  transform_param {
    scale: 0.00390625
  }
  data_param {
    source: "data/mnist_train_lmdb"
    batch_size: 100
    backend: LMDB
  }
}
layer {
  name: "ip1"
  type: "InnerProduct"
  bottom: "data"
  top: "ip1"
  inner_product_param {
    num_output: 1000
    weight_filler {
      type: "gaussian"
      mean: 0
      std: 0.01
    }
  }
  bias_param {
    filler {
      value: 0
    }
  }
  fixed_precision: true
  precision {
    enter: 2
    fraccio: 14
    rounding: "stochastic"
  }
}
layer {
  name: "relu1"
  type: "ReLU"
  bottom: "ip1"
  top: "ip1"
  fixed_precision: true
  precision {
    enter: 2
    fraccio: 14
    rounding: "stochastic"
  }
}
layer {
  name: "ip2"
  type: "InnerProduct"
  bottom: "ip1"
  top: "ip2"
  inner_product_param {
    num_output: 1000
    weight_filler {
      type: "gaussian"
      mean: 0
      std: 0.01
    }
  }
  bias_param {
    filler {
      value: 0
    }
  }
  fixed_precision: true
  precision {
    enter: 2
    fraccio: 14
    rounding: "stochastic"
  }
}
layer {
  name: "relu2"
  type: "ReLU"
  bottom: "ip2"
  top: "ip2"
  bias_param {
    filler {
      value: 0
    }
  }
  fixed_precision: true
  precision {
    enter: 2
    fraccio: 14
    rounding: "stochastic"
  }
}
layer {
  name: "ip3"
  type: "InnerProduct"
  bottom: "ip2"
  top: "ip3"
  inner_product_param {
    num_output: 10
    weight_filler {
      type: "gaussian"
      mean: 0
      std: 0.01
    }
  }
  bias_param {
    filler {
      value: 0
    }
  }
  fixed_precision: true
  precision {
    enter: 2
    fraccio: 14
    rounding: "stochastic"
  }
}
layer {
  name: "accuracy"
  type: "Accuracy"
  bottom: "ip3"
  bottom: "label"
  top: "accuracy"
}
layer {
  name: "loss"
  type: "SoftmaxWithLoss"
  bottom: "ip3"
  bottom: "label"
  top: "loss"
  fixed_precision: true
  precision {
    enter: 2
    fraccio: 14
    rounding: "stochastic"
  }
}
I0504 13:50:49.780010 20389 layer_factory.hpp:77] Creating layer mnist
I0504 13:50:49.881527 20389 db_lmdb.cpp:35] Opened lmdb data/mnist_train_lmdb
I0504 13:50:49.882004 20389 net.cpp:84] Creating Layer mnist
I0504 13:50:49.882067 20389 net.cpp:380] mnist -> data
I0504 13:50:49.882158 20389 net.cpp:380] mnist -> label
I0504 13:50:49.882406 20389 data_layer.cpp:45] output data size: 100,1,28,28
I0504 13:50:49.884239 20389 net.cpp:122] Setting up mnist
I0504 13:50:49.884299 20389 net.cpp:129] Top shape: 100 1 28 28 (78400)
I0504 13:50:49.884318 20389 net.cpp:129] Top shape: 100 (100)
I0504 13:50:49.884328 20389 net.cpp:137] Memory required for data: 628000
I0504 13:50:49.884346 20389 layer_factory.hpp:77] Creating layer label_mnist_1_split
I0504 13:50:49.884379 20389 net.cpp:84] Creating Layer label_mnist_1_split
I0504 13:50:49.884394 20389 net.cpp:406] label_mnist_1_split <- label
I0504 13:50:49.884418 20389 net.cpp:380] label_mnist_1_split -> label_mnist_1_split_0
I0504 13:50:49.884435 20389 net.cpp:380] label_mnist_1_split -> label_mnist_1_split_1
I0504 13:50:49.884454 20389 net.cpp:122] Setting up label_mnist_1_split
I0504 13:50:49.884469 20389 net.cpp:129] Top shape: 100 (100)
I0504 13:50:49.884481 20389 net.cpp:129] Top shape: 100 (100)
I0504 13:50:49.884491 20389 net.cpp:137] Memory required for data: 629600
I0504 13:50:49.884501 20389 layer_factory.hpp:77] Creating layer ip1
I0504 13:50:49.884544 20389 net.cpp:84] Creating Layer ip1
I0504 13:50:49.884562 20389 net.cpp:406] ip1 <- data
I0504 13:50:49.884577 20389 net.cpp:380] ip1 -> ip1
I0504 13:50:49.937798 20389 net.cpp:122] Setting up ip1
I0504 13:50:49.937855 20389 net.cpp:129] Top shape: 100 1000 (100000)
I0504 13:50:49.937865 20389 net.cpp:137] Memory required for data: 1429600
I0504 13:50:49.937911 20389 layer_factory.hpp:77] Creating layer relu1
I0504 13:50:49.937963 20389 net.cpp:84] Creating Layer relu1
I0504 13:50:49.937980 20389 net.cpp:406] relu1 <- ip1
I0504 13:50:49.937995 20389 net.cpp:367] relu1 -> ip1 (in-place)
I0504 13:50:49.938016 20389 net.cpp:122] Setting up relu1
I0504 13:50:49.938030 20389 net.cpp:129] Top shape: 100 1000 (100000)
I0504 13:50:49.938040 20389 net.cpp:137] Memory required for data: 2229600
I0504 13:50:49.938050 20389 layer_factory.hpp:77] Creating layer ip2
I0504 13:50:49.938069 20389 net.cpp:84] Creating Layer ip2
I0504 13:50:49.938081 20389 net.cpp:406] ip2 <- ip1
I0504 13:50:49.938096 20389 net.cpp:380] ip2 -> ip2
I0504 13:50:50.000823 20389 net.cpp:122] Setting up ip2
I0504 13:50:50.000885 20389 net.cpp:129] Top shape: 100 1000 (100000)
I0504 13:50:50.000896 20389 net.cpp:137] Memory required for data: 3029600
I0504 13:50:50.000921 20389 layer_factory.hpp:77] Creating layer relu2
I0504 13:50:50.000946 20389 net.cpp:84] Creating Layer relu2
I0504 13:50:50.000957 20389 net.cpp:406] relu2 <- ip2
I0504 13:50:50.000973 20389 net.cpp:367] relu2 -> ip2 (in-place)
I0504 13:50:50.000995 20389 net.cpp:122] Setting up relu2
I0504 13:50:50.001044 20389 net.cpp:129] Top shape: 100 1000 (100000)
I0504 13:50:50.001055 20389 net.cpp:137] Memory required for data: 3829600
I0504 13:50:50.001065 20389 layer_factory.hpp:77] Creating layer ip3
I0504 13:50:50.001083 20389 net.cpp:84] Creating Layer ip3
I0504 13:50:50.001094 20389 net.cpp:406] ip3 <- ip2
I0504 13:50:50.001109 20389 net.cpp:380] ip3 -> ip3
I0504 13:50:50.001778 20389 net.cpp:122] Setting up ip3
I0504 13:50:50.001801 20389 net.cpp:129] Top shape: 100 10 (1000)
I0504 13:50:50.001812 20389 net.cpp:137] Memory required for data: 3837600
I0504 13:50:50.001829 20389 layer_factory.hpp:77] Creating layer ip3_ip3_0_split
I0504 13:50:50.001845 20389 net.cpp:84] Creating Layer ip3_ip3_0_split
I0504 13:50:50.001857 20389 net.cpp:406] ip3_ip3_0_split <- ip3
I0504 13:50:50.001869 20389 net.cpp:380] ip3_ip3_0_split -> ip3_ip3_0_split_0
I0504 13:50:50.001885 20389 net.cpp:380] ip3_ip3_0_split -> ip3_ip3_0_split_1
I0504 13:50:50.001904 20389 net.cpp:122] Setting up ip3_ip3_0_split
I0504 13:50:50.001917 20389 net.cpp:129] Top shape: 100 10 (1000)
I0504 13:50:50.001929 20389 net.cpp:129] Top shape: 100 10 (1000)
I0504 13:50:50.001940 20389 net.cpp:137] Memory required for data: 3853600
I0504 13:50:50.001950 20389 layer_factory.hpp:77] Creating layer accuracy
I0504 13:50:50.002002 20389 net.cpp:84] Creating Layer accuracy
I0504 13:50:50.002017 20389 net.cpp:406] accuracy <- ip3_ip3_0_split_0
I0504 13:50:50.002029 20389 net.cpp:406] accuracy <- label_mnist_1_split_0
I0504 13:50:50.002043 20389 net.cpp:380] accuracy -> accuracy
…
