…
  layer {
    name: "mnist"
    type: "Data"
    top: "data"
    top: "label"
    include {
      phase: TRAIN
    }
    transform_param {
      scale: 0.00390625
    }
    data_param {
      source: "data/mnist_train_lmdb"
      batch_size: 100
      backend: LMDB
    }
  }
  layer {
    name: "mnist"
    type: "Data"
    top: "data"
    top: "label"
    include {
      phase: TEST
    }
    transform_param {
      scale: 0.00390625
    }
    data_param {
      source: "data/mnist_test_lmdb"
      batch_size: 100
      backend: LMDB
    }
  }
  layer {
    name: "ip1"
    type: "InnerProduct"
    bottom: "data"
    top: "ip1"
    inner_product_param {
      num_output: 1000
      weight_filler {
        type: "gaussian"
        mean: 0
        std: 0.01
      }
    }
    bias_param {
      filler {
        value: 0
      }
    }
    fixed_precision: true
    precision {
      enter: 0
      fraccio: 12
      rounding: "stochastic"
    }
  }
  layer {
    name: "relu1"
    type: "ReLU"
    bottom: "ip1"
    top: "ip1"
    fixed_precision: true
    precision {
      enter: 0
      fraccio: 12
      rounding: "stochastic"
    }
  }
  layer {
    name: "ip2"
    type: "InnerProduct"
    bottom: "ip1"
    top: "ip2"
    inner_product_param {
      num_output: 1000
      weight_filler {
        type: "gaussian"
        mean: 0
        std: 0.01
      }
    }
    bias_param {
      filler {
        value: 0
      }
    }
    fixed_precision: true
    precision {
      enter: 0
      fraccio: 12
      rounding: "stochastic"
    }
  }
  layer {
    name: "relu2"
    type: "ReLU"
    bottom: "ip2"
    top: "ip2"
    bias_param {
      filler {
        value: 0
      }
    }
    fixed_precision: true
    precision {
      enter: 0
      fraccio: 12
      rounding: "stochastic"
    }
  }
  layer {
    name: "ip3"
    type: "InnerProduct"
    bottom: "ip2"
    top: "ip3"
    inner_product_param {
      num_output: 10
      weight_filler {
        type: "gaussian"
        mean: 0
        std: 0.01
      }
    }
    bias_param {
      filler {
        value: 0
      }
    }
    fixed_precision: true
    precision {
      enter: 0
      fraccio: 12
      rounding: "stochastic"
    }
  }
  layer {
    name: "accuracy"
    type: "Accuracy"
    bottom: "ip3"
    bottom: "label"
    top: "accuracy"
  }
  layer {
    name: "loss"
    type: "SoftmaxWithLoss"
    bottom: "ip3"
    bottom: "label"
    top: "loss"
    fixed_precision: true
    precision {
      enter: 0
      fraccio: 12
      rounding: "stochastic"
    }
  }
}
train_state {
  level: 0
  stage: ""
}
fixed_precision: true
precision {
  enter: 0
  fraccio: 12
  rounding: "stochastic"
}
I0404 20:14:05.361311 24164 solver.cpp:82] Creating training net specified in net_param.
I0404 20:14:05.361376 24164 net.cpp:294] The NetState phase (0) differed from the phase (1) specified by a rule in layer mnist
I0404 20:14:05.361547 24164 net.cpp:51] Initializing net from parameters: 
name: "LeNet"
state {
  phase: TRAIN
  level: 0
  stage: ""
}
layer {
  name: "mnist"
  type: "Data"
  top: "data"
  top: "label"
  include {
    phase: TRAIN
  }
  transform_param {
    scale: 0.00390625
  }
  data_param {
    source: "data/mnist_train_lmdb"
    batch_size: 100
    backend: LMDB
  }
}
layer {
  name: "ip1"
  type: "InnerProduct"
  bottom: "data"
  top: "ip1"
  inner_product_param {
    num_output: 1000
    weight_filler {
      type: "gaussian"
      mean: 0
      std: 0.01
    }
  }
  bias_param {
    filler {
      value: 0
    }
  }
  fixed_precision: true
  precision {
    enter: 0
    fraccio: 12
    rounding: "stochastic"
  }
}
layer {
  name: "relu1"
  type: "ReLU"
  bottom: "ip1"
  top: "ip1"
  fixed_precision: true
  precision {
    enter: 0
    fraccio: 12
    rounding: "stochastic"
  }
}
layer {
  name: "ip2"
  type: "InnerProduct"
  bottom: "ip1"
  top: "ip2"
  inner_product_param {
    num_output: 1000
    weight_filler {
      type: "gaussian"
      mean: 0
      std: 0.01
    }
  }
  bias_param {
    filler {
      value: 0
    }
  }
  fixed_precision: true
  precision {
    enter: 0
    fraccio: 12
    rounding: "stochastic"
  }
}
layer {
  name: "relu2"
  type: "ReLU"
  bottom: "ip2"
  top: "ip2"
  bias_param {
    filler {
      value: 0
    }
  }
  fixed_precision: true
  precision {
    enter: 0
    fraccio: 12
    rounding: "stochastic"
  }
}
layer {
  name: "ip3"
  type: "InnerProduct"
  bottom: "ip2"
  top: "ip3"
  inner_product_param {
    num_output: 10
    weight_filler {
      type: "gaussian"
      mean: 0
      std: 0.01
    }
  }
  bias_param {
    filler {
      value: 0
    }
  }
  fixed_precision: true
  precision {
    enter: 0
    fraccio: 12
    rounding: "stochastic"
  }
}
layer {
  name: "accuracy"
  type: "Accuracy"
  bottom: "ip3"
  bottom: "label"
  top: "accuracy"
}
layer {
  name: "loss"
  type: "SoftmaxWithLoss"
  bottom: "ip3"
  bottom: "label"
  top: "loss"
  fixed_precision: true
  precision {
    enter: 0
    fraccio: 12
    rounding: "stochastic"
  }
}
I0404 20:14:05.361682 24164 layer_factory.hpp:77] Creating layer mnist
I0404 20:14:05.361814 24164 db_lmdb.cpp:35] Opened lmdb data/mnist_train_lmdb
I0404 20:14:05.361847 24164 net.cpp:84] Creating Layer mnist
I0404 20:14:05.361861 24164 net.cpp:380] mnist -> data
I0404 20:14:05.361893 24164 net.cpp:380] mnist -> label
I0404 20:14:05.361935 24164 data_layer.cpp:45] output data size: 100,1,28,28
I0404 20:14:05.363692 24164 net.cpp:122] Setting up mnist
I0404 20:14:05.363721 24164 net.cpp:129] Top shape: 100 1 28 28 (78400)
I0404 20:14:05.363734 24164 net.cpp:129] Top shape: 100 (100)
I0404 20:14:05.363744 24164 net.cpp:137] Memory required for data: 628000
I0404 20:14:05.363756 24164 layer_factory.hpp:77] Creating layer label_mnist_1_split
I0404 20:14:05.363775 24164 net.cpp:84] Creating Layer label_mnist_1_split
I0404 20:14:05.363787 24164 net.cpp:406] label_mnist_1_split <- label
I0404 20:14:05.363803 24164 net.cpp:380] label_mnist_1_split -> label_mnist_1_split_0
I0404 20:14:05.363819 24164 net.cpp:380] label_mnist_1_split -> label_mnist_1_split_1
I0404 20:14:05.363837 24164 net.cpp:122] Setting up label_mnist_1_split
I0404 20:14:05.363848 24164 net.cpp:129] Top shape: 100 (100)
I0404 20:14:05.363858 24164 net.cpp:129] Top shape: 100 (100)
I0404 20:14:05.363865 24164 net.cpp:137] Memory required for data: 629600
I0404 20:14:05.363874 24164 layer_factory.hpp:77] Creating layer ip1
I0404 20:14:05.363893 24164 net.cpp:84] Creating Layer ip1
I0404 20:14:05.363901 24164 net.cpp:406] ip1 <- data
I0404 20:14:05.363912 24164 net.cpp:380] ip1 -> ip1
I0404 20:14:05.474769 24164 net.cpp:122] Setting up ip1
I0404 20:14:05.474810 24164 net.cpp:129] Top shape: 100 1000 (100000)
I0404 20:14:05.474817 24164 net.cpp:137] Memory required for data: 1429600
I0404 20:14:05.474833 24164 layer_factory.hpp:77] Creating layer relu1
I0404 20:14:05.474846 24164 net.cpp:84] Creating Layer relu1
I0404 20:14:05.474851 24164 net.cpp:406] relu1 <- ip1
I0404 20:14:05.474859 24164 net.cpp:367] relu1 -> ip1 (in-place)
I0404 20:14:05.474872 24164 net.cpp:122] Setting up relu1
I0404 20:14:05.474879 24164 net.cpp:129] Top shape: 100 1000 (100000)
I0404 20:14:05.474882 24164 net.cpp:137] Memory required for data: 2229600
I0404 20:14:05.474886 24164 layer_factory.hpp:77] Creating layer ip2
I0404 20:14:05.474895 24164 net.cpp:84] Creating Layer ip2
I0404 20:14:05.474900 24164 net.cpp:406] ip2 <- ip1
I0404 20:14:05.474906 24164 net.cpp:380] ip2 -> ip2
I0404 20:14:05.562928 24164 net.cpp:122] Setting up ip2
I0404 20:14:05.562975 24164 net.cpp:129] Top shape: 100 1000 (100000)
I0404 20:14:05.562980 24164 net.cpp:137] Memory required for data: 3029600
I0404 20:14:05.562994 24164 layer_factory.hpp:77] Creating layer relu2
I0404 20:14:05.563007 24164 net.cpp:84] Creating Layer relu2
I0404 20:14:05.563014 24164 net.cpp:406] relu2 <- ip2
I0404 20:14:05.563021 24164 net.cpp:367] relu2 -> ip2 (in-place)
I0404 20:14:05.563041 24164 net.cpp:122] Setting up relu2
I0404 20:14:05.563056 24164 net.cpp:129] Top shape: 100 1000 (100000)
I0404 20:14:05.563060 24164 net.cpp:137] Memory required for data: 3829600
I0404 20:14:05.563063 24164 layer_factory.hpp:77] Creating layer ip3
I0404 20:14:05.563071 24164 net.cpp:84] Creating Layer ip3
I0404 20:14:05.563076 24164 net.cpp:406] ip3 <- ip2
I0404 20:14:05.563081 24164 net.cpp:380] ip3 -> ip3
I0404 20:14:05.563952 24164 net.cpp:122] Setting up ip3
I0404 20:14:05.563961 24164 net.cpp:129] Top shape: 100 10 (1000)
I0404 20:14:05.563974 24164 net.cpp:137] Memory required for data: 3837600
I0404 20:14:05.563982 24164 layer_factory.hpp:77] Creating layer ip3_ip3_0_split
I0404 20:14:05.563988 24164 net.cpp:84] Creating Layer ip3_ip3_0_split
I0404 20:14:05.563992 24164 net.cpp:406] ip3_ip3_0_split <- ip3
I0404 20:14:05.563997 24164 net.cpp:380] ip3_ip3_0_split -> ip3_ip3_0_split_0
I0404 20:14:05.564005 24164 net.cpp:380] ip3_ip3_0_split -> ip3_ip3_0_split_1
I0404 20:14:05.564013 24164 net.cpp:122] Setting up ip3_ip3_0_split
I0404 20:14:05.564018 24164 net.cpp:129] Top shape: 100 10 (1000)
I0404 20:14:05.564023 24164 net.cpp:129] Top shape: 100 10 (1000)
I0404 20:14:05.564028 24164 net.cpp:137] Memory required for data: 3853600
I0404 20:14:05.564033 24164 layer_factory.hpp:77] Creating layer accuracy
I0404 20:14:05.564040 24164 net.cpp:84] Creating Layer accuracy
I0404 20:14:05.564044 24164 net.cpp:406] accuracy <- ip3_ip3_0_split_0
I0404 20:14:05.564049 24164 net.cpp:406] accuracy <- label_mnist_1_split_0
I0404 20:14:05.564056 24164 net.cpp:380] accuracy -> accuracy
…
