…
  layer {
    name: "mnist"
    type: "Data"
    top: "data"
    top: "label"
    include {
      phase: TRAIN
    }
    transform_param {
      scale: 0.00390625
    }
    data_param {
      source: "data/mnist_train_lmdb"
      batch_size: 100
      backend: LMDB
    }
  }
  layer {
    name: "mnist"
    type: "Data"
    top: "data"
    top: "label"
    include {
      phase: TEST
    }
    transform_param {
      scale: 0.00390625
    }
    data_param {
      source: "data/mnist_test_lmdb"
      batch_size: 100
      backend: LMDB
    }
  }
  layer {
    name: "ip1"
    type: "InnerProduct"
    bottom: "data"
    top: "ip1"
    inner_product_param {
      num_output: 1000
      weight_filler {
        type: "gaussian"
        mean: 0
        std: 0.01
      }
    }
    bias_param {
      filler {
        value: 0
      }
    }
    fixed_precision: true
    precision {
      enter: 4
      fraccio: 8
      rounding: "stochastic"
    }
  }
  layer {
    name: "relu1"
    type: "ReLU"
    bottom: "ip1"
    top: "ip1"
    fixed_precision: true
    precision {
      enter: 4
      fraccio: 8
      rounding: "stochastic"
    }
  }
  layer {
    name: "ip2"
    type: "InnerProduct"
    bottom: "ip1"
    top: "ip2"
    inner_product_param {
      num_output: 1000
      weight_filler {
        type: "gaussian"
        mean: 0
        std: 0.01
      }
    }
    bias_param {
      filler {
        value: 0
      }
    }
    fixed_precision: true
    precision {
      enter: 4
      fraccio: 8
      rounding: "stochastic"
    }
  }
  layer {
    name: "relu2"
    type: "ReLU"
    bottom: "ip2"
    top: "ip2"
    bias_param {
      filler {
        value: 0
      }
    }
    fixed_precision: true
    precision {
      enter: 4
      fraccio: 8
      rounding: "stochastic"
    }
  }
  layer {
    name: "ip3"
    type: "InnerProduct"
    bottom: "ip2"
    top: "ip3"
    inner_product_param {
      num_output: 10
      weight_filler {
        type: "gaussian"
        mean: 0
        std: 0.01
      }
    }
    bias_param {
      filler {
        value: 0
      }
    }
    fixed_precision: true
    precision {
      enter: 4
      fraccio: 8
      rounding: "stochastic"
    }
  }
  layer {
    name: "accuracy"
    type: "Accuracy"
    bottom: "ip3"
    bottom: "label"
    top: "accuracy"
  }
  layer {
    name: "loss"
    type: "SoftmaxWithLoss"
    bottom: "ip3"
    bottom: "label"
    top: "loss"
    fixed_precision: true
    precision {
      enter: 4
      fraccio: 8
      rounding: "stochastic"
    }
  }
}
train_state {
  level: 0
  stage: ""
}
fixed_precision: true
precision {
  enter: 4
  fraccio: 8
  rounding: "stochastic"
}
I0405 02:10:46.729650 14963 solver.cpp:82] Creating training net specified in net_param.
I0405 02:10:46.729706 14963 net.cpp:294] The NetState phase (0) differed from the phase (1) specified by a rule in layer mnist
I0405 02:10:46.729874 14963 net.cpp:51] Initializing net from parameters: 
name: "LeNet"
state {
  phase: TRAIN
  level: 0
  stage: ""
}
layer {
  name: "mnist"
  type: "Data"
  top: "data"
  top: "label"
  include {
    phase: TRAIN
  }
  transform_param {
    scale: 0.00390625
  }
  data_param {
    source: "data/mnist_train_lmdb"
    batch_size: 100
    backend: LMDB
  }
}
layer {
  name: "ip1"
  type: "InnerProduct"
  bottom: "data"
  top: "ip1"
  inner_product_param {
    num_output: 1000
    weight_filler {
      type: "gaussian"
      mean: 0
      std: 0.01
    }
  }
  bias_param {
    filler {
      value: 0
    }
  }
  fixed_precision: true
  precision {
    enter: 4
    fraccio: 8
    rounding: "stochastic"
  }
}
layer {
  name: "relu1"
  type: "ReLU"
  bottom: "ip1"
  top: "ip1"
  fixed_precision: true
  precision {
    enter: 4
    fraccio: 8
    rounding: "stochastic"
  }
}
layer {
  name: "ip2"
  type: "InnerProduct"
  bottom: "ip1"
  top: "ip2"
  inner_product_param {
    num_output: 1000
    weight_filler {
      type: "gaussian"
      mean: 0
      std: 0.01
    }
  }
  bias_param {
    filler {
      value: 0
    }
  }
  fixed_precision: true
  precision {
    enter: 4
    fraccio: 8
    rounding: "stochastic"
  }
}
layer {
  name: "relu2"
  type: "ReLU"
  bottom: "ip2"
  top: "ip2"
  bias_param {
    filler {
      value: 0
    }
  }
  fixed_precision: true
  precision {
    enter: 4
    fraccio: 8
    rounding: "stochastic"
  }
}
layer {
  name: "ip3"
  type: "InnerProduct"
  bottom: "ip2"
  top: "ip3"
  inner_product_param {
    num_output: 10
    weight_filler {
      type: "gaussian"
      mean: 0
      std: 0.01
    }
  }
  bias_param {
    filler {
      value: 0
    }
  }
  fixed_precision: true
  precision {
    enter: 4
    fraccio: 8
    rounding: "stochastic"
  }
}
layer {
  name: "accuracy"
  type: "Accuracy"
  bottom: "ip3"
  bottom: "label"
  top: "accuracy"
}
layer {
  name: "loss"
  type: "SoftmaxWithLoss"
  bottom: "ip3"
  bottom: "label"
  top: "loss"
  fixed_precision: true
  precision {
    enter: 4
    fraccio: 8
    rounding: "stochastic"
  }
}
I0405 02:10:46.730002 14963 layer_factory.hpp:77] Creating layer mnist
I0405 02:10:46.730130 14963 db_lmdb.cpp:35] Opened lmdb data/mnist_train_lmdb
I0405 02:10:46.730159 14963 net.cpp:84] Creating Layer mnist
I0405 02:10:46.730171 14963 net.cpp:380] mnist -> data
I0405 02:10:46.730201 14963 net.cpp:380] mnist -> label
I0405 02:10:46.730237 14963 data_layer.cpp:45] output data size: 100,1,28,28
I0405 02:10:46.731945 14963 net.cpp:122] Setting up mnist
I0405 02:10:46.731969 14963 net.cpp:129] Top shape: 100 1 28 28 (78400)
I0405 02:10:46.731979 14963 net.cpp:129] Top shape: 100 (100)
I0405 02:10:46.731986 14963 net.cpp:137] Memory required for data: 628000
I0405 02:10:46.731997 14963 layer_factory.hpp:77] Creating layer label_mnist_1_split
I0405 02:10:46.732013 14963 net.cpp:84] Creating Layer label_mnist_1_split
I0405 02:10:46.732023 14963 net.cpp:406] label_mnist_1_split <- label
I0405 02:10:46.732035 14963 net.cpp:380] label_mnist_1_split -> label_mnist_1_split_0
I0405 02:10:46.732048 14963 net.cpp:380] label_mnist_1_split -> label_mnist_1_split_1
I0405 02:10:46.732061 14963 net.cpp:122] Setting up label_mnist_1_split
I0405 02:10:46.732070 14963 net.cpp:129] Top shape: 100 (100)
I0405 02:10:46.732079 14963 net.cpp:129] Top shape: 100 (100)
I0405 02:10:46.732085 14963 net.cpp:137] Memory required for data: 629600
I0405 02:10:46.732092 14963 layer_factory.hpp:77] Creating layer ip1
I0405 02:10:46.732108 14963 net.cpp:84] Creating Layer ip1
I0405 02:10:46.732115 14963 net.cpp:406] ip1 <- data
I0405 02:10:46.732125 14963 net.cpp:380] ip1 -> ip1
I0405 02:10:46.842977 14963 net.cpp:122] Setting up ip1
I0405 02:10:46.843014 14963 net.cpp:129] Top shape: 100 1000 (100000)
I0405 02:10:46.843022 14963 net.cpp:137] Memory required for data: 1429600
I0405 02:10:46.843045 14963 layer_factory.hpp:77] Creating layer relu1
I0405 02:10:46.843063 14963 net.cpp:84] Creating Layer relu1
I0405 02:10:46.843075 14963 net.cpp:406] relu1 <- ip1
I0405 02:10:46.843086 14963 net.cpp:367] relu1 -> ip1 (in-place)
I0405 02:10:46.843109 14963 net.cpp:122] Setting up relu1
I0405 02:10:46.843119 14963 net.cpp:129] Top shape: 100 1000 (100000)
I0405 02:10:46.843127 14963 net.cpp:137] Memory required for data: 2229600
I0405 02:10:46.843137 14963 layer_factory.hpp:77] Creating layer ip2
I0405 02:10:46.843152 14963 net.cpp:84] Creating Layer ip2
I0405 02:10:46.843159 14963 net.cpp:406] ip2 <- ip1
I0405 02:10:46.843171 14963 net.cpp:380] ip2 -> ip2
I0405 02:10:46.944090 14963 net.cpp:122] Setting up ip2
I0405 02:10:46.944139 14963 net.cpp:129] Top shape: 100 1000 (100000)
I0405 02:10:46.944149 14963 net.cpp:137] Memory required for data: 3029600
I0405 02:10:46.944169 14963 layer_factory.hpp:77] Creating layer relu2
I0405 02:10:46.944187 14963 net.cpp:84] Creating Layer relu2
I0405 02:10:46.944200 14963 net.cpp:406] relu2 <- ip2
I0405 02:10:46.944212 14963 net.cpp:367] relu2 -> ip2 (in-place)
I0405 02:10:46.944247 14963 net.cpp:122] Setting up relu2
I0405 02:10:46.944272 14963 net.cpp:129] Top shape: 100 1000 (100000)
I0405 02:10:46.944278 14963 net.cpp:137] Memory required for data: 3829600
I0405 02:10:46.944286 14963 layer_factory.hpp:77] Creating layer ip3
I0405 02:10:46.944300 14963 net.cpp:84] Creating Layer ip3
I0405 02:10:46.944308 14963 net.cpp:406] ip3 <- ip2
I0405 02:10:46.944319 14963 net.cpp:380] ip3 -> ip3
I0405 02:10:46.945407 14963 net.cpp:122] Setting up ip3
I0405 02:10:46.945425 14963 net.cpp:129] Top shape: 100 10 (1000)
I0405 02:10:46.945431 14963 net.cpp:137] Memory required for data: 3837600
I0405 02:10:46.945447 14963 layer_factory.hpp:77] Creating layer ip3_ip3_0_split
I0405 02:10:46.945459 14963 net.cpp:84] Creating Layer ip3_ip3_0_split
I0405 02:10:46.945468 14963 net.cpp:406] ip3_ip3_0_split <- ip3
I0405 02:10:46.945478 14963 net.cpp:380] ip3_ip3_0_split -> ip3_ip3_0_split_0
I0405 02:10:46.945492 14963 net.cpp:380] ip3_ip3_0_split -> ip3_ip3_0_split_1
I0405 02:10:46.945508 14963 net.cpp:122] Setting up ip3_ip3_0_split
I0405 02:10:46.945518 14963 net.cpp:129] Top shape: 100 10 (1000)
I0405 02:10:46.945528 14963 net.cpp:129] Top shape: 100 10 (1000)
I0405 02:10:46.945536 14963 net.cpp:137] Memory required for data: 3853600
I0405 02:10:46.945544 14963 layer_factory.hpp:77] Creating layer accuracy
I0405 02:10:46.945556 14963 net.cpp:84] Creating Layer accuracy
I0405 02:10:46.945564 14963 net.cpp:406] accuracy <- ip3_ip3_0_split_0
I0405 02:10:46.945574 14963 net.cpp:406] accuracy <- label_mnist_1_split_0
I0405 02:10:46.945588 14963 net.cpp:380] accuracy -> accuracy
…
